lab2/problem2/neural-network-2-actor.pt (torch, 340225 bytes, 6 tensors)

weight f4 [400, 8]
00000000: b022 f53e 1a72 39bd bb0a f1bd 933c 37be
00000010: 46d8 ee3e c8e0 7e3d db40 f5bc d6d8 623e
00000020: 4256 b0bd 0cce 04be 3e9c 20be 2573 a23e
00000030: 98f0 533e 6fe0 f33d 78e7 9bbc f92e bbbc
00000040: 5761 d33e 7d09 afbe 261c b0bc 954a 11be
00000050: 888d 8cbc 9ed9 94be 75f5 9bbd d869 72be
00000060: 3cc4 fabc 42df 74be 1a0e 66be 6737 8e3e
00000070: ae5c b73e 3dd6 f03d be86 c9bb f09a 0cbe
00000080: cc4e 0d3e 80d2 803e 50e4 fc3d 2398 1abe
00000090: 3f77 9dbe 025f bebe e076 07bd 8c2e 453e
000000a0: 9ed7 3b3e e9ee 093e ea42 e23e 142f 1abe
000000b0: 2850 a0be 13c6 98be cf60 e93e d130 013e
000000c0: 3555 13be bcaf 143e e43f e43d cbcf 1cbe
000000d0: f227 de3e c90f 193e 8afd 063e fa2c 63be
000000e0: 3cb3 c93e 661a 96bd e1c8 dd3e c737 73be
000000f0: 5744 733e c236 84bd 69e7 b23d 755a 94be
00000100: 4ed9 cb3c b0c1 8bbe ce89 453e 4c8a 153d
00000110: 0698 22be 30d6 2c3d f86e a8be 7963 bc3b
00000120: e67a 96be 95f8 7c3e 36cd 01bf 19bb 99be
00000130: 2d86 17bf abec 11be 3506 6d3d bbff 793e
00000140: 8a12 9abe 9b4a 263e 0bfd 023f 0a24 493e
00000150: 8158 38bc edcb 2d3e 34fa 4ebe 867a d5bd
00000160: 977c 2ebd 0d9d 283e 9bed 57be 9372 d9be
00000170: 45fa 123e bd2a c23e 9172 ab3e ccf6 3bbd
00000180: c70c 493c 108a 263e 3fd4 1b3f f43f 90be
00000190: 90d5 f4be 2045 b4bd eb6e b0be 18c2 ef3c
000001a0: dd1d 1dbd fa95 3a3e fbcd ac3e 8cec 51be
000001b0: 68a2 ef3e be88 b8bd 5f12 123e 9647 2c3e
000001c0: 80ea 9e3e 6e0d 893e 3089 bcbd 27c8 9abd
000001d0: 4893 85bd b916 18bf cafb cbbd 6d7b da3b
000001e0: 4c97 10be 11b8 25be 3c7c ebbe 76b8 c6bc
000001f0: dc3b a4be f5d1 d8bc 5197 af3e 3758 ab3d
00000200: 0431 443e b101 01be 0dd7 15bf 5e50 2bbe
00000210: 3ae8 82be fe7f 3e3e 0c51 963d 422c 9f3e
00000220: 404f b4bc df3f 3d3e 871d f63e f84d ccbd
00000230: d4f8 babe da97 f3bd e320 69be e2e8 d6bd
00000240: 2bf6 85be 066e aabd a7c2 47bd e75f ca3d
00000250: c2f8 3fbf 4151 94bd 23c9 48bc c93b 90bd
00000260: 2b8c f93e f565 e8bd 47d3 09bf f51d bcbd
00000270: 8297 04bf 8624 af3e 0713 87bd 28eb a5bd
00000280: ffdc 203e 977e c33e ff83 493e a6bf 553e
00000290: 1116 123f 0b99 15be d6db de3d fbc7 8e3d
000002a0: 1df2 883a a3e7 eabd 76db 913e 954f 0bbe
000002b0: bc52 283e 853c ce3e 12b2 243c ccf2 74be
000002c0: 6391 38bd 0f5c f13d 63f9 a5be 4025 aabd
000002d0: 549d 013f ffa8 e23d a7f5 843e b867 26be
000002e0: 3376 813e cda9 233e 459b 9f3e bfcc 823e
000002f0: af15 07bf 38b3 cebd 0e96 a8be 8456 5d3d
00000300: 0930 233e 3167 143e f4ee 4abd a712 693d
00000310: 8e7c 263f 5fe8 3c3e 5066 c93d c4e6 0c3e
00000320: 8ddf d5bd 540d f5bb 063f ab3e f15c f43d
00000330: 37e7 e2be 2fca 3abe 9992 0b3e c243 51bb
00000340: 345a 203e 2081 303e 9b35 dbbe 982d a9be
00000350: adc4 c0be 1bfd 19be 6999 bcbe 03bd 033e
00000360: 3eca 08be cadf 673e d4f5 1c3f 0a82 abbe
00000370: e28c 0cbe 93b1 b43e ae11 b6be 3459 1c3c
00000380: e571 93bc 5406 373e f1cd 15be 9109 b13e
00000390: 13c0 813e 37b7 833e 1c20 223c f933 e03c
000003a0: 5c0c 913e 05ff 563e 683f abbd 6493 eabd
000003b0: 4c96 e43e 46e7 073e 7e63 493e acdc fa3c
000003c0: 3a13 cf3e f09b ac3e 9033 03bd 8a43 9ebd
000003d0: f0b5 c2be b4c9 3b3e d2e1 403e 06c1 423e
000003e0: 669a 1e3e 6576 c23e 88a1 5f3e cc10 f7be
000003f0: 7ec6 8ebe 4d38 c7be 740c 4abe b277 713e
0.47878027 -0.04527483 -0.11769625 -0.17894201 0.4664938 0.062226087 -0.029938152 0.22153029
-0.08610202 -0.12969226 -0.15684602 0.31728473 0.20697248 0.11908042 -0.019031271 -0.022849547
0.41285202 -0.34186926 -0.021497797 -0.14188607 -0.017157331 -0.2907228 -0.076151766 -0.23673189
-0.03061115 -0.23913291 -0.22466317 0.27776644 0.35812896 0.11759613 -0.0061500957 -0.13730979
0.1379959 0.251606 0.12348235 -0.15097098 -0.3075504 -0.3718186 -0.033072352 0.19256037
0.1834397 0.13470043 0.44191676 -0.15057021 -0.31311154 -0.2983862 0.45581672 0.12616278
-0.14387973 0.14520162 0.11144999 -0.15313642 0.4338985 0.14947428 0.13182655 -0.22185126
0.39394557 -0.07329254 0.4331732 -0.23751746 0.23756538 -0.06455757 0.08735544 -0.28975263
0.024883892 -0.2729621 0.1929085 0.036508843 -0.15878305 0.042196453 -0.32897162 0.0057491628
-0.2939064 0.24704202 -0.5070375 -0.30025557 -0.5918911 -0.14250438 0.057867248 0.2441396
-0.3009227 0.16239397 0.5116736 0.19642654 -0.01125157 0.16972323 -0.20212632 -0.1042376
-0.042599287 0.1646616 -0.21086733 -0.42470226 0.14353283 0.37923232 0.33485845 -0.04588966
0.012271113 0.16263604 0.60870737 -0.28173792 -0.47819185 -0.08802247 -0.34459624 0.029267356
-0.038358558 0.18221274 0.337509 -0.20500392 0.46803594 -0.090104565 0.1426482 0.16824183
0.31038284 0.2676806 -0.09205854 -0.07557707 -0.06522232 -0.5940967 -0.09960134 0.0066675455
-0.14120215 -0.16183497 -0.4599322 -0.02425788 -0.3207692 -0.026467303 0.34295133 0.08366435
0.19159323 -0.12598301 -0.58531266 -0.16729876 -0.255678 0.18603513 0.07339677 0.31088454
-0.022010446 0.18481396 0.48069403 -0.09975809 -0.36517966 -0.11894198 -0.22766452 -0.104936376
-0.26164374 -0.083217666 -0.04876962 0.09881573 -0.7498895 -0.072420605 -0.012254986 -0.07042653
0.48739752 -0.11347572 -0.5383801 -0.09185401 -0.5179368 0.34207553 -0.06595426 -0.08101493
0.15709303 0.38182518 0.19679259 0.2087389 0.5706492 -0.14609163 0.10881774 0.06971737
0.0010448132 -0.114699624 0.28487748 -0.13604577 0.1643781 0.40280548 0.010052221 -0.23920745
-0.045060527 0.11785137 -0.3241683 -0.08307886 0.5063069 0.1106739 0.25968668 -0.16250503
0.2528549 0.15982743 0.3117315 0.25546834 -0.5276746 -0.10092777 -0.32926983 0.054037586
0.15936293 0.1449249 -0.04954429 0.056902554 0.65033805 0.18448018 0.09833968 0.13759905
-0.104430296 -0.0074783955 0.3344652 0.1193179 -0.44317028 -0.1824119 0.13630141 -0.0031931256
0.1565941 0.17236757 -0.42814335 -0.33042598 -0.37650052 -0.15037958 -0.36835793 0.12865071
-0.133584 0.22643963 0.61312604 -0.3349765 -0.13725618 0.35291728 -0.35560364 0.009542752
-0.017998645 0.17873508 -0.14629342 0.3457761 0.25341853 0.2572572 0.009895351 0.027368532
0.28329742 0.2099572 -0.08361703 -0.11453894 0.44645917 0.13271818 0.1966686 0.030622803
0.40444356 0.3371272 -0.032031596 -0.07727726 -0.38029432 0.18338662 0.18836144 0.19018945
0.15488586 0.37980953 0.21838963 -0.48255002 -0.27885813 -0.38910142 -0.19731313 0.23580816

bias f4 [400]
00000000: f40e ee3c b36b 703e 6a5d 88bd 481d b53e
00000010: 9e56 36bd 5584 0cbe f1d5 e43c 93d2 27bd
00000020: 9330 893d 90fb 9dbc 565f 633e 3291 d9bc
00000030: bf9a 2d3c 1d29 48bc 86ac 45bc 329b 433e
00000040: 6de8 ca3d f435 a6bd 3afc 9e3e 4073 773d
00000050: c9a6 603d 851a 373e f320 603e dece 1a3c
00000060: 0423 943d 6cb4 d53d 0f6e 8ebe 60d2 bbbd
00000070: 780a 893e 5ec3 52be c49f 503d 90a2 21bd
00000080: 5836 6a3d 2d4b b2bd a00b 05be bbeb 1e3e
00000090: 05a5 323e 1a68 8dbe f387 88bd ff14 67bc
000000a0: 5543 fdbd 2f68 7f3e a083 41be 3c74 863e
000000b0: f645 973e 77db a23e cd5c a5be 27e3 723e
000000c0: b93b 52bd 5132 ef3c c16c 4dbe f0a0 0e3e
000000d0: 2f52 9c3e 4609 df3c 9937 143d 2441 7bbe
000000e0: eb65 e63c c5cb e33c 2932 9f3d be92 33bc
000000f0: aa4c 273e 987e 9a3d 4fa4 b1bd 8888 a13e
00000100: 4f97 673d ee54 813e a737 8f3e 1157 28bd
00000110: 83ac 713e 3080 1dbc c753 993e c6bb 8ebe
00000120: b548 443e 5132 a9b9 dde6 a33e ccc2 253e
00000130: df39 563d b156 593d 3b68 5f3e d20a 0a3e
00000140: dd51 973e 6ebb 1b3e b6d1 59be 5936 5ebe
00000150: 9483 0bbd 7567 083e c694 dfbc 3e38 e8bd
00000160: 2667 c53c f7d1 c6bd bb6d 903e c542 353d
00000170: 1bc3 0d3e 67eb 4b3e bb15 0e3e 8dd5 283e
00000180: 4fe3 123d 3523 b9bd d3f4 353e af5a b1bb
00000190: acf8 7a3e 1b98 643e 4717 a5bc 40fb 2ebe
000001a0: 5f17 953d 555b 7c3e d2cc 633d 9477 e23d
000001b0: 5716 953e 6a96 18bd aecb 97bd 125e 643e
000001c0: d786 4f3e 3cd5 84be 4198 d33d d0df 1c3d
000001d0: 3bf4 133e 8530 3d3e ab57 6f3e af5f 233e
000001e0: a52e 213e 598f ca3d 7f7f 57be b9b1 6a3e
000001f0: ec1c 723d 946f 633d cbb2 c73d 321f 3fbc
00000200: 5748 a13e fd9f 183e 7987 cabd ddc7 99be
00000210: 64bc ea3c 98c2 a23e f79e fabd 81d3 6e3d
00000220: e158 d7bc e460 ae3e 0741 703d f2d6 843e
00000230: e2c9 103e 22e5 a53c d0bf 99be ef9b fb3c
00000240: 43cf ab3e 2cc5 9dbd 597e 213e 7c94 23be
00000250: 2981 31be e5d7 8e3c 06e7 223e 2b11 b23d
00000260: d86b 4a3e beb1 f5bd 39d2 833e 5318 0cbe
00000270: 4a56 babd 7cb0 32be 218a 753e 3042 9b3b
00000280: 7fce 833e 6a43 c83d b737 af3d 6182 5f3e
00000290: aa6b 8d3b 07f3 c23d 3438 00bd 0cad 5d3d
000002a0: 188c b73d f3a6 b73d 4547 2c3d 3ea9 083e
000002b0: 1f42 753e 5aec 13bd 84ae 8f3e 9670 8dbc
000002c0: 145e 3dbe 4541 1a3d 5d39 35bc 89de 84be
000002d0: 143a 89bd 7dc2 be3d db17 33bd 2ff9 bb3e
000002e0: b22c 01be ff9c babc 89d5 1dbe 448d 513d
000002f0: 9ea3 d33c e6c7 3dbe a3f2 e6bd d416 71bd
00000300: 9d97 bc3c 626d 393e b021 8d3e b75f 8dbe
00000310: 55ac a3be 09c2 ac3c 10b7 ac3d f73e 5a3c
00000320: 5039 a23e e084 ed3d ed9a 8abe 08da 97bb
00000330: 6911 1cbe b972 debc 0861 a2be f353 eb3c
00000340: cac5 3d3e 7410 49bd 2383 123d 3812 d93d
00000350: 655c 5d3e 9ff2 993e 87ee 46bd 8b5a ad3d
00000360: 5aff 38bd 1d18 b13c 3505 a23d 2d76 063d
00000370: ad0f 043d 7b4a 113d 5c6a 9bbe 6602 d63b
00000380: bf90 283e fbc7 0a3e 75d1 3e3e 97b6 423e
00000390: 02a5 a7bd 45dd 4abe 0134 55be cc44 ffbd
000003a0: 4cdf 9fbc e2bd 103d 5868 893e 5645 723d
000003b0: 7cb0 803e 563b c1bd d1ec 23be 7a33 e23d
000003c0: 213b b7bd b71c 2e3d 7766 bc3d ae44 953d
000003d0: 5677 e1bd a92d 1c3e 40f9 9cbd e1d4 c2bd
000003e0: b1f8 e7bd 1c2c b83c 4d93 ba3d cdbd c23d
000003f0: 625c d23d 1884 8bbd c06b 1d3e 812f 7a3e
0.029059865 0.23478584 -0.06658442 0.35373902 -0.0445162 -0.13722356 0.027934046 -0.040972304
0.06698718 -0.019284993 0.22204337 -0.026558492 0.010595976 -0.012216833 -0.012065059 0.19102171
0.09907613 -0.081157595 0.3105181 0.060412645 0.05484656 0.1788121 0.21887569 0.009448735
0.07233241 0.10434803 -0.27818343 -0.09170985 0.267658 -0.20582339 0.050933614 -0.039461672
0.057180732 -0.08705745 -0.12992716 0.15519612 0.17445762 -0.27618486 -0.06666555 -0.014104127
-0.12366358 0.24942087 -0.18897867 0.26260555 0.29545563 0.31808063 -0.32297364 0.23719464
-0.051326487 0.029198797 -0.20061018 0.1392858 0.3053145 0.027226102 0.036185835 -0.24536568
0.02812477 0.027807126 0.07773239 -0.010960279 0.16337839 0.07543677 -0.086739175 0.31549478
0.056540783 0.2526011 0.27972147 -0.041098658 0.23600964 -0.009613082 0.2994673 -0.27877635
0.1916836 -0.0003227168 0.32012072 0.1618759 0.052301284 0.05306119 0.21817105 0.1348069
0.29554644 0.15208218 -0.21271405 -0.2170042 -0.03406103 0.13320716 -0.02729262 -0.11338852
0.024097037 -0.09708016 0.28208718 0.04425313 0.13843958 0.19914018 0.13875477 0.16487713
0.03586131 -0.09039918 0.17769174 -0.0054124217 0.24508923 0.22323649 -0.020152701 -0.17088032
0.07279848 0.24644215 0.055615254 0.11057964 0.29118606 -0.03725282 -0.07411896 0.2230151
0.20266281 -0.25943935 0.103317745 0.03829938 0.14448635 0.1847554 0.23373286 0.15954469
0.1574045 0.09890623 -0.2104473 0.22919358 0.059109613 0.05552633 0.09750899 -0.011665152
0.31500503 0.1490478 -0.098891206 -0.30035296 0.028654285 0.31789088 -0.122373514 0.058307175
-0.026287498 0.34058297 0.058655765 0.2594524 0.14139512 0.02025086 -0.30029154 0.030714003
0.33556566 -0.07703623 0.15770854 -0.15974611 -0.17334427 0.01743693 0.15908441 0.08694681
0.19767702 -0.11996792 0.25746325 -0.13681154 -0.090984896 -0.17450136 0.23978473 0.004738115
0.25743482 0.09778483 0.08555549 0.2182708 0.004315813 0.0951901 -0.0313036 0.05412011
0.08962268 0.0896739 0.042060155 0.13345811 0.23951004 -0.036114074 0.28062832 -0.0172656
-0.18492919 0.037659902 -0.01106104 -0.2595103 -0.06700531 0.093144394 -0.043723922 0.3671355
-0.12614706 -0.02277994 -0.15413488 0.051160112 0.025834855 -0.18533286 -0.11276748 -0.05885966
0.023021514 0.18108132 0.27564764 -0.27612087 -0.31967416 0.021088617 0.08433354 0.013320676
0.3168435 0.115976095 -0.27071324 -0.0046341456 -0.15241016 -0.027154313 -0.31714654 0.028726554
0.18532482 -0.049087957 0.035769593 0.10599178 0.21617277 0.30067918 -0.04856732 0.08464535
-0.045165397 0.021617943 0.079111494 0.032827545 0.032241512 0.03547142 -0.30354583 0.0065310476
0.16461466 0.13552849 0.18634589 0.19014965 -0.081857696 -0.1981097 -0.20820619 -0.12464294
-0.019515656 0.035337336 0.2683742 0.059148155 0.25134647 -0.094351456 -0.16008307 0.110449746
-0.08946825 0.042507853 0.09199231 0.0728849 -0.1100909 0.15251793 -0.07664728 -0.0951326
-0.11326731 0.02248197 0.09110127 0.09508858 0.10271527 -0.06812304 0.15373135 0.24432184

weight f4 [200, 400]
00000000: 2477 093a 3207 f3bd f47a ae3d 30c8 e6bd
00000010: 9e65 bbba 55e7 b3bd b8a7 353d 6f99 9b3d
00000020: adc3 1abe 2292 183d dd69 bd3c f9dc d0bd
00000030: c214 3cbe 033b eb3d 92b6 943d c611 84bc
00000040: 1631 103c 37a6 c1bd 56f8 4fbb 1670 0d3d
00000050: 6e8b 9eba 6a9f 163c b6e7 f8bc bede fa3b
00000060: 9b1c 983c d2ed 32bd 92ab 683e cec8 84be
00000070: 41c4 67bd 7ca6 c93d f2a9 be3d f25f 12ba
00000080: 19b0 303d 4282 6e3d 1e0c 11bd 34e8 da3c
00000090: 1ef1 053d 6fc4 843e d11f 1ebe 6e51 1dbd
000000a0: cace a73c 912b a4bc f259 113e 3222 5bbc
000000b0: 110e 8cbc f4fe 6339 98b9 633e 0624 b4bc
000000c0: a62e 99bd 190b cfbc e2a8 3c3d fd1d ea3d
000000d0: 063a 9f3b 4b75 8c3d b42a 6b3c 5bf6 ff3c
000000e0: 04bc 2f3c 7acf 66be 87b2 c13c b9bd 1b3d
000000f0: c9ab 7ebb 08b6 19bc 5cb9 b33d aad3 2e3d
00000100: f407 923d affc e5ba e909 763d 380e a1bd
00000110: 730b 18bc 2376 763b 6d6a 9b3c 8772 a9bc
00000120: 6026 f83c 1d4e 0c3e 1409 ae3d 3a2a f33b
00000130: 849f 293d 5035 9d3d f9d1 a53c f72c 863d
00000140: 62e5 423d 5954 d43a e1e4 f33d ce13 49be
00000150: a1fe 973d 9535 233d aa5b 83bd 7060 953d
00000160: 6e33 493d 2132 20be a2f6 8d3d 0643 90bd
00000170: 9c53 6abd 57c8 683d f777 32be a4f1 10bd
00000180: 6a27 4f3c 4430 93bd 0125 6fbc 6d84 af3d
00000190: 2c1b 423d b2ed 50bd 17fb 133e 2918 793d
000001a0: 5210 463e d99f 9f3d ab3a be3d 0210 523d
000001b0: 531e a73d 9c0a 873d 0c4f d4bd e42d 19bc
000001c0: f5b9 9c3d 1e7e 50bd 8e10 473d 656c 46bc
000001d0: eb31 f2bc aad8 893d 397b 9dbb 5c92 80ba
000001e0: 6851 00bd 400a 5f3c 7a7d 86be 2a74 76bd
000001f0: f7b3 7c3d 5c49 413d 2311 353e 7bf9 7c3d
00000200: 28c9 96bc 81ee b239 4320 7fbc 105d b33c
00000210: 12ab aebd 6761 8e3d e054 a93d cd2f 34bd
00000220: 7225 4f3a d286 b53d 47ff a2bd 0a65 88bc
00000230: adf3 023e baca 933c ce63 4d3d af76 b33b
00000240: 058a 1ebe 009a 7ebd ec8e 073d e7e2 2bbd
00000250: f979 283e 2a0b 103e f0eb 6ebd 0939 a0be
00000260: 9942 a4bd 4f0b a13d 8898 67bb c5fa c03d
00000270: 1400 e93c 2241 89bd 039f fc3a c0a3 b83d
00000280: 9797 9a3c 6391 c1bd c705 0c3c 2dca 503c
00000290: a058 0ebd 9006 863c 0b21 b5bd 6858 513c
000002a0: 6495 9b3c b7ac a43c 7248 3bbd 109d a8bd
000002b0: f4f3 88bd 29dd 99bd 299e 00bd baeb 063d
000002c0: 57c9 c73d 1334 bebc ed9a 413d 190a df3d
000002d0: e781 8abb 61d8 813c 7564 2fbd d504 1dbd
000002e0: 60f3 7d3c 63c6 9a3e ed1c 32be 03d2 84bc
000002f0: 4d5b 6cbc 974d f1bd 5b2d a1bd 1fe6 a3be
00000300: 6e6e b8bc 55ab 42bc 1724 7dbd 240d 4bbd
00000310: f1fb 003d 70b4 e73c f228 633d 0c7c d83c
00000320: f5b9 923d f8b6 563d 3b51 97be 02c5 f73c
00000330: 13f0 e93c 043b 78bd 2dca 99bd 43b9 a7bd
00000340: 1996 08bc 6f2c f13d e098 213d d440 b73d
00000350: b37e 9c3d f56f 5f3c 0d89 ad3d e395 653e
00000360: 89f5 f73b ebcc 02be 2fe7 fabd b4a0 13be
00000370: c2de 6d3d c984 2ebd 1b9d c53c dcc6 0a3d
00000380: 15cf 5a3d d816 2b3d a1ee 6e3d 0877 1d3d
00000390: dcf4 0f3e fc26 673e 22b5 c33d b5da 563e
000003a0: 4cae 383e 5e6a c4bb 66c6 3f3d 1db1 5bbd
000003b0: 8df8 533d 087e 1f3d 1f30 b83c 642b 153d
000003c0: 214f 6d3c 990a 1dbe f45e 1bbe c18b 91bd
000003d0: 11fd 69bd 9579 f23c dd04 4f3e 5ecf f13d
000003e0: 9086 41be fdcb ddbd d922 afbd 16ad 60bc
000003f0: 75ec 0abc cb18 7fbc 0fdd 48ba 2bf8 503d
0.00052438886 -0.11866607 0.08519545 -0.112686515 -0.0014297252 -0.087843575 0.044349402 0.075976245
-0.15113707 0.037248738 0.023121769 -0.10198397 -0.18367293 0.11485865 0.07261385 -0.016121756
0.0088007655 -0.09455531 -0.0031733713 0.03453072 -0.0012095997 0.009193281 -0.030383926 0.0076559475
0.018568328 -0.043683834 0.22721699 -0.25934452 -0.056583647 0.098462075 0.09309758 -0.0005583755
0.04313669 0.058229692 -0.035411946 0.026722051 0.03270065 0.25931117 -0.15441824 -0.038407736
0.020484347 -0.020040305 0.14194468 -0.013374852 -0.017096551 0.00021743384 0.22238767 -0.021989834
-0.074796006 -0.025273846 0.046059497 0.11431501 0.004859212 0.06858309 0.014353443 0.031245401
0.010725979 -0.22540084 0.023644699 0.03802273 -0.0038859716 -0.009381779 0.08775589 0.042682327
0.07130423 -0.0017546619 0.060068045 -0.0786404 -0.009280073 0.0037607036 0.018971646 -0.020684494
0.030291736 0.13701673 0.08497825 0.0074208053 0.04141189 0.07676184 0.020241724 0.06551545
0.047582038 0.0016199454 0.119088896 -0.19636461 0.074216135 0.03984602 -0.06413968 0.072937846
0.049121313 -0.15644123 0.06931807 -0.07044034 -0.057208642 0.056831684 -0.17428575 -0.035386696
0.012643674 -0.0718694 -0.014596225 0.0857018 0.047389194 -0.051007934 0.14451252 0.060814057
0.19342163 0.077941604 0.09288534 0.051284797 0.08160081 0.065938205 -0.103666395 -0.00934932
0.07652656 -0.050901525 0.048599772 -0.012110804 -0.029564818 0.067307785 -0.004805949 -0.0009809243
-0.031327635 0.013613284 -0.26267606 -0.060169376 0.061695065 0.0471891 0.17682318 0.06176136
-0.018406466 0.00034128505 -0.015571657 0.021894962 -0.08528723 0.06952172 0.08268142 -0.0439909
0.0007902003 0.088636056 -0.079588465 -0.016649742 0.12788267 0.018041003 0.05014401 0.0054767947
-0.15482338 -0.062158585 0.033095285 -0.041964438 0.16452779 0.14066759 -0.058330476 -0.31293514
-0.08020515 0.07863485 -0.0035338718 0.094228305 0.02844242 -0.06701876 0.0019273463 0.09015608
0.018871112 -0.094515584 0.008546299 0.012743515 -0.034752488 0.016360551 -0.08844193 0.012777425
0.018992133 0.020101888 -0.045723386 -0.08233082 -0.06687155 -0.07512886 -0.031400833 0.03293965
0.097551994 -0.02321819 0.04726689 0.10890598 -0.0042269113 0.015850248 -0.042820413 -0.038334686
0.01549992 0.30229482 -0.17393847 -0.016213423 -0.014426065 -0.11782377 -0.07869979 -0.32011506
-0.022513594 -0.011881669 -0.061801996 -0.04957308 0.03149027 0.028284281 0.05545897 0.026426338
0.07164375 0.052420586 -0.2955416 0.030245308 0.02855686 -0.060603157 -0.07509265 -0.08189633
-0.008336567 0.11776053 0.039452434 0.08947912 0.076413535 0.0136375325 0.08473406 0.22420458
0.007567112 -0.12773483 -0.12251126 -0.14416772 0.058073767 -0.042607103 0.024122765 0.033881053
0.053420145 0.041769832 0.058333043 0.038443595 0.1405825 0.22573465 0.09556033 0.20981868
0.18035239 -0.0059941253 0.046820067 -0.053635705 0.05175071 0.038938552 0.022483883 0.036418334
0.014484198 -0.15336074 -0.1517294 -0.07106734 -0.05712611 0.02959899 0.20216699 0.1180713
-0.18898988 -0.10829923 -0.085515685 -0.013713142 -0.008479227 -0.015569876 -0.0007662335 0.05101792

bias f4 [200]
00000000: 5ca3 84bc a0fd d8bc a23a bfbb 923e 8a3c
00000010: bdd1 9b3d 99b5 b13b 4351 2fbc 71e3 3b3c
00000020: 5395 8f3c a2be edba de39 c03c a176 40bc
00000030: e844 a4bc afb7 b83c c6ab 78bc 0b8c 863d
00000040: d75f 243d cc19 8d3c 6dff e1bc ffd7 65bc
00000050: 3078 bc3c d3f1 fe3c 195d 083d 94a1 eabc
00000060: f38d 6f3c c0ec 5e3d 82ab cebc ca51 e63c
00000070: 635e 42bd a115 53bd a585 aa3c 7ef5 9abc
00000080: 7ca7 cbbc 0249 d9bc 4cdd 8fbb 3cf9 a1bb
00000090: e062 1dba 047f a4bd 8c26 1f3d 2331 a9bc
000000a0: 703c 6abc 73df 6bbc 7816 573d b3a5 cb3b
000000b0: 0b5f 053d 1d50 473c 7565 32bd 75c3 e63c
000000c0: c4f2 c0bb 2dfd b0bc 0bff 413b 5b3b 643c
000000d0: b543 223b 3667 6b3d 7bad d9bc 1892 2abc
000000e0: 6d16 b9ba 95c8 fcbb 13da 203b 04ad f43c
000000f0: 4a55 973c 3626 98bc 3ce0 883d 1b05 1b3d
00000100: ddeb 5ebd ad83 0abd 5d36 2bbc 9f2f 883d
00000110: 600a f53b 6b2d f83c 6c70 753c 11e8 18bd
00000120: 9eff 303d 3964 dabc c90a 61bd 4e65 98bb
00000130: d384 af3c 2cae 043c 205f 0a3d 7ee2 2d3d
00000140: abbd 9b3c b114 7abd 37a1 60bc 405c 8b3c
00000150: 5fa2 313d b8ab 123d 9fbd 06bd 809d 433d
00000160: 3e3d 603c 2d67 593d a744 393c c7cd 09bd
00000170: 6d8f 12bd 27d6 52bc 4b6e dfbd daa3 ce3b
00000180: 47e6 2fbc 40da 0a3c 3ce4 fd39 36b2 84bc
00000190: c4ef 53bd 090c 3c3d c61d 223d 347b 973c
000001a0: 3a95 84b9 0660 d9bc a59a fd3c dc20 053d
000001b0: 69eb d6bb 3363 cfb8 487b b0bc b629 7bbc
000001c0: a159 79bc dfda 61bc 5f7f 333c 746b 1d3d
000001d0: cbbe 40bd 751f dfbc 855b 1bba 9234 3f3d
000001e0: 672a 143d dbc4 c43b 76d3 ff3a fd45 70bd
000001f0: 726c 61bc 3fa1 e2bc 2e42 563c fc04 bc3b
00000200: 601b a53b 5180 86bc fea8 8abc 0a6a 513b
00000210: f98a d53c f8ac ce3c e837 89bc e410 81bd
00000220: 6bbc f83c 6576 80bc 8046 5b3d 72f0 833c
00000230: b545 1f3d 3041 423c 7a71 6a3c 3859 dcbc
00000240: ed59 afbc caea 0b3d c9df 1b3d 5176 ab3c
00000250: edda b83b 2f9a 22bd 1710 74bb cefe 723d
00000260: 8019 a9bb 4b2b cdbc 5936 5ebc db68 813c
00000270: 268f 4d3d 2c00 d2bb e688 093d 3123 5c3c
00000280: 7982 3b3d 0519 f73c 62c9 37bd 49e4 023d
00000290: 651f 11bd 5252 01bc 2729 b53c 841e 583d
000002a0: 1afb 5f3d 3bad dbbb 26bd 8c3b 741b 54bd
000002b0: 9ee6 6a3d bbde d4bc b953 69bc b089 043d
000002c0: 1d3f 04bc f3b2 1bbd dff7 0e3d fbf0 023d
000002d0: 1964 a2bd d611 2ebd cb14 0c3d f734 d43c
000002e0: 2be5 16bd 45e8 65bc 1ca6 e9bc 69be 1d3c
000002f0: e7f2 9a3c f5f8 9e3c a26f 3c3d e786 aa3c
00000300: 73e3 a0bb 3675 0e3d 5c67 073d 15ce b43b
00000310: 7c84 553d c038 03bc 23f2 e03b b049 f33c
-0.016191177 -0.026488125 -0.005835847 0.016875539 0.07608364 0.0054232595 -0.010700527 0.0114678005
0.017527258 -0.0018138478 0.023465093 -0.011747033 -0.020052388 0.022548525 -0.015177673 0.0656968
0.040130462 0.017224215 -0.027587617 -0.014028548 0.023006529 0.03112117 0.03329191 -0.0286415
0.014621246 0.054425 -0.025228266 0.028115172 -0.047453295 -0.0515343 0.02081568 -0.018915888
-0.024860136 -0.02652407 -0.0043903943 -0.004943041 -0.0006003808 -0.08032039 0.03885512 -0.020653313
-0.014296636 -0.014396536 0.052511662 0.0062148212 0.032561343 0.012165097 -0.04355379 0.028169373
-0.005888315 -0.021605099 0.002960148 0.013930167 0.0024759595 0.057471476 -0.02657198 -0.010410808
-0.0014121063 -0.007714341 0.0024544045 0.029867657 0.018473286 -0.018572908 0.06683394 0.037846666
-0.054424156 -0.033816982 -0.010449973 0.06649708 0.0074780434 0.030295094 0.014980417 -0.03733069
0.043212526 -0.026659118 -0.054941926 -0.0046507483 0.02142564 0.008098166 0.033782125 0.042452328
0.01901134 -0.06105489 -0.013710312 0.017011762 0.04336774 0.035808295 -0.03289568 0.047757626
0.013686476 0.05307691 0.011307872 -0.03364351 -0.035781313 -0.012868441 -0.109097086 0.0063061537
-0.010736055 0.008474886 0.00048425968 -0.016198259 -0.05174233 0.045909915 0.039579175 0.018491365
-0.00025288184 -0.026535045 0.03095753 0.03250204 -0.006558825 -9.8890065e-05 -0.02154316 -0.015329769
-0.015219123 -0.013785093 0.010955661 0.038432553 -0.047056954 -0.02723668 -0.0005926418 0.046680994
0.03617325 0.0060049123 0.0019517976 -0.058660496 -0.0137587655 -0.027664779 0.013077302 0.005737899
0.0050386637 -0.016418608 -0.016926285 0.0031954073 0.026067244 0.025228962 -0.016750291 -0.0630205
0.030363282 -0.015681455 0.05353403 0.016105864 0.038884837 0.011856362 0.0143092815 -0.026898012
-0.021405185 0.03415946 0.038055215 0.020930441 0.0056413324 -0.039697822 -0.0037241036 0.059325032
-0.0051605105 -0.025045058 -0.013562762 0.01579707 0.050185345 -0.006408712 0.033577822 0.013436125
0.045778725 0.030163297 -0.044869788 0.03195599 -0.03543033 -0.007893162 0.02211435 0.052763477
0.05468283 -0.0067040003 0.004295009 -0.051783994 0.05734884 -0.025985112 -0.014241152 0.03235787
-0.008071688 -0.038012456 0.034904357 0.031968098 -0.07929248 -0.04249748 0.034199517 0.025904162
-0.036839645 -0.014032428 -0.02852159 0.009627917 0.018914653 0.019405821 0.0460049 0.02081628
-0.0049099266 0.03477975 0.033057556 0.005517731 0.0521283 -0.008009136 0.0068648024 0.029698223

weight f4 [2, 200]
00000000: de1e f43d 1710 bf3d acc6 b23e 9d92 88be
00000010: 99ad 743e 4743 9e3d 9bc4 bb3c 97b2 353d
00000020: 64a6 1a3f 892a 3abb d5bc 853d 20c5 913e
00000030: b2bf 013f c7e7 483f 34a3 163f 254c f6bd
00000040: 1e12 9b3e d95d bcbe 6a92 c4bd 3425 52bd
00000050: aee9 a93e 0100 973e 2244 7f3d 446a 9abd
00000060: aeff 6d3e f669 833e 9508 2c3f 8e5f b83e
00000070: 1781 33be 07e0 0fbe fbd0 fdbd cc4e 653e
00000080: b903 f73d c496 10be b0f0 ccbd 0166 853d
00000090: 58fe 02be e1b6 233e 1646 0fbe 8bd5 ba3d
000000a0: b6f7 b8be 1806 8e3e 3739 333e 509c fd3e
000000b0: 53d8 c7be c697 9ebe 7292 8e3d 3fd5 37bd
000000c0: 371e c03e 06a9 923e 56d3 47bd 38e8 a63d
000000d0: 65df f63d 2794 313e 6e16 063f f311 e83d
000000e0: baf5 293f c60b d13d 5754 c6be 9639 abbd
000000f0: 4725 093f 455a 8bbe 82e1 8ebe 12f0 803d
00000100: fa2e 513f ec76 2ebe 077c 9ebe 0caa 213d
00000110: cf0a 903d 4296 133f 55c8 d1bd b117 c03d
00000120: 7e9d 70bd 76e4 ef3e 45d3 2a3f 0cdd babd
00000130: 1b2e 2c3f 2bb8 17bd a833 283e c553 eebd
00000140: f0f1 ba3e edeb 3f3f f27b 943c 3694 173d
00000150: bc4f 7bbe 7607 e1bd 33c8 11bd c4ba a1bc
00000160: 01ae fd3d 39e8 92be bd15 60bc 1593 a9bd
00000170: 98a6 6c3a ae2a a63d 3136 f53d 7d8d dcbb
00000180: 23b5 a4bb 9fcf e5be d4b7 ea3c d2a6 283d
00000190: 9af6 543f 816a 6c3d c143 303f ac95 e33d
000001a0: 9f0d cfbd 77c3 953d 65a0 7dbd d460 e63e
000001b0: afd0 2cbe 2983 60bc a200 55be 63ae 143f
000001c0: b5fb 77bc 54ed 59bd a02f cdbd ab50 a7bc
000001d0: 47e1 af3d 8b84 cfbd 9996 e8bd f4e3 db3e
000001e0: 9b9f b53c 26cd 813d d74d c33e 4cb6 98be
000001f0: bc53 dcbd 0016 413f 2f1c 9cbd 84df a8bd
00000200: 6952 8f3d 5fb6 773d fde3 063f b89e b3bd
00000210: d731 803e bd71 043d 7084 4c3f e195 adbd
00000220: 463d e33d 186c fc3d 5ea1 83bc db14 4b3f
00000230: 16fc e83e 36c6 103c 0826 e0bd 8d46 b4bc
00000240: 4e03 dd3c 27cb 913d 8889 11bc 8116 473d
00000250: fb5f aebd 032f 713d 9067 043e 40ff 9e3e
00000260: 91ec 8ebd 4045 bbbd ecdd 0f3e b0b5 5fbc
00000270: 1a5b d7bd 7231 8bbd 6290 253e 10d6 c33e
00000280: b8d4 ca3d 9ab5 813e 308c eabd c543 213e
00000290: c912 b4bd b029 a0bd 4f55 edbd c34e 48be
000002a0: 8087 06be c983 a13c 7d5f 283e 1ee0 2b3d
000002b0: b2cb 093d ce5d 2e3d 65af ddbd 2b52 fd3c
000002c0: 3b59 9b3d 031a 6fbe f877 753c 7a68 8fbe
000002d0: 75a8 bc3e bde5 69bd 4e9f b6bd 296a 373d
000002e0: 1e81 4dbd 8c3d b33e 8174 babe 6d28 85bd
000002f0: ee08 e73e e8b9 593d fb78 5e3d 3cdd c0be
00000300: e7a7 a53d 9018 bfbc ebe0 9a3d e6db 7a3c
00000310: 9544 3bbd 4cbb 7e3e 5bfd e83e 61e1 d9bd
00000320: 5404 b0bd e88e 923e 0ae9 9f3d 04b5 26be
00000330: d58a 8abd 94f1 ef3e 7325 24bd 1d9e b13e
00000340: cf5c 543e 2953 80bb 3b29 a83e 0d52 93be
00000350: 0f8e 14be 2d58 de3c 5b3f 9fbd c225 e7bd
00000360: fd9f d7be d761 6fbd 5524 193d cd96 14be
00000370: 5baf 02be be79 753e bdfe 863c 2d9f 13be
00000380: 835f 0d3d d9c5 97be 6437 9d3e 9bf1 0abf
00000390: d58c a3bc b7fd b9bc c1fb 65be e666 5a3c
000003a0: 2f20 1f3f 6f5b 4abf 0ca9 a63b 029b 1d3e
000003b0: 51b1 b4bd 1554 6a3f 3da5 0cbc 873c 1bbe
000003c0: 8711 08be feac fd3d 6ab6 60bc 8423 513e
000003d0: d502 26be ab5a 59be 173c 5e3d a524 8bbe
000003e0: 5e2a 353e 8d37 c93e 0fde 753e ccb7 e5bd
000003f0: 7af2 86bb 6dac 23bf 2941 9f3c 38c2 db3d
0.1191995 0.09329241 0.349172 -0.26674357 0.23894347 0.07727676 0.022920897 0.04435977
0.6041014 -0.00284067 0.065301575 0.28470707 0.5068313 0.78478664 0.5884278 -0.12026242
0.3028726 -0.3679035 -0.09598239 -0.05130501 0.33186096 0.2949219 0.062320836 -0.075398
0.23242065 0.2566678 0.67200595 0.36010402 -0.17529713 -0.14050303 -0.123933755 0.2239334
0.12061257 -0.14120013 -0.10006845 0.06513596 -0.12792337 0.15987732 -0.1399158 0.09122761
-0.36126488 0.27739024 0.17502294 0.4953332 -0.3903223 -0.3097517 0.06961526 -0.0448811
0.37523052 0.2864458 -0.04878553 0.08149761 0.12054328 0.17341672 0.52377975 0.113315485
0.66390574 0.10207324 -0.3873622 -0.08360593 0.53572506 -0.27217308 -0.27906424 0.0629579
0.81712306 -0.17037553 -0.30954 0.03946881 0.070333116 0.5765115 -0.102432884 0.09379519
-0.058743946 0.4685399 0.6672862 -0.091241926 0.6725785 -0.03704087 0.16425955 -0.116370715
0.3651271 0.7496937 0.018125508 0.03700658 -0.24542135 -0.10987751 -0.035591315 -0.019742377
0.12386704 -0.28692797 -0.013677058 -0.08280007 0.000902751 0.08113609 0.11973227 -0.006730734
-0.005026476 -0.44884965 0.02865211 0.041174717 0.83188784 0.057718758 0.68853384 0.11112532
-0.1011002 0.073126726 -0.061920542 0.4499575 -0.16876481 -0.013703146 -0.20801023 0.58078593
-0.015135695 -0.05320485 -0.100188494 -0.020424208 0.0858789 -0.101327024 -0.11356849 0.42947352
0.022170832 0.06337957 0.38145325 -0.2982658 -0.107581586 0.75424194 -0.07622563 -0.08245757
0.0699814 0.060476657 0.5269163 -0.087705076 0.25038025 0.03233503 0.79889584 -0.08475853
0.11095671 0.12325305 -0.016068157 0.793287 0.45504826 0.00883632 -0.10944754 -0.022006297
0.026979115 0.07118826 -0.008882888 0.048605446 -0.085144006 0.058882724 0.12930131 0.31054115
-0.06978715 -0.09144068 0.140495 -0.0136541575 -0.10515423 -0.0679654 0.16168359 0.38249254
0.09903854 0.25333863 -0.1145252 0.15748508 -0.087926455 -0.07820451 -0.11588537 -0.19561295
-0.13137627 0.01971616 0.16442676 0.04196178 0.033641525 0.042569928 -0.108244695 0.03092297
0.07585379 -0.23349766 0.014982216 -0.28009397 0.36847273 -0.05710386 -0.08917104 0.044778977
-0.050171964 0.35007894 -0.3641701 -0.06501851 0.45124 0.05315581 0.054314595 -0.37668788
0.080886655 -0.023327142 0.07562431 0.015311217 -0.0457197 0.24876136 0.45505795 -0.10638691
-0.085945755 0.28624654 0.078081205 -0.1627999 -0.06764761 0.46863997 -0.040074777 0.34690943
0.20738529 -0.0039161635 0.32843956 -0.28773537 -0.14507316 0.027141655 -0.07775756 -0.112864986
-0.4211425 -0.058442917 0.037388165 -0.14510651 -0.12762205 0.23972222 0.01647889 -0.1441619
0.034514915 -0.29643133 0.30706322 -0.5427491 -0.019964615 -0.022703988 -0.22459318 0.013330197
0.62158483 -0.79045767 0.00508607 0.15391162 -0.08822883 0.9153455 -0.008584318 -0.15159808
-0.13287936 0.12386511 -0.013715366 0.20423704 -0.16212018 -0.21225993 0.054256525 -0.27176395
0.17691943 0.39300194 0.2401049 -0.11216697 -0.004118261 -0.63934976 0.01944025 0.10730404

bias f4 [2]
00000000: de72 6dbd 98a5 88bd
-0.057970874 -0.066722095
