lab2/problem2/neural-network-2-actor-l-45000.pth (torch, 340225 bytes, 6 tensors)

weight f4 [400, 8]
0	0x3c77f922	0.0151350815
1	0x3d767111	0.060166422
2	0x3e1f0de0	0.15532637
3	0xbeb86615	-0.36015382
4	0xbd9137c3	-0.07090714
5	0x3e917801	0.28411868
6	0x3e310ca2	0.17289975
7	0x3ea6913e	0.32532686
8	0xbe96d4b2	-0.2945915
9	0x3e7da957	0.2477163
10	0x3e67ee42	0.22649482
11	0xbe294b29	-0.16532578
12	0xbe859371	-0.2608905
13	0xbd6de28d	-0.058077384
14	0x3ee54e68	0.44786382
15	0x3cc273c7	0.023736848
16	0x3de76eb2	0.1130041
17	0x3e0e52b7	0.1389874
18	0x3e871868	0.26385808
19	0xbeb6700b	-0.35632357
20	0x3e86548e	0.26236385
21	0x3e2a02ab	0.1660258
22	0xbe7e4397	-0.24830471
23	0x3ea1c122	0.3159266
24	0xbd71b623	-0.05901159
25	0x3d9cb24b	0.07651194
26	0xbeefee7e	-0.46861643
27	0xbe69f24b	-0.22846334
28	0xbe93ca86	-0.2886545
29	0xbe6d59eb	-0.23178832
30	0xbe9adab8	-0.30244994
31	0xbd5798ef	-0.052636083
32	0xbead35ff	-0.33830258
33	0xbdbf8dc5	-0.09353212
34	0xbe783ac6	-0.2424117
35	0x3ed4a32e	0.41530746
36	0xbed0f901	-0.40814975
37	0xbeac9e8a	-0.33714706
38	0xbea66edd	-0.32506457
39	0xbe805390	-0.25063753
40	0x3eb7cd41	0.35898784
41	0xbe835ce4	-0.25656807
42	0x3f56c8be	0.8390006
43	0x3f514f69	0.81761795
44	0x3f51d374	0.81963277
45	0xbe682673	-0.22670917
46	0xbe6ed195	-0.23322137
47	0xbe869666	-0.2628662
48	0xbed2b304	-0.41152203
49	0xbd834f2f	-0.064115874
50	0x3dcf1843	0.101120494
51	0x3e3d115a	0.1846365
52	0xbdf166fa	-0.11787219
53	0x3ecf3b9f	0.40475175
54	0xbdf5e235	-0.12006036
55	0xbc333880	-0.010938764
56	0x3c6d2cf8	0.014476053
57	0x3d777893	0.060417723
58	0xbf0424c3	-0.51618594
59	0xbd3b39b6	-0.045709334
60	0x3e915f38	0.2839296
61	0x3e518031	0.20459057
62	0x3ccd6fd7	0.025077743
63	0xbe8c1f4d	-0.2736763
64	0xbe0b493e	-0.13602158
65	0xbea08eb2	-0.31358868
66	0x3ed7656b	0.42069563
67	0x3d5e6a62	0.054300673
68	0xbe41ef34	-0.18938905
69	0xbcbfa2b5	-0.023393014
70	0xbe297091	-0.16546847
71	0xbe96ae7b	-0.29429993
72	0xbe7a76cc	-0.2445938
73	0xbc0806fd	-0.008302447
74	0xbf0c21ec	-0.5473926
75	0x3f17d12a	0.59303534
76	0xbe076182	-0.1322079
77	0x3dff9607	0.12479787
78	0x3cc50225	0.024048874
79	0xbec1190a	-0.37714416
80	0xbdbb6aa7	-0.09151202
81	0xbd74023d	-0.059572447
82	0xbf03b134	-0.51442266
83	0xbebbdf24	-0.3669368
84	0x3f032410	0.512269
85	0xbe9866bc	-0.2976588
86	0xbce3d538	-0.027811632
87	0x3e03c493	0.12867956
88	0xbe5bfb2a	-0.2148253
89	0x3e117d6a	0.14207998
90	0x3e853e4d	0.26024094
91	0xbebef574	-0.3729664
92	0xbee3c768	-0.44488072
93	0xbe9fc26e	-0.31203026
94	0xbec20458	-0.3789394
95	0xbeac7905	-0.3368608
96	0xbe0aa354	-0.13538867
97	0x3e8879fd	0.2665557
98	0xbdc49d38	-0.096002996
99	0xbeb150aa	-0.34631854
100	0xbf0345de	-0.51278484
101	0xbe6bcc1b	-0.23027079
102	0xbd9c45cd	-0.07630501
103	0xbdee0de2	-0.11623742
104	0xbdafea6c	-0.08589634
105	0x3c8cb170	0.017174453
106	0xbee2e5f9	-0.4431608
107	0xbe46cbd1	-0.19413687
108	0xbf11fc67	-0.5702576
109	0xbdc06148	-0.09393555
110	0xbe7bcf06	-0.24590692
111	0x3e46f45d	0.19429155
112	0xbea4128b	-0.32045397
113	0xbdc1bf35	-0.09460298
114	0xbecd9f03	-0.4016038
115	0x3daf0fa9	0.08547909
116	0x3e4f4b6a	0.20243612
117	0xbecc5af2	-0.39913136
118	0x3d893ba1	0.067008264
119	0xbdb797f2	-0.08964528
120	0xbd92a827	-0.07160979
121	0xbdcea15e	-0.10089372
122	0xbe8a66f5	-0.27031675
123	0xbe0cd119	-0.1375164
124	0xbf18083b	-0.5938756
125	0xbe48ef19	-0.19622459
126	0xbe186415	-0.14881928
127	0xbe87431d	-0.2641839
128	0xbd6a8256	-0.057253204
129	0x3dd8350a	0.105569914
130	0xbdc96b67	-0.098349385
131	0x3e9a2517	0.30106422
132	0x3def5361	0.11685825
133	0x3e372be6	0.1788784
134	0xbd0e94c9	-0.03480986
135	0xbea64929	-0.32477692
136	0x3e963755	0.2933909
137	0x3d018586	0.03162148
138	0x3dec34fe	0.11533545
139	0xbc0b158b	-0.008489023
140	0xbf026af4	-0.5094445
141	0xbc4c2160	-0.012459129
142	0xbdce5083	-0.1007395
143	0x3e45f47c	0.19331545
144	0x3e7eb6b2	0.2487438
145	0x3e3d998b	0.18515603
146	0xbe25cacf	-0.16190647
147	0xbe9f7324	-0.31142533
148	0x3f186833	0.59533995
149	0xbd4e7ca7	-0.050411846
150	0xbd9f9048	-0.07791191
151	0x3e330ff7	0.17486559
152	0x3e3a670b	0.1820337
153	0x3ed21a95	0.41035905
154	0x3f0d5a84	0.5521624
155	0xbd3b8f19	-0.045790765
156	0x3f794ddd	0.97384435
157	0x3eaca44e	0.33719105
158	0x3ec2a22b	0.3801435
159	0xbe902279	-0.281513
160	0x3ecdef6a	0.4022172
161	0x3d5baf17	0.053633776
162	0x3dd6cd5a	0.104883865
163	0x3e9cd8e5	0.30634227
164	0xbedd1612	-0.431809
165	0xbe8e26ee	-0.27764076
166	0xbe836b31	-0.25667718
167	0x3e1a41ae	0.15064117
168	0xbe9b36a4	-0.30315125
169	0xbe6e3e86	-0.23266038
170	0x3ec96e9e	0.39342207
171	0x3f626580	0.88436127
172	0x3cfb933b	0.030709853
173	0x3e9d5a00	0.30732727
174	0x3d08b3e4	0.033374682
175	0xbe0dbf9c	-0.13842624
176	0xbe4c2ffa	-0.19940177
177	0x3e999c4a	0.30002052
178	0x3e9cfaf7	0.3066022
179	0xbdd03974	-0.10167208
180	0x3f12cf21	0.57347304
181	0xbe4e0fba	-0.20123187
182	0xbe9a4800	-0.30133057
183	0xbe07c0b3	-0.13257103
184	0xbdc36a22	-0.095417276
185	0xbe0e7894	-0.13913184
186	0x3e29a5dc	0.16567177
187	0xbeb0ef08	-0.34557366
188	0xbe8f4c64	-0.2798797
189	0x3e9d6434	0.3074051
190	0x3ea0e835	0.3142716
191	0x3d6e1c8b	0.05813269
192	0xbe8ab7ce	-0.27093357
193	0xbe102412	-0.1407626
194	0x3ec6d562	0.38834673
195	0xbe2ff820	-0.17184496
196	0xbea582be	-0.3232631
197	0xbeca956c	-0.39567125
198	0x3e7a6461	0.24452354
199	0x3e097eee	0.13427326
200	0x3e8ccb0d	0.27498665
201	0xbd103979	-0.03521106
202	0xbea66dce	-0.3250565
203	0xbe986b4e	-0.29769367
204	0x3ecf1a0f	0.4044957
205	0xbdce2e12	-0.10067381
206	0xbe262771	-0.16225983
207	0x3e1e1053	0.15435915
208	0x3cf6afa2	0.030113045
209	0xbe64b1b7	-0.22333418
210	0x3d7a6f07	0.06114104
211	0xbe7fda06	-0.24985513
212	0x3e9a70fa	0.3016432
213	0x3dcaf512	0.09910025
214	0xbe9c23a5	-0.30495945
215	0xbe2f8b1c	-0.1714291
216	0xbe98cbc0	-0.2984295
217	0x3dddb9a1	0.108264215
218	0xbe4e7522	-0.2016187
219	0x3eb71170	0.3575549
220	0x3da92b27	0.08260184
221	0x3dd82aba	0.105550244
222	0x3d996099	0.07489128
223	0x3e76b1e1	0.24091293
224	0x3c72e99a	0.014826203
225	0x3e2fb636	0.17159352
226	0x3f28e277	0.6597056
227	0x3e78a7a3	0.24282698
228	0x3ca6ab3d	0.020345325
229	0x3e528b24	0.2056089
230	0x3dacf4f4	0.084451586
231	0x3eaf07ec	0.3418573
232	0xbe9c2a82	-0.3050118
233	0x3e2787e6	0.16360435
234	0xbeccf85f	-0.40033242
235	0x3eccc5ce	0.39994663
236	0x3ef9bba2	0.48775965
237	0xbe9a7248	-0.30165315
238	0x3eb9f24d	0.36317673
239	0x3e89c34d	0.26906815
240	0x3e272e46	0.16326246
241	0x3c4a831c	0.0123603605
242	0x3da679c7	0.08128696
243	0xbe20ff48	-0.15722382
244	0x3e8803dd	0.26565447
245	0xbd869132	-0.065706626
246	0xbe24e975	-0.16104682
247	0xbe9af440	-0.30264473
248	0xbe2742ab	-0.16334026
249	0xbb9ed8f9	-0.0048476425
250	0x3dd45eae	0.10369621
251	0x3e71b864	0.23605496
252	0xbd9cd809	-0.07658393
253	0x3ebd61c3	0.3698865
254	0x3d930544	0.07178739
255	0xbd8ddf27	-0.069273286

bias f4 [400]
0	0x3e85999f	0.26093766
1	0x3e433b2b	0.1906554
2	0x3e929404	0.28628552
3	0x3c320cf0	0.010867342
4	0xbda51c10	-0.08061993
5	0xbd131b5d	-0.035914768
6	0x3cb19bff	0.02168083
7	0xbd32c68e	-0.043646388
8	0x3eaad1c6	0.3336317
9	0xbd8ff796	-0.07029645
10	0x3d931f5e	0.07183717
11	0xbe2ac884	-0.16678053
12	0x3c61a741	0.013772787
13	0x3c880f19	0.016608762
14	0x3e485788	0.1956464
15	0xbdc8e3f1	-0.098091014
16	0x3e46e218	0.19422185
17	0x3e7b5f3c	0.24548048
18	0xbd9912f7	-0.074743204
19	0x3c36827a	0.0111395065
20	0x3ddd0465	0.10791854
21	0xbda530c3	-0.08065941
22	0x3dc731f7	0.09726327
23	0x3d88a30c	0.06671724
24	0xbccb5921	-0.024822773
25	0x3e45fc7c	0.19334596
26	0xbe8c24bc	-0.27371776
27	0x3e889500	0.26676178
28	0xbc32a766	-0.010904169
29	0xbe3c8929	-0.18411697
30	0x3e7922c7	0.24329673
31	0x3ddf8180	0.10913372
32	0x3e588b14	0.21146804
33	0xbe17dbd8	-0.14829957
34	0x3e77347c	0.24141115
35	0xbe30f88f	-0.17282318
36	0x3e129765	0.14315565
37	0x3c22bd09	0.009932765
38	0x3e25b0be	0.16180703
39	0x3e7235cc	0.23653334
40	0xbae495ed	-0.0017439701
41	0xbe55bede	-0.20873591
42	0xbe6861f9	-0.22693624
43	0x3e80ed13	0.25180873
44	0x3d9bcc51	0.0760733
45	0x3db38b30	0.08766782
46	0xbe92254f	-0.2854409
47	0x3e9b7f0e	0.30370373
48	0x3eafa47b	0.34305176
49	0x3e7cdf97	0.24694668
50	0x3c486294	0.012230534
51	0xbd22788a	-0.039665736
52	0xbeacca49	-0.3374808
53	0x3e930b02	0.28719336
54	0x3d14bd0d	0.036313105
55	0xbe02dd40	-0.12779713
56	0x3e93b421	0.28848365
57	0xbe520a76	-0.20511803
58	0xbe93b7e1	-0.28851226
59	0x3cdabc16	0.026701014
60	0xbd4643df	-0.04840457
61	0x3e52883e	0.20559785
62	0xbe5f6166	-0.21814498
63	0x3c807358	0.01568
64	0xbe133166	-0.14374313
65	0x3e6133b5	0.21992381
66	0xbc919899	-0.01777296
67	0xbe68cf6a	-0.22735372
68	0xbe439e1e	-0.19103286
69	0x3e1b8552	0.15187576
70	0xbdb61041	-0.08889819
71	0x3a86bbb7	0.0010279332
72	0xbe863e23	-0.26219282
73	0x3e892363	0.2678481
74	0xbe12f69a	-0.14351884
75	0x3e7d7aaa	0.24753824
76	0xbd032065	-0.032013316
77	0x3e5fe3b5	0.21864207
78	0xbe8a1864	-0.26971734
79	0xbe1ab0f7	-0.15106569
80	0x3e05b97c	0.13059038
81	0xbe02df49	-0.12780489
82	0x3c70f647	0.014707155
83	0x3e90e681	0.2830086
84	0xbde2facb	-0.11082991
85	0x3b97630f	0.004619963
86	0xbdab7859	-0.08372564
87	0xbe1c6d0e	-0.15275976
88	0xbc89f1c7	-0.016838921
89	0x3e0537ed	0.13009615
90	0xbdee2a78	-0.11629194
91	0xbeaa86fd	-0.33306113
92	0x3d7acfea	0.06123344
93	0xbdeb0af1	-0.11476696
94	0x3e069f24	0.13146645
95	0xbdc8f66a	-0.09812625
96	0xbe79975b	-0.24374144
97	0x3e1459ba	0.14487353
98	0x3d68c45c	0.056827888
99	0x3e9292fd	0.28627768
100	0xbd85519f	-0.065097086
101	0x3e687575	0.22701056
102	0x3d84afa0	0.0647881
103	0xbe1f5fda	-0.15563908
104	0x3eb2e593	0.34940776
105	0x3ca7a92d	0.020466411
106	0xbd7de1fd	-0.061983097
107	0x3e7fd258	0.24982584
108	0xbc63eb4c	-0.01391108
109	0x3ea51889	0.3224528
110	0x3e0f675b	0.1400427
111	0x3ea08895	0.31354204
112	0xbd4220d6	-0.047394596
113	0x3da9cec4	0.082913905
114	0x3d536aae	0.05161541
115	0xbe1a10e5	-0.15045507
116	0x3cfa0976	0.03052209
117	0x3dcc399c	0.099719256
118	0x3ba3ed07	0.005002621
119	0xbdbc7f5f	-0.092039816
120	0x3e8b4351	0.27199796
121	0x3d18dd25	0.037320275
122	0xbdef84ee	-0.11695276
123	0xbcbedd95	-0.023299018
124	0xbd9e37b0	-0.07725465
125	0xbd212259	-0.039339397
126	0xbbd7a75a	-0.006581229
127	0x3e3bc769	0.18337788
128	0x3de1dc97	0.11028402
129	0xbda4201e	-0.08013938
130	0x3db187e3	0.086684965
131	0xbc734762	-0.014848562
132	0xbda3281e	-0.07966636
133	0x3e821100	0.25403595
134	0x3e9cba06	0.30610675
135	0x3d82b69d	0.06382487
136	0x3e6a48a0	0.22879267
137	0xbc6e75a5	-0.014554416
138	0xbdd6c0ee	-0.10486017
139	0x3df77165	0.12082175
140	0x3c19f9d7	0.009397945
141	0x3e4f6609	0.20253767
142	0x3e5d7bf5	0.21629317
143	0x3ca0fe57	0.019652529
144	0xbc9d4eb9	-0.019202577
145	0x3d899c9d	0.06719325
146	0x3e562562	0.20912698
147	0x3dcac143	0.09900143
148	0x3cf5369c	0.029933266
149	0x3e638e4e	0.22222254
150	0x3e6b5d85	0.22984894
151	0x3e56abcf	0.20963977
152	0x3c9c7bd5	0.019102016
153	0xbe344724	-0.17605263
154	0x3d24cc79	0.040234063
155	0x3dcccf1c	0.100004405
156	0x3e854ec5	0.2603666
157	0xbce994c1	-0.028513314
158	0xbe9ca46b	-0.3059419
159	0xbe86dbd2	-0.26339585
160	0x3ea4c27d	0.32179633
161	0x3dd4cf74	0.10391131
162	0x3e23e60e	0.16005728
163	0x3e6b0f85	0.22955139
164	0xbd52ef0c	-0.051497504
165	0xbc9f420a	-0.01944067
166	0x3e455fde	0.19274852
167	0x3b765343	0.003758625
168	0xbc7446cb	-0.0149094565
169	0xbd1e12db	-0.0385922
170	0xbe8cf755	-0.2753245
171	0xbe59d289	-0.21271719
172	0x3c8b75c6	0.017023932
173	0x3dbe169d	0.09281657
174	0xbea85ddf	-0.32884118
175	0x3e172a9e	0.14762351
176	0x3d563eef	0.052306112
177	0x3e0ae6bb	0.13564579
178	0x3dda9ca7	0.1067441
179	0xbc26c730	-0.010179326
180	0xbd5253b2	-0.05134935
181	0x3d0d244b	0.03445844
182	0xbd973539	-0.07383198
183	0x3dd3812d	0.10327373
184	0x3cb17c74	0.02166579
185	0xbd727be4	-0.059200183
186	0x3cba202c	0.022720419
187	0x3cc547b5	0.024082044
188	0xbd9c755a	-0.076395705
189	0xbd30011e	-0.042969815
190	0x3e9b7740	0.30364418
191	0x3e6511a4	0.2237001
192	0x3cff004c	0.031128071
193	0x3dacd637	0.08439296
194	0x3bdb6b7c	0.0066961627
195	0x3e8f383a	0.27972585
196	0xbdd00c1c	-0.1015856
197	0x3e895d20	0.2682886
198	0xbd930d63	-0.07180288
199	0x3e01d662	0.12679437
200	0x3e90502b	0.28186163
201	0xbd4664a9	-0.04843584
202	0x3dfcade6	0.12337856
203	0xbd1e099e	-0.03858339
204	0x3e5447c4	0.20730501
205	0x3d3dabd4	0.046306446
206	0xbda4e1d6	-0.08050887
207	0xbe408dca	-0.18804088
208	0x3e7791fd	0.24176784
209	0xbbc675bf	-0.006056517
210	0x3df1085d	0.11769173
211	0xbcf4776e	-0.029842105
212	0xbd1c3370	-0.038134992
213	0xbca3543b	-0.019937625
214	0xbe50dd97	-0.2039703
215	0x3cfadb01	0.030622007
216	0xbd08c80d	-0.03339391
217	0xbccced55	-0.025015512
218	0x3cb2315d	0.021752054
219	0x3dd61f79	0.10455222
220	0xbe0a2075	-0.13488944
221	0xbca08eb6	-0.0195993
222	0xbdc33b3e	-0.09532784
223	0x3cd56d13	0.026052987
224	0x3d910304	0.07080653
225	0x3bd3d8ee	0.006465069
226	0x3e84e6e0	0.25957394
227	0x3e67b0e7	0.22626077
228	0x3ddb9506	0.10721783
229	0x3d206e90	0.03916794
230	0xbcbf17b9	-0.023326742
231	0xbe7d70f8	-0.24750125
232	0x3e61c89d	0.22049184
233	0x3d8f17b7	0.06986945
234	0x3dfadbb8	0.12248939
235	0x3d548233	0.05188198
236	0xbd84a591	-0.06476892
237	0x3e68cf39	0.22735299
238	0xbd14a8f4	-0.03629394
239	0x3e79b0cc	0.24383849
240	0xbc70f663	-0.014707181
241	0xbe33c844	-0.17556864
242	0x3e41ad7f	0.1891384
243	0x3b7ad9a9	0.0038276708
244	0xbc925315	-0.017861882
245	0xbc2a3e1c	-0.010390785
246	0x3e361c12	0.17784145
247	0x3e0d2324	0.13782936
248	0x3e1a30d7	0.15057693
249	0x3e6c3966	0.23068771
250	0x3e06e1ee	0.13172123
251	0xbe4ec05d	-0.20190568
252	0x3e8603d7	0.26174805
253	0x3ead4ada	0.3384617
254	0xbe166fd4	-0.14691097
255	0x3e371320	0.1787839

weight f4 [200, 400]
0	0x3bddef39	0.0067729023
1	0x3d2d929f	0.042376157
2	0x3cea76e7	0.02862115
3	0x3dbf3a0c	0.093372434
4	0xbd010a80	-0.031504154
5	0x3dba994e	0.09111272
6	0x3d8e8381	0.06958676
7	0xbe2c0e2a	-0.16802278
8	0x3d20b501	0.03923512
9	0xbd8cafaf	-0.068694465
10	0xbd0c9bf1	-0.034328405
11	0xbe2032bc	-0.15644354
12	0xbd742c90	-0.05961281
13	0x3e04f8a6	0.12985477
14	0xbc65c416	-0.014023801
15	0x3de5ccd6	0.1122071
16	0xbd5dc30d	-0.054141093
17	0xbd35fc14	-0.044429854
18	0xbcf2efde	-0.029655393
19	0xbc3f1f1e	-0.011665134
20	0xbd8c4192	-0.06848444
21	0xbeaa5b32	-0.33272702
22	0x3d16b694	0.036795214
23	0x3b9fcbe5	0.004876601
24	0xbd1ab437	-0.037769523
25	0x3bef1e8b	0.007297342
26	0x3d2779f3	0.040887784
27	0xba0c6a1d	-0.0005356388
28	0xbc53ecbf	-0.012934863
29	0xbd33348c	-0.043751284
30	0x3d356dee	0.04429429
31	0x3dd10eda	0.10207911
32	0xbad110b9	-0.0015950418
33	0xbdb62134	-0.08893052
34	0xbce40006	-0.027832042
35	0xbe0d8e7f	-0.13823889
36	0x3d3e1e39	0.04641554
37	0xbd2b24b6	-0.041783057
38	0xbdcf659d	-0.10126803
39	0x3ccd341b	0.02504926
40	0x3d52d8ed	0.051476408
41	0x3d428d26	0.04749789
42	0x3d8d58a4	0.069016725
43	0xbc5e078b	-0.013551603
44	0xbc9ed3ef	-0.019388167
45	0xbd4a24af	-0.04935139
46	0x3d8665e1	0.065624006
47	0x3ba15903	0.004923941
48	0x3c2a715c	0.010403004
49	0xbe062a72	-0.13102129
50	0x3cfd0103	0.030884271
51	0x3cf2b929	0.029629307
52	0x3d314616	0.04327973
53	0x3da9e14a	0.082949236
54	0xbdb2cf05	-0.08730892
55	0xbe33d481	-0.17561533
56	0x3d57fc7f	0.052731033
57	0x3d3c5c3a	0.04598639
58	0xbdd7469f	-0.10511517
59	0xbd3dc45f	-0.046329852
60	0x3d19f51a	0.037587263
61	0xbd249451	-0.040180508
62	0x3de93f32	0.11389007
63	0x3ca4b6f8	0.020106778
64	0xbe91b0fc	-0.2845534
65	0xbd898c3d	-0.067162015
66	0x3e05a9f2	0.1305311
67	0xbda6455c	-0.08118698
68	0x3d95219e	0.072818026
69	0xbbc44d63	-0.0059906705
70	0xbc219545	-0.009862249
71	0x3d1e10df	0.03859031
72	0xbd302983	-0.04300834
73	0xbc89889c	-0.016788773
74	0xbc8b8fde	-0.017036375
75	0x3dd3b594	0.10337368
76	0x3df0e7d7	0.1176297
77	0x3d7eb2f3	0.062182378
78	0x3d72124d	0.059099484
79	0x3e261d12	0.16222027
80	0x3b074c12	0.0020644707
81	0x3da1fae6	0.07909183
82	0x3a51296d	0.000797889
83	0xbd8f95ad	-0.0701097
84	0xbe1b78c1	-0.15182783
85	0xbe28d0fa	-0.16485968
86	0x3db35ce8	0.08757955
87	0xbe68b66a	-0.22725835
88	0x3d9dc2a5	0.07703141
89	0x3d4470eb	0.04795925
90	0x3e4912b6	0.19636044
91	0x3c6a5019	0.014301323
92	0xbbeaeeb0	-0.007169567
93	0xbc5e18dd	-0.013555733
94	0x3d78da7f	0.06075525
95	0x3d211c03	0.039333355
96	0x3c000a43	0.007814947
97	0xbd4e9ab7	-0.050440516
98	0x3d3f28e8	0.04666987
99	0xbbf8b7e6	-0.007590282
100	0xbe289f01	-0.16466905
101	0x3d1c3d68	0.0381445
102	0xbd3b6ca2	-0.045757897
103	0xbe0ca2f1	-0.13734032
104	0xbb4d813f	-0.0031357554
105	0xbdeb406d	-0.114868976
106	0x3d2a2340	0.041537523
107	0xbd3154e4	-0.04329385
108	0x3d5f7dc7	0.05456331
109	0x3ccdf6d0	0.025142103
110	0xbd3427b1	-0.043983165
111	0xbd822c44	-0.06356099
112	0xbb75c5c2	-0.0037501906
113	0x3cd04a73	0.025426125
114	0xbd27600b	-0.040863078
115	0xbd4e32c4	-0.050341383
116	0x3d5337c5	0.051566858
117	0xbcf12d39	-0.02944051
118	0x3e4009f4	0.18753797
119	0xbd7762c3	-0.06039692
120	0xbc8f5660	-0.017497241
121	0x3d08ea8f	0.033426818
122	0xbc6beabd	-0.014399228
123	0x3e26c8af	0.16287492
124	0x3d21574b	0.03938989
125	0xbd08696c	-0.033303663
126	0xbdf36096	-0.11883657
127	0xbbeb661b	-0.007183803
128	0xbc6cc4c7	-0.014451212
129	0xbd259bb7	-0.040431704
130	0x3e009971	0.12558533
131	0xbb5350d4	-0.0032244222
132	0xbbfc98ba	-0.007708636
133	0x3bbd838c	0.005783504
134	0x3c68072b	0.014161865
135	0x3ccf26b0	0.025287002
136	0xbd1e8245	-0.038698453
137	0xbcdcdc8b	-0.026960632
138	0x3d73bca8	0.05950609
139	0x3d6292b0	0.055315673
140	0x3e363e41	0.17797185
141	0x3ce39417	0.027780576
142	0x3cc204e3	0.02368397
143	0xbb0d08da	-0.0021520169
144	0xbd8ebf18	-0.06970042
145	0xbc8aed8b	-0.016958972
146	0x3dc9b278	0.09848493
147	0x3d2decee	0.042462282
148	0x3d3fa34c	0.04678659
149	0x3e08db4c	0.13364905
150	0xbc8a127c	-0.016854517
151	0x3cea59e2	0.028607313
152	0x3d95acca	0.073083475
153	0x3b25f922	0.0025325497
154	0x3da0da4b	0.07854136
155	0xbdf8526c	-0.12125096
156	0x3b723fd0	0.0036964305
157	0x3d64c8a4	0.05585541
158	0xbe05b8f5	-0.13058837
159	0x3e0224d9	0.12709369
160	0x3dc763fb	0.09735867
161	0x3d193e22	0.03741277
162	0xbb214b6d	-0.0024611608
163	0xbd7dbc61	-0.06194723
164	0xbddfbc2e	-0.10924564
165	0x3d42ad12	0.047528334
166	0xbcd6b562	-0.026209537
167	0xbda40aee	-0.08009897
168	0x3dcb4c1f	0.09926628
169	0xbce7265e	-0.028216537
170	0xbd41b7e3	-0.04729451
171	0xbdda7c35	-0.10668222
172	0xbccefb84	-0.025266416
173	0x3d936239	0.07196469
174	0x3e87f440	0.26553535
175	0xbe04c56d	-0.12965937
176	0x3da31ddb	0.07964679
177	0xbd25bb9f	-0.040462133
178	0xbd5d33fd	-0.054004658
179	0x3bf06f94	0.00733752
180	0x3be9b0cf	0.007131673
181	0x3d8bdb5f	0.06828951
182	0xbe138f63	-0.14410166
183	0xbd6879c4	-0.05675675
184	0xbe084958	-0.13309228
185	0x3e107a49	0.14109148
186	0x3d409ecc	0.04702644
187	0xbcaaa9f0	-0.020832986
188	0x3a033df4	0.0005006485
189	0xbc88eebd	-0.016715402
190	0x3cf17ad7	0.02947752
191	0xbda149cc	-0.07875404
192	0x3e0e8ee3	0.13921694
193	0xbe8d7b65	-0.27633205
194	0xbe0fd40a	-0.1404573
195	0x3da2a3ad	0.07941375
196	0x3d72f279	0.05931327
197	0xbd10964f	-0.035299595
198	0xbd0bdd05	-0.034146328
199	0xbe0b299e	-0.13590094
200	0x3c5fb1e8	0.013653256
201	0x3d8ada4e	0.067799196
202	0x3cd2266f	0.025653092
203	0x3d760d1a	0.06007109
204	0xbd587ccc	-0.05285339
205	0xbde99744	-0.11405805
206	0x3d9abe45	0.07555822
207	0xbcd3d8a6	-0.025860142
208	0xbc19c209	-0.0093846405
209	0xbe5adb1c	-0.21372646
210	0x3d3f2c52	0.046673127
211	0xbde85b3a	-0.11345525
212	0x3e8915f1	0.26774552
213	0x3ce5958c	0.028025411
214	0xbc944f2f	-0.018104164
215	0x3c58180b	0.013189326
216	0x3de1fcab	0.11034521
217	0x3e31520b	0.17316453
218	0xbeccc9f7	-0.39997837
219	0x3bfc64c2	0.007702441
220	0x3ce568e2	0.028004114
221	0x3d14a5ae	0.036290817
222	0x3ae7777a	0.0017659508
223	0x3e83ab2c	0.2571653
224	0xbe19efd4	-0.15032893
225	0xbe418d23	-0.18901496
226	0x3d46d7bb	0.04854558
227	0x3cfc2ca1	0.030783
228	0x3dd6e5b8	0.10493034
229	0xbdd27e09	-0.102779455
230	0xbdd495b9	-0.1038012
231	0x3cb65a5b	0.022259882
232	0xbdb8b4d1	-0.09018863
233	0xbe06c5e9	-0.13161434
234	0xbc2b9464	-0.010472391
235	0x3d6013e6	0.054706477
236	0x3d89a05d	0.0672004
237	0xbd0c5a26	-0.03426566
238	0xbc248d3c	-0.0100434385
239	0xbdbfd829	-0.09367401
240	0xbd834930	-0.06410444
241	0x3d8f7a76	0.070057794
242	0x3cb216b3	0.02173934
243	0xbdebe8a3	-0.11518981
244	0x3d356cc7	0.04429319
245	0xbe4bf353	-0.1991704
246	0x3ddd3885	0.10801796
247	0xbe052521	-0.13002445
248	0x3d129da2	0.03579486
249	0x3c2793c6	0.010228103
250	0xbdc3e6ce	-0.09565507
251	0xbcd16814	-0.025562324
252	0xba273c60	-0.0006379541
253	0xbd95dffe	-0.07318114
254	0xbd33e6a9	-0.043921147
255	0xbd691216	-0.056902014

bias f4 [200]
0	0x3cf30654	0.029666103
1	0xbcb5cc99	-0.022192286
2	0x3d69ad5d	0.057050098
3	0x3d4b4c81	0.049633507
4	0x3cf1ca75	0.029515484
5	0xbc74e357	-0.01494678
6	0x3b10dea3	0.0022105358
7	0xbd1067a1	-0.03525508
8	0x3d259edf	0.040434714
9	0xbd0eebd2	-0.034892865
10	0x3c9ee741	0.01939738
11	0xba0abd85	-0.0005292523
12	0x3d60665a	0.05478511
13	0xbc0c87d0	-0.008577302
14	0xbcd83948	-0.026394501
15	0x3d85e8d2	0.065385476
16	0x3bce7eae	0.0063017225
17	0x3cca4600	0.024691582
18	0xbcb86ba9	-0.022512274
19	0xb91abbec	-0.00014756591
20	0xbc9e420a	-0.0193186
21	0x3c0e9fec	0.0087051205
22	0xbd274af2	-0.040842958
23	0x3d0d5d21	0.034512643
24	0x3d3b8df2	0.045789666
25	0x3c40349f	0.011731296
26	0xbd2a433e	-0.041568033
27	0xbd1c59d9	-0.038171623
28	0xbd0a0bda	-0.03370271
29	0xbd3c65a4	-0.04599537
30	0x3cef8386	0.02923752
31	0xbb6470a7	-0.0034857185
32	0x3d53cdb2	0.05170984
33	0x3cb5fa41	0.022214057
34	0x3ccad567	0.024759961
35	0x3c40a123	0.011757168
36	0x3bf57d8b	0.0074917725
37	0xbc05b869	-0.008161643
38	0x3d432104	0.047638908
39	0x3d5fb073	0.054611634
40	0x3d1c2b7a	0.0381274
41	0xbc6711ff	-0.014103412
42	0xbd12a0f9	-0.035798047
43	0x3d3fa3b3	0.046786975
44	0x3d687d7c	0.056760296
45	0xbd2ad98b	-0.04171137
46	0xbbe344f3	-0.0069357096
47	0x3d2c08ee	0.042000704
48	0xbc6c2ba0	-0.014414698
49	0xbcbb106b	-0.022834977
50	0x3cf29e24	0.029616423
51	0x3d84aad9	0.06477899
52	0xbd6bee72	-0.057600446
53	0x3c005651	0.007833079
54	0x3d4e4b67	0.050364878
55	0x3d3fbd43	0.046811353
56	0x3ca4a073	0.02009604
57	0xbcecd3f1	-0.028909655
58	0xbcf7afb0	-0.030235142
59	0x3d140d8d	0.036145736
60	0xbc6e4572	-0.014542924
61	0x3ce057b9	0.02738558
62	0x3c656a37	0.014002374
63	0x3c64a996	0.013956448
64	0x3cfc8de7	0.030829383
65	0xbd13b7e5	-0.036064047
66	0x3d0d4056	0.034485184
67	0x3cf7fd2c	0.030272089
68	0x3c6ec3a0	0.014573008
69	0x3d53f560	0.05174768
70	0xbd1a031c	-0.03760062
71	0xbc0a7ca9	-0.008452573
72	0x3d7235f8	0.0591335
73	0x3d746abd	0.059672106
74	0xbcb2853b	-0.021792045
75	0xbcd32ddd	-0.025778705
76	0x39c0fe61	0.0003681062
77	0xbc099454	-0.008397181
78	0x3cf70879	0.030155407
79	0x3caa7cf0	0.020811528
80	0xbc68b527	-0.014203346
81	0xbae40977	-0.001739784
82	0x3b319964	0.0027099485
83	0x3d533849	0.05156735
84	0xbd247283	-0.04014827
85	0xbcb5e13c	-0.022202127
86	0x3cff0f91	0.031135352
87	0x3d5598a1	0.05214751
88	0x3d0b6516	0.03403195
89	0xbd103ccc	-0.03521423
90	0xbcfd59c5	-0.030926595
91	0xbc98e34d	-0.018663073
92	0xbced53e8	-0.028970674
93	0x3c236b91	0.009974376
94	0x3af81cae	0.0018929446
95	0x3cc075b0	0.023493618
96	0xbd14af25	-0.036299843
97	0x3bacd32b	0.0052741966
98	0x3d41913d	0.04725765
99	0xbc4cf3a6	-0.012509262
100	0x3d63ac99	0.055584524
101	0x3cca9c44	0.024732716
102	0xbc32e821	-0.010919602
103	0x3b92004c	0.004455602
104	0x3d250a21	0.040292863
105	0x3ce5f68b	0.028071662
106	0xbbcacd46	-0.0061890213
107	0x3d246963	0.040139567
108	0xbc80b7df	-0.015712677
109	0xbc85d43d	-0.016336555
110	0x3d3fca07	0.046823528
111	0x3c99bdf0	0.018767327
112	0x3c0949f2	0.008379446
113	0x3d10b866	0.035332106
114	0x3d25a32f	0.040438827
115	0xbc0a3ddb	-0.008437599
116	0x3d615ac3	0.055018198
117	0xbd4aee0b	-0.04954342
118	0xbc9512cd	-0.018197441
119	0xbaeb5d98	-0.001795697
120	0x3d15dea1	0.03658927
121	0x3cc0079b	0.023441127
122	0x3bd82b21	0.0065969382
123	0x3d680293	0.05664308
124	0xbbe52362	-0.0069927434
125	0x3cbff723	0.023433274
126	0xbbe0c8b5	-0.0068598636
127	0x3cb27510	0.021784335
128	0x3d06e2c6	0.03293111
129	0x3cd6f08f	0.026237754
130	0xbcea24e5	-0.028582046
131	0xbd2be423	-0.041965615
132	0x3d1e056a	0.038579382
133	0xbce2221b	-0.027604153
134	0x3d27ba64	0.04094924
135	0xbc85bb9f	-0.016324816
136	0x3d176f48	0.03697136
137	0xbcd58705	-0.026065359
138	0x3c145c42	0.009055199
139	0xbcb219e8	-0.021740869
140	0xbc0fdf28	-0.008781232
141	0x3d484c68	0.04890099
142	0x3ca493ee	0.02009007
143	0x3ca1582e	0.019695368
144	0xbcac19a7	-0.021008326
145	0x3d54ea7e	0.05198144
146	0xbbf6b40c	-0.0075287875
147	0x3cca7d0d	0.024717832
148	0x3d832c9c	0.06404993
149	0xbcd3b6d4	-0.025844015
150	0xbd3e199e	-0.04641115
151	0x3bf7add7	0.007558565
152	0xbc8e6300	-0.017381191
153	0x3d9364f8	0.07196993
154	0x3d2b33c1	0.041797403
155	0x3d6def41	0.0580895
156	0xbc9f5769	-0.01945086
157	0x3a2f2f48	0.00066827657
158	0x3d4ac6a1	0.049505834
159	0x3d2e4582	0.042546757
160	0x38aa1848	8.1107544e-05
161	0x3ccd713c	0.025078408
162	0x3d314fca	0.043288983
163	0x3d2211cc	0.039567754
164	0xbd2401ff	-0.040040966
165	0xbcd44acb	-0.02591457
166	0x3cc5737f	0.024102924
167	0xbd12a5a8	-0.035802513
168	0xbc128c53	-0.008944589
169	0xbc5afef5	-0.013366451
170	0x3b6a24a5	0.0035727408
171	0xbc20d286	-0.009815818
172	0x3c408118	0.011749528
173	0x3c5e5d40	0.013572037
174	0xbc5b7d21	-0.013396532
175	0x3d10dc2b	0.03536622
176	0x3ccbefad	0.02489456
177	0xbd2ada6c	-0.04171221
178	0x3c6b1715	0.014348765
179	0x3d64f70e	0.055899672
180	0x3d3ae57f	0.04562902
181	0xbc99a51d	-0.01875549
182	0x3ceea33a	0.029130567
183	0x3ce90c67	0.028448297
184	0x3c545baa	0.012961308
185	0xbc61c96e	-0.013780935
186	0x3c71c467	0.014756299
187	0xbd870875	-0.0659341
188	0xbcfa58b1	-0.03055987
189	0x3cd09309	0.025460737
190	0xbcd40a9d	-0.025883967
191	0x3d4f783f	0.050651785
192	0x3d6c0c23	0.057628762
193	0x3cefb945	0.029263148
194	0x3d45f228	0.04832664
195	0x3d14f6af	0.03636807
196	0x3b04af46	0.0020246073
197	0x3cc3fc41	0.023923995
198	0xbd022d87	-0.0317817
199	0xb9d0727a	-0.00039758143

weight f4 [2, 200]
0	0x3dfb03aa	0.12256558
1	0x3f120118	0.5703292
2	0x3dd6b89a	0.10484429
3	0x3ea1258f	0.31473967
4	0xbef6d10d	-0.48206368
5	0x3e405053	0.18780641
6	0x3eba4d36	0.36387032
7	0xbdeb61f8	-0.114932954
8	0xbe2aee39	-0.16692437
9	0xbd8aa273	-0.06769266
10	0xbda251fc	-0.079257935
11	0xbdfc177b	-0.12309166
12	0xbe601644	-0.21883494
13	0xbe170c47	-0.14750777
14	0x3d22a173	0.03970475
15	0x3e3419fe	0.1758804
16	0xbe0ea86e	-0.13931438
17	0x3decae46	0.115566775
18	0xbe6a0b15	-0.2285579
19	0xbe594743	-0.2121859
20	0xbe3c1d5f	-0.18370579
21	0xbe3026fe	-0.17202374
22	0xbd60458b	-0.05475382
23	0xbe3deeb1	-0.18548085
24	0x3ee0faf7	0.4394147
25	0x3f3394f8	0.70149183
26	0xbe212c4b	-0.15739553
27	0xbcc9f110	-0.02465108
28	0x3e9061fb	0.28199753
29	0xbe10dbd0	-0.14146352
30	0xbeb091f7	-0.34486362
31	0x3e2155bd	0.15755363
32	0x3eebaf31	0.46032098
33	0xbe3d9427	-0.18513547
34	0x3e344079	0.1760272
35	0xbc5a609b	-0.013328697
36	0xbe58afe1	-0.21160842
37	0xbd426a2e	-0.047464542
38	0xbdcf5e3f	-0.10125398
39	0x3d47def5	0.048796613
40	0xbe1b6900	-0.15176773
41	0xbdfb3ebf	-0.12267827
42	0xbeb213fa	-0.34780866
43	0x3e8a94db	0.27066693
44	0x3e6f6c82	0.23381236
45	0xbd68beb6	-0.0568225
46	0x3d589c07	0.052883174
47	0xbe0cda61	-0.1375518
48	0xbd1fe422	-0.039035924
49	0xbe3e44fe	-0.18581006
50	0x3e7bc54e	0.24586985
51	0xbdc473de	-0.095924124
52	0xbdea1a1c	-0.11430761
53	0xbee30b3a	-0.44344503
54	0x3db68459	0.08911962
55	0x3e8d0d10	0.27549028
56	0xbe5d1901	-0.2159157
57	0x3e5e13d6	0.21687254
58	0x3ea7a41a	0.32742387
59	0x3f2aface	0.6678895
60	0x3d459243	0.04823519
61	0x3e0675b5	0.13130839
62	0xbe178c3c	-0.14799589
63	0x3e347ada	0.17624989
64	0x3e424c07	0.18974315
65	0xbe2a1b3b	-0.1661195
66	0xbd6d799f	-0.057977315
67	0xbd45f51d	-0.04832946
68	0xbe93f1fd	-0.2889556
69	0x3f2e1c8b	0.68012303
70	0x3e314806	0.17312631
71	0x3e3c749e	0.18403861
72	0xbdfd52fa	-0.12369342
73	0xbe21589e	-0.15756461
74	0x3dac3a0f	0.08409511
75	0x3de11af3	0.10991468
76	0xbdeae04b	-0.11468562
77	0x3e33830d	0.1753046
78	0x3dc48eb0	0.09597528
79	0x3e368d35	0.17827304
80	0xbe0c8af0	-0.13724875
81	0xbe0889c8	-0.1333381
82	0xbc2f03fa	-0.0106821
83	0x3d9b3511	0.07578481
84	0xbd853c5b	-0.065056525
85	0x3f06faca	0.52726424
86	0x3e466e95	0.19378121
87	0x3e4c44e2	0.19948152
88	0x3e5d4873	0.21609668
89	0xbce6f95b	-0.028195074
90	0x3e3212f7	0.17390047
91	0x3f1b1b3d	0.6058844
92	0x3e91f4b9	0.2850702
93	0xbe294631	-0.16530682
94	0x3e0f96c6	0.14022359
95	0xbec4629c	-0.38356483
96	0xbe4382c6	-0.19092855
97	0xbf009bd1	-0.50237757
98	0x3d887317	0.06662577
99	0x3e408a57	0.18802772
100	0x3e3c35fc	0.18379968
101	0x3ec1584e	0.37762684
102	0xbe059b3d	-0.130475
103	0xbe647b2d	-0.22312613
104	0x3f18090c	0.59388804
105	0x3e11d9b9	0.14243211
106	0x3e648ca1	0.2231927
107	0xbc8f5f37	-0.017501457
108	0xbe6e1e05	-0.23253639
109	0x3e83428e	0.25636715
110	0x3e13500f	0.14386009
111	0x3ef214ed	0.4728159
112	0xbe6832ae	-0.22675583
113	0x3f28e196	0.65969217
114	0x3e7b4025	0.24536188
115	0x3ca7d06c	0.020485125
116	0xbe981d24	-0.29709733
117	0xbca0df41	-0.019637706
118	0x3e1e73f3	0.15473919
119	0xbe355b8c	-0.17710704
120	0x3ec0c6ce	0.37651676
121	0x3cbca9ad	0.023030126
122	0xbd79f6ba	-0.061026312
123	0x3deb4fc1	0.11489821
124	0xbbb118f8	-0.005404588
125	0xbe175e90	-0.14782166
126	0x3dd79f73	0.105284594
127	0xbe1f8e9c	-0.15581745
128	0xbd6a5ce0	-0.05721748
129	0x3e80b3cb	0.2513717
130	0x3e10e83e	0.14151093
131	0x3e19ee42	0.15032294
132	0x3df3ddef	0.11907565
133	0xbe803963	-0.25043783
134	0xbe445d20	-0.1917615
135	0xbe4c5fb6	-0.19958386
136	0x3f4eb555	0.8074544
137	0xbe44b022	-0.19207814
138	0x3e993eca	0.29930717
139	0xbe8db27b	-0.27675232
140	0xbe0f8cb6	-0.1401852
141	0x3e38d7c6	0.18051061
142	0xbe466bf2	-0.19377115
143	0x3ec13d03	0.3774186
144	0xbce640cc	-0.02810707
145	0xbe517066	-0.20453033
146	0x3d6d2fbd	0.057906855
147	0xbef53504	-0.4789201
148	0xbdfc5c13	-0.12322249
149	0xbd38ccd4	-0.045117214
150	0xbd6674ed	-0.056263853
151	0xbdb3bf52	-0.08776726
152	0x3ec1bedb	0.37840924
153	0x3be2bd67	0.006919551
154	0xbdf7cd76	-0.120997354
155	0x3e3e9efa	0.18615332
156	0x3dfd04ac	0.12354407
157	0xbe056f18	-0.1303066
158	0xbe1484cb	-0.14503781
159	0x3e038cf0	0.12846732
160	0xbd35b2d9	-0.044360016
161	0x3f03a43b	0.5142247
162	0x3f190a5a	0.5978142
163	0x3de7cf70	0.113188624
164	0xbe0ff397	-0.14057766
165	0x3e866775	0.26250806
166	0x3e6bc470	0.23024154
167	0xbc386c2d	-0.01125626
168	0xbb1f72fc	-0.002433001
169	0xbe9a6c74	-0.30160868
170	0xbcc3d736	-0.023906332
171	0xbd070bdc	-0.032970294
172	0x3e8d63e4	0.27615273
173	0x3e999d60	0.3000288
174	0xbd56ad3c	-0.052411303
175	0xbea70651	-0.32622007
176	0x3f34de4a	0.70651686
177	0xbe906878	-0.28204703
178	0x3e6c2b8d	0.23063488
179	0x3e30085c	0.17190689
180	0x3df18d40	0.117945194
181	0x3d6d3b06	0.057917617
182	0x3e3eb1db	0.18622534
183	0x3f0512d0	0.5198183
184	0x3e86c1fe	0.2631988
185	0x3e1f7e4e	0.15575525
186	0xbdfc7ff0	-0.1232909
187	0x3e7dd405	0.2478791
188	0xbe5334de	-0.20625636
189	0xbe948cb4	-0.29013598
190	0x3d6bdb32	0.057582088
191	0x3d180f59	0.03712401
192	0x3e685e23	0.2269216
193	0xbd879429	-0.06620056
194	0xbe18d709	-0.1492578
195	0x3e83922f	0.25697467
196	0x3ebb3c1e	0.36569303
197	0x3dab21cd	0.08356056
198	0x3ecc28c5	0.39874855
199	0x3dc59d39	0.096491285
200	0xbdb99714	-0.09062019
201	0x3d19d7f0	0.03755945
202	0xbe1677aa	-0.14694086
203	0x3e8de408	0.27713037
204	0xbdc4dceb	-0.09612449
205	0x3eb0dcb8	0.34543395
206	0xbf0409f2	-0.51577675
207	0x3e85bd2a	0.26120883
208	0xbe8434c1	-0.25821498
209	0xbd856101	-0.06512643
210	0x3e8ee66a	0.27910167
211	0xbe0917cf	-0.13387989
212	0x3e4ec202	0.20191196
213	0xbdb8d392	-0.09024729
214	0x3ecad9e3	0.3961936
215	0xbd7962bd	-0.06088518
216	0xbdb33ace	-0.087514505
217	0xbdb838c7	-0.089952044
218	0x3e623336	0.22089848
219	0x3e494636	0.1965569
220	0xbe83fe08	-0.25779748
221	0x3e9950ca	0.2994445
222	0x3d6d83c7	0.057987
223	0xbe672e7c	-0.22576326
224	0x3ea5954f	0.32340476
225	0x3e94bcd7	0.29050323
226	0xbe9be71e	-0.30449766
227	0xbc18c138	-0.009323411
228	0x3e6d80bb	0.23193638
229	0x3dd009b0	0.10158098
230	0xbe654fe7	-0.22393762
231	0xbd6f033a	-0.058352686
232	0x3d8af3cf	0.06784784
233	0x3d32e1d1	0.043672387
234	0xbd5fe886	-0.05466511
235	0x3c9cb913	0.019131219
236	0x3e6cdf0b	0.23131959
237	0x3d112176	0.0354323
238	0xbcc11d1e	-0.023573454
239	0xbe08d652	-0.13363007
240	0x3d05cdff	0.032667156
241	0xbdcb8108	-0.0993672
242	0xbe1ad06d	-0.1511857
243	0x3e2cee8f	0.16887878
244	0x3edfdfe9	0.43725517
245	0x3f16fae5	0.58976585
246	0xbcdb52b5	-0.026772836
247	0x3e695842	0.22787574
248	0xbccbd5fc	-0.02488231
249	0x3e906bf0	0.2820735
250	0x3f0c9ada	0.54923785
251	0xbec9e66e	-0.39433616
252	0x3e41955d	0.18904634
253	0xbdad42d6	-0.084600136
254	0xbe404425	-0.18775995
255	0x3e1d5337	0.15363775

bias f4 [2]
0	0x3d80dee1	0.06292511
1	0xbc2b33bf	-0.010449349
