lab2/problem2/neural-network-2-critic-gamma-1.pth (torch, 340877 bytes, 5 tensors)

weight f4 [400, 8]
00000000: 5e3c 203f 8bf3 d43c 9be0 fabe 83f1 57bd
00000010: 3ca2 8d3e 6a75 343f 55a8 313e 16ad 7d3e
00000020: a416 053f 15cb 02be 602c 1c3f bb73 6dbe
00000030: a05c 42be a80d 6dbe d5f8 593e 48d3 c53e
00000040: a5e6 1abe 3822 31be 2e86 3fbf 0871 8d3d
00000050: c2fe 75bf 9814 65be af39 013d 8337 923e
00000060: 8f59 33bd 748f bbbe 7d85 dbbe d450 3dbf
00000070: b86c afbd ce9c 9d3d dca4 9f3e b188 753e
00000080: 9a0c a03e c559 56be 2cbb cb3e 1485 a5be
00000090: 8875 f8be d1c8 d5be 5590 1dbf d3ec 243e
000000a0: 8bab 1dbc e497 a1bc a771 413e 6021 363f
000000b0: 81ee 7fbe 577d f03e 6657 863e fd00 06bf
000000c0: aa48 4cbe 0bbe 06be ad78 b2be f96e 773e
000000d0: a501 9b3f 270e a2be 2232 38be 8843 a63d
000000e0: 8d0e 2cbf ca28 d8be c9ec 06bf c471 9dbe
000000f0: ce78 763e 1807 8fbd cfd9 76bd ef2a 543e
00000100: aff9 a4be 524b 25bd bd24 35bf 77fc 13bf
00000110: 3539 213f b83d 7dbd 430e 7a3e 625c a53d
00000120: 5bf2 53be cbac 103e 5556 8a3d c8e6 7dbe
00000130: 75a2 49bd 3aec 27bf be01 abbe 9b3d 0e3e
00000140: 1986 8ebd 790e ec3e 1168 4bbe 5a8c 75be
00000150: ab6b 423f d8e5 a53d 7f06 cbbc e113 6c3e
00000160: 310f 903c a7f0 fbba 6521 8f3f 79f4 13be
00000170: f75c ccbe f800 0d3e 0ced c5be 66b2 e03e
00000180: 594e b73e 065f 2a3e 8db7 3abf d359 89be
00000190: 025c 0bbf f8b9 d7be 8245 d0be 940b abbe
000001a0: a0af cabe 8688 8dbd f694 883c 8e6f 23bf
000001b0: 5b05 0b3f 2b10 06be 67e6 05bf d943 3ebe
000001c0: 42cd 8ebe 97ba 7abf 8f4d aa3d 3403 19bf
000001d0: e416 37bf 316f 8a3e e57d 1bbd 62ac 36be
000001e0: c2fb 22be 82f1 883e aa6b 03be 5732 dfbe
000001f0: a2ed 15be 464f 64bf 92a0 afbe 182e f4bc
00000200: e007 23bf 8a6e 31be 7788 b4be 6e8d 5bbe
00000210: f85a 07be 7833 98be 2430 c3bd 49fb 7dbe
00000220: f6fc c1be 7119 553e 9782 d63e 7cc5 c9bc
00000230: 4b67 8bbe 42ad 053f 1027 973e 96ee a83d
00000240: ed71 c2be 9eaf 3dbf aea8 17be a589 5bbe
00000250: a109 563e f0dc 9f3e 06b6 d7bc 6903 923e
00000260: a7e7 c6bd 13fe f1bc 04c8 0c3e 548e 88bf
00000270: e641 163f 2078 ff3e 8964 023e aff4 48bd
00000280: e62d 623d 4fec 353d 18bd 1d3f 6097 203f
00000290: 8094 84be 0136 88be 24ef 89bd 87fe 9bbe
000002a0: e04a 20be 80ff 123e 9dff 2e3f 290c bd3e
000002b0: e577 96bf 15d6 12be a6b0 c73e 051f c0be
000002c0: 7227 1e3d 3113 d13d 654c 72bf 9b51 97bf
000002d0: b944 a83d 6cb9 403c 8099 bfbe f04a 90be
000002e0: 90f3 dfbc 1713 ccbe 27aa b53c efa2 5e3e
000002f0: d5ed 4cbd 2494 ed3d c83d 3cbe c480 60bd
00000300: ae34 453d d341 53bf 3547 cf3d 19be 583f
00000310: 0008 c53e 97ce 463e f216 f6be 7cc0 d4bd
00000320: bcbd 23be 1a30 db3e 5321 113f b9fd 6cbd
00000330: 1783 4dbd 949e 1e3f 2b61 8c3d f48f d0be
00000340: b6f8 e03d 46f5 0abd d929 3bbe a55b 753d
00000350: 813d 013c 01d9 5c3f 844c 1fbf 3319 64be
00000360: 7d2b 34bf d38f 24bf 59c6 0ebf a4c9 31be
00000370: b3c4 823e 81cb 483f 7823 9ebe a2dd 02be
00000380: 9823 f8be 6a28 22bd 963b 323e 409f 92be
00000390: 9a9e 843e bb17 943d 708d 61bc 4c6e 543e
000003a0: 6fca 25bf 466b e4be 0ff6 3f3e 73da 5f3e
000003b0: 1a46 df3e e8f2 00bf b118 a1be 4d8b 673d
000003c0: 083d 6cbe 2959 da3e 36b5 6f3d 53b8 efbe
000003d0: 3414 84bf 9d4a be3e d660 b53e 74ea bfbd
000003e0: fc28 ad3e f336 9abd 6723 d93e 26ab 4d3f
000003f0: dae5 5cbe d15f 103f c6ae e03e b3a7 9fbd
0.62592113 0.025995037 -0.48999485 -0.052720558 0.27662838 0.7049166 0.1734937 0.24773058
0.5198767 -0.12772782 0.6100521 -0.23188679 -0.18980646 -0.2314974 0.21286328 0.38637757
-0.15127046 -0.1729821 -0.74814117 0.069063246 -0.96091855 -0.22371137 0.031549152 0.28557977
-0.04378658 -0.36632884 -0.4287528 -0.7395146 -0.08565658 0.07695924 0.31180465 0.23977925
0.31259614 -0.20932682 0.39791238 -0.32328093 -0.4852717 -0.41754773 -0.6154836 0.16105966
-0.009623419 -0.019725747 0.18891011 0.71144676 -0.24993326 0.46970627 0.26238555 -0.5234526
-0.19949594 -0.13158433 -0.34857693 0.24163426 1.2109877 -0.31651422 -0.17987874 0.08118349
-0.672097 -0.4221862 -0.52705055 -0.3075086 0.24069521 -0.06983775 -0.060266312 0.20719503
-0.32221743 -0.040355034 -0.70759183 -0.57807106 0.62977916 -0.061826438 0.24419503 0.08074261
-0.2069792 0.14128415 0.06754748 -0.24795067 -0.049227197 -0.6559483 -0.33399767 0.13890688
-0.06959171 0.46104792 -0.19863917 -0.23979321 0.7594554 0.0810048 -0.024783371 0.23054458
0.017585369 -0.00192215 1.1182066 -0.14448728 -0.39914677 0.13769901 -0.38657415 0.43886107
0.35801962 0.16637811 -0.72936326 -0.26826343 -0.5443727 -0.4213407 -0.4067803 -0.3340727
-0.39587116 -0.069108054 0.016672593 -0.63842094 0.54305047 -0.13092105 -0.5230469 -0.1858057
-0.27890974 -0.97940964 0.083155744 -0.5977051 -0.71519303 0.27037957 -0.03796186 -0.17839196
-0.1591635 0.26746756 -0.1283404 -0.43593094 -0.14641431 -0.8918346 -0.34302193 -0.029807135
-0.6368389 -0.17327324 -0.35260364 -0.2144067 -0.13218296 -0.29726768 -0.095306665 -0.24802889
-0.37888306 0.20810486 0.41896507 -0.0246303 -0.27227244 0.52217495 0.2952199 0.08248632
-0.37977543 -0.74096096 -0.1481044 -0.21439226 0.2090211 0.3122325 -0.026331913 0.28518227
-0.09712153 -0.029540097 0.13748175 -1.0668435 0.58694303 0.49896336 0.12733664 -0.049061473
0.055219553 0.044414815 0.6161666 0.6273098 -0.25894547 -0.26603702 -0.067350656 -0.30467626
-0.15653563 0.14355278 0.68358785 0.3692334 -1.1755339 -0.14339478 0.3900196 -0.37523666
0.038611837 0.102087386 -0.9464782 -1.1821779 0.08216233 0.011762958 -0.374218 -0.28182173
-0.02733782 -0.39858314 0.022175862 0.21741842 -0.0500315 0.11600521 -0.18382943 -0.0548103
0.048145942 -0.82522315 0.101210035 0.84665066 0.38482666 0.19414745 -0.4806438 -0.10388276
-0.15990347 0.42810136 0.56691474 -0.057859156 -0.050173845 0.6196072 0.06854471 -0.40734828
0.10984938 -0.033925317 -0.18277682 0.059901852 0.007888199 0.8626862 -0.6222613 -0.22275238
-0.7037886 -0.6428196 -0.55771405 -0.17362076 0.25540695 0.7843552 -0.30886436 -0.12779859
-0.48464656 -0.039589323 0.17405543 -0.28637123 0.25902253 0.07231089 -0.0137666315 0.207452
-0.64762014 -0.44613093 0.18746208 0.21860676 0.4360817 -0.50370646 -0.3146415 0.056529332
-0.23070157 0.4264615 0.058522426 -0.46820316 -1.0318666 0.371663 0.35425442 -0.0937089
0.3382033 -0.07530012 0.42409822 0.80339277 -0.21572056 0.56396204 0.43883342 -0.07795658

bias f4 [400]
00000000: a41b 1fbe 060d 23be aa6d 4c3e 5fd2 d7be
00000010: 989c a73b 5034 b0be b415 513e c1d4 963e
00000020: 94b3 213e 40e1 103e 218c 62be 456b 6f3c
00000030: bd7a 3e3d bfc4 99be e4cc 2fbe 1943 9c3d
00000040: fdca 283e eead 533e f994 8f3e b744 863d
00000050: 9daa 7fbe 6b6a 41be 0853 f13c 7759 c4be
00000060: f222 9b3d 9e28 88bc bf2d c23c 6be9 cebb
00000070: 7897 cfbe abd5 393d 4a1e 5fbe e628 96be
00000080: 5319 b4be 1275 32be 5af6 1f3e 2f7a f93d
00000090: 570c 4abe 7c06 cebe 60ec b1be 466d 933b
000000a0: 789e aebe 346f cd3c 097d 67be 5cf1 e03e
000000b0: 4d5e c73c d7a6 9a3d d27a 59be 5ad8 1cbc
000000c0: 47de 6ebc 1863 50bd 9143 c1be 3f7a a53c
000000d0: d675 9ebe d7de dabd f642 a33e c989 10bf
000000e0: 0e93 b3be 1a27 973d bb30 443d c3a8 a33e
000000f0: 45de c9be 30ef c53e 8a90 e1bd 857a b3bd
00000100: 571a e2bd 7d64 acbd f9e4 bebe b349 cfbe
00000110: c0a0 2b3b b76c 33bd 1b1e 303e 25ce 09bf
00000120: 9f72 01bd cf38 8ebd fdb3 86bd 0e8c 73be
00000130: 66b1 9dbe 51b1 82be cee5 5bbe afab 973e
00000140: bf88 75bd ebd7 42be bac6 0dbe 784f 6cbe
00000150: d50a 7abd 6db2 c8be 83a9 41be 1eb8 f4bd
00000160: 2b9d 77be d356 c9be 83a1 60bd afa4 153b
00000170: a445 1b3e 500a 1b3d 2c15 e7be ffb8 e9be
00000180: 056c fdbd 431d 313e c954 3bbd c0c0 97be
00000190: 3355 cbbe 0a2b 0d3e b6db 1fbe 47c5 f63c
000001a0: 7906 b33d 4441 c2be b619 f7be 234b d0bd
000001b0: 4822 b53d 8e53 aebe 9152 193d af9b 363e
000001c0: b069 103e 0b5e 0dbe a794 c5be e34d 87be
000001d0: 31c2 523e 1652 dcbc 34ca f9be 64b5 2dbe
000001e0: 7f7d 88bd 331b 99be 5ad2 ecbd f979 acbd
000001f0: 6253 9ebe d3cf 023e 0639 ccbe 5f55 dbbe
00000200: 613b 11bf 6e7b 8d3e ad4e afbc 3229 1dbe
00000210: 5805 50be e159 a2be 5d27 c4bd cf3a e8be
00000220: 8dd0 50be 7438 8cbe ef2c 633e 526c 293d
00000230: 3f5c 92be 0eef 59be eb88 443c 6277 42be
00000240: 3127 093e 990e a33e 8cf9 c2bb cd88 08bf
00000250: 3cda 453c 11af 91bd eed6 9dbe 2c52 c6be
00000260: b681 19bf 5ac1 a6be 5eef 00be faa7 2f3c
00000270: 3d80 91be 4851 62be 3cb8 18be 4d10 753d
00000280: 5490 203e 38d1 223e ada1 82be ef5e c63d
00000290: 6b6f 103e 4ccd 3c3e 7fe6 86be 31f1 783c
000002a0: 83e5 0e3e 345a c13d 0867 043e dd4d 9c3d
000002b0: 9101 a5be 4a79 e2be 1ee0 6bbe ee34 09bf
000002c0: 391c 87be 3697 863e 3a3a 5ebe 5d07 e7be
000002d0: e853 7c3d f1a7 aabe 9cc2 d7be b3c1 acbe
000002e0: ba5e 2c3e c7cd 8fbe 6e78 003d 5c47 853d
000002f0: bb5a de3d d685 34bd 95ed 6d3e 5471 aebe
00000300: e56f f0bd 523c a9bd ae46 f0bc f19d 1abe
00000310: 1177 67be 7c5e 02bf 192d 8abe 940e 40bd
00000320: 9a9e eebe 2203 45bc 53f6 7fba aa06 d53d
00000330: 5935 353e 985f 98be 4d44 11bd 3c2f 45bd
00000340: 7429 813c 34ee 9cbe 8f2d f73d bf1a a23e
00000350: be92 7bb8 9bab 8fbe a39d b1be 171e edbd
00000360: c3b6 9cbd 56e4 99bd 84f5 b4bc 7b28 20be
00000370: ff44 74be 7614 83be ff51 583e ff92 043e
00000380: 32eb eebe ef7b a83d 5090 2abc 0eba 6d3d
00000390: 30be 4bbe 6fa6 e0be d720 183d 6615 eabe
000003a0: 6906 973e 88c8 3b3e 1c31 8ebe 381d e3be
000003b0: e44d 15bd 6026 893e 826b ccbc 50f9 413c
000003c0: bdf5 f93d 875e 60be 2206 00bf 7d3d 043e
000003d0: 8993 8bbe d563 94bd 411c a7be 44e9 38be
000003e0: 7ea2 fbbd fc09 02bc 2755 453e 33a4 c3bd
000003f0: 6115 c5be a764 2f3d b009 22be 192d 3d3e
-0.15537888 -0.15922937 0.19963709 -0.42152688 0.005115103 -0.3441491 0.20418435 0.29459193
0.1579116 0.14148426 -0.22123767 0.014612977 0.04650377 -0.30032918 -0.17168003 0.07629985
0.16483684 0.20671818 0.28043345 0.06556075 -0.24967428 -0.18888251 0.029458538 -0.38349506
0.07575025 -0.01662093 0.023703454 -0.0063144467 -0.4054525 0.045369785 -0.21788898 -0.29328078
-0.3517557 -0.17427471 0.1562132 0.12181508 -0.1973127 -0.40239322 -0.34750652 0.0044991104
-0.34105277 0.02507744 -0.22606291 0.43934143 0.024336958 0.075513534 -0.21238258 -0.009573067
-0.014579362 -0.050875753 -0.37746862 0.020199893 -0.30949277 -0.106870346 0.31887025 -0.56460243
-0.3507313 0.07380505 0.047898035 0.31964692 -0.3942739 0.38659048 -0.11013897 -0.08763603
-0.1104018 -0.08417604 -0.37284067 -0.40485916 0.0026188344 -0.04380485 0.17198984 -0.53830177
-0.03160345 -0.06944429 -0.06577299 -0.23783895 -0.30799407 -0.25525907 -0.21474382 0.29623172
-0.059944864 -0.19027679 -0.1384534 -0.2307719 -0.061045486 -0.39198628 -0.1891232 -0.1194918
-0.24181049 -0.39324054 -0.05484153 0.0022833755 0.15163285 0.03785163 -0.4513334 -0.45648953
-0.12374119 0.17296319 -0.045735154 -0.29639244 -0.3971344 0.1378595 -0.15611157 0.030123366
0.08741469 -0.3794042 -0.48261803 -0.10170581 0.08844429 -0.34048122 0.037432257 0.17832826
0.14102817 -0.13805406 -0.38589975 -0.2642661 0.2058189 -0.02689461 -0.4878708 -0.16963726
-0.066645615 -0.29903564 -0.11563559 -0.08421702 -0.3092299 0.12774591 -0.39887255 -0.4283857
-0.5673123 0.27633232 -0.02139982 -0.15347746 -0.20314538 -0.31709197 -0.095778205 -0.45357367
-0.20392056 -0.2738682 0.2218511 0.041363068 -0.28586003 -0.21282598 0.011995534 -0.18990853
0.13393857 0.31847075 -0.0059501585 -0.5333374 0.012075957 -0.071134694 -0.3082804 -0.38734567
-0.5996355 -0.3256939 -0.12591311 0.010721201 -0.2841815 -0.22101319 -0.1491403 0.05983
0.15680057 0.15900123 -0.25513974 0.09686076 0.14105003 0.1843769 -0.2634773 0.015194223
0.1395474 0.09441033 0.12929928 0.07632039 -0.32227758 -0.4423316 -0.23034713 -0.5359639
-0.2638872 0.2628724 -0.21701899 -0.45122805 0.061603457 -0.33331254 -0.42140663 -0.3374153
0.1683301 -0.28086683 0.03136485 0.06507751 0.10857149 -0.04407295 0.23235162 -0.34070837
-0.11740092 -0.08263458 -0.029330578 -0.15099312 -0.22604014 -0.5092542 -0.26987532 -0.046888903
-0.46605378 -0.012024673 -0.0009764183 0.10401662 0.17696132 -0.29760432 -0.035465527 -0.04814075
0.015766837 -0.30650485 0.120692365 0.3166103 -5.9979728e-05 -0.28060612 -0.3469058 -0.11578005
-0.076520465 -0.07514255 -0.022089727 -0.15640442 -0.23854445 -0.25601548 0.21125029 0.129467
-0.46663815 0.082267635 -0.010410383 0.058038764 -0.1989677 -0.4387698 0.037140694 -0.4571945
0.29497078 0.18338215 -0.27771842 -0.4435823 -0.036451235 0.2678709 -0.024953607 0.011839226
0.12205074 -0.2191106 -0.5000936 0.12914081 -0.27260998 -0.07245604 -0.32638744 -0.18057734
-0.12286852 -0.007936951 0.19270764 -0.09552803 -0.38492873 0.0428206 -0.15824008 0.18474235

weight f4 [200, 402]
00000000: 004d 2d3d 500e fabd 28f4 983e 8d2c b9be
00000010: 9ef1 68bc b8e9 88be 551e 943e 5c80 ae3d
00000020: 7064 2ebe badc acbd f760 adbd 3ca3 dabe
00000030: 1edb 433d f29a cfbd a6aa 3e3e 0699 4fbe
00000040: e23e 9e3e d121 e7bc 4ce2 15bc 534c 0dbf
00000050: b008 67bf dd47 6cbf 059d 1bbf cf16 2ebd
00000060: b7a7 2f3e 651b b83c 4990 a03d bda5 8fbc
00000070: 4f1d 3c3e fd67 923e 2957 113d 8ed3 9c3e
00000080: d49a d53c 027a 7b3e bd6d 7c3e 3f28 5c3d
00000090: 4873 9f3e a64f f43d 8144 cebe 5d52 eabe
000000a0: 71aa 81be fd43 993d 43a0 a73e 09ce 353e
000000b0: 2f56 e33e c1be b13e dff1 d13e e8e9 64bb
000000c0: b0f7 183e 31c1 a73e 299c f23e cc8d c83e
000000d0: 83f7 0a3f ecfb d63e ad47 5d3e ed16 fdbe
000000e0: 0a06 c43c 0f94 963e e127 9abf 69a5 13bf
000000f0: f33a 963e 7cbc 85bd bd73 8cbf 1528 0a3e
00000100: c28c b13d 1389 283e 37c6 ccbe 2589 903c
00000110: 4070 41bf 2339 0bbe a702 813c 1261 a1be
00000120: 49a8 e3bd b534 41bb 9488 33be 8b33 4fbe
00000130: b343 f6be 8482 2fbe 7979 ac3d 3689 393b
00000140: 634f 453d f5e6 01bf e0be 7abd dc63 88bd
00000150: cde7 133f 79f7 a5be 208c 2d3e 4740 d6be
00000160: a96a 96ba e73e 1ebe 4100 433f ed53 4ebf
00000170: aa51 cabc c47e 4e3e 3b0c 193d 739a aabe
00000180: fa9b 3abc 3304 a33e 6ad1 7bbe adf2 b93d
00000190: 40ce 3dbf c506 413e 2023 24bd 313f 283d
000001a0: 5e25 853e 03a2 343e 0e2e 9cbe dd20 91bc
000001b0: eeb4 043f d55a b63e ea49 4fbe 1045 a53d
000001c0: 3b7b 8abe 5e31 d13c 145f f0bd b216 96be
000001d0: 550f 813e 3df7 583c 1406 01bf 7ed9 8ebd
000001e0: 20d4 043e 493c e5bd 9e40 553e 4ae7 0b3e
000001f0: a87f 5cbe 43cc 003e 3b4e 8a3e 372e 7ebf
00000200: 96e7 fcbc 626f 833e f5c8 a13c 0b75 25be
00000210: aedb 4cbe 2f5a d23e daea d23e a11d 863d
00000220: 956c ee3e 7b57 c23e 318a 74bd 7711 4a3e
00000230: 61a4 67bd b0cf 9ebe 2816 29be 40dc bb3e
00000240: aa96 c33e 0ab7 96bf ba37 813e f4d3 61bf
00000250: 2045 833e ce83 38bd 5339 b9be 819f 99be
00000260: 9836 323d 07bf eb3d 4547 6e3e 777f 21bd
00000270: ccc2 e3be a3ff b83e 2360 e9bd 0ed8 f2be
00000280: c9db 5bbe 12a1 b6be 62f4 efbe a6fc 46be
00000290: d421 af3e a93c 00bf 2fad 5bbe 5bd0 31bf
000002a0: 9d6d 643c 870d 2a3e 6ddc b43e 6ce5 c23d
000002b0: 5799 a4bd 225f 3b3e edd7 0dbe 43f7 10bf
000002c0: d0db 45bc edac 69be 6e86 053f 85ce 96bd
000002d0: f13e 8d3e 699e 443c f642 bbbe 0939 d73c
000002e0: 742a 1dbe ca17 9f3a 1a5a 05be e760 a53e
000002f0: 0fe7 80bc 5ff7 08bf f3b8 a6bd a1f9 653e
00000300: 7577 68bd 8670 2a3e c7a2 523e 5b96 8d3e
00000310: 3117 1a3d 45db dc3e 8558 ad3d ad4d 36bf
00000320: 4ee4 7c3e 2714 c0be c521 e13e 1037 a5be
00000330: 5714 c93d ccb6 4d3e fb88 12be fa92 2abf
00000340: 0c41 d7be 714c 1bbd 26d3 ae3d 2bc2 ecbc
00000350: 0808 703f 37ba 5a3e ee68 da3d cfa7 003e
00000360: f905 cf3d 8906 d03d 6997 013f a185 893d
00000370: 7715 05bd 20a5 ec3e ca03 4fbd 6048 5dbf
00000380: 408d bfbe 0f2b 2a3f c8dd 3e3f add0 5f3e
00000390: 386b 713e 851c 51bf 4989 003f dee1 1abc
000003a0: 7deb 33be 216b a93e a557 b73c 9df8 f9bc
000003b0: f52b c7be f5a5 543c 3f64 83bd 6f6c 43bd
000003c0: e380 d63e 2d57 8c3e 3deb 053e 1cc6 de3e
000003d0: 8513 2e3f 828d 3c3c 76d3 d43e 0972 593e
000003e0: 68f0 32be 1669 7cbe 175a b63e 3166 28bf
000003f0: dddd 34be f409 193e a3c0 173f fc1f 47bc
0.04230976 -0.12209761 0.29873776 -0.36166802 -0.014217762 -0.26740813 0.28929392 0.08520576
-0.17030501 -0.08440538 -0.0846576 -0.42702663 0.04781639 -0.10136975 0.18619785 -0.20273218
0.3090735 -0.028214367 -0.009148192 -0.55194587 -0.9024763 -0.92297155 -0.6078647 -0.04250222
0.17153822 0.022474 0.0784002 -0.017535085 0.18370555 0.28594962 0.035483513 0.30630153
0.026074804 0.24558261 0.24651237 0.05374932 0.3114264 0.11929254 -0.4028664 -0.45765963
-0.2532535 0.07483671 0.32739457 0.17754377 0.4440169 0.34715846 0.41004845 -0.0034929458
0.14938235 0.3276458 0.47384766 0.39170682 0.5428392 0.41989076 0.21609373 -0.49431553
0.02392866 0.29409835 -1.204342 -0.5767427 0.2934185 -0.06530091 -1.097282 0.13491853
0.086694255 0.1645854 -0.39994976 0.01764352 -0.75561905 -0.13596015 0.015748335 -0.3151937
-0.11116082 -0.0029480879 -0.17532569 -0.20234506 -0.48098525 -0.17139632 0.084216066 0.0028310544
0.048171412 -0.5074304 -0.06121719 -0.06659672 0.57775575 -0.3241537 0.16947985 -0.41845915
-0.0011475879 -0.15453683 0.7617226 -0.8059681 -0.024697144 0.20165545 0.03736518 -0.3332096
-0.011389727 0.3183914 -0.24591604 0.0907949 -0.7414284 0.18850239 -0.04007256 0.04107589
0.2600507 0.17639928 -0.30503887 -0.017715866 0.51838577 0.35616174 -0.2024304 0.08069813
-0.27047142 0.025536235 -0.11736885 -0.2931419 0.2520701 0.01324254 -0.503999 -0.06975077
0.12971544 -0.11193139 0.20825431 0.13662449 -0.21533072 0.1257792 0.2701281 -0.9928927
-0.030872148 0.25670916 0.019749144 -0.1615793 -0.20005676 0.4108443 0.41194803 0.0654862
0.46567217 0.37957367 -0.059702102 0.19733225 -0.05655325 -0.31017828 -0.16512358 0.36691475
0.38200885 -1.1774609 0.25237828 -0.8821404 0.25638676 -0.045047574 -0.36176547 -0.30004504
0.043509096 0.11511045 0.23269375 -0.0394282 -0.44484556 0.36132535 -0.1139529 -0.47430462
-0.2147056 -0.35669762 -0.46866137 -0.19432315 0.34205496 -0.5009256 -0.21452783 -0.6945855
0.0139421495 0.16606723 0.35324422 0.09516415 -0.0803706 0.18298009 -0.138519 -0.5662729
-0.012076333 -0.22819872 0.5215825 -0.07363609 0.27587083 0.012000659 -0.36574525 0.026272314
-0.15348226 0.0012137827 -0.13022652 0.32300493 -0.015735177 -0.5350246 -0.08140745 0.22458507
-0.056754548 0.16644487 0.20569907 0.27653775 0.037619773 0.4313604 0.084641494 -0.71212274
0.24696466 -0.37515375 0.43971077 -0.32268572 0.09818333 0.20089263 -0.14310066 -0.6663052
-0.42041814 -0.037914697 0.08536367 -0.02890118 0.93762255 0.21360098 0.10664545 0.12564014
0.10108561 0.101574965 0.5062166 0.06714941 -0.032491174 0.4621973 -0.050540723 -0.8643856
-0.37412453 0.6647195 0.7455716 0.21856947 0.23576057 -0.8168414 0.5020948 -0.009453265
-0.175703 0.33089545 0.02238066 -0.030514056 -0.38900724 0.01297902 -0.06415605 -0.047710832
0.41895208 0.2741026 0.13078018 0.4351052 0.67998534 0.0115083475 0.41567582 0.21234907
-0.1747452 -0.24649462 0.35615608 -0.6578093 -0.17662759 0.14945203 0.59278315 -0.012153622

bias f4 [200]
00000000: 1b91 633d eed4 4c3c 3af0 86bd c3bf 10be
00000010: 8a81 8cbd 3690 b8bd 3294 8cbd e85d 33bd
00000020: 3594 7cbd c7e2 40be ddd3 df3c af8e 803c
00000030: 7755 213e 8705 a4bd 5bfc bf3c cae8 a0be
00000040: c3e3 ed3d 7863 713e 1be1 523d acd5 343e
00000050: c19f ecbc 0402 b3ba faff 89bc 7958 5fbd
00000060: 8837 b3bd 2075 adbd ef6b 81bc 9aa3 8c3c
00000070: 8518 6e3e 38dd ffbd 2f43 a1bc e3f1 9ebd
00000080: f9bd 823e c871 743e 8e4d c0bd 857a 5dbd
00000090: 0d3d 213b fe1d 993e 3647 573d 6cd9 44bd
000000a0: a7e2 43bd 1175 29bd 5578 5bbe a64f e6bd
000000b0: e957 ed3d 6d95 49bd 07a2 1bbe 1001 0b3e
000000c0: b3b3 a0be 8231 ba3c 6347 a53c 1866 f83d
000000d0: db6b 8abc c74a 07bd 84a8 d6bd 3f46 213e
000000e0: 11b6 883d 800f 28bd 0fc9 ab3c df7f 2bbc
000000f0: 1578 9cbc 66f4 563d a658 823d 89d7 6fbb
00000100: 6b47 babd 2158 09bd b5b7 27be bfb1 e13d
00000110: 934d 8b3c cb44 cd3c c9ba f43d 69cd 07bd
00000120: 917a 07be 7841 ef3c 2391 c53c c9a9 633e
00000130: 6e10 82bd 97b0 48bd dddc d1bb 1691 c83d
00000140: ffa0 36bd 8697 1fbe f302 433e 6782 5f3e
00000150: b37c 53bd 5d97 4bbd a32d b9bc 02a8 5d3c
00000160: 3798 a93b 9836 183e e937 033e 3946 9bbc
00000170: fdd3 c03c a747 3dbe 483f 26be 76d9 89bc
00000180: 69a0 09be 4f75 c4bb e341 b53d 2dd3 41be
00000190: e5b6 45be a5b4 dbba 2494 81bc ec81 ed3d
000001a0: fc4d 28be 4f81 0a3e 15d4 40be a400 a8bd
000001b0: d1ae c4bc 889c 413e 4d78 9c3d 5ebc f1bd
000001c0: dadc 133e ee7b 5a3e af42 b3bd 0301 213e
000001d0: 4ccf 813d b3a7 5abe 9f9a 62bd fa9a 443c
000001e0: ab2f 9f3d 067f 16bd 8e27 5abd 9dab 9dbc
000001f0: 7de4 d6bb 192c b43d c48a 38bd 3155 52be
00000200: 1176 d2bb cdb6 8a3a a611 16bd 052a 15be
00000210: ca0c 18be bf31 1bbd b837 c73c c01a ebbd
00000220: b11a 483d cab5 733c 997d d93c 08bb 81bd
00000230: 0ec8 e53c a4c6 5dbd e544 d43d 0786 093e
00000240: 87e0 413c a0e6 1f3e 1062 033e d002 11bd
00000250: 7e1c ec3d 9de7 48be 790d 57be 8a06 bfbc
00000260: dba8 89be daf0 7d3b bcd9 fcbb 627d 853b
00000270: 9119 d2bb cc47 4cbd 5f5b cd3d 021b 423b
00000280: 2c64 80be 26be c7bc bc12 503e 005f 75bd
00000290: c527 8bbd 53d7 873d 2a89 e0bc 6878 48be
000002a0: 2429 403e e2a4 d43c 5ede c0bc fa77 cfbd
000002b0: 257e af3d 5843 0abd 3204 0a3e 3859 993c
000002c0: c990 423e 08aa 08bc c114 53bd 5b05 e83d
000002d0: 1a5a 08be 6b7d c4bd c27f 5ebe 5216 c33d
000002e0: 0f10 bf3d dcdf c5bb 402d 6dbc 9c4b f33d
000002f0: ebf8 be3d e0e1 27be 7dbe 0c3e 8ce3 f63b
00000300: 00b9 e4bd d868 973c 101d a6bc b400 e4bd
00000310: 2f15 aebe 5d6b 2fbd b27a 50bd 3813 71be
0.055558305 0.012501938 -0.06588788 -0.14135651 -0.06860645 -0.09011881 -0.068642035 -0.043790728
-0.06166478 -0.18836509 0.027322704 0.015693037 0.15755259 -0.08008867 0.023435762 -0.31427604
0.11615708 0.235731 0.05148421 0.17659634 -0.02888477 -0.0013657217 -0.016845692 -0.054527733
-0.08750826 -0.084696054 -0.015798537 0.017167855 0.23251541 -0.12493366 -0.019685356 -0.0776098
0.25535563 0.23871529 -0.093897924 -0.05407192 0.002460304 0.29905695 0.052558146 -0.048058912
-0.047823574 -0.04137141 -0.21432622 -0.112456605 0.11589033 -0.04921477 -0.15198527 0.13574624
-0.313871 0.022728685 0.020175641 0.12128848 -0.016897133 -0.033030298 -0.104813606 0.15749453
0.066753514 -0.041030407 0.020969896 -0.010467499 -0.019100228 0.05247917 0.063645646 -0.0036596975
-0.09095653 -0.033531312 -0.16378672 0.110202305 0.017004764 0.025057217 0.11949689 -0.03315488
-0.13230349 0.029206023 0.024117058 0.22232737 -0.0635079 -0.048996534 -0.006404503 0.09793298
-0.04458713 -0.15585145 0.19044094 0.21827088 -0.051632594 -0.0497049 -0.02260477 0.013528826
0.005175616 0.14864576 0.12814297 -0.018954383 0.023538584 -0.18484364 -0.16235077 -0.016827326
-0.13440098 -0.0059954296 0.088504575 -0.18928213 -0.1930805 -0.001676221 -0.01581771 0.11597046
-0.16435999 0.1352589 -0.18830903 -0.08203247 -0.02400914 0.18907368 0.07640133 -0.11803506
0.14439717 0.21336338 -0.08752953 0.15723042 0.06338367 -0.21353035 -0.05532324 0.01199984
0.07772764 -0.036742233 -0.05326038 -0.01924687 -0.0065579996 0.087974735 -0.045054212 -0.2054031
-0.006422766 0.0010583043 -0.036637925 -0.1456681 -0.14848629 -0.03788924 0.024318561 -0.114797115
0.04885358 0.014874885 0.026549147 -0.063345015 0.028049495 -0.054144517 0.10364703 0.13430034
0.011833317 0.1561532 0.12830377 -0.035403073 0.11528872 -0.19619603 -0.21001233 -0.023318548
-0.2688664 0.0038748295 -0.0077163856 0.0040737847 -0.006411739 -0.04987316 0.10027193 0.0029618149
-0.25076425 -0.024382662 0.20319647 -0.059905052 -0.06794695 0.06632867 -0.027409155 -0.19577181
0.18765694 0.025957529 -0.023543533 -0.101303056 0.08568982 -0.03375563 0.13478163 0.0187193
0.19000544 -0.00834132 -0.051533464 0.113291465 -0.13315621 -0.09594234 -0.21728423 0.09525742
0.09329235 -0.006038649 -0.0144761205 0.11879656 0.09324821 -0.16394758 0.1374454 0.00753445
-0.111680984 0.01848261 -0.02027753 -0.111329466 -0.34000537 -0.042827 -0.05089826 -0.23542488

weight f4 [1, 200]
00000000: 3b2d 963f 2a08 af3e cf58 debe 4fdd dcbe
00000010: 372c 313d 6708 1b3f b748 8dbe 8293 7dbe
00000020: 8187 b5bc 8472 b0be 018e 96be 26ba 193c
00000030: 7bc0 9fbe c282 dbbe b5ae f73c a332 bebe
00000040: 2196 74be f875 9b3f 866b a03f f829 84be
00000050: ecec e8be 04eb cabe e8e8 9e3c 25dd db3c
00000060: 277b 25be 1809 6dbe 21cf 6dbc dd40 6f3d
00000070: 9973 b4be 6aa0 90be a17f 663d 1657 e7be
00000080: 2e84 b13f 7e6a 01bf 4290 ddbb 50a8 553d
00000090: 2606 3b3d 5418 b33f 3628 2b3f 49e4 f83b
000000a0: dc19 543d 4858 363c e21b 06bf 0e01 14bf
000000b0: d52a 6c3f 4b29 05bf 83ef b7be 9374 4bbe
000000c0: 00d1 1fbf c580 db3b b936 39be c38a acbe
000000d0: 6b83 cebe 53ec 0b3f 7b22 c6be a946 61be
000000e0: 955f b3be f494 0b3d 2ac4 46bc 4b0c c13c
000000f0: ecee 5d3d a199 703f 044d 913e 0284 6a3d
00000100: 94c3 cabe 1895 f33c 424f dabe 478d 86be
00000110: abe1 f93b cd59 843d b97a e4be 2fc3 3f3d
00000120: e0b7 49be 7acc 30be db89 ea3e 0047 d4be
00000130: b5e0 02bf 6b8f 233d 911a c7be a763 13be
00000140: 8154 86be bb2c 4cbe d14d b23f 354d 023f
00000150: 045b 4d3d bdab e33b 1106 9bbb 5aec 753d
00000160: 4cd5 c6be 05e5 963f 6b0b 873e caf2 f53c
00000170: 43b4 93be b9d5 bebe 01d4 18bf 9c06 6f3f
00000180: 945c dabd d802 2cbb 125b 28be 7fa9 abbe
00000190: f58f e7be 8bb3 103b 4c3e 5b3d cdab 57be
000001a0: beca 07bf 03da cfbe 86e8 9cbe 3783 d0ba
000001b0: 4aee 123c 5aff 9ebe 2b39 663f 74d3 e3be
000001c0: 662b efbe c495 ddbe 0c74 62be 68d3 c23f
000001d0: 3e8d e73e 3d80 d4bd b811 403d fe50 bf3c
000001e0: 327b 843f c4ce f3be dc57 9cbf 4820 4bbc
000001f0: 0e78 783d 0706 c1be a3e8 2f3d d01e 02bf
00000200: 3382 163b 8081 a4be 67ff d33c f3dd 98be
00000210: 5dd6 afbe cb25 023b a022 8ebe 3d48 1fbf
00000220: 90fa fdbe d2cb cd3c bef9 c83b fe7d 843c
00000230: 0140 863f 70e8 a7ba 0ea0 b9be 4e2b 99be
00000240: c665 393d 70b0 bfbe 5a09 8a3e 8153 79be
00000250: 46f4 44be f3d5 bbbe 2dde 79be f0de 693c
00000260: 6cef bbbe 76ad 96ba 924f 71bc 5b09 4f3d
00000270: db1e 5d3c 582d 383d 428a 16bf 2fa2 f5be
00000280: a74b 26bf cba3 8e3b 0b90 6a3e 7cdd cdbe
00000290: 6399 1fbf d678 cabe af1c 103b eb95 96be
000002a0: 36e9 643f 2701 edbe 0e83 3cbe 5038 91be
000002b0: 2395 bebe d0d3 4e3d 8888 9a3e 89fb 943e
000002c0: 7d43 643f 6995 0a3d 683d dbbe 21d7 7d3f
000002d0: 91b3 18bf 3689 d6be af60 92be 2ddf 9e3f
000002e0: 57f0 4fbe bc49 5f3d 6ef4 023d e5be 11bf
000002f0: 4b3d 8e3e ec08 30bd 0300 403f 422e 3bbd
00000300: bc10 8cbe caca 433c 4f0f 793c 282c 0bbf
00000310: 4499 33bf 23e8 6f3c c165 283d ab13 18be
1.1732553 0.34185916 -0.4342713 -0.43137595 0.043255057 0.60559696 -0.2759454 -0.24763301
-0.02215934 -0.34462368 -0.29405215 0.00938276 -0.31201538 -0.42873198 0.030234674 -0.37148008
-0.23885395 1.2145376 1.2532814 -0.2581327 -0.45493257 -0.39632428 0.019398168 0.026838848
-0.1616026 -0.23148 -0.014514715 0.058411468 -0.35244444 -0.28247386 0.05627406 -0.4518363
1.3868463 -0.5055312 -0.0067615816 0.05216247 0.04566016 1.3991799 0.6685823 0.007595573
0.051782474 0.011129446 -0.52386296 -0.5781411 0.92252856 -0.52016133 -0.3592492 -0.19868688
-0.62428284 0.0066987 -0.18087281 -0.33699617 -0.4033464 0.5465748 -0.38698182 -0.21999611
-0.3503386 0.0340776 -0.01213173 0.023565432 0.05418293 0.9398442 0.2837907 0.0572548
-0.3960234 0.02973418 -0.42638594 -0.2627966 0.0076257787 0.06462441 -0.4462488 0.046817
-0.19699049 -0.17265502 0.458083 -0.4146042 -0.51124126 0.039931696 -0.38887456 -0.14393483
-0.26236346 -0.19938938 1.3929998 0.5089906 0.050135627 0.006947963 -0.004730948 0.060039856
-0.38834608 1.1788641 0.263759 0.030022997 -0.28848466 -0.37272432 -0.5969849 0.9336946
-0.10662189 -0.0026246812 -0.1644099 -0.33527753 -0.45227018 0.0022079672 0.053526208 -0.2106163
-0.53043735 -0.40596017 -0.3064615 -0.0015908246 0.008967945 -0.31054193 0.8993098 -0.44497263
-0.46712798 -0.43278325 -0.22114581 1.5220766 0.45224947 -0.10376022 0.046891898 0.02335405
1.0350096 -0.47618687 -1.2214313 -0.012397833 0.060661368 -0.3769991 0.04294647 -0.50828266
0.0022965788 -0.3213005 0.025878621 -0.29856834 -0.34343234 0.0019858952 -0.27760792 -0.622196
-0.49605227 0.025121603 0.006133287 0.016173359 1.0488282 -0.0012810361 -0.36254925 -0.2991585
0.045263074 -0.374393 0.2696026 -0.2434826 -0.19233808 -0.36686668 -0.2440116 0.014274344
-0.36706102 -0.0011495787 -0.014728444 0.05054603 0.013496126 0.04496512 -0.58804715 -0.479753
-0.64959186 0.0043530217 0.2290651 -0.40208042 -0.62343425 -0.39545316 0.0021989753 -0.29411253
0.8941835 -0.46289942 -0.18409368 -0.28363276 -0.37223157 0.05049497 0.3018229 0.29098156
0.8916548 0.033833895 -0.42820287 0.99156386 -0.59648997 -0.4190156 -0.2858939 1.2411858
-0.20306526 0.054513678 0.031971388 -0.56931907 0.27781138 -0.04297726 0.7500002 -0.04569841
-0.27356517 0.011950204 0.015201404 -0.5436425 -0.7015574 0.014642748 0.041112665 -0.14851253
