lab2/problem2/neural-network-2-critic.pth (torch, 340877 bytes, 5 tensors)

weight f4 [400, 8]
000000 d2 e2 f9 bc 19 0b 10 be 91 cc 81 3e 24 3d 9c bd
       -0.030503664 -0.14066733 0.25351384 -0.07628849
000010 02 59 9d bc 94 18 bf 3c 90 5e 30 bd 29 58 bd bd
       -0.019207481 0.02332715 -0.04305893 -0.09245331
000020 00 2f 10 bf 0b d5 03 3e d3 d8 9b 3e 5c a8 93 bc
       -0.56321716 0.12874238 0.3043886 -0.018024616
000030 d8 d3 4d 3f c6 b8 df be 4a 32 1f 3e 4a 57 98 be
       0.8040137 -0.43695658 0.15546528 -0.29754096
000040 6c 53 b3 bd a4 2f c1 bc 04 70 40 3f da b8 8d bd
       -0.08756146 -0.023582287 0.7517092 -0.06920023
000050 bc 11 2b 3f d7 83 a7 be f6 9a 03 3e 30 d7 c5 be
       0.66823936 -0.32717773 0.12852082 -0.38640738
000060 32 ea c7 3e 40 ac d0 bd 33 bf eb be ee e3 f2 3d
       0.39045864 -0.10189104 -0.4604431 0.118598804
000070 b8 cb 3a bf 20 02 43 bd 0a c5 01 3e 93 68 ca be
       -0.729671 -0.04760945 0.1267282 -0.3953291
000080 d8 0a 21 bf 33 f7 83 3e 83 54 07 3e 62 59 a3 3c
       -0.6290717 0.25774536 0.13215832 0.019940082
000090 ff d5 59 bd 82 6d ee 3e ee d1 c0 3e 12 78 dd be
       -0.0531826 0.46567923 0.37660164 -0.4325567
0000a0 75 e0 09 be 59 b6 0d bf ba 4f 40 3f 2f de 8f 3e
       -0.1346453 -0.55356365 0.75121653 0.280992
0000b0 09 a4 22 be 1e f5 07 3f fd 3a c8 bd 3f 7a 0c bf
       -0.15882887 0.53108394 -0.09776876 -0.5487403
0000c0 f2 7a 0a 3e ad 9c eb bf d2 6b 36 3f b5 01 ca be
       0.13523462 -1.8407189 0.7125827 -0.39454427
0000d0 0a ae ee 3e c6 88 08 3f 4d 68 8b 3d cb eb 27 3e
       0.46617156 0.533337 0.06807003 0.16398542
0000e0 27 99 da 3e 34 d1 40 be dd 1a dc 3e 1d 1a a1 3e
       0.4269497 -0.18829805 0.42989245 0.31465235
0000f0 f2 69 cd bd 81 f4 54 3b 01 83 e6 be 1e ed 49 bf
       -0.10029973 0.0032494368 -0.45021823 -0.7887744
000100 10 3a c9 be 4f 35 bf bd fe d7 30 bf 53 c7 5f 3e
       -0.3930211 -0.0933634 -0.6907958 0.2185338
000110 e2 f9 ff be eb a9 c4 3e c7 7f 2f 3c 25 90 0e bf
       -0.49995333 0.38410887 0.010711617 -0.556887
000120 71 70 09 be 76 af 5e be 5e f4 f5 3e ca de e8 be
       -0.13421799 -0.2174662 0.48038 -0.45482475
000130 99 46 ab bf 93 e4 78 3e fb 50 a8 be 11 37 53 be
       -1.338092 0.24305944 -0.32874283 -0.20626475
000140 e7 6a c1 3e 93 83 2a bf 99 51 49 3e 8d 04 fe be
       0.37776873 -0.66607016 0.19660033 -0.49612847
000150 29 7b 70 3c 6d 48 be 3e c6 37 94 3e 38 73 0a bf
       0.014677801 0.3716463 0.28948802 -0.5408206
000160 01 e2 95 be dc 6b 25 bc 65 6e db 3d dd 97 b0 bd
       -0.2927399 -0.010096516 0.107144155 -0.086227156
000170 ad 99 c1 bf b7 8a ae 3e 2c dc 1a be cf e0 96 be
       -1.5125023 0.34090206 -0.15123051 -0.2946839
000180 3f 52 b5 3e 09 3f d3 be c8 b5 08 3f fb d0 05 bf
       0.3541431 -0.4125903 0.53402376 -0.52272004
000190 9f 37 4f be 3c ff 03 be f7 17 f5 3d 90 3d b5 3c
       -0.20236062 -0.12890333 0.119674616 0.022124082
0001a0 15 ab 13 bf 8c ae db 3d 56 08 29 3f d0 50 13 be
       -0.57682925 0.107266515 0.66028345 -0.14386296
0001b0 b0 2c f3 bd eb f8 f3 bb d3 3d 93 3e d6 04 f0 bd
       -0.11873758 -0.007445445 0.28758106 -0.117196724
0001c0 74 a2 4e be 21 f9 07 be 39 0d 00 3f 83 ab 4a be
       -0.20179158 -0.13278629 0.50020176 -0.19791989
0001d0 dc 18 22 c0 1b 86 c6 bd 0b ee 8e 3d 87 06 29 be
       -2.5327673 -0.09693547 0.06978997 -0.16506396
0001e0 45 01 29 be c6 74 0c bd b3 b2 2f bf b1 0d 01 3f
       -0.1650439 -0.03429105 -0.6863205 0.50411516
0001f0 b0 12 75 3f 86 d8 d7 3e 54 b1 e1 be de 67 a9 3d
       0.9573164 0.42157382 -0.44080603 0.08271764
000200 cd 89 24 3a f4 0f 7d bf 56 68 90 3e 52 8a 1c bd
       0.00062766374 -0.9885247 0.28204602 -0.03821785
000210 51 df 01 bf 8b bc 88 bd 7f db d1 3e b1 74 84 be
       -0.5073138 -0.06676587 0.40987775 -0.25870278
000220 d0 6f b8 3e e0 27 1a bf d3 80 af be b9 fc 88 be
       0.36022806 -0.60217094 -0.34277973 -0.26755312
000230 2a 8d fe 3e 48 97 b2 bd 7d c6 85 bd 42 d0 65 be
       0.49717075 -0.08720261 -0.06531999 -0.22442725
000240 fb 6f 83 3e 11 2b a3 3e bd 1c 74 3e e9 13 9b 3d
       0.25671372 0.31868795 0.23839088 0.07572157
000250 13 5b d0 be 71 6b 09 bf 2a e3 80 be 00 f4 98 3e
       -0.40694484 -0.5367957 -0.25173312 0.29873657
000260 aa 13 3e bd 04 16 89 bd c9 a3 1a bf 7e b9 d1 be
       -0.04640547 -0.06693652 -0.60406166 -0.40961832
000270 55 09 59 3f a7 df 4a bd 7c 47 26 3e 4e 86 aa be
       0.84779865 -0.049529698 0.16238207 -0.3330559
000280 88 25 01 bf b7 eb 79 bf a7 bd 32 bf 10 9d 02 be
       -0.50447893 -0.976253 -0.69820637 -0.12755227
000290 59 d0 16 3d c8 58 ac be e3 90 00 bd 37 25 15 3e
       0.03681979 -0.33661485 -0.031388175 0.14564978
0002a0 8b 2b a1 3e 45 29 37 bf dc 67 7c 3e 70 8d 98 be
       0.31478533 -0.7154735 0.24648994 -0.29795408
0002b0 9c a1 36 bf dd c4 bc 3e dc b5 05 be 73 64 1d 3d
       -0.71340346 0.36868945 -0.13057655 0.038425874
0002c0 74 72 8c bd 0f 10 15 bf 51 0a b3 be de ac 86 3e
       -0.06857768 -0.5822763 -0.34968808 0.26303762
0002d0 ac e3 e2 bd 3a 83 5d 3f df 6b ed 3d 1e 22 c8 be
       -0.11078581 0.8652836 0.115928404 -0.3908853
0002e0 e0 f4 27 bb 30 0c 99 be 39 94 32 3f b7 bc 92 bd
       -0.0025628135 -0.2989211 0.6975742 -0.07164901
0002f0 45 f7 96 3e 0d 17 6e be d0 e1 87 be 6f 7f bd bd
       0.29485527 -0.2325098 -0.2653947 -0.09252822
000300 a2 15 69 bc ea bd 27 be 65 9d 17 bd 0f 6d 7a 3f
       -0.014226349 -0.1638104 -0.037015337 0.9782266
000310 2a 88 31 bf 44 0e d6 3e 40 87 5b be e0 df 05 be
       -0.69348395 0.4180776 -0.21438313 -0.13073683
000320 fc 1a 02 3e af a3 e8 bc 03 9d 96 be 50 f7 13 be
       0.12705606 -0.028398363 -0.29416665 -0.14449811
000330 21 62 a2 3e bc 2a 62 be a1 28 b2 3c cc 50 26 be
       0.3171549 -0.22086614 0.021747889 -0.16241759
000340 9f c7 c4 bd 59 59 27 3d 98 5e 51 3e ac 42 8c 3c
       -0.09608387 0.040856693 0.20446241 0.017121635
000350 32 33 92 3e 98 9c 7d be 32 c2 bb be 19 dc ef 3e
       0.28554684 -0.24766767 -0.36671597 0.4684761
000360 c5 b7 17 3e 85 2e e6 bc b6 29 ae be 47 2d dd 3e
       0.14816196 -0.028098354 -0.34016198 0.43198606
000370 59 81 be be a0 74 06 be c4 81 56 3e ed 21 a5 be
       -0.3720806 -0.13130426 0.20947939 -0.32252446
000380 4a 14 8d bd c8 b9 42 3d cb 3b 97 bf 6c 5f 85 bf
       -0.068886355 0.047540456 -1.1815122 -1.0419745
000390 1d 2d 06 bf 80 16 c5 ba 14 b3 c4 3e ce 7e 9e be
       -0.5241259 -0.0015036613 0.38417876 -0.3095612
0003a0 bc 24 51 3d 37 9a 6b be 71 c8 b2 3e 7f 5d 7a 3e
       0.051060423 -0.23008047 0.3491855 0.24449728
0003b0 ab 80 c5 3f 8b bc 0f 3e 4b 9f 6a be d8 05 ed bd
       1.5429891 0.14036767 -0.22912328 -0.1157338
0003c0 0c 56 98 be ee 98 a7 3d e8 92 45 bd f7 14 cd bd
       -0.2975315 0.08183466 -0.048235804 -0.10013764
0003d0 9a 22 ba be f3 94 31 be ce fc ef 39 a5 a9 a2 be
       -0.36354524 -0.17341976 0.00045773986 -0.31770054
0003e0 a2 6b c3 bc b8 b1 76 3e d6 03 ba 3f 85 4c f7 3d
       -0.023855034 0.24091232 1.4532421 0.12075142
0003f0 ca a4 4b be e2 6b 27 3e dc 09 c1 3d 8f 77 5a bf
       -0.19887081 0.16349748 0.09425709 -0.8533868

bias f4 [400]
000000 ef 86 6d be aa 61 4b 3b 31 36 00 be 65 a2 6a bc
       -0.23196004 0.0031033554 -0.12520672 -0.014320944
000010 08 3f f5 be b0 0d 32 3e f8 94 b5 bc 68 8e 9d bb
       -0.47899652 0.17388034 -0.02216576 -0.004808236
000020 3e 64 ad 3c c6 bd 35 3d 2b 66 b9 be cf 95 36 3e
       0.021165963 0.044370435 -0.3621076 0.17830585
000030 e8 4a f7 bc 4f 4d 7c be 15 da 38 3d 5b 5a 56 3e
       -0.030187085 -0.24638866 0.045129854 0.20932905
000040 8c 77 ad 3e c3 c5 82 3d d2 20 ae be c2 ed 34 3e
       0.3388027 0.06385376 -0.34009415 0.17668822
000050 55 20 af bc 18 40 47 be f9 3d a9 3d f6 d4 06 be
       -0.021377722 -0.19458044 0.082637735 -0.13167176
000060 91 fe a6 be 0a 85 aa be bc da 09 3d 49 0b c8 be
       -0.32616094 -0.33304626 0.033655867 -0.3907111
000070 3b bc f9 3d 2c f1 48 3e bc 9a 1f bf 67 a0 61 3c
       0.12194105 0.1962325 -0.6234548 0.013771153
000080 c0 2e 6e 3e 7a 68 32 bd 20 c2 c9 be ae 8f bd be
       0.23260021 -0.043556668 -0.39405918 -0.3702368
000090 eb 89 34 be 3e 3b d0 3d bb f1 4e be 61 ca 67 bd
       -0.17630737 0.101675496 -0.202094 -0.056589488
0000a0 fa 16 45 be 65 16 69 3d b3 fd 32 be e9 01 3e bd
       -0.19247046 0.056906123 -0.17479591 -0.04638854
0000b0 86 a7 ac be 1e 4e df be 61 63 03 be a0 1b aa be
       -0.3372156 -0.43614286 -0.12830879 -0.332242
0000c0 19 18 d7 be 99 02 b8 3b b1 12 18 bc b1 5e bb 3d
       -0.42010573 0.005615544 -0.0092818 0.0914892
0000d0 3a f4 be be af dc a8 be 70 08 69 3e 28 7c 20 be
       -0.37295705 -0.32980868 0.22757125 -0.15672362
0000e0 0d 99 b4 be 30 0e 84 be 0b 3d 95 bd 0f 05 90 be
       -0.35273018 -0.25792074 -0.07287034 -0.2812886
0000f0 20 52 a1 be 38 63 3d 3c f0 e1 c8 bc b9 85 97 be
       -0.3150797 0.0115593 -0.024521798 -0.2959421
000100 e9 44 49 be 12 b5 36 3e bb d1 07 3d 7b 77 1d bc
       -0.19655193 0.1784251 0.033159 -0.009611006
000110 be 0d 53 3e 4d 0f df bb dd 88 20 bc a0 67 50 3d
       0.20610711 -0.006807244 -0.009798256 0.050880075
000120 05 07 49 bd 1d 5e 21 bc 26 17 a7 be 1b 41 39 3e
       -0.04907896 -0.0098490985 -0.32634848 0.18091242
000130 65 c7 f9 be 98 f6 66 be 2d ca 56 3d d0 73 ab 3e
       -0.48784938 -0.22555006 0.052438904 0.33486795
000140 ee e5 be 3d 03 4c 6f 3d af 3a 90 3d 8d 44 be 3c
       0.09321199 0.0584221 0.07042443 0.023226047
000150 c4 b9 7f be bb f9 1f 3e ce 13 42 bd 0c 46 01 be
       -0.24973208 0.15622608 -0.04738217 -0.12624377
000160 34 e4 bd bd c4 cc 17 be 3d b1 e9 be fd d6 b7 be
       -0.09272042 -0.14824206 -0.45643035 -0.3590621
000170 b4 38 8a 3d 1f 09 42 3e 55 f9 d9 be 81 16 21 3b
       0.067490965 0.18948792 -0.42573038 0.0024580064
000180 03 dc 70 be 58 3e e8 bc d5 37 1d be c0 4d 05 3d
       -0.23521428 -0.02835004 -0.1535333 0.03254485
000190 e3 12 36 3d c9 c5 bf be 0a 6e 3d 3e dd d1 5c 3e
       0.044451606 -0.37455586 0.18499008 0.21564431
0001a0 9c 86 d7 bd f4 2c ba be 07 96 0c be d4 cc 9d 3e
       -0.105237216 -0.36362422 -0.13729106 0.30820334
0001b0 c9 62 79 be 6a 4d b6 be 5a 12 97 bd e7 06 9a 3d
       -0.2435409 -0.35605937 -0.07376547 0.07520848
0001c0 f0 f1 10 3e b1 03 e3 3d e8 46 0f bf d7 9f 03 3e
       0.14154792 0.110846885 -0.5596757 0.12853943
0001d0 65 03 51 be c3 cd 82 bd b2 ef f9 be 87 97 48 3e
       -0.20411451 -0.06386902 -0.48815686 0.19589053
0001e0 7f 88 76 3d 4e 68 a5 3c 49 63 11 3e 8b da f6 3d
       0.060188767 0.020191338 0.1419803 0.120534025
0001f0 c8 9a 8d bd 0e 17 00 3d 26 4b ab be f3 d4 7c be
       -0.06914288 0.031271987 -0.3345577 -0.24690609
000200 73 af c0 bc e8 65 8c 3e 23 2f d3 be 1c 76 de 3b
       -0.02352116 0.27421498 -0.412469 0.006788982
000210 e1 37 a6 be 6a ff 0d 3e 76 85 b4 bd 22 31 85 3d
       -0.32464507 0.13866964 -0.08814518 0.06503512
000220 43 83 62 3d 38 f5 63 be b3 23 83 bc 84 2e 9f bc
       0.055300962 -0.22261512 -0.016008234 -0.01943136
000230 3a 84 27 3d c1 20 9b be f0 06 ee bd ac 98 51 be
       0.040897585 -0.30298427 -0.11622417 -0.20468396
000240 cf 60 96 3d 8e e0 93 be 30 66 ba bd 5b 30 6f 3d
       0.073426835 -0.2888226 -0.09101522 0.058395725
000250 8b 32 8d 3c 15 9b d6 3d f7 73 af 3d de 7b 0c bd
       0.017236015 0.10478798 0.085670404 -0.034297816
000260 d6 f1 bd 3d c0 b9 1e 3e b9 c9 ed 3d 56 a5 0a be
       0.09274642 0.15500546 0.11610741 -0.13539633
000270 ee 59 1c be fd a2 ac be 79 ce 41 3c d8 60 87 3d
       -0.1526868 -0.337181 0.011829012 0.06610268
000280 64 db b7 be 6a 34 00 bf f8 66 a3 bd 6d 10 d0 bb
       -0.3590957 -0.5007998 -0.07978624 -0.0063496144
000290 7f 4c fa be d7 a5 81 3e cb f9 bc be 41 6b b9 be
       -0.48886487 0.25321838 -0.36909327 -0.3621464
0002a0 b4 62 8c be f0 76 04 be 75 20 9e be ae 5e df 3d
       -0.27419055 -0.12935996 -0.30884138 0.109067306
0002b0 eb 73 4b 3e 1f 07 9c be 02 49 a8 3d 19 5a 1a 3e
       0.19868438 -0.30474183 0.0821705 0.15073432
0002c0 a9 f4 94 3d 26 94 bd 3d ca 12 33 be 18 96 0a 3d
       0.07273228 0.09256773 -0.17487636 0.033834547
0002d0 9b 6d 1a be db c6 e0 3e cc b9 13 bf 4c 29 18 3d
       -0.15080874 0.43901715 -0.5770538 0.03714876
0002e0 ea 37 70 be 54 31 89 3d 50 48 96 3d a0 02 b0 be
       -0.2345883 0.06698862 0.07338011 -0.34377003
0002f0 c6 6f 13 3b 52 4f 51 be 1d b2 ba be ba e5 bc 3b
       0.0022497042 -0.20440415 -0.36464015 0.00576469
000300 aa 05 c2 bd c3 0a 21 3e 8c f3 d3 be f8 ed 40 bb
       -0.094737366 0.15726762 -0.4139675 -0.0029438715
000310 cb ee e4 be db ea 05 bf b2 d1 0e be 7e 5a a9 3d
       -0.44713435 -0.52311486 -0.1394718 0.08269213
000320 70 85 f6 be c1 41 2a 3e 3c ad f8 3d 41 c0 4d 3d
       -0.4814868 0.16626646 0.12142417 0.050232176
000330 83 c9 bc 3d cb 14 0b 3e a4 6e b1 be d2 8d 42 3e
       0.09218123 0.1358215 -0.34654725 0.18999413
000340 39 8e a1 be de 22 e8 3a 07 88 94 3d 43 5b d6 3d
       -0.3155382 0.0017710587 0.07252508 0.104666255
000350 32 9b 2b 3e 13 35 2c be 5b 49 29 be 26 b3 3e 3e
       0.16758421 -0.16817121 -0.16531889 0.18623027
000360 51 b0 11 bc e6 21 8a 39 97 b8 cc be a3 89 dc be
       -0.008892135 0.00026346667 -0.3998458 -0.43073758
000370 7f ed 9b be 68 1f 34 be ee 15 e1 3d 89 cf da bc
       -0.30454633 -0.17590106 0.10990511 -0.026710289
000380 c8 4d ab be c2 54 d4 bd 6a 27 8c 3c 07 6e bc be
       -0.3345778 -0.10367729 0.017108638 -0.36802694
000390 59 5f 79 3c 88 f1 24 3e 07 c7 4c be 12 c4 19 be
       0.015220487 0.16107762 -0.19997798 -0.15016201
0003a0 17 06 75 bc 5f 01 26 3e e8 57 57 3e ba 97 e3 ba
       -0.014955065 0.1621146 0.21029627 -0.0017363944
0003b0 6c e7 12 bf 29 9e a8 bc b1 3b 0d 3d a0 34 f4 be
       -0.5738437 -0.02058323 0.034480754 -0.476964
0003c0 9c ac 56 be 2f 1d 57 3e 32 50 6a be 13 40 16 bf
       -0.20964283 0.21007226 -0.22882155 -0.5869152
0003d0 f0 53 ca 3c 92 0d 1e be 7c b7 9d bd cd 6c 55 3e
       0.024698228 -0.15434864 -0.077010125 0.20842285
0003e0 ac 76 20 3d c8 15 f4 be 8a 37 0d be 94 0f 39 be
       0.039175674 -0.47672868 -0.13790718 -0.18072349
0003f0 d4 92 cb be ab 22 a8 be d6 a1 1b 3c 3c 3e ed bd
       -0.39760458 -0.3283895 0.009499034 -0.11584136

weight f4 [200, 402]
000000 f3 bf 08 bd f4 02 85 bd 00 ee d1 3c bf b1 bf bc
       -0.033386182 -0.06494704 0.025626183 -0.023400186
000010 a1 f2 84 bd e4 3b dd 3c 7d bf f8 3c 3b 35 9e 3c
       -0.0649159 0.027006097 0.030364746 0.019312492
000020 34 01 f1 bc 97 bf 5c bd 23 1b 4c 3d b0 f2 fc bc
       -0.029419519 -0.05389365 0.049830567 -0.030877441
000030 f0 28 ff 3c 55 75 74 3c 96 4e da bc 93 ed 4a 3b
       0.03114745 0.014920552 -0.0266488 0.003096436
000040 31 05 04 bb 1a 79 17 bd 75 b0 37 bb 7a 93 04 3d
       -0.0020144696 -0.036980726 -0.002802876 0.032367207
000050 e7 d4 5a bd 8f a7 f9 3c be b5 14 bd b2 50 0a bd
       -0.053425696 0.030475406 -0.036306135 -0.033768363
000060 79 bf 1e bd 55 f0 ed bc 1c 60 7d bc 46 54 b9 bc
       -0.03875682 -0.029045263 -0.015464809 -0.022623193
000070 91 8c 6e bd 7a a6 40 bc a3 7a 81 ba 47 f1 13 3b
       -0.058239523 -0.011758441 -0.0009878468 0.0022574232
000080 b0 b1 18 3b 73 65 27 bd bd b6 45 3c 61 3a a1 bc
       0.002329927 -0.040868234 0.012067494 -0.019681158
000090 04 2c 1c 3c d6 32 cb bc 57 95 01 3c 64 38 fe bc
       0.0095319785 -0.024804514 0.007909141 -0.031032749
0000a0 40 3d ac 3c 3c e9 40 bd 08 64 03 bd 90 b7 0e 3d
       0.0210253 -0.04709743 -0.03207782 0.034843028
0000b0 6c 27 0e bd 36 65 03 bc 67 fe 0b bd a2 f6 30 bd
       -0.034705564 -0.008019736 -0.034178164 -0.043203957
0000c0 e9 fd 8c 3c 53 00 4b bd 4e db 82 bc cf 0e 44 bd
       0.017210918 -0.049560856 -0.015973713 -0.047865685
0000d0 3d 85 3b bc dd 05 18 bd 4b da 01 bd 38 39 fe 3c
       -0.011445341 -0.037114967 -0.03170232 0.031033143
0000e0 1a c0 88 3c d0 6c 2c 3d 59 3d a4 bc a9 74 b2 3c
       0.016693164 0.04209596 -0.020048784 0.021784144
0000f0 a5 60 d6 3b 4b f0 f9 bb 19 19 8e 3c 15 05 11 3d
       0.0065422826 -0.007627522 0.017345952 0.035405237
000100 e2 d1 3e bd d9 7b 04 bc 99 fc 89 bd c8 70 5b 3d
       -0.04658688 -0.008086168 -0.06737632 0.053574353
000110 7e 6a 53 bb 23 4f e6 bb 9a 91 e0 bb cf 62 b2 bc
       -0.003225952 -0.007028477 -0.0068532946 -0.021775631
000120 c4 5f 84 bd 9c c2 1a bd ff 17 54 bd b6 24 7c bc
       -0.06463578 -0.03778325 -0.051780697 -0.015389612
000130 c3 f4 ba bc ad 03 92 3a 35 ae 8f bb 6c 17 65 3a
       -0.02282179 0.0011140011 -0.004384781 0.0008739147
000140 1a e5 4e bd d7 62 aa bc f7 56 08 bc 42 63 27 3c
       -0.050511457 -0.020799084 -0.008321515 0.010216536
000150 dd 36 32 3d 1f a9 01 3d 8d 6e 23 3c c8 54 b2 bc
       0.043509353 0.031655427 0.009975088 -0.021768942
000160 08 ac b2 bc db 50 c8 3c 3c 9a 30 3d 2b 8e bd 3c
       -0.021810547 0.024452617 0.04311584 0.02313908
000170 24 1a df b9 ee 1f 4f bd 94 58 06 bc d3 dd 29 bd
       -0.0004255335 -0.05056756 -0.00819983 -0.041471314
000180 1d b9 a9 bc 5f be 4d 3c fc a8 65 bc 14 7b 4e bd
       -0.020718152 0.012557595 -0.01401734 -0.050410345
000190 c3 e8 82 bd c0 4f 94 bb 8b 18 81 3d 6b 2a 06 bd
       -0.06392052 -0.0045261085 0.06303509 -0.032755297
0001a0 6f 10 34 bd e1 da d3 3c 71 0d 9e bc b2 93 91 bc
       -0.043960985 0.025861206 -0.019293519 -0.017770622
0001b0 74 28 1a bd e6 d5 3c 3b eb c2 10 bb 12 60 a9 3c
       -0.037636235 0.0028814017 -0.0022088836 0.020675693
0001c0 df 4f 4b bd 38 d6 be 3c 98 5e 89 bd 0c 6c 9c 3c
       -0.049636718 0.023295507 -0.067074955 0.01909449
0001d0 22 df d6 bc 90 85 20 bc 93 6d 5a bd 96 19 d5 3c
       -0.026229445 -0.009797469 -0.053327154 0.026013177
0001e0 d6 7a 42 3c 22 09 93 bc a2 fb 2d bd ba ee 3d bd
       0.011870107 -0.01794869 -0.042476304 -0.046370246
0001f0 ab e7 30 3d 0e 65 5f 3c 0d de c4 3b 3b 46 91 3c
       0.043189686 0.013634933 0.006007916 0.017733684
000200 7c 97 81 3b 1e 50 29 bd b1 34 33 bd 15 4b 94 3c
       0.003954826 -0.04133617 -0.043751422 0.018102208
000210 36 98 4f bd d7 0d 3b 3d 54 cb bf bc 52 f4 65 bc
       -0.05068227 0.045667496 -0.023412384 -0.014035301
000220 67 f1 a7 3b fe 42 1f 3d 31 bd 41 bd cc c8 58 bd
       0.005125213 0.038882248 -0.047299568 -0.05292587
000230 d1 a0 3c bd c4 5b 33 bd 57 a8 39 3d 24 e1 42 3d
       -0.046051804 -0.043788686 0.045326557 0.047577992
000240 8e 24 f6 3c c9 bb 39 bd 4b ef d3 bc 7b af 94 3b
       0.030046728 -0.0453451 -0.02587094 0.0045375205
000250 ca 03 41 bd 00 ab c2 ba 7f 3b 51 bc 41 0e 8b bb
       -0.047122754 -0.0014851987 -0.012770533 -0.0042436426
000260 5a 4e 05 3c 11 3c 4e bd ef 9d 73 3c 72 ac 1d bd
       0.008136356 -0.050350253 0.014869197 -0.038494535
000270 fb 96 56 bd c1 8b b7 3b 08 92 ee bc 05 29 a1 3c
       -0.05239008 0.0056013768 -0.029122368 0.01967288
000280 78 98 da 3c c7 42 30 bb 04 8f 20 bd 4a ad 22 3c
       0.02668403 -0.002689527 -0.03919889 0.009929011
000290 cb e4 c1 3a d4 05 39 bd b6 a9 ba 3c d6 4a e6 3c
       0.0014792917 -0.045171574 0.022786003 0.028111856
0002a0 ff 99 f4 3c e0 8f 5b bd 8e 96 66 bc ce de b2 3c
       0.029858587 -0.053604007 -0.014073981 0.021834757
0002b0 66 05 34 bd a7 a0 a8 bc c5 1c a2 3c 3a 0f 42 bc
       -0.04395046 -0.020584418 0.019789109 -0.011844451
0002c0 1f cb 2b bd d2 a3 3f bd 34 71 5c 3b b2 d5 7a 3c
       -0.04194176 -0.04678709 0.003363681 0.015309738
0002d0 76 b7 96 ba 74 ce a6 bb a9 03 5b bd 1e 7a 8a bc
       -0.0011498767 -0.005090529 -0.053470287 -0.016903933
0002e0 43 b3 32 3d 4e 5a b8 bc fe cc fd bc ae bf 56 bd
       0.04362799 -0.022503998 -0.030981537 -0.052428894
0002f0 8a 1a 1c bd f7 81 cf bc 7b 0c 8a bc 6e f0 9e bc
       -0.038111247 -0.025330527 -0.016851654 -0.019401755
000300 fd 91 82 bd b2 2e 21 bd 2d bb 20 3c ee 32 0d 3d
       -0.06375501 -0.039351173 0.009810251 0.0344724
000310 11 1e 74 3c 40 f5 fb bc d7 e8 98 3c bd 2b 36 ba
       0.0148997465 -0.030756593 0.018665714 -0.00069492665
000320 56 01 d9 bc d2 d1 d9 b9 72 f0 29 bd 83 61 01 bc
       -0.026489895 -0.00041545794 -0.041489072 -0.007896784
000330 e8 81 b0 bb f0 80 11 3c ea 82 66 bb f7 9e 3d 3d
       -0.00538658 0.008880839 -0.0035173246 0.04629418
000340 5f fd fb b9 01 7b 1e 3c 42 ce 0b bd b5 b5 0a 3d
       -0.00048063227 0.009672881 -0.03413225 0.033864696
000350 65 b1 87 bc 9b 3b a1 3b 14 45 37 bd 92 d6 84 3c
       -0.01656408 0.0049204356 -0.044743612 0.016215596
000360 b9 cf fc bc 11 57 11 3c ae db 2c 3d e2 43 8b 3b
       -0.030860769 0.008870856 0.04220169 0.0042500356
000370 4b 8d 09 bd 3b 29 19 bb 89 aa 1b bd b3 35 48 bd
       -0.033582013 -0.0023370523 -0.038004432 -0.048879337
000380 62 61 47 bc d3 a6 46 bd b4 f2 b3 3c 27 52 64 bb
       -0.012169214 -0.04849894 0.021966316 -0.0034839006
000390 78 d9 aa 3c fa dc db bc 95 d9 2e bd f4 c5 af bc
       0.02085565 -0.026838768 -0.04268797 -0.021456696
0003a0 6d 8b 91 3c a4 c1 02 bd 57 fe 7d bd 10 b6 ee 3c
       0.017766679 -0.03192295 -0.062010136 0.029139549
0003b0 87 4e f7 bc f3 c3 15 3d 37 39 00 bb a2 c1 fb 3c
       -0.030188812 0.036563825 -0.0019565353 0.03073198
0003c0 dc d9 32 bd f0 53 09 3d 72 71 20 3c 02 42 1e 3d
       -0.0436648 0.033527315 0.0097926725 0.03863717
0003d0 37 4a 9e 3c a1 9b 5a bd c7 6d 30 3d f7 55 05 3d
       0.019322498 -0.053371076 0.04307344 0.032552686
0003e0 d7 01 7f bd 9f a6 2e bd 75 39 4c bd a5 70 9b bc
       -0.062257614 -0.04263937 -0.049859483 -0.018974612
0003f0 68 ca 4b bc a1 33 f9 bc 95 14 02 bd bf a8 2a bd
       -0.012438394 -0.030420126 -0.03175791 -0.041664835

bias f4 [200]
000000 3a b2 01 3c 78 32 e3 3d 98 97 c4 3d 82 ab 51 3d
       0.007916028 0.110936105 0.09599227 0.051188953
000010 d6 37 cf bc 9e 5c c4 bc 49 4f c1 3c 1b fd 6c 3d
       -0.02529518 -0.023969945 0.023597376 0.057858568
000020 fc c7 5b bd dd bd 4a 3c db 30 34 3d c4 31 98 be
       -0.053657517 0.0123743685 0.043991905 -0.29725468
000030 0b 1b 85 bc 18 3f da 3d 60 55 75 bd 83 13 16 bd
       -0.016248247 0.106565654 -0.059895873 -0.0366397
000040 e0 4e 99 3d e2 66 e3 bd 22 37 ca bc 7f 37 2e 3e
       0.07485747 -0.11103608 -0.024684492 0.17013358
000050 f8 dd 76 bd b6 94 ad be f3 f1 80 bd 23 1f e8 bb
       -0.06027028 -0.3390252 -0.06296148 -0.00708379
000060 51 32 38 be 8a 97 67 3d ce 3a 96 bc d4 dd 24 3d
       -0.17987944 0.056541003 -0.018338587 0.040250614
000070 c4 c4 6c 3d 3a 2b 18 bd 07 75 4a bb 45 e5 90 3d
       0.057804838 -0.0371506 -0.0030892508 0.0707498
000080 16 d8 c7 3d 3e 98 8e be 40 1b 5b bd 05 59 5f be
       0.09758012 -0.27850527 -0.053492785 -0.21811302
000090 84 82 5b bc c0 45 d4 3d e5 0d f8 3b e4 a0 72 bd
       -0.013397817 0.10364866 0.0075700157 -0.05923547
0000a0 23 24 9d 3d e2 31 17 3d 69 4c cd bc c9 ac b3 3d
       0.07672908 0.036912806 -0.02506085 0.087731905
0000b0 d0 93 20 3e 22 3d 86 be 63 7f 2d 3d 9e f2 d5 3d
       0.15681386 -0.26218516 0.042357814 0.10446666
0000c0 ec d7 36 be 6c 1b 60 bd 02 64 42 3c c2 25 29 3e
       -0.17855805 -0.05471365 0.011864664 0.1651831
0000d0 4c 79 66 be 74 6d d8 3d 66 67 5e bd 59 4c 27 3d
       -0.22507209 0.105677515 -0.054297827 0.040844295
0000e0 98 48 46 3c 98 2b 6f 3e 82 c2 b1 3d 28 54 69 be
       0.012102269 0.23356473 0.086796775 -0.2278601
0000f0 00 69 5b bc 35 02 9f be 42 1b 96 3c 42 2e 9e bc
       -0.013391733 -0.3105637 0.018323544 -0.019309167
000100 a7 35 92 bc 19 25 59 bc 73 67 52 bd df b5 65 bd
       -0.017847849 -0.013253474 -0.051368188 -0.05608165
000110 17 11 0a 3d 6a f7 25 3c 75 bd 27 3e 1e fe a5 be
       0.033707704 0.010129789 0.16380866 -0.3242044
000120 ba c6 15 bc 63 b7 ae 3c 52 3f 6a be 49 2b 7b bd
       -0.009141618 0.02132768 -0.22875717 -0.061320577
000130 4f fe 09 be c3 9f b7 bd 54 1c 9b 3d 50 3e a2 be
       -0.13475917 -0.08966019 0.075737625 -0.31688166
000140 03 de 02 3d fa 07 68 3c 59 60 2e bb 44 d4 16 3e
       0.031950008 0.014162058 -0.002660772 0.1472941
000150 02 f3 1f 3d f4 b9 8d 3e 7b e3 3c bd b5 ff 9a be
       0.03905011 0.27680933 -0.04611538 -0.30273214
000160 2b 98 78 3c 54 70 85 3d 82 5b b7 3d a6 90 91 bd
       0.015172998 0.065155655 0.089530006 -0.071076676
000170 de 20 75 be e8 fb c6 bd 09 09 08 be 03 4b 5d 3d
       -0.23938319 -0.09716016 -0.13284697 0.054026615
000180 30 85 60 be 48 a3 40 bd 03 8c 4e 3c 34 74 e8 bd
       -0.21925807 -0.047030717 0.012606624 -0.11350289
000190 4a 31 e8 3a 83 d7 ee 3d 15 97 8b be 08 6a 92 3d
       0.0017714885 0.11662199 -0.27263704 0.0714913
0001a0 c2 84 56 3d 69 0d ba 3d 47 bc 2e bd bb f1 83 bd
       0.0523727 0.09084589 -0.042660024 -0.06442591
0001b0 be 1c 42 bc 44 b4 0a be 08 e3 44 3e f3 d5 d9 bb
       -0.011847673 -0.13545328 0.1922723 -0.006647819
0001c0 50 9c fd bb c6 c4 3b be ed 8e 7c bd 3d 88 2a be
       -0.007739581 -0.18336782 -0.061659742 -0.16653533
0001d0 d7 13 79 bd 0a 54 90 bd 0d 00 53 3e c3 f2 82 3d
       -0.060809936 -0.07047279 0.20605488 0.063939594
0001e0 f2 d4 e0 3d 42 9b 9a be 9b 2e 8e 3d 0b 07 b3 bb
       0.10978116 -0.30196577 0.06942483 -0.005463486
0001f0 b6 76 1c 3d 35 79 6b bd 76 f2 99 bd 07 f0 8d 3d
       0.03819915 -0.05748864 -0.07516949 0.06930547
000200 61 05 84 3e 2c e2 83 bd 75 95 78 3e fc ed c9 3d
       0.25785354 -0.06439623 0.24275763 0.09859845
000210 3a a2 33 bc f6 01 7d be 3b c8 20 be 15 0a cc 3d
       -0.010963971 -0.2470778 -0.15701382 0.099628605
000220 23 0a 95 bc b2 7a 85 bd 15 2a a1 bd 57 52 4e 3e
       -0.01819331 -0.06517543 -0.07869355 0.20148598
000230 26 66 07 3b 5e d4 ae 3c 61 fb 5e bb a4 c2 16 be
       0.002066025 0.021341499 -0.0034024345 -0.14722687
000240 e5 ad 12 3d c6 fe cb 3c 7e 96 46 bd 53 e3 5e be
       0.03581037 0.024901759 -0.048483364 -0.21766405
000250 b2 e7 8d bc a7 44 30 3e ed 72 56 bd 1c d0 6d bd
       -0.017322395 0.17213689 -0.052355696 -0.058059797
000260 8e 43 26 3e 58 e1 e7 3d 6c d6 ad bc 60 42 b5 bd
       0.16236708 0.11322278 -0.021220408 -0.08850551
000270 e4 a8 3e be 68 a1 63 bd 49 ad 04 bc 92 98 64 bd
       -0.18619114 -0.05557385 -0.008097955 -0.055809565
000280 33 0f c6 bc 17 7e e4 be fe bc ee 3d 41 58 68 be
       -0.02417717 -0.4462745 0.11657141 -0.22689916
000290 c6 21 87 be de 4b 38 3c b8 04 e0 3c b2 11 5c 3e
       -0.26392955 0.011248557 0.027346 0.21491125
0002a0 9f 3c 8d 3c 21 55 c2 3d 52 79 74 3b 63 52 22 bd
       0.01724082 0.09488893 0.0037303758 -0.03962935
0002b0 8a 80 b0 3d 89 dd 50 3c 60 f7 71 3e e0 e4 56 3d
       0.08618267 0.012748131 0.23629522 0.052464366
0002c0 54 55 27 3c f3 b4 67 be 12 d6 14 bd d1 f3 36 bd
       0.010213215 -0.2262762 -0.036336966 -0.044666115
0002d0 34 27 c8 bd e5 60 96 bc ae 56 81 bd c1 dd 9c 3d
       -0.097731024 -0.01835675 -0.06315361 0.07659484
0002e0 60 81 83 be 50 50 6d bd 88 b6 0a be f7 af 79 3e
       -0.25684643 -0.05793792 -0.13546193 0.24383532
0002f0 f5 68 46 bd 21 86 9d 3d 59 a1 52 3e 92 8e 82 bd
       -0.04843994 0.07691599 0.20569362 -0.063748494
000300 44 7b 9b be 78 94 8e bb d6 d6 38 bd 5a 56 0d 3c
       -0.30367482 -0.004351195 -0.04512676 0.008626545
000310 55 b4 a7 be 69 b0 9f be 2d 67 b8 bd 8c 13 ea 3d
       -0.3275477 -0.31189278 -0.09004054 0.114295095

weight f4 [1, 200]
000000 58 40 a4 3c f9 24 46 3e 8b df ba bd 8e 1c f5 be
       0.020050213 0.19350041 -0.09124669 -0.47873348
000010 96 e5 45 3d 37 2f 23 bb 4c df a0 3c c3 6a 1d be
       0.048314653 -0.0024899968 0.019637726 -0.15372758
000020 66 08 2e 3d 9e ef 22 be 6b 92 33 3e a4 4e c1 be
       0.042488478 -0.15911719 0.17536323 -0.3775531
000030 f3 87 43 3c e7 2a 32 be 32 66 4a 3f 36 bf 2e 3d
       0.011934268 -0.17399178 0.7906219 0.04266282
000040 d3 b5 c1 bd 41 d9 01 bf cd d1 00 3d 6a b4 ab 3f
       -0.09458508 -0.5072213 0.03145008 1.3414433
000050 f2 c8 d2 3c 95 2c 6e bf ea b3 4c bf d4 47 83 3d
       0.025730584 -0.93036777 -0.7996203 0.064101845
000060 42 d1 89 be 06 ea b5 be f6 2c df 3b d5 08 36 3e
       -0.26917464 -0.35530108 0.0068107797 0.17776807
000070 57 38 4e be fa ef 05 3b c8 7d 3d 3c ac f7 5e bd
       -0.2013868 0.0020437227 0.011565633 -0.054435417
000080 50 f4 34 be 83 58 9e be 8a 22 52 ba 48 84 12 bf
       -0.17671323 -0.30926904 -0.0008016011 -0.57233095
000090 cf a9 41 3c f5 ca 7b 3e be f9 ed be de 34 e2 be
       0.011820271 0.2458914 -0.464796 -0.4418096
0000a0 58 6c c6 3f 9d ed 98 bd 28 86 35 ba 66 bc a7 3e
       1.5501814 -0.07467196 -0.0006924593 0.32760924
0000b0 26 78 43 3f 2e d6 d7 be 10 87 9b bd 6c bc 25 be
       0.76355207 -0.42155594 -0.075941205 -0.16185158
0000c0 89 e4 53 be 0a f3 8a 3c c2 83 87 3b bf fb a4 3f
       -0.20692648 0.016961593 0.00413558 1.2889327
0000d0 31 a5 3f be 84 46 86 bd 67 78 09 3c 3c 46 bd bd
       -0.1871536 -0.065564185 0.008390523 -0.09241912
0000e0 17 49 60 be 5d a4 02 bf bb 09 00 be 7c 88 df be
       -0.21902882 -0.5103205 -0.12503712 -0.43658817
0000f0 12 b2 80 3d 39 02 a4 be 46 e1 4c 3c a4 bc 26 3d
       0.06283964 -0.32032946 0.012504881 0.040707245
000100 59 b8 29 3d 7b 75 cf 3f ed 7b 58 3b 09 01 8b 3b
       0.041435573 1.6207727 0.003303285 0.0042420668
000110 09 8b a0 3c f7 f2 83 bd da 3f 9b 3f 5b dc f5 be
       0.019597547 -0.06442826 1.2128861 -0.4801968
000120 98 f7 6f 3b 6a 06 40 3d 65 09 f5 be 90 39 bf be
       0.0036616083 0.046881117 -0.4785873 -0.37348604
000130 c8 1b 32 3f 09 3e e1 be 13 9d 76 be 28 d6 c1 be
       0.6957364 -0.43992642 -0.24083357 -0.378587
000140 95 8e 4e bf ba 6b 1a 3c 87 88 f3 bb 57 5e d1 be
       -0.8068631 0.009425098 -0.007432047 -0.40892288
000150 64 7d 64 3a 58 47 d9 be de b4 30 3d e3 1f 5d bf
       0.00087161944 -0.42437243 0.04314124 -0.8637678
000160 f7 5f 87 3a c4 85 60 bd a1 8a b2 be da ae ef be
       0.0010328282 -0.05481507 -0.3487139 -0.4681309
000170 f9 cf 32 bf 72 c4 d0 be b7 8b 2a 3f 57 bd 9a 3f
       -0.6984859 -0.40774876 0.6661944 1.2089032
000180 5b ed 5c bf 56 7a 99 bb 2a b2 e4 3c 27 d3 b8 be
       -0.86299676 -0.004683773 0.027916986 -0.36098596
000190 07 e4 fe 3c 84 f6 c3 bd b1 b9 16 bf b7 79 5d 3f
       0.031114591 -0.095685035 -0.5887709 0.8651385
0001a0 7e a7 95 bd a3 5f cd 3e cb 20 a1 3c 5d 57 32 bf
       -0.07307337 0.40112028 0.019668957 -0.69664556
0001b0 d2 78 2c 3d 7e 13 a5 be 64 ba 91 3f 1d c8 fe bb
       0.04210741 -0.32241434 1.1385007 -0.00777532
0001c0 1a 95 e4 be 99 d0 f9 be fb 50 3e 3d 65 85 bc be
       -0.44645005 -0.4879196 0.046463948 -0.36820522
0001d0 f1 22 6b 3c 1c 03 16 3c 26 f8 df be 2f 07 ea bd
       0.014351592 0.009156015 -0.4374401 -0.114271514
0001e0 de cc 37 3e 4d d9 22 bf a5 a2 9a bd 03 48 81 bf
       0.17949244 -0.63612825 -0.07550553 -1.0100101
0001f0 56 86 c6 bc 75 6e 47 3d 24 96 18 3c 3d c7 33 bd
       -0.024233978 0.048689324 0.00931314 -0.04389118
000200 49 50 dd be 69 6b 1a 3d 23 9f 08 bf 94 45 5e 3f
       -0.43225315 0.03770009 -0.53367823 0.8682492
000210 2e 70 20 bf 4f 85 a9 be 7a e6 5d be 68 51 59 be
       -0.6267117 -0.3310952 -0.21669951 -0.2122246
000220 9c 30 26 bd 03 93 6a 3d f1 aa f6 be fc 93 80 3f
       -0.0405737 0.057269108 -0.48177293 1.0045161
000230 59 38 55 3d dc d5 6f bd b6 9d 06 3c 73 c8 77 bf
       0.05205569 -0.05855356 0.008216312 -0.96790236
000240 f4 2d b5 bd 1b b6 8f 3e 79 da 08 bc 5f 64 ee be
       -0.088466555 0.28068623 -0.008352869 -0.46560952
000250 90 e6 d4 ba 4d 8f 9b 3f 0d ea 90 3b a5 7d 12 3c
       -0.0016243029 1.2153107 0.0044224323 0.008941089
000260 8e 30 23 be 43 6e 4d 3e 38 4e 68 3c 0d c3 0b 3f
       -0.15936491 0.20061593 0.014178805 0.545945
000270 81 d8 86 bf 12 dd 5e 3c e0 29 93 3c 3c 37 88 3b
       -1.0534822 0.013602512 0.017964303 0.004156975
000280 78 5f 02 bf 74 51 51 bf 9f a3 30 3e 1e b9 a8 be
       -0.50926924 -0.8176491 0.17249916 -0.32953733
000290 a1 bb b1 be 88 e8 67 3d 8c 11 88 3b 17 10 ed be
       -0.34713462 0.056618243 0.0041524824 -0.46301338
0002a0 e5 e3 83 39 9d 71 ca bd e1 8e 25 3d 3b 09 10 3c
       0.00025156062 -0.09884951 0.040419463 0.008791263
0002b0 57 24 11 3f a4 63 e1 bb 91 04 b2 be fd 2b a9 bd
       0.56696075 -0.006878333 -0.3476911 -0.08260343
0002c0 8d 8d f0 3c d7 0e ca be 6e c5 0d be 50 73 18 bd
       0.029364372 -0.39464447 -0.13844845 -0.037219346
0002d0 40 f6 cc bc f1 8e 51 bc c1 8b 1d 3d cd a4 0c be
       -0.025019765 -0.012790428 0.038463358 -0.13734742
0002e0 1c 1d 16 bf 6b 49 0b 3b 0f 0a 78 bf 37 a4 9f 3f
       -0.5863817 0.0021253477 -0.9689035 1.2471989
0002f0 3f c2 fb 3c 55 8e 1c be 19 f8 52 be 14 bc 48 3f
       0.030732272 -0.1528867 -0.20602454 0.78411984
000300 64 07 61 bf 98 e0 91 3f 9b 26 72 3c f5 eb 50 be
       -0.879019 1.1396666 0.014779712 -0.2040251
000310 68 ec 18 bf 91 e7 e6 be b8 a6 34 be 74 e3 4e be
       -0.5973573 -0.45098546 -0.17641723 -0.20203954
