lab2/problem2/neural-network-2-critic-l-45000.pth (torch, 340877 bytes, 5 tensors)

weight f4 [400, 8]
00000000: d900 113e 40fd 833c cad9 d63c 8de9 dabe
00000010: 3b22 abbf 2d2c 0d3e fbeb f63b 1615 07bf
00000020: ab6e 01bf b6dd 9bbf 0986 923e 5607 0abd
00000030: 567b 9c3e 6c45 fdbd 2d3b cdbe 49ec 9b3d
00000040: 830f dbbb d773 a3bb e1fb c0bb 0b3a bbbb
00000050: a834 e73f a20f 90be 0f44 7e3e e98e b73b
00000060: 9411 f7bd 5feb 06bf de03 273f af24 4d3c
00000070: 7a04 84be 972c 1ebe 5215 ccbe 9516 b9be
00000080: 899b 3d3d b60e 20be 0185 733e 9cbe bbbe
00000090: 2571 983f bda4 3f3f 4a8d bebe e6f2 fdbe
000000a0: c940 fcbe a918 d5be 2716 00bf dcb7 0cbf
000000b0: d550 f23d fa1c f8bd c987 023d 9993 c2bd
000000c0: 40a2 ecbe 6dd5 083a 3b75 88be e77a 19be
000000d0: f4bb 93be 5206 09be 7544 563e ed6f 62be
000000e0: 970a 393f 75bb fbbe 09dd 64be 2b07 493f
000000f0: 4ca1 6abd 1c0a 283e 651a 40bc 9051 c53e
00000100: d197 5d3e effe 4a3b 2d89 afbe 5fd2 c7be
00000110: 97eb 963e 8dc5 0b3f 111f 203e 0420 5ebe
00000120: 33a2 ad3d 78ac 3bbf 110d abbc 96b6 74bf
00000130: 6627 d43d f59c 133b 1038 69be c73f 3dbf
00000140: 20e3 9b3e 596d 21be 4980 41be 1821 093e
00000150: d3c4 7d3d ad69 f13e c449 a63e b7a9 95be
00000160: 9bd8 19bd f995 6f3d 02fc f6be 8bce 883e
00000170: 0cf0 8c3f 046d 9b3e cbb6 02bf 1cc2 11bf
00000180: 0ca8 f9bc 5505 933e 4148 7f3e 72c4 c6be
00000190: b123 3e3e 395d 163f 7402 17bf 2b05 58be
000001a0: 6aae 95be 6fbe 263e 710f 1d3f 212a fe3d
000001b0: 7ccc d93e 059c cf3d b9eb 293d 0115 50bf
000001c0: fe0e c83e f640 373e 2182 59be f407 10bf
000001d0: ac4c e6be 7f58 5dbe 5095 55bd ac9c 7a3e
000001e0: 69c3 fcbe 05be 4cbe 8c9b 013f 53e3 e0be
000001f0: ec37 37bf 2916 b13e 6b70 37be d1d1 f7be
00000200: 7370 953e e425 613e 0906 fcbe 8dd4 10be
00000210: c5ba 853e b470 023f f73d 9dbe 626b 88be
00000220: d1ff f2be b58c eebc b267 48be ef0b b83c
00000230: aa97 c93d 85f3 b53e 3d94 9d3e 6aa3 393e
00000240: d63b 633e bc67 a9be abd3 d13e 3e6b 193e
00000250: 6c6c 943f fdbc 7e3f 45c1 53be e3c7 03bf
00000260: 5d31 693e 5854 dbbe fe8e 0fbf a29a 3b3d
00000270: 60c4 07bf 4f09 1dbf d5ad 38bf eb20 13be
00000280: d9f0 8e3d 559e aa3e 6dd3 33bf fcf1 ea3e
00000290: 23f7 3d3f 654b 04be aab8 e5bb a4d6 24be
000002a0: 13ce cc3d 7319 90be b5b0 b9bf 5815 a33f
000002b0: b92b 843e 03ac 39be 139e 113d 1f53 da3d
000002c0: 03b1 b8bd c85c 6cbe e101 af3c 1b9d 4ebf
000002d0: fbfc a53f 9af5 9a3d a425 01bf 697f db3e
000002e0: 4794 6c3e e895 98bd 08a0 bc3e 6373 dd3d
000002f0: 4c2a 1a3d 9eef 38bf 389e 15bc dcec c1be
00000300: c826 12bf ae5c 9fbc 678f 45bf f791 523d
00000310: 55cd 48be aeba 8dbe c09b b33e 1733 493e
00000320: 7198 dd3b 4963 0bbe 5530 8cbf 0d4b b93e
00000330: a586 9c3f 155b 70be c056 033c 8025 1c3e
00000340: a3ee 97be 8bcf a43d a183 023f 14c0 a9be
00000350: 2f25 283d 4a35 e63d 3aad be3e 6e3d 02bd
00000360: dc78 7ebd 71db 12be e271 b23e 392c ec3c
00000370: 7b0d 7bbf 66d5 efbe 23e0 55bf bb67 853e
00000380: 86af acbb 142c 8dbd 2d43 8a3f 5130 903f
00000390: 6fe9 243f 68dc 913d 740c f6bc 9008 fcbe
000003a0: 098c 84ba fc13 40bf b981 dabe 6850 383f
000003b0: f50d 37be 2c0c a33e ac32 8bbe bc16 493e
000003c0: 08b7 8f3e c4c1 3cbd f8a1 2bbf 3bad bc3e
000003d0: 4b7e 32bf f67f 52bd e8a5 fa3d 5610 1fbd
000003e0: 7502 b6bd a545 f0be 36cb 093f e1de c0be
000003f0: a2d5 303f 20ff 243f 4e6d 443e 72f8 883e
0.1416048 0.01611197 0.026226897 -0.4275631 -1.3369821 0.13786383 0.0075354553 -0.5276655
-0.5055949 -1.2177036 0.28617886 -0.033698402 0.30562848 -0.12366757 -0.4008421 0.07613427
-0.0066851988 -0.0049881744 -0.0058894013 -0.0057137064 1.8062944 -0.28136927 0.2483065 0.005601753
-0.120639 -0.527029 0.65240276 0.012520953 -0.25784665 -0.15446697 -0.39860016 -0.3615004
0.046290908 -0.15630612 0.23781206 -0.3666886 1.1909529 0.74860746 -0.3721717 -0.4959938
-0.49268177 -0.41620377 -0.500338 -0.5496805 0.11831824 -0.12114902 0.031867776 -0.09500808
-0.46217537 0.0005219791 -0.2665194 -0.1498829 -0.28854334 -0.13381317 0.20924552 -0.22113009
0.72281784 -0.49166456 -0.22349943 0.7852656 -0.05728273 0.16410106 -0.011725043 0.3853879
0.21639945 0.0030974706 -0.34284344 -0.39027688 0.29476616 0.54598314 0.15636851 -0.216919
0.08478203 -0.7331004 -0.020880254 -0.95591104 0.10359077 0.0022523974 -0.22775292 -0.7392544
0.3044672 -0.15764369 -0.18896593 0.1339153 0.061955284 0.47150937 0.32478154 -0.29231045
-0.037560087 0.058492634 -0.48239142 0.2672008 1.1010756 0.3035661 -0.5106017 -0.5693681
-0.030475639 0.28715006 0.24929906 -0.3882175 0.18568303 0.58735996 -0.5898812 -0.21095721
-0.2923463 0.16283582 0.61351687 0.12410379 0.42538822 0.1013718 0.04148457 -0.8128205
0.39073938 0.17895874 -0.21241046 -0.56262136 -0.4498037 -0.2161579 -0.05214435 0.24473828
-0.49367836 -0.19994362 0.5062797 -0.43923435 -0.71569705 0.3458722 -0.17913978 -0.48402265
0.29187354 0.2198711 -0.49223354 -0.14143582 0.26119056 0.5095322 -0.30711338 -0.26644427
-0.47460797 -0.029119829 -0.19570807 0.022466628 0.09843381 0.35537353 0.3077716 0.18128744
0.22190794 -0.33086956 0.40981802 0.14982316 1.1595588 0.99507123 -0.20679195 -0.5147688
0.22772737 -0.42837787 -0.56077564 0.045801766 -0.5303402 -0.6134233 -0.72140247 -0.14368026
0.06979532 0.33323923 -0.70244485 0.45887744 0.74205226 -0.12919386 -0.007010539 -0.16097504
0.10000243 -0.28144416 -1.4507052 1.2740889 0.25814608 -0.18132024 0.035551142 0.10660385
-0.09018137 -0.23082268 0.0213632 -0.80708474 1.2967829 0.07566376 -0.5044806 0.42870644
0.23103438 -0.07450467 0.36840844 0.10813024 0.037637994 -0.72240627 -0.009131961 -0.37876022
-0.57090425 -0.019453373 -0.7717194 0.051408734 -0.19609578 -0.27681488 0.35079765 0.19648395
0.006762557 -0.13612093 -1.095225 0.36190072 1.222859 -0.23472245 0.008016288 0.1524868
-0.29674253 0.08047398 0.509821 -0.33154356 0.041051086 0.11240633 0.37241536 -0.031796865
-0.06212698 -0.14341523 0.3485251 0.02882968 -0.98067445 -0.46842498 -0.8354513 0.26055703
-0.0052699475 -0.06893173 1.080175 1.1264745 0.6441869 0.07122117 -0.030035235 -0.49225283
-0.0010112535 -0.75030494 -0.42677096 0.7199769 -0.17876418 0.31845224 -0.27187097 0.19637579
0.2806933 -0.046083227 -0.6704402 0.36850914 -0.6972396 -0.051391564 0.12238675 -0.03883394
-0.088871874 -0.46928135 0.538257 -0.37670043 0.6907598 0.6445179 0.19182321 0.2675205

bias f4 [400]
00000000: a0de 9c3d a000 1f3e dca2 b83a ccc2 1dbd
00000010: 375b e73b 9484 1d3b 90cd 14be 5265 a3be
00000020: 952b dabc 3756 97be 5a83 cf3d 417c 803d
00000030: 02a3 2cbc 763b 94bd 06d1 3ebe b600 fa3b
00000040: 1989 cdbe b125 f7bd a3b6 0d3e 153d 373e
00000050: fe22 c9be c421 893e 071c aabc c237 84bc
00000060: 0dc6 95be ac63 c23d 24c4 0bbf 641c 96be
00000070: 1255 aa3c 2bae 493d 7072 b13e 23ee 97be
00000080: 7714 c6be 5c62 adbe 470e da3d bab2 bebe
00000090: 825a 563d 656a 713e 57dc 603c 0804 6bbe
000000a0: d37e 4cbe 820d 46be 62a1 cf3c 8a31 16be
000000b0: 19ca c4be d038 883c 2b1c c2bc 4b4d 013e
000000c0: d794 adbe 9ace 033e 23fa 07bf 2cc7 31be
000000d0: eea3 063e 7389 82be d6e9 723e adf6 89bd
000000e0: 5fb4 6f3e 1757 80be 04d5 dcba 99d7 5f3e
000000f0: 5680 333e 4f7d 8ebe 347f 44bc ea5d a3bb
00000100: 4653 8d3e 6d3a a9be 64f9 3abe cbb3 47bd
00000110: 0ad0 05bf 45f5 c73d de89 b5be 2609 253e
00000120: 000d 083d c462 673b 732d 21be bc7e e1be
00000130: 3fef 0b3e 0c84 6a3e 5d8b cdbe 0b03 32bd
00000140: d757 89bd 8ccb 65bc 8345 58be 6e6d 733e
00000150: cdd8 44be 1bce b6ba 5ea8 13be e187 493d
00000160: b45e 5b3d e6d4 0a3e 89a7 1a3e 374a d53d
00000170: b4ab a9be 8a3d b43d ed85 a4bb 3a2e eebd
00000180: 3cde fcbe a977 1a3d 7f9b c83c b29c bbbc
00000190: b758 8e3d 124f 83be a264 f9be 67ed bebd
000001a0: 6cf3 cbbe 72cb 48be 5867 02bf 49ed b6bc
000001b0: c95f c83d f314 893d e036 fe3c 8180 8fbe
000001c0: d826 843e c8ea 273e afa9 9e3d 6bf3 1bbe
000001d0: 610e 16be 1f3a 01be 22e4 85bc 1ff0 16bf
000001e0: 2b75 e73c ce7a 94be 8ead 0c3e a21e c3be
000001f0: 8a6a 80be aa06 b33d c24b f6be cdfc a8be
00000200: cdfc 553e 74cf 053e dd90 42be 3336 c13c
00000210: eb7a dcbe fffe ffbe bc2d d0be 4edd 3cbe
00000220: 5f05 8cbd 8813 373e 5940 23ba d41a 103d
00000230: e1fb 9dbe ef38 5dbc bd65 d2be 1f4b c7be
00000240: a913 47be 3794 0d3d af00 f4be 1c8a b6be
00000250: d5f6 553c 605d 7fbe b085 83be 1dc1 d1be
00000260: cc7f bbbe d17f 0dbf 32d3 6cbd 76cb a13e
00000270: f8c4 003e 1ef9 a73c cd96 b83d 4671 873c
00000280: a4e4 93be 80b1 e33d 1f3c 15bf 414f e63b
00000290: b367 6fbe 6f06 a3be be1f ce3d 0af5 83bd
000002a0: da63 e5be ac4c f3be 3e1f d63d 6f7c 08bf
000002b0: ebe9 35be cb28 95be a644 083e 2439 46be
000002c0: a8ee 6abe 5cd4 43be 7449 98be 7857 cebe
000002d0: 476a 2abf 94a5 b6be edd7 84bd d40e e9be
000002e0: 66a7 943d 24da 2cbe 6f4e 873d 25d4 e73b
000002f0: d975 03be 78b2 db3d b797 173e b43e 67be
00000300: 6f29 b93d 61e6 d4bc c31b 98be 6dee 13be
00000310: f143 89be e2ed 9ebe 3cbc 223d 3053 263e
00000320: 93d8 dfbd d579 7d3e c218 173c 194c 943e
00000330: 01bf a2be 211a fc3d b2c9 8a3c 33f7 74bd
00000340: 18ad 2e3d 059e afbd 0020 64be 0caa b2be
00000350: a0b5 2a3e 4368 87bc 4c49 0bbd c830 2fbe
00000360: 50f6 a13b 80c1 123e fe6d 6ebe d0c2 fb3d
00000370: 1b7e 9b3c ba64 5ebe b0c8 403d 276f 663d
00000380: 845f acbe 1c20 f4bd 6b5a b2be 0ac9 d9bc
00000390: a8b1 db3c b54b 39be 25d3 babd 4992 70be
000003a0: 8004 57be 71ba 7f3d 00b3 ac3d 64d4 40be
000003b0: e0a2 84be 1466 a2bc 6451 b5be 2293 d33b
000003c0: 0ee5 c0be 5792 90be 2c15 acbe 6a80 0abf
000003d0: ded6 603c a7ac d3be 7ad3 84be 1d83 d63d
000003e0: 5360 8e3d cd1f c7be d8dc cbbd 4070 483d
000003f0: 4e43 bdbe e017 9cbe d9fb 573d 4036 2cbd
0.0765965 0.15527582 0.0014086622 -0.03851585 0.007060434 0.0024035322 -0.14531541 -0.3191324
-0.02663211 -0.29557964 0.10132475 0.062736996 -0.010536911 -0.07237904 -0.18634424 0.0076294793
-0.4014366 -0.12067736 0.13839202 0.17894395 -0.3928451 0.26783574 -0.020765318 -0.016139869
-0.29252663 0.09491667 -0.5459616 -0.29318535 0.020792518 0.049238365 0.3465762 -0.2967387
-0.38687488 -0.33864105 0.106472544 -0.37245733 0.05233241 0.23575743 0.013724408 -0.22950757
-0.19970255 -0.1934109 0.025345508 -0.14667335 -0.38435438 0.016628653 -0.023695072 0.12627141
-0.33902618 0.12871781 -0.53116053 -0.17361134 0.13148472 -0.2549549 0.23722014 -0.06736503
0.2340865 -0.25066444 -0.0016848152 0.21859588 0.17529425 -0.27829978 -0.011993218 -0.0049855607
0.27602595 -0.33052388 -0.18259197 -0.04875545 -0.5227057 0.09763578 -0.35456747 0.16116771
0.033215523 0.0035306672 -0.15739994 -0.44042003 0.13665484 0.22901934 -0.40145388 -0.043459933
-0.06706207 -0.01402558 -0.21120267 0.23772213 -0.19223328 -0.0013946922 -0.14419696 0.04920185
0.053557113 0.13557777 0.15102972 0.10414546 -0.33138812 0.088008 -0.005020848 -0.11629911
-0.493883 0.037711773 0.024488209 -0.022901867 0.06950515 -0.25646263 -0.4870959 -0.09322625
-0.39834154 -0.19608858 -0.5093894 -0.022329943 0.097838946 0.06693449 0.031032026 -0.28027728
0.25810885 0.16398156 0.07747208 -0.15229575 -0.14653923 -0.12619828 -0.016344134 -0.58960146
0.028254112 -0.28999943 0.13738081 -0.38109308 -0.25081283 0.087415054 -0.48104674 -0.33005372
0.20897217 0.13067418 -0.19000573 0.023585415 -0.4306253 -0.49999234 -0.40659893 -0.18443796
-0.06836962 0.17878544 -0.0006227545 0.035181835 -0.3085623 -0.013502344 -0.41093245 -0.389245
-0.19441094 0.034565177 -0.47656772 -0.35652244 0.013059338 -0.24937963 -0.25687933 -0.40967646
-0.3662094 -0.5527316 -0.0578186 0.3160054 0.12575138 0.02050453 0.09013138 0.016533505
-0.28885376 0.1111784 -0.5829486 0.007028491 -0.23379402 -0.31840846 0.10064648 -0.06443222
-0.44802743 -0.47519433 0.10455178 -0.5331487 -0.17765014 -0.29132685 0.13307437 -0.19357735
-0.22942603 -0.19123977 -0.2974354 -0.40301108 -0.66568416 -0.356732 -0.06486497 -0.45519125
0.07258491 -0.16880089 0.06606757 0.00707485 -0.12837924 0.107273996 0.14803968 -0.22582513
0.09041106 -0.02598876 -0.2970868 -0.14446421 -0.26809648 -0.31040865 0.039730296 0.16242671
-0.1092998 0.24753506 0.009222211 0.28964308 -0.3178635 0.12309671 0.016941879 -0.05980606
0.042645544 -0.08575062 -0.22277832 -0.3489536 0.16670847 -0.016529208 -0.03400545 -0.17108452
0.004942693 0.14331627 -0.23284146 0.12293017 0.01898103 -0.21718112 0.04706639 0.056258347
-0.33666623 -0.11920187 -0.34834608 -0.02658512 0.026818112 -0.18095286 -0.09122304 -0.23493303
-0.2099781 0.062433664 0.08432579 -0.1883102 -0.25905514 -0.019824065 -0.3541366 0.0064567486
-0.37674755 -0.28236648 -0.33609903 -0.54102194 0.013723103 -0.4134266 -0.25942594 0.104742266
0.06951966 -0.3889145 -0.09954232 0.048935175 -0.36965412 -0.30486965 0.052730415 -0.042043924

weight f4 [200, 402]
00000000: 42e3 0ebf cce7 f0be 87e1 0c3e a5d9 06bb
00000010: 7bf6 e83e 3930 debe 18c8 ecbe 10a3 983e
00000020: 1faf 71bb 720b b33c 5276 693e 0132 be3e
00000030: 2678 d6bc 8ee4 4e3e d3b7 cebc 455f 3abd
00000040: 9fd0 0dbf 8ab2 fdbd 6101 5f3e 86c2 dd3d
00000050: 642a ad3d 7ae2 5c3c 316d 47bd 8623 463e
00000060: 6b24 55be 4680 bbbc 7da4 94bd c4cd fd3e
00000070: bdd8 9b3e 0e5c b33e 5ca4 24be 6dc2 9dbb
00000080: c91c 70be 00ce a83e e53b 0d3d 322c a9bd
00000090: 6af0 41bd b157 143e 7ce4 d23e ab80 a43e
000000a0: 0551 d93d 616f 91bf 8137 b6bc bcb4 68bc
000000b0: f1de 4c3d cdfb a4be 92d8 60be 7dbf 9abe
000000c0: 9b7a 26be a13f 9a3e d199 f2be b737 85be
000000d0: f030 10bd d4a0 f53e 0b11 61bd bb4d 55be
000000e0: b211 31bd c61d 9ebe f236 e73e 2735 9a3d
000000f0: d4ef b13e a1bf a0bd 43d9 86bd 6c22 38bd
00000100: ecb1 4cbd 0e34 29be 4ee4 f33c 8d31 e8be
00000110: f9fe 8abe 8dc3 99bd 87ad 35be 0170 6c3d
00000120: d8a8 053e a22e 153e 9780 a4be 2b7d 80be
00000130: 38ec 733e ded8 c23c fed6 4cbf d05d f53d
00000140: ff91 cf3e 73c4 253d cd0f a93d 96ad 183e
00000150: ab36 643e 7fda 993e ece3 3cbc 8fea 623e
00000160: af61 003e 4150 c1bb 897d 2ebe 5146 d5be
00000170: 3875 913d a6f1 a83d c330 92bd 33d2 b53e
00000180: 0285 dabe 8e78 0cbf 096c b93d 54af 7abd
00000190: ada5 553e 5d14 aebd 91c2 74be ef99 913e
000001a0: 89c8 e9bd 1b29 b2be bc0d bebc 9b4c 99be
000001b0: 947a 1f3e fe7e d13e 6b10 5fbe 628e 23be
000001c0: b0e5 6bbe 422c 1dbc cfb1 d2bd b48b 503e
000001d0: 8cc0 a63e a857 463f 2bb0 f83c 5676 b33d
000001e0: eed9 28bd 07d2 08bf 19cb b2be 83d0 adbd
000001f0: aa88 9a3d ae53 bbbe 5410 233e 5621 8fbe
00000200: 7eb3 e73c 9cbe b6bd c560 e9bc bbea e4be
00000210: 1b98 36bd 3b54 12be 6a51 02bf 2d47 323e
00000220: c3da 51be 784f bf3d 93d1 4e3f d2ae 01be
00000230: 8656 d4be f6e5 15be da4c 153d e620 efbd
00000240: 703d 3cbf 43d8 cfbe d48c 11be a198 273f
00000250: 4d3d e83e 4846 8f3c 6ece 40bf ea32 3bbf
00000260: 1a85 75be c790 a4bd 06a4 3d3f 097f 5f3d
00000270: 718f 043d 8344 0a3e fdbe af3d 83f2 1cbe
00000280: 2442 a1be 9e69 e03e e799 03bf 3eb2 433e
00000290: 8412 2e3e 8e93 903d ca58 eabe 017d 3bbf
000002a0: bc4a 0fbf c289 afbd a448 a13d d2fd 93be
000002b0: 81d3 06bf e94d 3ebd d225 c9bb 4b34 e6bc
000002c0: 5068 f93e 8615 80bf f5ab 20be e19b 2f3e
000002d0: 87a8 30bf f279 3e3e 9cf6 9e3d 69d4 64bd
000002e0: e7a6 193d 49a7 9c3e 96cb 9fbd 8456 8a3e
000002f0: a167 7c3f 6266 323e 5ba3 c5be 7f4a 373e
00000300: 7980 e6be f7a1 da3e e837 043e ba56 00bf
00000310: 2ac9 393c f60a ecbe a6de b9be 12ab cdbe
00000320: 7c4e 78be ff24 1cbd ce59 083f d86b 203e
00000330: 070b 1abf 9a41 263e 2ef1 853d 5302 b7bd
00000340: fa60 00be bb62 33be dcff 793e 8294 cabe
00000350: 15e8 653d ffee 993d 1e7c ad3e aa40 a73d
00000360: e46d bcbd 945f 693e 5f09 2cbf e525 c2bd
00000370: b169 21be c00c 143e c0fe 6e3e a0a9 cf3c
00000380: 7eac 5c3d daa1 133a 7882 dcbd 2640 8c3e
00000390: 2333 413e 67e2 313d 4f43 883e 7888 253d
000003a0: d6ad ba3e d7bf fabe c477 81be 7c23 4a3e
000003b0: fb62 5ebf 1354 663e ab84 febd 7f1c fabb
000003c0: 9683 31bf 7842 bebe 1817 263e bb94 32bf
000003d0: 4087 aa3d 81c3 923d 2e6f 3e3e c04f 403e
000003e0: b6c3 183e 40eb 973c 1315 86be 1265 4ebd
000003f0: 616c bcbe 9d7b 3cbc bdeb 933d d2b1 a7be
-0.5581552 -0.47051847 0.13757907 -0.0020576504 0.4550055 -0.43396166 -0.4624641 0.29811907
-0.0036878062 0.021856043 0.22799042 0.37147525 -0.026180338 0.20204374 -0.025234139 -0.045501012
-0.55396456 -0.12387569 0.2177787 0.10828118 0.08455351 0.013481731 -0.048688117 0.19349489
-0.20814674 -0.022888314 -0.07257936 0.4957105 0.30438796 0.3503117 -0.16078323 -0.004814437
-0.2344848 0.32969666 0.034480948 -0.08260383 -0.047348417 0.14486577 0.41189945 0.32129416
0.106111564 -1.1362115 -0.022243263 -0.014203247 0.0500173 -0.3222336 -0.21957615 -0.3022422
-0.16257708 0.3012667 -0.47382978 -0.2601907 -0.03520292 0.47974265 -0.054947894 -0.20830433
-0.043229766 -0.3088209 0.45159107 0.07529669 0.34753287 -0.0784905 -0.06584408 -0.044954702
-0.049974367 -0.16523764 0.02977195 -0.45350304 -0.27147654 -0.075080015 -0.17741977 0.057724003
0.1305269 0.1456857 -0.32129356 -0.25095496 0.23820579 0.023785051 -0.8001555 0.11980784
0.40541074 0.04047055 0.08254967 0.14909968 0.22286479 0.30049512 -0.01152895 0.2215979
0.12537263 -0.0058994596 -0.17040075 -0.4165521 0.07102436 0.08249216 -0.07138207 0.35511932
-0.42679602 -0.5487145 0.09053809 -0.061202362 0.20863982 -0.08499978 -0.23902346 0.28437755
-0.11415202 -0.34796986 -0.023199908 -0.29941258 0.15574104 0.409172 -0.21783607 -0.15972283
-0.23036838 -0.009593071 -0.102878205 0.20365793 0.32568777 0.774775 0.030357441 0.08762805
-0.04122346 -0.53445476 -0.34920576 -0.08487036 0.07545598 -0.3658728 0.15924197 -0.2795512
0.02828383 -0.089230746 -0.028488526 -0.44710335 -0.044578653 -0.14289944 -0.5090548 0.17409964
-0.20493607 0.09341329 0.80788535 -0.12664345 -0.41472262 -0.14638504 0.036450244 -0.11676197
-0.73531246 -0.40594682 -0.14213878 0.6546727 0.4535927 0.017489567 -0.75314987 -0.73124564
-0.23976555 -0.080354266 0.74078405 0.05456451 0.03236336 0.13502698 0.0858135 -0.15326886
-0.31495774 0.4383058 -0.5140671 0.19110963 0.1699925 0.07059394 -0.45770866 -0.73237616
-0.5597341 -0.08571197 0.07875183 -0.28904587 -0.5266648 -0.04646102 -0.0061385417 -0.028101107
0.48712397 -1.0006568 -0.15690596 0.17149307 -0.6900715 0.18601206 0.07761881 -0.055866633
0.037512686 0.30596378 -0.07802503 0.2701913 0.98595625 0.17421868 -0.38601193 0.17899512
-0.45019892 0.42701694 0.12911952 -0.50132334 0.011339465 -0.46102113 -0.3630268 -0.4016958
-0.2424869 -0.03812122 0.5326203 0.15666139 -0.60173076 0.16235963 0.06540142 -0.0893599
-0.12536994 -0.17518131 0.24414009 -0.39566427 0.056129534 0.07516288 0.33883756 0.081666306
-0.092006475 0.22790366 -0.672018 -0.09479884 -0.15762974 0.14457989 0.23339367 0.025349438
0.05387544 0.0005631723 -0.107670724 0.2739269 0.18867163 0.043428805 0.26613852 0.04041335
0.3646075 -0.48974487 -0.25286686 0.19740099 -0.8686978 0.2249301 -0.12427648 -0.0076327915
-0.6934141 -0.37160087 0.16219747 -0.69758195 0.08326578 0.07166196 0.18597099 0.18780422
0.14918408 0.018544793 -0.26187953 -0.050389357 -0.36801437 -0.011504081 0.07222698 -0.32752854

bias f4 [200]
00000000: 0357 cbbc 2d9d 99be cac7 60be 76c1 bbbe
00000010: b29d 18be a977 973d da05 7c3d 34fc 63be
00000020: ac48 d8bd c84e 563d 2ee1 20bd 38fc a83c
00000030: 375e 573e 49be 513e 9531 32bc 359b 703c
00000040: 9f72 30be 7b1c a9be c62a a3be 7cb7 09be
00000050: 3784 67be e506 553c 02d4 aebc f1d3 60be
00000060: 7cda a63d 2324 073e cc19 79bd 0486 4b3c
00000070: 8c78 663c 20b7 40be e4fb 1fbd a2f1 cebd
00000080: 9f75 3f3e 1873 04be 4cf0 37bd 6d21 2abd
00000090: c5e0 543c 8c5f 6bbe e6dd d23d 2c8b ccbc
000000a0: 8890 74be 74cc 1bbe d4e8 38bd 39a7 aa3d
000000b0: f782 01bd e527 ef3d 792d 343e 8155 f2bd
000000c0: f9a8 3a3e 2414 673d 3d06 5d3d 4352 cabd
000000d0: 91d2 97bc 855d 233d 2dd8 253e 3751 40be
000000e0: e924 5c3d 14e7 dc3d 734b a6be d804 513d
000000f0: dfcf 873c b014 ac3d 537c 9fbd 898d 20bd
00000100: ffd4 513c 305e c6bd 908b 85bd ee3e a8bb
00000110: 397b 7d3b f44c bc3d b073 5cbe 4ff0 20bd
00000120: 0e36 8dbe 399b a03d 206e 033e 9e78 65be
00000130: ecff c5bd 5da5 223d 0e6b 723c 52a7 09bd
00000140: 2da3 a73d 6507 06bf 9e77 4c3d 3e50 e8bd
00000150: 2626 23bd e226 57be df24 2fbd 3756 ccbe
00000160: 48ef b2be a0ef de3c e13c 84be fab5 16bd
00000170: 1076 a8bd 0ba0 98bd 13cd 7dbd 4fb9 1dbe
00000180: 2fe3 bdbc fbb8 3dbd 8d49 5a3e 434c 2c3b
00000190: d1fe ebbd 996d 0f3c 1867 17be 9c5e 9fbc
000001a0: 1d04 4abd 3777 4abd 51fa 053c f960 68be
000001b0: 4ea8 aa3d aba9 8d3e 07ec 4bbe 8ab1 9b3c
000001c0: 6308 60be 23bb 70bd 34a5 423e 47a6 7f3e
000001d0: b731 2a3e 93c0 f43d ce62 f33d 1dd7 443c
000001e0: 0550 cf3d 3cf0 abbd 9988 16bd 308b 0e3b
000001f0: 5058 50bd 089d 0f3d ef33 c83d 8037 0b3e
00000200: cc14 83bc 443b 593e 530e 34bd 21f5 dbbe
00000210: 2c39 a9be f7c2 8ebd 424f 2c3e 0e08 0bbc
00000220: 50fc 373d 0847 87be 3610 adbe ab63 9abc
00000230: 7528 b1be 2e7d a2be 033a 8c3b 2fc9 003c
00000240: 4c3e 893d 29c3 febd 4f83 c2bd 6eea 8bbd
00000250: daa0 e6bc 1aab d6bc 0d05 05bb 2ab3 423d
00000260: 3887 34bc dcd4 aa3c b937 d9be 4eb1 943c
00000270: c5a8 773e e80b dabd 12da e7bc 57e5 5b3a
00000280: 49f4 0ebd d718 0ebd d1da 1a3e a477 4dbe
00000290: 7a4c 243e 9561 96bc 4e1f 80bd bb48 40bd
000002a0: 91b7 e3b9 e12b e73d 4fdd 5dbe 41c4 25bd
000002b0: 1ecc b53e 1089 bb3c 64d8 f5bd f956 3a3c
000002c0: 714a 3a3e ac26 a6bc 4a78 1dbd deac 103e
000002d0: 026d a1bc a47e a8be 9fe1 023c 2eb8 07bd
000002e0: 0aa2 a03d 2334 2abe 7ad6 0f3e ef76 6f3e
000002f0: 7bab f8bd 5696 ffbd 67e8 98bd f3e3 6abd
00000300: 7acb bcbd 282c 87bc f42e c73d bf90 87be
00000310: a058 01bc a1e1 1fbe 36f4 f33d dbfa 143d
-0.024821764 -0.30002728 -0.21951213 -0.36671036 -0.14903906 0.0739587 0.061529018 -0.22264177
-0.10560736 0.052321225 -0.039277248 0.02062808 0.21032034 0.20482744 -0.010876079 0.014685442
-0.17231224 -0.3302954 -0.3186857 -0.134489 -0.2260903 0.013002132 -0.021341328 -0.21955849
0.08147141 0.13197379 -0.060815617 0.0124220885 0.014066827 -0.18819857 -0.03905858 -0.101046816
0.18697213 -0.1293453 -0.0449069 -0.041535784 0.012993042 -0.22985667 0.1029623 -0.024968706
-0.2388326 -0.15214711 -0.045143917 0.083326764 -0.03161904 0.11677531 0.17595471 -0.11832715
0.1822852 0.056415692 0.053961027 -0.098789714 -0.018533023 0.03988411 0.16195746 -0.18780981
0.053746138 0.10786262 -0.32479438 0.05103001 0.016578613 0.08402383 -0.07787385 -0.03919748
0.01280713 -0.096859336 -0.0652076 -0.005134455 0.0038678183 0.09194365 -0.21528506 -0.039291676
-0.27580303 0.07842106 0.12834978 -0.22409293 -0.09667954 0.039708484 0.014796032 -0.033606835
0.0818542 -0.52355033 0.049918763 -0.1134343 -0.039831303 -0.21010926 -0.042759772 -0.39909527
-0.34948182 0.027213871 -0.25827697 -0.03679464 -0.08225644 -0.07452401 -0.061963152 -0.15402721
-0.023179619 -0.04631899 0.2131712 0.0026290573 -0.11523212 0.008754157 -0.14785421 -0.019454293
-0.04932033 -0.0494301 0.008177356 -0.22693242 0.08332883 0.2766851 -0.19914256 0.019005556
-0.218782 -0.058772217 0.19008332 0.24965774 0.16620527 0.11950793 0.1188408 0.012014178
0.101226844 -0.083954304 -0.036751363 0.0021750443 -0.05086547 0.035061866 0.097755305 0.1359539
-0.016001128 0.21214014 -0.043958973 -0.42960456 -0.3305143 -0.0697078 0.1682711 -0.008485807
0.04491836 -0.2642138 -0.3380143 -0.018846354 -0.3460118 -0.3173613 0.0042793765 0.007860466
0.06701335 -0.124395676 -0.094977014 -0.06831823 -0.028152872 -0.026204634 -0.00202972 0.047534145
-0.011018567 0.020853452 -0.42425326 0.018150952 0.24185474 -0.10646802 -0.028302226 0.00083883613
-0.034900937 -0.034691658 0.15122534 -0.2006517 0.16044798 -0.018357078 -0.06255971 -0.04694436
-0.00043433582 0.11287666 -0.21666454 -0.040470365 0.35507292 0.022892505 -0.12004164 0.011373275
0.1819246 -0.020282112 -0.038444795 0.14128444 -0.0197053 -0.3290912 0.007988363 -0.03313463
0.078434065 -0.16621451 0.1404666 0.23385213 -0.12142082 -0.12479846 -0.07466202 -0.057346296
-0.092184976 -0.016500548 0.097257525 -0.2647762 -0.007894665 -0.15613414 0.11911814 0.036372047

weight f4 [1, 200]
00000000: 12e8 d53e 3354 643d 333d 28bf 9048 00bf
00000010: 63da a5be a1d1 e43f 8981 ddbc e2de 1dbe
00000020: 75b8 c2be c21f ab3f 3f33 5abc 65f2 0f3d
00000030: 7c8a b43f 519e 1a3f 8025 2bbe f29f 743d
00000040: 8a75 8f3f 7475 cfbe 9c3a 06bf efc7 69bf
00000050: adf7 93be 963a 7abd 26d0 223c 88c0 f9be
00000060: 98aa d43e 5325 a9bd 9af5 083d 98e2 22bc
00000070: c31e 3e3b 9dda f1bd 76ea 49bf be8f 27bf
00000080: 2269 93be 6574 babe 4044 a03c c943 7d3c
00000090: 19cc 0f3c dc6f b7be 2dfc dbbd 5cfb 653c
000000a0: fd3a 08bf 5573 37bf 4253 47be 29c9 14be
000000b0: dc65 843c eaeb f5bd 7c92 09bf 5d32 3d3e
000000c0: 24b8 06be 0624 2bbe 05be c4bd a799 e3be
000000d0: e097 623b f2dd 4e3d e8a3 353f 55e6 06bf
000000e0: 22b1 5e3f 972a 563f a158 00bf 7daf 87bf
000000f0: d101 aa3c 335d 67bd 6d50 903f d27a 64be
00000100: aae7 973f fc8d 4cbf 95c2 babe af7d 423c
00000110: 2eab 4b3d daf3 983f fd06 24bf 9134 303c
00000120: e18d bebe e03e 6bbd 795d 3e3e 47d8 33bf
00000130: ab85 bdbb e545 893e d20c 82ba c108 7d3d
00000140: 209d d53e e49a febe 3218 60bf 83cf 16bf
00000150: 809e d63c 34a0 57be 19aa 41bc 735c cfbe
00000160: e978 aabe c6fd 9fb8 1591 94be 25f9 0f3d
00000170: 2ae7 bdba 77cc 7ebd c603 8d3b b4e7 50be
00000180: 1662 d63c f6a9 27bc b583 633f 83e0 b23c
00000190: 6357 c9be a5c4 f03c f51e febe 83b2 323d
000001a0: 79b6 213d 3c87 ea37 05db bb3c d481 01bf
000001b0: e1b4 aabe f9ee 983f f23d a8be dea4 a33c
000001c0: 5397 ddbe 990a a1bc 453c 9b3f c5f0 a4be
000001d0: 3eb9 b43f 59bf 1a3f e798 0f3f 433e 353d
000001e0: f168 afbe bacd 29be 2cd5 04bb d9e4 8dbb
000001f0: 28c5 2c3d aa4a 85be 5d9e 9f3e 39cb 603f
00000200: 556e 3d3c 8fcd 903f 7e69 0dbd 9c8e 75bf
00000210: 3296 c4bf 458f 85be 345c 01be e708 a7ba
00000220: 97c4 ddbd ae39 6bbe e223 6dbf 6e4d 503f
00000230: 74e9 44bf 43af a5be f42c 1b3d 3cde 9c3f
00000240: 5bd7 17bf 8cd7 683f ccc1 0bbf 2c72 43bf
00000250: 994e 743d 5fb7 ff3c 468b 22bf 413c f93e
00000260: 145a 423b 6133 f83c cdfc 37bf 55b5 193d
00000270: 6cd9 15bf 0f78 53be 9c96 37bd 2b95 a2be
00000280: cb43 463c fc37 27bf 16f2 debd 6c1e cebe
00000290: 1d43 1f3f 4809 773c 0d30 a2be 1e7b 20be
000002a0: 1a89 673b ab5d 6c3e 341f dcbd c4ce 593c
000002b0: cf33 26bf e1c1 c83b 422b d3be 8beb b23c
000002c0: e366 19bf 2070 3e3b 2a51 ca3b ccf4 dbbe
000002d0: d2a7 9dbb 956e 62be bffc 043d 6d36 afbe
000002e0: 2539 22bf 690c 69be fc9a 653e eec6 fcbe
000002f0: de6a 11bf 078c 35bf 06dc 17bf 4fa0 bf3c
00000300: 8685 efbe 51c2 e4bb 74d5 803e adc6 44bf
00000310: 820c 39bf b20e 23bf 73d7 21bf 8e7c e23e
0.41778618 0.05574436 -0.6571838 -0.5011072 -0.32393178 1.7876474 -0.027039306 -0.15417054
-0.38031355 1.3369067 -0.013317882 0.035143275 1.4104762 0.6039782 -0.16713524 0.05972285
1.1207745 -0.40519297 -0.5243318 -0.913207 -0.288999 -0.06109103 0.009937322 -0.48779702
0.41536403 -0.08259072 0.03343735 -0.0099417195 0.0029010035 -0.11809275 -0.78873384 -0.6545371
-0.28791147 -0.36416927 0.019563794 0.015458056 0.008776688 -0.3582753 -0.10741458 0.0140369795
-0.5321501 -0.7166036 -0.19465354 -0.14529862 0.016161852 -0.12007888 -0.5373914 0.18476243
-0.13156182 -0.1671296 -0.09606556 -0.44453165 0.0034575388 0.050504632 0.70953226 -0.5269521
0.86989033 0.83658737 -0.50135237 -1.060043 0.02075282 -0.056485366 1.1274544 -0.22312477
1.1867573 -0.7990415 -0.3647658 0.011870786 0.049723797 1.1949418 -0.64073163 0.01075472
-0.3721762 -0.05743301 0.18590344 -0.7025189 -0.0057837567 0.26811138 -0.0009922034 0.061775927
0.4172144 -0.49727547 -0.8753692 -0.5891039 0.026198626 -0.21057206 -0.01182034 -0.4050022
-0.33295372 -7.62898e-05 -0.2901694 0.035149712 -0.0014488448 -0.06220671 0.0043034283 -0.20400888
0.026169818 -0.010233393 0.88872844 0.021835571 -0.39324483 0.029390642 -0.49632993 0.043627273
0.03948066 2.7957947e-05 0.022931585 -0.50588727 -0.33341125 1.1947929 -0.3285976 0.019976076
-0.43279514 -0.019658374 1.2127768 -0.32214943 1.4119031 0.60448223 0.56092685 0.04424883
-0.3425975 -0.16582385 -0.0020268662 -0.0043302593 0.04218021 -0.26033527 0.3117551 0.87810093
0.01156195 1.1312732 -0.034524433 -0.9592073 -1.5358336 -0.26085868 -0.12632829 -0.0012743742
-0.10828512 -0.22971222 -0.9263288 0.8136815 -0.7691872 -0.32360277 0.037884668 1.225532
-0.5931298 0.909539 -0.54592586 -0.7634609 0.05964527 0.031215368 -0.63493764 0.48678783
0.0029655742 0.030297937 -0.7187012 0.037526447 -0.58534884 -0.20651267 -0.044821367 -0.3175443
0.012101124 -0.653198 -0.10886018 -0.40257585 0.6221178 0.015077896 -0.31677285 -0.15671965
0.0035329522 0.23082606 -0.10748139 0.013293926 -0.64922804 0.006126628 -0.4124394 0.021840831
-0.5992262 0.002905853 0.0061742263 -0.42960203 -0.0048112655 -0.22112496 0.0324676 -0.3422121
-0.63368446 -0.2275864 0.22422403 -0.4937052 -0.5680369 -0.7091679 -0.59320104 0.02339187
-0.46781558 -0.006981172 0.25162852 -0.76865655 -0.7228471 -0.636943 -0.63219374 0.44235653
