lab2/problem2/neural-network-2-actor-gamma-1.pth (torch, 340225 bytes, 6 tensors)

weight f4 [400, 8]
00000000: b7d6 a13e 9eae bfbe 8289 873e 2613 803e
00000010: e3e5 fdbd e44a 66be 13a9 e63e 392e dabd
00000020: 6e86 0f3e 730a 70be 4b36 973d f7ef d2be
00000030: 5f05 4ebe 7a9e a7be 0035 4ebe d82d 913e
00000040: 841e c8bd 530c cc3c 0db0 823e 73de cdbe
00000050: 6104 893e fd53 16be b16a 48be d2c5 94be
00000060: 4af3 17be 6987 c63e 363b 213d 6418 0bbf
00000070: b538 c53e ae11 17be 396f 8e3e 20fa 11be
00000080: 3d1c febd 668b 84bd 49cf fe3e 91d5 4dbd
00000090: 5d1f 6cbe 86eb bbbd c0b7 043e c314 85bd
000000a0: 6ed8 1ebe 252c ec3d 34de a13e d82f 84be
000000b0: 3e47 d3be 6354 a23e f500 99be b458 383e
000000c0: c223 11bd bf12 36be bcd5 2dbe 88a7 87bd
000000d0: 83d6 68be 15a1 d23d 4770 4ebe 1b20 453d
000000e0: 8843 213e e328 d0bd 6ad9 31bd 2b46 393d
000000f0: e8c7 dbbe 9e87 4dbe 9044 b1bd 3a80 b6be
00000100: 829c 1abe f5f6 a3bd dae3 e03b 39c4 e43d
00000110: 039d bfbd fc6c 8cbd 7025 173e 8d44 103d
00000120: 024a 62be d03a 1b3e 7998 d5be d4cc 3abe
00000130: 4d7f 5f3d b287 a2be 7e26 6a3e c404 95be
00000140: bb31 813d ff4b 83be 5142 efbe e10a fcbd
00000150: 1576 543e 6ed3 27be 9245 dbbd d51a dcbd
00000160: 5ba7 b6bc e42a 97bd 6648 eabd ad7c 673d
00000170: 7d29 81be ffb6 cb3d 4e2a 6bbc 7250 6abe
00000180: c849 dd3d fa1f cf3d be6e ac3e 2256 ba3e
00000190: b726 0bbf 9825 023f 46be 3f3d 8393 553e
000001a0: f366 123e c1d1 19be a97a 70bb c544 92be
000001b0: 780b 21be d17a 043f c2c9 b53e d8dc c0bd
000001c0: 8802 a9be f806 b63e 8ef6 ce3d 37bd 673e
000001d0: 315f 94be f645 003e 351c 3ebe f996 5cbd
000001e0: f3f2 e8be e8c7 98be 88a2 083d 84d2 6e3e
000001f0: 1ee7 12be 124b 903d b396 3abe 2a03 6fbe
00000200: f790 ee3e bff2 a33d 9df5 95be 5fff a7be
00000210: 8fa8 883e 5ac8 aebe a1de 2e3d fccc 283e
00000220: 840a 6f3e 74de ac3e bf52 82be e362 5e3e
00000230: 194c 35bf 6dec aabe 48bb ce3d a1e3 94bd
00000240: 6674 babc 63c0 2bbe 7d2e e0bd e56b cfbe
00000250: 9357 65bd bcfd c5bd 5f06 933d 4666 88be
00000260: 1f39 8dbe 0ebe e53e a393 7d3e 2217 afbd
00000270: d02c 193e 08ef 383e e9a9 0a3e 0aa8 84be
00000280: 3de4 99bd fbbe 79bd a3ac a83e 8255 fb3e
00000290: 3ce4 35be f8d2 82be 43c6 833e e6ec 91be
000002a0: ab7a 4e3e 41ef 8abe 2b67 95bc 876a ddbd
000002b0: 14d3 5e3e 4992 7ebe e5e5 313c be2d fd3d
000002c0: 9110 723e d953 9dbe 388b c0bd 7d1c 4f3e
000002d0: f040 95be d2c0 063e bed9 2dbe f278 82be
000002e0: 9f11 a83d 852a 21be 3c85 a83e f491 bbbc
000002f0: ca5a 1ebe d6da 56be 6506 9cbe 023f 0a3e
00000300: 52e8 adbe 5299 31be b75e b2be e4a9 303e
00000310: 9d06 063e 4099 e43e 51da d63e 7ce6 39be
00000320: d6d6 b1be b14c 85be e8bc febd 7d09 98be
00000330: 23d5 20bf f950 6dbe 25f5 4abe 4794 42be
00000340: c947 a6bd d01e 0abe 9312 f3be 1af0 d43e
00000350: 26c1 01bf 8b94 3e3e cdbe fd3c 0842 c5bb
00000360: f2f3 b0bd 0fa7 7a3e 070b e2be 7fe3 64be
00000370: 56fe a7bd 6c8a 75be 1035 943e 6009 a0be
00000380: b87e b4be 1a0c 98bd 1cd0 a2bd 41cb 99be
00000390: 1500 a43e cec1 c9bc 6100 8f3d b76e 9fbd
000003a0: 571e 593d 5390 c53d f6ef af3e 5cae f33e
000003b0: d5f1 8d3c 012d b5be 6b50 6c3e 96fd 4b3e
000003c0: 8f9c 8a3e 03c0 043f dc8a 6e3e 91af 4b3d
000003d0: 9a10 fc3e 3851 c6be 229c 043d c487 bc3d
000003e0: 9ce5 4cbe 9e07 9f3e 6b9b c53d c0af 393d
000003f0: 8397 453f 4835 c13e 15c1 b1be cfe2 503e
0.31609127 -0.3743791 0.26472098 0.2501461 -0.12397363 -0.22489506 0.45050868 -0.106533475
0.14016125 -0.23441486 0.073834024 -0.41198704 -0.20119236 -0.32738096 -0.20137405 0.28355289
-0.097714454 0.02490822 0.2552494 -0.40208778 0.26761153 -0.14680476 -0.1957195 -0.29057175
-0.14838901 0.38775185 0.03936311 -0.5433409 0.38519827 -0.14752838 0.2781923 -0.14255571
-0.1240773 -0.06471901 0.4976752 -0.0502525 -0.23058839 -0.09175782 0.1296072 -0.064981006
-0.15512249 0.115318574 0.3161484 -0.25817752 -0.4126529 0.31705007 -0.29883543 0.18002588
-0.035434492 -0.17780589 -0.16976064 -0.06623751 -0.2273808 0.1028463 -0.20160018 0.04812632
0.15748417 -0.101640485 -0.043420233 0.045232933 -0.42925954 -0.20071265 -0.086556554 -0.35644704
-0.15098765 -0.08006088 0.0068630995 0.11170239 -0.093561195 -0.068567246 0.14760375 0.035221625
-0.22098544 0.15159154 -0.4171789 -0.18242198 0.054564763 -0.31744152 0.22866246 -0.29105198
0.063083135 -0.25643918 -0.46730283 -0.123067625 0.2074817 -0.16389248 -0.10706629 -0.10747305
-0.022296598 -0.073812276 -0.1143959 0.056515384 -0.25226966 0.09947013 -0.014353348 -0.2288225
0.10805088 0.10113521 0.3367824 0.3639384 -0.5435595 0.50838614 0.04681232 0.20857053
0.14297085 -0.15021421 -0.0036694205 -0.28568092 -0.15727031 0.517499 0.35505491 -0.094171226
-0.33009744 0.35552192 0.1010562 0.22630773 -0.28978875 0.12526688 -0.18565448 -0.053854916
-0.45497856 -0.29840016 0.033358127 0.23322493 -0.14345977 0.070455685 -0.1822155 -0.2334105
0.46594974 0.080052845 -0.2928895 -0.3281202 0.266911 -0.3413723 0.042692784 0.16484445
0.23343855 0.33763468 -0.25453755 0.2171741 -0.7081924 -0.33383504 0.10094315 -0.07269979
-0.022760581 -0.16772608 -0.10946367 -0.40512004 -0.05599172 -0.096675366 0.071789496 -0.26640528
-0.27582642 0.44871563 0.2476335 -0.08549334 0.14958501 0.18059933 0.13541378 -0.25909454
-0.07514236 -0.06097315 0.3294421 0.49088675 -0.17762846 -0.2555158 0.257372 -0.28501052
0.20163982 -0.2713566 -0.01823767 -0.10811334 0.21760207 -0.24860491 0.010858034 0.1236224
0.23639132 -0.30728033 -0.09401554 0.20225711 -0.29151106 0.13159493 -0.16977593 -0.254829
0.08206486 -0.15738876 0.3291415 -0.022896744 -0.15464321 -0.20981917 -0.3047363 0.13500598
-0.3396631 -0.17343643 -0.34837887 0.17252308 0.1308846 0.4464817 0.41963437 -0.18154329
-0.3473422 -0.26035073 -0.12438375 -0.2969474 -0.6282522 -0.2317542 -0.19820078 -0.19001876
-0.08119161 -0.13488317 -0.47475109 0.41589433 -0.50685346 0.18611352 0.03097477 -0.0060198344
-0.08640279 0.2447779 -0.44149038 -0.22352408 -0.082028076 -0.23978585 0.28946733 -0.31257153
-0.3525293 -0.07424183 -0.0794985 -0.30037883 0.32031313 -0.024628546 0.06982494 -0.07784789
0.05300745 0.09646668 0.34362763 0.47593963 0.017327229 -0.35385898 0.23077552 0.19920954
0.2707257 0.51855487 0.23295158 0.04972798 0.49231416 -0.3873384 0.032375462 0.09205583
-0.20009464 0.310605 0.09648784 0.045333624 0.77184314 0.37735963 -0.34717622 0.2039902

bias f4 [400]
00000000: a971 163e c0c8 a13d c5ec a13e 8681 7abd
00000010: 2619 b83d 0893 223d bac0 b1be 5079 6f3e
00000020: d981 1a3e d5b2 4f3e c2d1 813e 864c 303e
00000030: 14e4 2abe 71eb 823d 86b0 603e ac76 f73d
00000040: 7b83 74bd eb9b 823e b217 553e 9a4f 84bd
00000050: de35 38bd c9a3 a43e 564a 92be 234a 3e3e
00000060: d96a 193e b546 a03e 6045 eabc 8b09 1e3e
00000070: eeb7 91bd 28af 47bd 2e32 33be 272a 1abe
00000080: edfa 893e f75b a43e 2bcf d13c 1bad d13b
00000090: e489 ae3d 325c 8cbe 73d1 0b3e 3b53 343e
000000a0: ee96 99ba ec20 7a3d 468e 06be a385 993d
000000b0: 6a3f 903d 1718 05be 3b0a 2abe 1a63 a63d
000000c0: 1284 3c3e 67a9 70be 8acb 44bd d721 3bbe
000000d0: 5d40 8c3e 9794 60be 8887 083e 03d3 68be
000000e0: e539 05be 1f7e 623d a84f 083e 4e31 8f3d
000000f0: 553b 943e 17c7 c83c c2d0 e1bd fecc 3ebe
00000100: 37f7 0fbe aacf 4abd 6a06 9d3e cd42 b43d
00000110: 957b 7a3c 915f f73d 2128 89be f6c2 4dbd
00000120: 116d 863e 3781 433e f002 963d 5476 76bd
00000130: 17c4 ddbd 8e7b 3a3e ca7e 9cbe 47c8 54be
00000140: 44b4 eabd 9510 593c a9e0 4cbd b7c2 ee3d
00000150: 2554 1dbe c75d 9c3e e6ec fabd 805b b93c
00000160: d370 90bd 7192 a43b 54fd 18be a76f 4bbe
00000170: 62c2 29be 5ad7 51be 392d 53be 8aec 043d
00000180: bef9 8b3d 608c 2a3e 1539 0b3e e9c7 5f3e
00000190: aecf 213d b89f 803e ecfb d4bc aaaa 043e
000001a0: 87e9 9cbe 0ca8 953e e6d4 3bbe 1de1 1e3e
000001b0: 8290 283e d3c1 9cbd 49ef 373d bfdf 883c
000001c0: 2557 1a3e ad58 b93e b525 073d dc12 c2bc
000001d0: 6d1b 16be 676f 22bd 1932 b83d df56 e53c
000001e0: 8fb9 7e3d 0a75 9a3e 42cb 4dbd e73b 483e
000001f0: 47f8 463e a3aa 64be edcd ad3e 99e1 d83c
00000200: 97ec 64bd e3e1 133e b507 3dbb b81d 8dbd
00000210: e6c8 8b3e 1048 f73a ef0a 0a3c 7862 013e
00000220: 61c0 103e edf2 25bd 9d0b 74be b07b 3f3c
00000230: f1de ac39 bd70 483d 06ab 183e 2706 c33d
00000240: e0d5 9b3e 6932 92bd b12e db3d dc4f 23be
00000250: 1804 933e 8cf9 f93c c297 92bd 8b3f f0bd
00000260: 5d5b 813e 5f0d 393c a652 1c3e e264 843e
00000270: ed2c 863e f047 4e3c 1d2c a43e 8598 a43e
00000280: 5c39 7dbd a65e 613e 2520 3a3e 0978 08be
00000290: 6d2c 5fbd 4ef7 843d 152d cd3d 9316 503d
000002a0: 9cda 583d 4787 9c3e 9976 963e e5a5 6dbe
000002b0: 482d 49be 1c75 bc3d a016 783e 7e9c aaba
000002c0: dd63 f83d 0918 cb3d 42dd b83d bc3d cb3d
000002d0: 26a5 c43b d6df d2bc bb74 913e 5cd3 4a3d
000002e0: 32c3 97bd eb74 963e 5f12 643e 6bdc cdbd
000002f0: c3f6 c03c 1baf ac3e 90ed b43d c1e4 263e
00000300: 2daa 6c3e 24fa 533e ed36 5c3d 106a 533e
00000310: 5e77 1f3d f334 c63e b220 423c d8e1 a33e
00000320: 8892 6e3d 715e c63d f4a1 e13d 7d6b 17bd
00000330: 04ba c9bd a331 79be 36c1 19bc 91ff 9f3e
00000340: 3db5 c4bd ae95 7d3d 383d 9b3e ed4e 653d
00000350: edea c4bd d782 0fba 65e6 7c3c 9ec1 803e
00000360: 2eaa a73e 107a e5bd 1a14 593e ceb7 c53e
00000370: 7922 393e a958 cf3d 8e9d 8f3d 1b9b 1f3e
00000380: 064c 88bc 39aa 19be bbb1 c03d a984 373d
00000390: 3a10 463d 2201 aa3d 7486 1b3e 26c8 963c
000003a0: 3332 5e3e 81d4 cc3b 2b41 163e b875 653d
000003b0: f7c7 8cbd 2962 5cbe 21d1 223e 3596 50bd
000003c0: de71 213e abbe 2f3e 6402 a7be 271e 00be
000003d0: e93d 9e3e 9ede 853d aa19 85be 3577 1e3e
000003e0: 90ab 953e 80c1 5bbe d1e1 f8bd 48ae c43d
000003f0: 7cd7 733d 16f1 153e b100 563e f595 5abe
0.14691795 0.07899618 0.31625953 -0.06115868 0.08989172 0.039691 -0.3471735 0.23386121
0.15088595 0.20283063 0.25355345 0.17216691 -0.16688567 0.06392563 0.21942338 0.12083182
-0.059695702 0.2550958 0.2080982 -0.06460495 -0.044973247 0.32156208 -0.2857234 0.18582968
0.14982165 0.31303945 -0.028597534 0.15433328 -0.0711516 -0.048751026 -0.17499611 -0.15055142
0.26949254 0.32101414 0.02561148 0.0063988096 0.08522394 -0.2741409 0.13654117 0.17609875
-0.0011717954 0.061066553 -0.1314021 0.07496192 0.07043345 -0.12997471 -0.16605465 0.08124371
0.18409756 -0.23502122 -0.048045672 -0.18274628 0.27392855 -0.21931683 0.13332951 -0.22736745
-0.13010366 0.05529606 0.13311636 0.06991826 0.28951517 0.024508996 -0.110261455 -0.18632886
-0.14059149 -0.04951445 0.30668956 0.08801804 0.015288253 0.12078775 -0.26788428 -0.050234757
0.26255086 0.1909226 0.07324779 -0.06017144 -0.10828417 0.18211195 -0.30565482 -0.20779525
-0.11460164 0.013248582 -0.05001894 0.11658233 -0.1536413 0.30540296 -0.12252216 0.022626638
-0.070527695 0.00502234 -0.14940387 -0.1986681 -0.16578057 -0.20492306 -0.2062272 0.032452144
0.06834744 0.16655111 0.13595994 0.21853603 0.0395047 0.25121856 -0.025999032 0.12955728
-0.30646917 0.29229772 -0.18342933 0.15515561 0.16461375 -0.076541565 0.044905934 0.016708253
0.15072306 0.36200467 0.032994945 -0.023690633 -0.146589 -0.039657023 0.0899393 0.027995525
0.06218868 0.3016742 -0.05024267 0.19554101 0.19430648 -0.22330718 0.3394617 0.02647476
-0.055889692 0.14441638 -0.0028843705 -0.06890434 0.2730171 0.0018866081 0.008425458 0.12635219
0.14135887 -0.040514875 -0.23832555 0.011687204 0.000329725 0.04893564 0.1490899 0.09522658
0.3043661 -0.07138521 0.10702265 -0.15948433 0.2871406 0.030514501 -0.07157852 -0.1173087
0.25265017 0.011294692 0.15265903 0.25858217 0.2620615 0.012590393 0.32064906 0.32147613
-0.06182228 0.22008762 0.18176325 -0.1332704 -0.054485727 0.06492482 0.10018364 0.05080278
0.052942857 0.30571958 0.29387358 -0.23207815 -0.1964618 0.09202024 0.24227381 -0.0013016609
0.121284224 0.09916694 0.090265766 0.09923884 0.0060011325 -0.025741499 0.2840937 0.049517974
-0.074102774 0.29386076 0.22272633 -0.10051807 0.023555165 0.33727345 0.08834374 0.162982
0.23111792 0.2070089 0.05376332 0.20645928 0.038932197 0.38712272 0.0118486155 0.32008243
0.05824521 0.09685982 0.11017218 -0.036967743 -0.09849933 -0.24335341 -0.009384444 0.3124967
-0.09604881 0.061910324 0.30320144 0.055983473 -0.09615121 -0.0005474514 0.01543579 0.25147718
0.32747024 -0.11204922 0.21199074 0.38616794 0.18079557 0.101243325 0.07012473 0.15586512
-0.016637813 -0.15006341 0.094088994 0.04480425 0.04835532 0.08300997 0.15188009 0.018405985
0.21698837 0.0062509184 0.14673297 0.05602047 -0.06874078 -0.2152182 0.15900089 -0.0509245
0.15766093 0.17162578 -0.3261901 -0.12511502 0.3090661 0.065366015 -0.25996143 0.15475161
0.29232454 -0.21460533 -0.12152446 0.09603554 0.059531674 0.14642748 0.20898701 -0.21346267

weight f4 [200, 400]
00000000: 4eee 583b 227d eb3c b1b9 603d 67f5 503d
00000010: 49ed 98bc ae05 e4bd c297 0bbd fde4 82bd
00000020: 516d 093d 6d8d 0fbd cf6c 80bd dc8b 333c
00000030: c112 a53d 0815 463e c3c0 09bd 2d33 203e
00000040: 4fa3 0b3e ac6f 5fbc 16ca c83c 85e2 3f3d
00000050: d656 6fbd a3ff 983d 408b 1b3d ab93 3cbd
00000060: 3513 febb 0388 ea3c 01a4 cabc 8588 0ebd
00000070: cca8 313e 8eaf 07be c5a4 c43c 25e6 13be
00000080: c61a 933c b12f 893d 4f5a 99bd fd6f a73d
00000090: f7cf 8dbd 406c 603e 7c94 763c 6da6 a5bd
000000a0: 64ca 13bd ec0e a43d 7825 263d c0f3 d13d
000000b0: e282 06be ae34 023d 8b75 efbd a3de 083e
000000c0: d541 87bd af01 2c3e f1e0 173e 1b28 cdbc
000000d0: d9c4 98bd c702 e73d 6e6c a9bd 74f7 b0bd
000000e0: 4b8a a6bd 6eda 0a3d a174 1d3d e98a abbd
000000f0: 5810 c9bc aeb3 93be a66e 043e 6ce6 e13d
00000100: 2478 073e b7fa 043d f5a6 ccbc f0b3 a7bd
00000110: 718b 08bd 5bb8 b2bd 0611 9cbc 21af 1d3c
00000120: 7475 48bd ad18 803b e7a2 08be 90de f13d
00000130: 5368 b33c 762c f8bd 7965 223e 8911 ab3c
00000140: 994c 263e 7abf d6bd 34ab 41bd db28 cfbc
00000150: 2210 69bd 8d21 2bbd 77f7 2ebd 0f9b 49bd
00000160: 4a07 863c 4213 c33c 23a2 bc3d bee9 813e
00000170: 280c 0d3e 7971 c93e eb56 c3bd 5685 a03d
00000180: 1c6a 90bd cdfe 1d3d f0d2 d83b 08eb bfbd
00000190: 63a6 283d 1683 9a3b 0f58 acbb 5549 333d
000001a0: 08b2 5b3d 54a6 d4bb c03e f8bd c2d7 75bc
000001b0: fad9 48bd 0f6a a2bd ff91 093e 4d6b 16bd
000001c0: 4c61 debc 247f 843b 5ca3 2bbd f7ab b63d
000001d0: 1ce7 46bc 13f8 36bc 103d 61bc f9c2 0cbd
000001e0: d984 693d 0008 8d3c aa36 f33d 00d8 483e
000001f0: 5265 16bd 4eea 84bd 5c91 923b c027 c5bc
00000200: 387c 11bd 1519 e13c 82a4 85bd ecf8 a63c
00000210: a3d2 50bd 0677 bcbd 73dc b1bd 2f65 5fbd
00000220: 3d72 f03a 18d3 ac3c ef31 6abd d14b cabd
00000230: 8910 913d 1991 543c 31c5 153e 282d b0ba
00000240: 9b58 07be fde9 39be f088 cbbc 21b0 fc3d
00000250: 8c49 093c 7280 e73d 0285 36be a077 2c3c
00000260: 24ab 403a 7fb2 81bd b097 9a3d 9a24 36bd
00000270: cbcf 92bd 5b19 12bc af61 ea3c 6e32 b63d
00000280: 6157 9ebc 5676 203e 6292 b13c ef72 a03d
00000290: 6f6e 013e 64e6 02be ef2c 5bbe e0d0 cebd
000002a0: f152 7cbd 0586 af3d a059 753d 5b53 b3bd
000002b0: 11e8 e83d e7fe b83d 5706 9ebc 3a67 d13d
000002c0: 02e1 34ba 6910 08bd fd61 9e3c 0221 69bd
000002d0: 97d3 633d cb5e 493c 3bf3 bfbd b5e5 983d
000002e0: d127 e3bc 64bb 8bbd ca72 d7bc 71a3 b53b
000002f0: 3cb1 1ebe b728 05bb b666 31be 6f2c 433e
00000300: ab12 293d fc35 0b3e d195 d73d 007b 82bb
00000310: 4f43 b33a 4273 3bbc efd3 9ebb 8e48 b2bc
00000320: cdd8 c5bc 29f8 ddbc 613f 163d 90cc 37bd
00000330: 21bc 403d bb8e 07be 5e6f 3abd 8ab5 5cbd
00000340: 7593 0cbe 86ea cdbc d797 eebd ca5e 173d
00000350: 285d e53d 6d6b 1b3e 1f5b c73d a76f 833d
00000360: d4f3 32bd f161 2bbe 6585 e9bc d94c d2bd
00000370: 49fe 3c3d 59a4 2bbe 50d7 25bb b679 f2bb
00000380: e7b0 9b3d 8703 9bbd d844 70be aa94 ffbd
00000390: 2aa1 e0bc ead6 86bb 8972 4f3d b644 d5bc
000003a0: 5207 b5bd a7cb 7dbd 3d48 23bd b1bb 1abd
000003b0: 5bd3 1dbd a790 d2bd a2b9 8a3d 62a8 2abe
000003c0: ff39 97bb 22cc a6bc 7a6e 253e 66f6 153e
000003d0: 7f59 a83d c9ee fabd 3d42 c03d 2cfd 773b
000003e0: cf7e f33c 04d0 813d 6acb 73be 88f0 253d
000003f0: 3588 c33b 27d6 91bc 2079 abbd ec40 143e
0.0033101025 0.028746191 0.05486459 0.051015284 -0.018667834 -0.11133896 -0.034080274 -0.06391332
0.033551518 -0.035046984 -0.062707536 0.010958638 0.08060218 0.1934396 -0.033631098 0.15644522
0.13636516 -0.0136374645 0.024510425 0.046846885 -0.058432423 0.07470634 0.037974596 -0.046039265
-0.0077537545 0.028629309 -0.024736406 -0.034798164 0.17349547 -0.13250563 0.02400435 -0.14443262
0.017957103 0.066985495 -0.07487928 0.08175657 -0.06924432 0.21916294 0.01505005 -0.08088384
-0.036081687 0.080106586 0.040563077 0.1025157 -0.13135865 0.03178852 -0.116923414 0.13366179
-0.06604353 0.16797517 0.14831902 -0.025043538 -0.07459421 0.112798266 -0.082726344 -0.08640948
-0.08131846 0.033899717 0.038441304 -0.083761044 -0.024543926 -0.28848022 0.12932834 0.110302776
0.13229424 0.032465663 -0.024981955 -0.08188617 -0.033336107 -0.08726569 -0.019051086 0.0096242735
-0.048940137 0.0039091916 -0.13343392 0.118100286 0.021900332 -0.12117855 0.15859021 0.020882385
0.16240157 -0.1048574 -0.047282413 -0.025288036 -0.05690015 -0.041780043 -0.04271647 -0.04922014
0.016360898 0.023812894 0.092106126 0.25373644 0.13774168 0.39344385 -0.09538063 0.07837932
-0.07051489 0.038573075 0.0066169426 -0.093710005 0.041174304 0.0047153337 -0.005259521 0.043771107
0.05363658 -0.0064895544 -0.121213436 -0.015005054 -0.049036004 -0.07930385 0.134346 -0.036723424
-0.027146004 0.0040434767 -0.04190384 0.089195184 -0.012140062 -0.011167544 -0.013747469 -0.034365628
0.05701146 0.017215729 0.11875661 0.19613647 -0.03671772 -0.064900026 0.0044728946 -0.024066806
-0.035518855 0.02747778 -0.06525518 0.020382367 -0.05098213 -0.092023894 -0.086846255 -0.054539856
0.0018344593 0.021096751 -0.057176527 -0.09877742 0.07083232 0.012974047 0.14626004 -0.0013441192
-0.13217394 -0.18155666 -0.02484557 0.123382814 0.008379351 0.11303796 -0.17824176 0.010526568
0.00073497207 -0.063328736 0.07548463 -0.0444685 -0.071685396 -0.008917178 0.028611032 0.088963374
-0.019328775 0.15670142 0.021676246 0.07834422 0.12639783 -0.127832 -0.2140386 -0.100984335
-0.061602537 0.08570484 0.059899926 -0.08756133 0.11372388 0.09032994 -0.019290132 0.10224767
-0.0006899984 -0.033218775 0.019333834 -0.056916244 0.05562171 0.012290667 -0.093725644 0.07465688
-0.027728947 -0.06822851 -0.026299853 0.0055431654 -0.15497297 -0.0020318457 -0.17324337 0.19059919
0.04127757 0.13594812 0.10526622 -0.003981948 0.0013676676 -0.011441054 -0.004847042 -0.021763112
-0.02415123 -0.027095871 0.036681537 -0.04487282 0.047054414 -0.13238041 -0.045516364 -0.053884067
-0.13728125 -0.025136244 -0.11650055 0.036955632 0.11199409 0.15177698 0.09734177 0.0641778
-0.043689564 -0.1673658 -0.02850599 -0.10268564 0.046140943 -0.16761912 -0.0025305338 -0.007399763
0.07602101 -0.07569032 -0.23463762 -0.12479527 -0.027420599 -0.004114975 0.05064634 -0.02603374
-0.08839287 -0.061961796 -0.039863814 -0.037776653 -0.038531642 -0.102814965 0.06773688 -0.16665795
-0.004615068 -0.02036101 0.16155425 0.14644775 0.08220195 -0.12252576 0.09387634 0.0037840111
0.029723553 0.06338504 -0.23808065 0.04051259 0.005967165 -0.017802311 -0.08372712 0.1447789

bias f4 [200]
00000000: 9687 0b3d 83fb 0a3c 0d5b 963c 6ffa 85bb
00000010: efe3 9b3c 626f 54bd 4a76 f93b 866a 633c
00000020: 5161 afbc 5974 4abd 642e 27bc ac30 36bd
00000030: 6b13 13bd 2101 563a ac10 353d f8cb d2bc
00000040: a878 623c 4aba 183d 27d0 36ba 6fbc 10bc
00000050: 5104 213d acd6 1f3d b135 103d d527 bfbb
00000060: 4221 493d 3c6f 893c 5a10 363c 49fd 0bbd
00000070: 8d97 ef3b eed2 f3bb e1f2 09bd acda d0bc
00000080: 9487 aa3c 9a5a 50bb c4bc efbc de60 e43c
00000090: 3926 e23c 48ac c23b 8626 a03c b99a 34bd
000000a0: 0e3a 643d 5d03 133d a866 03bd cbae 2fbd
000000b0: fdb0 dfbb 7fbc 603c cba9 bfbc bd10 88bc
000000c0: 00a1 593d e0e9 1abd 0d35 57bd 6f0e 2dbd
000000d0: d739 023d e423 51bb 713b 16bc 3a12 18bc
000000e0: a354 27bd 98ea 0e3d 4bf9 6fbd 705b ebbc
000000f0: 2db6 0d3d ca30 d1bc e3bd c2ba 3dcf ac3c
00000100: a2ec a23c 8934 c33b d636 be3c 7e05 0c3d
00000110: 7890 6d3d 4298 9b3c 78cf b1bc cf4b 01bd
00000120: 67b0 64bd 6c42 db3c fc92 01bd a278 b6bc
00000130: 8582 9dbc 26d8 29bc bdd7 c53c 53a6 733c
00000140: 0a7f 5abc d04b a4bc 3191 a1bc 003a e43b
00000150: ebbf 403d 2226 1d3d ced8 613d a338 3ebd
00000160: d9f6 ca3c c3ed 05bc 82cb 71bc 96b1 e3bc
00000170: 85bf 7e3c 7e4b ffbb 420b 9bbc bc69 86bc
00000180: 9aec 0cbd 859b 7a3d 82e8 963d edad 3c3d
00000190: e579 913c ae36 393d 56dd 0ebc 967d 023d
000001a0: b056 bc3b 7bd8 9bbc c83a 2e3d da94 c73c
000001b0: e269 9c3c 10f6 093d 6eca f0bc a4fb 5a3c
000001c0: 97c6 0eba e4e7 963c 4170 e43b b0c2 f03b
000001d0: 1867 343b e114 a0bd 6d10 01bd 5c04 653d
000001e0: 8844 f3bc 5661 993d 9a3b 90bc d9dc 493b
000001f0: 4599 92bd ef13 8c3c ac6f 30bd 6421 73bc
00000200: 566f 033d 4352 433c 77f7 343d e09d 91bd
00000210: 38f3 31bd 781f de3c a09b 03bc 9964 9a3d
00000220: 621a de3c 0a2d c9bc ce28 ad3c 1f04 423c
00000230: 980f 2f3d 9a10 4bbd 32d7 9a3a ced3 7bbd
00000240: 6373 13bd 194b 0cbd dc21 3c3d 7abf e2bb
00000250: 720e 93bd a17c a93b e5be ef3c 861f 503d
00000260: dc5b 68bc 6ff4 98bc 9d48 7ebd 3503 48bd
00000270: e323 e83c 0a09 e03c a143 daba 9771 153d
00000280: 4356 893b 9a17 a43c ee03 2fbd 49a3 8f3c
00000290: 927f 1f3b 8e71 5b3d 538b 99bc c04a 9b3d
000002a0: 8bb0 7bbb 9347 e0bc 2558 23bd 13d4 ccbc
000002b0: 17fd 07bd aa1a 973b bdd4 8c3d 075f 45bd
000002c0: 14fe 94ba 9d96 1dbd aa8f d7bc d1e8 1fbc
000002d0: 15f7 0b3d 2ba5 013c 1036 b3bc 934f 1d3b
000002e0: d9b7 2a3d 2788 c3bb cae4 8e3c 5edd 933b
000002f0: 35ad 623d 68fd 51bd 7e90 e4bc 7c04 4cbd
00000300: 7a7b 0e3d 647a cd3c ee4a 813c 5e63 2dbd
00000310: 438d 1ebd 3ad2 87bc 4b4c 0f3d 1de7 1fbd
0.03406485 0.008482817 0.018353963 -0.004088692 0.019029586 -0.051864035 0.007612978 0.013880378
-0.021408709 -0.049427364 -0.0102039315 -0.04448001 -0.03590719 0.00081636204 0.044205353 -0.025732026
0.013822712 0.037287034 -0.0006973766 -0.008833989 0.039310757 0.039023086 0.035207454 -0.005833606
0.049103983 0.016776673 0.011112297 -0.0341771 0.0073117674 -0.0074409163 -0.033678893 -0.025494896
0.020816602 -0.0031792284 -0.029264815 0.027878221 0.027606117 0.0059409477 0.01954962 -0.044092868
0.055719428 0.03589188 -0.032080323 -0.042891305 -0.0068265186 0.013716816 -0.023396393 -0.016609544
0.053132057 -0.037820697 -0.052540828 -0.042250093 0.03179344 -0.0031912262 -0.009169445 -0.009281689
-0.0408522 0.034891695 -0.058587354 -0.028730124 0.034597564 -0.02553596 -0.0014857616 0.021094913
0.019888226 0.0059571904 0.023219507 0.034184925 0.057999104 0.0189935 -0.021705374 -0.031566437
-0.055832293 0.02676507 -0.031634316 -0.02227432 -0.019227276 -0.010366475 0.024150724 0.014871198
-0.013335953 -0.020055681 -0.019722553 0.006964922 0.047058027 0.038366444 0.0551384 -0.04644073
0.02477591 -0.008174363 -0.014757993 -0.02779464 0.0155485915 -0.007790982 -0.018926267 -0.01640784
-0.03440533 0.06118347 0.07368566 0.046064306 0.01775832 0.045218162 -0.008719763 0.03185805
0.0057476386 -0.019024124 0.042536527 0.02436297 0.019093458 0.03368193 -0.029393401 0.01336566
-0.00054464623 0.018421121 0.0069713895 0.0073474273 0.002752727 -0.07816482 -0.031509805 0.05591236
-0.029695764 0.074892685 -0.017606545 0.0030801801 -0.0715814 0.017099349 -0.04307525 -0.014839504
0.0320886 0.011921468 0.044181313 -0.071101904 -0.043444842 0.027114615 -0.008032709 0.07538719
0.02711219 -0.02455761 0.021137621 0.011841803 0.04273948 -0.04957638 0.0011813401 -0.06148129
-0.035998713 -0.034251306 0.04593073 -0.0069197984 -0.071804896 0.0051723276 0.02926583 0.050811313
-0.014182057 -0.018671243 -0.06208097 -0.048831183 0.028337425 0.02734806 -0.0016652235 0.03648528
0.0041911914 0.020030785 -0.042728357 0.017533915 0.0024337512 0.05357509 -0.018743193 0.07582617
-0.0038404788 -0.02737788 -0.039878983 -0.025003469 -0.03320035 0.004611333 0.06876514 -0.04818633
-0.0011367225 -0.038473714 -0.026313622 -0.009760098 0.034171183 0.007912914 -0.021876365 0.0024003729
0.041679237 -0.0059671584 0.01744308 0.004512473 0.055340964 -0.051267058 -0.02790093 -0.049808964
0.034785725 0.025082774 0.0157828 -0.042331092 -0.038708936 -0.016579736 0.034984868 -0.039038766

weight f4 [2, 200]
00000000: f802 963e 13cc 00be 44c4 063e 7a8e c8bc
00000010: 571e ddbd 7567 d83e b269 163f 0bd5 703e
00000020: 51be 97be 1147 18be 18d4 753d 4695 04be
00000030: 5750 00be 4cbf 153f 8d62 be3e de45 6c3e
00000040: 52bc 91bd 69fb 7a3e 1c5f 36be c7e0 093e
00000050: af6c 023e b182 bebc 56c9 ce3e 4fd4 9fbc
00000060: 2dfe ab3d 3b5b 50be c1e0 bdbd 5a26 55bd
00000070: eb81 0ebe 0c86 a5bd 02b9 4ebf dbbf c73d
00000080: cdcc 9b3e 9405 953e c2f6 3c3f 67af 2c3f
00000090: 3605 1a3e 2285 ed3e 028c 713d fdc7 1dbe
000000a0: 10fd 7c3d cef1 ea3d f74f 7bbb e4fe 3cbe
000000b0: 2c62 5ebd 4023 84be 616d e4be c79b e3bc
000000c0: 0856 7dbe b66d 3c3e 21ce f83c a0c3 2bbe
000000d0: 9902 70bc b312 dabc c8df 14bf a694 cd3d
000000e0: 0003 7fbd c560 633d 1049 433f 6423 dd3c
000000f0: 3ec6 5a3d d048 18be e3c0 953d dfbf 153e
00000100: 3986 893d 31bd 77be 083e 083f d4b6 03be
00000110: f334 803d 3fe2 39be 0e1e 5c3d 33b9 653f
00000120: 7149 3fbf c679 8bbe 71b6 843e 61c6 433e
00000130: b848 4c3d 5ade 34bd 279a 3ebe 622a e8bd
00000140: 5a7d f9be d191 203d bb39 96bc 8e17 843a
00000150: 59bf d5bc 1901 eebd b889 49be f352 b03c
00000160: 4964 ef3d 310f d33d 958f 85be 338e cf3e
00000170: 989e 623e 52bf 4ebd 02dc 773e b82a 943e
00000180: 3329 b63b 81a7 f03d a26b cf3d f20d ccbc
00000190: be99 cabd 90d0 593e 5d52 8a3d d8e1 46be
000001a0: 9e6a 433e 40fb 12be 5e60 323e f2b8 5d3d
000001b0: ba74 14bd f498 aa3e 5333 af3d 5875 79bc
000001c0: 4fdd 3d3c 437b 84be d2ac fe3d 6633 163f
000001d0: 1f8e 60be e0ef e7bd 9da5 4cbe 9ceb 8cbe
000001e0: 00a4 dcbe 4564 173e 7747 9b3e dfbd f9be
000001f0: f8ee 423e 023f 00be 543e dabe b6ee 943d
00000200: 6bd6 1ebe b2bb 8ebe 3d38 ac3d 9d5a 1d3f
00000210: f98d 5e3d 6a79 60bd f2b0 f6bd a219 8f3d
00000220: 09b7 1e3e 2a9f ff3e 7452 373e daa8 013f
00000230: 26cb a6bd 5788 0e3f 00d5 0c3d 5b56 5b3e
00000240: a421 463d 0b66 d03d d6e2 c7bd bb2e a0bd
00000250: 1669 46be a2cb 07bd 3438 e33d 23f9 443e
00000260: 6be5 2bbd 0df1 603e 45b2 adbe 8e71 ea3b
00000270: 6a89 06be 3217 fc3a f7f3 81be f72f ccbd
00000280: 61ab 753d 914c 813d 6dff 213d 3a04 dcbd
00000290: d0b9 d03d 57c8 e83d 3c6b e0be 87f6 17be
000002a0: 5e30 48bd a01f 03bf d81b 90bd 7812 25be
000002b0: d332 b7bd 0e1a 19be b5f3 c4bc c4ab 26bf
000002c0: 1327 0ebf e369 ecbd 9562 043e a2f4 b33e
000002d0: 0cf1 cc3c da53 6cbe 4834 703f eac2 2ebe
000002e0: 7e64 763d c153 b2bc a7a0 943e 0eee 293d
000002f0: 19b3 f93e dbe9 4f3e 67ca 173e 5cd4 babd
00000300: 3707 0f3f 7587 973d 6f83 03be 966f 373c
00000310: 2497 6fbd d6aa f83d adf1 3a3e c8cb 23be
00000320: 21f5 7fbe a808 90bd ad7f 143e d2cf 613e
00000330: 83c6 eb3c dab0 98be 5edc fb3d 3f23 91be
00000340: 2912 7cbe 41c2 d23d 54d2 843d 853f 9d3d
00000350: 212e bf3d 860a c9bd 941c 00bc 6dd3 1e3e
00000360: a5c9 bdbd 446f cfbe 0226 8cbe e7c3 be3c
00000370: 9ef0 073e 77fb 3bbf 93bf dc3c 51d3 6c3c
00000380: 0bdf 99be a5a6 e73c e6ba 7a3c f365 07bf
00000390: 889f b0be 174c e2be 47a2 6dbb 9008 e93d
000003a0: e7f0 6b3d dbdf 963d 3610 593e 1e21 2cbe
000003b0: 41c4 ecbe b743 39be d529 603e 12ab 323d
000003c0: 36fe 8bbd accd 843d ed1f 0f3d 98a9 1fbd
000003d0: 1621 443e afc6 a63d ba43 e6bd 1c56 873d
000003e0: 0842 8d3e 2926 22be c319 0abf 4d57 433c
000003f0: 28c2 bdba f077 e7be 4425 dcbb 5e69 2abd
0.2929914 -0.12577848 0.13160807 -0.024482 -0.107968025 0.4226643 0.5875503 0.2351877
-0.29637387 -0.1487086 0.06001672 -0.12947568 -0.12530647 0.5849502 0.37184563 0.23073527
-0.071159974 0.24509968 -0.17809719 0.13464652 0.12736772 -0.023255678 0.40387982 -0.019510416
0.083980896 -0.20347302 -0.09271384 -0.052038528 -0.13916747 -0.08082208 -0.8075105 0.097533904
0.30429688 0.29105818 0.7381402 0.6745514 0.1504105 0.46390635 0.058971412 -0.1540832
0.061764777 0.11471902 -0.0038347223 -0.18456608 -0.054292843 -0.25808144 -0.446147 -0.027784241
-0.2473985 0.18401226 0.030371727 -0.16773844 -0.014649057 -0.026620245 -0.58153963 0.10038118
-0.06225872 0.05551221 0.7628336 0.026994415 0.053411715 -0.14871526 0.07312181 0.14623974
0.06715054 -0.24193265 0.5321965 -0.12862712 0.06260099 -0.18152712 0.0537396 0.89735717
-0.7472144 -0.27241343 0.25920442 0.19118644 0.049874038 -0.044157363 -0.18613492 -0.11336209
-0.48728448 0.03920156 -0.018338075 0.0010077821 -0.026092218 -0.11621303 -0.19681442 0.021523928
0.1168905 0.10305632 -0.26086107 0.40538177 0.22130811 -0.050475426 0.2420502 0.28938842
0.0055591105 0.11750699 0.10127951 -0.024908993 -0.09892605 0.21270967 0.06753991 -0.1942209
0.1908364 -0.14353657 0.17419574 0.054131456 -0.03624413 0.3331982 0.08554711 -0.015225731
0.011588409 -0.2587529 0.124353066 0.5867218 -0.21929215 -0.113250494 -0.19985051 -0.27523506
-0.43093872 0.14784344 0.3032796 -0.48777673 0.19036472 -0.12524036 -0.42625678 0.07272093
-0.15511481 -0.27877575 0.08409164 0.6146639 0.054334614 -0.05480329 -0.120454684 0.06987311
0.1549951 0.4992612 0.17902547 0.5064827 -0.08144216 0.5567679 0.03438282 0.21419661
0.048371926 0.10175713 -0.097600624 -0.07821413 -0.19376025 -0.033153184 0.11094704 0.19235663
-0.041966837 0.21966954 -0.3392507 0.00715465 -0.13138357 0.0019232987 -0.25381443 -0.09970086
0.059977893 0.06313432 0.039550234 -0.10742994 0.10191691 0.11366337 -0.43831813 -0.14840136
-0.04887425 -0.5122013 -0.07036561 -0.16120327 -0.08945241 -0.14951345 -0.02404199 -0.65105844
-0.5552837 -0.11543634 0.12928231 0.35147578 0.025017284 -0.23078862 0.93829775 -0.17066541
0.06015443 -0.021768453 0.29028818 0.041486792 0.48769453 0.20304053 0.14823304 -0.091225356
0.55870384 0.07398883 -0.12843107 0.011196038 -0.05849375 0.12141959 0.18256254 -0.15995705
-0.24995853 -0.07032901 0.1450183 0.22051933 0.028781181 -0.29822427 0.12297891 -0.28347203
-0.24616303 0.10290957 0.064854294 0.07678131 0.0933497 -0.0981646 -0.007819314 0.1551034
-0.09266976 -0.40514576 -0.27372748 0.023286773 0.13275382 -0.7343058 0.026946818 0.014454679
-0.3005298 0.028277704 0.015303349 -0.5288994 -0.34496713 -0.44198677 -0.0036260055 0.11378586
0.05760279 0.07366916 0.2119759 -0.16809508 -0.4624348 -0.18092237 0.21890958 0.043620177
-0.06835596 0.06484541 0.034942556 -0.038980097 0.19153246 0.08143365 -0.112433866 0.06608221
0.2758944 -0.1583487 -0.5394556 0.01192267 -0.0014477419 -0.45208693 -0.0067183096 -0.041604392

bias f4 [2]
00000000: 377e 313d 0b25 3ebd
0.04333326 -0.046422046
