lab2/problem2/neural-network-2-critic-gamma-0_01.pth (torch, 340877 bytes, 5 tensors)

weight f4 [400, 8]
0	0x3f0f5ae4	0.55998063
1	0xbdfd389f	-0.12364315
2	0x3eccea1a	0.40022355
3	0x3e888ef4	0.26671565
4	0xbe51bcdf	-0.20482205
5	0xbe7a7c95	-0.24461587
6	0xbdeacf33	-0.11465301
7	0xbebc89c0	-0.36823845
8	0x3e8be770	0.2732501
9	0xbf0a480e	-0.54016197
10	0x3dfe5d5a	0.12420149
11	0x3debb731	0.1150955
12	0x3edbe970	0.42951536
13	0xbee902d0	-0.45509958
14	0xbe69af39	-0.22820748
15	0xbe8599a2	-0.26093775
16	0xbd84999e	-0.06474613
17	0x3d87cdea	0.06631072
18	0x3ed8f684	0.42375576
19	0xbefc956e	-0.49332756
20	0x3d5e7785	0.0543132
21	0xbe667893	-0.22506933
22	0x3ef57e71	0.4794803
23	0x3e9f4c70	0.31113005
24	0x3e1fdbc1	0.15611173
25	0x3d2a9f62	0.041655906
26	0xbe90d80d	-0.28289834
27	0x3e8b2f1b	0.27184376
28	0x3e572230	0.21009135
29	0x3d31b2ce	0.043383412
30	0xbefbc50f	-0.4917378
31	0x3d2c4859	0.042061184
32	0xbe0cc900	-0.1374855
33	0xbd904c08	-0.07045752
34	0x3d596ae7	0.053080466
35	0x3d8c7e73	0.06860056
36	0xbeacda48	-0.33760285
37	0xbe0fe3ba	-0.14051715
38	0x3f0616f7	0.5237879
39	0xbf00c4d8	-0.5030036
40	0xbeb1172d	-0.34587994
41	0xbe743d2d	-0.23851462
42	0x3ed740d5	0.4204165
43	0x3e91ec26	0.2850048
44	0x3e8ac09b	0.2710007
45	0xbd22dc94	-0.03976114
46	0x3e829ab6	0.2550866
47	0x3e8cabd3	0.2747484
48	0x3ea9b580	0.33146286
49	0x3e419f6d	0.18908472
50	0x3ecbdb45	0.39815727
51	0x3e8e8cad	0.27841702
52	0x3e1495a7	0.14510213
53	0x3e6ed2a2	0.23322538
54	0xbf0be6ab	-0.54648846
55	0x3e13f1d5	0.1444772
56	0xbf382f86	-0.71947515
57	0xbc6eaf18	-0.014568113
58	0x3e1d097a	0.15335646
59	0x3e588e76	0.21148095
60	0x3bc68ba1	0.0060591255
61	0xbcdbf4b6	-0.026850086
62	0x3e9d53e9	0.3072808
63	0x3e3ed84d	0.186372
64	0xbd654e20	-0.05598271
65	0x3e0f2f4e	0.13982889
66	0x3f7f6966	0.997702
67	0x3f3f6529	0.74763733
68	0x3c3211df	0.010868519
69	0xbce7a34d	-0.02827611
70	0x3ed28d98	0.41123652
71	0x3e6adec6	0.22936544
72	0x3dbd19a8	0.09233409
73	0xbdcb9d72	-0.0994214
74	0x3eeb419d	0.45948496
75	0x3f98efcc	1.194818
76	0xbce1271a	-0.027484465
77	0x3c852e02	0.01625729
78	0x3ef1d9ee	0.4723658
79	0x3ef453e8	0.47720265
80	0xbefcdd1b	-0.4938744
81	0xbe115e54	-0.1419614
82	0x3e8fc0c2	0.2807675
83	0xbe2db6a6	-0.16964206
84	0x3c357bac	0.011076849
85	0xbe0a6325	-0.13514383
86	0x3f14a746	0.5806774
87	0x3ec1471c	0.37749565
88	0xbdefa596	-0.11701505
89	0x3d55a389	0.052157912
90	0x3e6f42fa	0.23365393
91	0x3d542196	0.051789843
92	0x3dbd2b26	0.092367455
93	0xbebb00c3	-0.3652402
94	0xbe8c2133	-0.2736908
95	0x3e4d9262	0.20075372
96	0x3e8cf778	0.27532554
97	0xc02d94ba	-2.7122025
98	0x3d25d5c2	0.04048706
99	0xbe33f7ff	-0.17575072
100	0x3cac6bfa	0.021047581
101	0xbdaa113b	-0.08304068
102	0xbe9be7c0	-0.3045025
103	0x3e5066f0	0.20351768
104	0xbdac3cf8	-0.08410066
105	0xbd986dad	-0.07442794
106	0x3e703055	0.23455937
107	0x3e21c8ac	0.15799206
108	0xbe5be0b8	-0.21472442
109	0xbef0a640	-0.4700184
110	0xbe63652f	-0.22206567
111	0x3e15995a	0.1460928
112	0x3e936d4d	0.28794327
113	0x3e655f91	0.22399737
114	0x3ec722c2	0.38893706
115	0x3e005b77	0.12534891
116	0x3f7183c0	0.9434166
117	0x3e40edb1	0.18840672
118	0xbedddd7d	-0.43333045
119	0x3e8fb9a4	0.2807132
120	0x3d795477	0.060871568
121	0x3d2638ad	0.040581394
122	0x3f192a45	0.59830123
123	0xbed2a4d3	-0.41141376
124	0x3ebb2c0d	0.36557046
125	0x3d94e8be	0.072709545
126	0xbccfc164	-0.02536077
127	0xbe80ce19	-0.2515724
128	0x3e1d1f45	0.1534396
129	0xbf7658c3	-0.9622919
130	0x3e68b3df	0.22724865
131	0xbe0df475	-0.13862784
132	0x3da408e8	0.08009511
133	0xbdbab388	-0.09116274
134	0x3e142666	0.14467773
135	0x3ef48e00	0.47764587
136	0xbe91bfc1	-0.2846661
137	0xbc991ffa	-0.018692005
138	0xbe756b63	-0.23966746
139	0xbc9c3e72	-0.019072745
140	0x3eac4cb8	0.33652282
141	0x3e0188db	0.12649862
142	0x3cb56018	0.022140548
143	0xbf1850d3	-0.5949833
144	0xbe0b9f3b	-0.1363496
145	0x3ae85270	0.0017724764
146	0x3f1a9418	0.60382223
147	0x3f5c3198	0.86013174
148	0xbf12dcd2	-0.57368195
149	0x3d382c6e	0.044964246
150	0x3cf4f562	0.029902164
151	0xbc59d9fa	-0.013296599
152	0x3e9449e4	0.28962624
153	0x3dd06971	0.10176361
154	0x3eac9ea8	0.33714795
155	0x3dedf180	0.11618328
156	0xbf1a784a	-0.60339797
157	0x3dbe1c2d	0.09282718
158	0x3d0ef88a	0.034904994
159	0xbf011584	-0.50423455
160	0xbef042db	-0.46926007
161	0xbde79ba8	-0.11308986
162	0xbf000f7a	-0.50023615
163	0xbd19cfe9	-0.037551794
164	0x3e02d6d6	0.12777266
165	0xbd3471db	-0.044053894
166	0xbf83165d	-1.02412
167	0xbda2be7a	-0.07946487
168	0xbda3bc97	-0.07994955
169	0x3ce8320b	0.028344175
170	0xbf29a760	-0.6627102
171	0xbf170da0	-0.59005165
172	0x3dc5774b	0.09641894
173	0x3d1706f2	0.036871858
174	0xbf12bb1b	-0.5731675
175	0xbe73fa64	-0.23825985
176	0x3f054d4a	0.5207106
177	0xbf956223	-1.1670574
178	0x3dbdc617	0.09266298
179	0x3ef09bf7	0.46993992
180	0xbe477def	-0.19481634
181	0xbe4fbc8e	-0.20286772
182	0xbea30e58	-0.3184688
183	0xbea3fba9	-0.3202794
184	0xbbcbe6e2	-0.0062225917
185	0xbf3d5ab8	-0.7396655
186	0x3ec5bee6	0.38622206
187	0x3e3ce188	0.18445408
188	0x3cae2121	0.021256031
189	0x3e92d79e	0.28680128
190	0xbf01fe31	-0.5077849
191	0x3eb4fb20	0.35347843
192	0xbd22a442	-0.03970743
193	0xbf90c3fa	-1.1309807
194	0xbe15d6a8	-0.14632666
195	0xbdc46f2a	-0.09591515
196	0xba164d20	-0.00057335384
197	0x3cebcdd9	0.02878468
198	0x3ebed354	0.37270606
199	0x3ea8248d	0.32840386
200	0x3e4c2651	0.19936492
201	0xc02059fc	-2.5054922
202	0xbd411421	-0.047138337
203	0xbead500a	-0.33850127
204	0x3d98fc09	0.07469947
205	0xbe1aca63	-0.15116267
206	0xbd8e8172	-0.069582835
207	0x3e958174	0.29200327
208	0x3e4c1681	0.1993046
209	0xbe546ebd	-0.20745368
210	0x3e340e7f	0.17583655
211	0x3f03f8d4	0.51551557
212	0x3eb8e1af	0.36109683
213	0x3e718823	0.23587088
214	0xbe079100	-0.13238907
215	0x3e4adaaf	0.19809984
216	0x3e711197	0.23541866
217	0xbe809d52	-0.25120026
218	0x3cc1689c	0.023609452
219	0x3eea9fb6	0.45824975
220	0xbef0037d	-0.4687766
221	0x3eef79c0	0.46772575
222	0x3ea2588f	0.3170819
223	0xbee25038	-0.44201827
224	0xbef26fa8	-0.47350812
225	0xbeb1d96f	-0.347362
226	0xbf0d7cf2	-0.55268776
227	0x3e408865	0.1880203
228	0x3ed5ec3d	0.41781798
229	0x3dccaec7	0.09994274
230	0xbf991aea	-1.1961339
231	0xbf14150a	-0.57844603
232	0x3d846e11	0.06466306
233	0xbc801d30	-0.015638918
234	0xbcda20fe	-0.02662706
235	0xbd397b45	-0.045283575
236	0x3edd5b24	0.43233597
237	0xbeed89b7	-0.4639413
238	0x3ea5fadb	0.3241795
239	0xbe46e74f	-0.19424175
240	0x3ec20a1d	0.3789834
241	0xbeb3f3d2	-0.35146958
242	0xbe0915b6	-0.13387188
243	0x3dd4838a	0.103766516
244	0x3d8d60de	0.069032416
245	0xbed37957	-0.41303512
246	0x3d137915	0.036004145
247	0xbc8f98dc	-0.017528944
248	0x3de8316a	0.1133755
249	0xbd7abd8b	-0.06121592
250	0x3f633ba5	0.88762885
251	0x3e7aabdd	0.24479623
252	0x3ef897f2	0.48553425
253	0x3e944f2e	0.2896666
254	0xbf1b3324	-0.6062491
255	0x3dfda2b9	0.123845525

bias f4 [400]
0	0xbe78c99d	-0.2429566
1	0xbe8d6af2	-0.27620655
2	0xbd9ac437	-0.07556956
3	0x3d2e999e	0.04262697
4	0xbdf62ce8	-0.12020284
5	0xbf08e77e	-0.5347823
6	0x3e669c62	0.22520593
7	0xbc159bdc	-0.009131398
8	0xbe1244dc	-0.1428408
9	0x3e1595aa	0.14607874
10	0xbdef5523	-0.116861604
11	0xbf121072	-0.57056344
12	0xbbbb7f55	-0.0057219663
13	0x3c26392c	0.010145467
14	0xbe832bcc	-0.25619352
15	0xbb5771a7	-0.0032874139
16	0xbec897af	-0.39178225
17	0x3d591869	0.053001795
18	0x3cdf8bf4	0.027288415
19	0xbe8aa5be	-0.27079576
20	0x3e6106a5	0.21975191
21	0xbdb81810	-0.089889646
22	0xbe32c79d	-0.17458959
23	0xbef25a69	-0.47334602
24	0x3d9050f1	0.07046688
25	0xbd06f7de	-0.03295123
26	0x3d4573bb	0.048206072
27	0xbe6c2861	-0.23062278
28	0x3db390ce	0.08767854
29	0xbdea4ef9	-0.11440844
30	0x3d58ef02	0.05296231
31	0x3df4c883	0.11952307
32	0xbe0badfe	-0.13640592
33	0xbe372302	-0.17884448
34	0x3e61cde1	0.22051193
35	0xbd22b99a	-0.039727785
36	0xbeaad0ff	-0.33362576
37	0x3e0a6bad	0.13517638
38	0xbebcce95	-0.3687636
39	0xbec4371b	-0.38323292
40	0x3e6335aa	0.2218844
41	0xbf149bea	-0.58050406
42	0xbe55c9b0	-0.20877719
43	0x3dc2f7a7	0.09519892
44	0x3d2e15bf	0.042501207
45	0x3e997011	0.29968312
46	0xbde2223f	-0.11041688
47	0xbeb3c282	-0.35109335
48	0xbe974629	-0.29545715
49	0xbe10aaba	-0.14127627
50	0xbcfaf9ef	-0.030636756
51	0xbeaa6753	-0.33281955
52	0x3d7716d2	0.060324498
53	0xbf0338aa	-0.5125834
54	0xbeccf13e	-0.40027803
55	0xbd81bed8	-0.06335229
56	0xbe1d76c5	-0.15377338
57	0xbec65444	-0.38736165
58	0xbea25a2c	-0.3170942
59	0xbdbac800	-0.09120178
60	0xbdc88e1f	-0.097927324
61	0xbe773562	-0.24141458
62	0xbd097394	-0.03355749
63	0xbe8facaa	-0.2806142
64	0xbe6b4484	-0.22975355
65	0x3d78fbff	0.060787197
66	0xbc9e9205	-0.019356737
67	0x3dc90407	0.09815221
68	0xbd8a0143	-0.06738522
69	0xbe591c21	-0.21202137
70	0xbe992c8d	-0.29916802
71	0xbe959a94	-0.29219496
72	0xbdbb4d41	-0.091455944
73	0xbe11b9fe	-0.14231107
74	0xbe198dfa	-0.14995566
75	0x3c00fb7c	0.007872459
76	0xbecb2271	-0.39674714
77	0xbcc24e8a	-0.023719091
78	0xbe4b9bd4	-0.19883662
79	0x3d1e3758	0.038627
80	0x3e8c64f4	0.2742077
81	0xbd24dec8	-0.040251523
82	0x3d4dd21e	0.05024921
83	0x3e45a588	0.19301426
84	0x3def3f11	0.11681951
85	0x3e9f8b0a	0.31160766
86	0xbe3f6c23	-0.18693595
87	0x3db585ee	0.08863436
88	0xbe3355ef	-0.1751325
89	0xbe53fc1b	-0.2070164
90	0xbece892f	-0.40339038
91	0xbd946c52	-0.07247223
92	0x3e2f8452	0.1714032
93	0xbeb92f64	-0.3616897
94	0x3e81abbc	0.25326335
95	0xbdaadcc7	-0.08342891
96	0xbe433b19	-0.19065513
97	0xbefc57f0	-0.4928584
98	0xbcc5723c	-0.024102323
99	0xbe091486	-0.13386735
100	0xbe7b54ac	-0.24544019
101	0xbe2519bb	-0.16123097
102	0x3dc9fd8d	0.09862814
103	0xbed1dd88	-0.40989327
104	0x3d6b070d	0.05737977
105	0xbe63d512	-0.22249249
106	0xbe2fe923	-0.17178778
107	0x3cea24a1	0.02858192
108	0xbdcb2149	-0.09918458
109	0xbec1cfde	-0.37853903
110	0xbe80ed61	-0.25181106
111	0x3e0b19d4	0.13584071
112	0x3e317ac9	0.17331995
113	0x3e1e8496	0.15480265
114	0x3e1134f8	0.14180362
115	0xbbdb22ab	-0.0066874824
116	0x3e64f1fe	0.22357938
117	0x3df8e0a4	0.12152222
118	0xbdcdb939	-0.10045094
119	0xbe66d1c8	-0.22540963
120	0xbcf03c10	-0.029325515
121	0xbe3c4681	-0.1838627
122	0xbcbc479e	-0.022983368
123	0x3c7444e2	0.014909001
124	0x3ea93cee	0.33054298
125	0xbcaf3571	-0.021387788
126	0x3e2081d3	0.15674524
127	0xbe5f3850	-0.21798825
128	0x3c1b6555	0.009484609
129	0x3db395a0	0.08768773
130	0x3d90f85e	0.07078622
131	0xbd1f517e	-0.038896076
132	0xbe24e5f4	-0.16103345
133	0xbe077883	-0.13229565
134	0xbeb49d49	-0.3527625
135	0x3ea0a1fd	0.31373587
136	0x3d994d65	0.07485465
137	0xbd19f37b	-0.037585717
138	0xbf1afa46	-0.60538137
139	0xbc9a05b6	-0.018801551
140	0x3dc8ea66	0.09810333
141	0xbe2ec5f2	-0.17067698
142	0xbd2a949b	-0.041645627
143	0xbe2ff13f	-0.17181872
144	0xbe0340f2	-0.12817743
145	0x3db51128	0.08841163
146	0xbe27c82c	-0.16384953
147	0xbeeff7d4	-0.46868765
148	0xbed4825a	-0.415057
149	0xbed8c64c	-0.42338789
150	0xbe136156	-0.143926
151	0x3d41f3c6	0.04735162
152	0xbd21c6ee	-0.039496355
153	0xbe3397a4	-0.17538315
154	0xbd2afb6a	-0.041743673
155	0x3c757616	0.014981767
156	0xbe26207e	-0.16223332
157	0xbef7667a	-0.4832037
158	0xbe2d9bf8	-0.16954029
159	0x3dee0574	0.11622134
160	0x3e813fb1	0.25243905
161	0x3d04db85	0.032435913
162	0xbd703840	-0.058647394
163	0xbe690f73	-0.227598
164	0x3ddeeb43	0.10884716
165	0x3ce8a054	0.028396763
166	0x3e4c62f4	0.19959623
167	0xbe645fa6	-0.22302112
168	0x3e0770c1	0.13226606
169	0xbe9f160b	-0.31071505
170	0xbe427c81	-0.18992807
171	0xbd501dc1	-0.050809626
172	0x3e8213e0	0.25405788
173	0xbea88efc	-0.32921588
174	0xbe42b597	-0.19014584
175	0xbdeb5052	-0.11489929
176	0xbdae038e	-0.08496772
177	0xbdbdfc72	-0.09276666
178	0xbec99842	-0.39373976
179	0xbe4f4772	-0.20242098
180	0xbe4d7c87	-0.20067035
181	0xbea3b428	-0.31973386
182	0xbb94229c	-0.0045207273
183	0xbeab3d46	-0.33445185
184	0xbe870fec	-0.26379335
185	0xbe38c38d	-0.18043347
186	0xbeb945a2	-0.36185938
187	0xbeaf65bc	-0.34257305
188	0xbec330d1	-0.3812318
189	0xbe7648e7	-0.24051248
190	0x3b9b144e	0.004732645
191	0xbd165c4c	-0.036709115
192	0xbe83aaba	-0.25716192
193	0x3e027c60	0.12742758
194	0xbe7d3984	-0.24728972
195	0xbf0793fb	-0.52960175
196	0x3d6f2232	0.05838222
197	0xbe630fe5	-0.22174032
198	0x3dfcf603	0.123516105
199	0xbdd83867	-0.10557633
200	0xbdbecf5a	-0.09316893
201	0xbd00ecf8	-0.03147599
202	0x3e10505f	0.14093159
203	0xbe4e7153	-0.20160417
204	0x3db55041	0.08853198
205	0x3de0b7bf	0.10972547
206	0x3db39dd8	0.08770341
207	0x3e4b5af0	0.19858909
208	0x3c480b3b	0.012209709
209	0xbe75941a	-0.23982278
210	0xbeac9ff9	-0.337158
211	0xbeaaaf74	-0.33336985
212	0x3e1a9992	0.15097645
213	0x3cd11888	0.025524393
214	0xbe0620a5	-0.1309839
215	0xbee9b9db	-0.4564961
216	0xbe298a04	-0.16556555
217	0x3b2cf722	0.002639242
218	0xbee5b251	-0.44862607
219	0x3d2af60b	0.04173855
220	0xbc18a59f	-0.009316831
221	0xbd132282	-0.03592158
222	0xbc70aa7d	-0.014689085
223	0x3d97435a	0.07385893
224	0xbebb1f68	-0.365474
225	0x3da1c37d	0.078986146
226	0xbdb0887d	-0.08619783
227	0xbe219d54	-0.15782672
228	0xbc53ddf8	-0.012931339
229	0x3e1d1ce9	0.1534306
230	0xbe989fb5	-0.29809347
231	0x3e12d664	0.14339596
232	0xbd42cef5	-0.04756065
233	0xbe6d0437	-0.23146139
234	0xbeacb24f	-0.3372979
235	0xbef5bba2	-0.47994715
236	0xbe75fbaf	-0.24021791
237	0xbde8db02	-0.113698974
238	0xbec8fd71	-0.3925586
239	0xbef401f7	-0.4765775
240	0x3e30ba89	0.17258658
241	0x3e101d8c	0.14073771
242	0x3ce96cdd	0.028494293
243	0xbe392e63	-0.18084101
244	0xbcd90f71	-0.02649662
245	0x3d7b421c	0.061342344
246	0xbe83fbc6	-0.25778025
247	0x3dafd323	0.08585193
248	0xbea94528	-0.33060575
249	0x3a9012e5	0.0010991959
250	0x3eb1c034	0.34716952
251	0x3d817971	0.06321991
252	0xbbf5b43c	-0.0074982923
253	0xbf0691ee	-0.5256642
254	0x3e2996ae	0.16561386
255	0xbddc68d3	-0.10762181

weight f4 [200, 402]
0	0x3e1ad967	0.15121995
1	0xbe02f82a	-0.1278998
2	0x3d1770a2	0.03697265
3	0xbde725ce	-0.112865075
4	0xbe0da86f	-0.13833784
5	0xbe8d23ad	-0.2756628
6	0x3e6268e0	0.22110319
7	0x3e0651ee	0.13117191
8	0x3de2aeaf	0.110684745
9	0xbd2c76b9	-0.04210541
10	0x3d9e5b85	0.077323
11	0x3e2cc3e1	0.16871597
12	0x3e871a32	0.26387173
13	0x3d83019f	0.063967936
14	0x3e999c92	0.30002266
15	0x3e0f5114	0.13995773
16	0xbd78801f	-0.06066906
17	0x3d0a8de5	0.033826727
18	0xbdbd4b7f	-0.09242915
19	0x3c6adf0b	0.014335404
20	0xbec18e06	-0.37803668
21	0xbe2d7d6e	-0.16942379
22	0x3f006251	0.5015002
23	0xbf423a22	-0.75869954
24	0xbe731c2e	-0.23741218
25	0x3e1b134b	0.15144078
26	0xbd6689a0	-0.056283593
27	0xbefa374b	-0.4887031
28	0xbd9d0168	-0.07666284
29	0xbe6635bb	-0.22481434
30	0xbe0cc62b	-0.1374747
31	0x3e362a38	0.17789543
32	0x3e1c6678	0.15273464
33	0xbf1988fe	-0.5997466
34	0xbdfa9437	-0.12235301
35	0xbe4e9949	-0.20175661
36	0x3dc2ec94	0.0951778
37	0x3dcd6536	0.1002907
38	0xbe9e4414	-0.30911314
39	0xbe361ce4	-0.17784458
40	0xbf00a1c7	-0.5024685
41	0x3da8130e	0.082067594
42	0xbeb6557a	-0.35612088
43	0x3d4364d2	0.04770357
44	0xbbf44906	-0.007454994
45	0x3e5f5996	0.21811518
46	0x3d3fecf4	0.046856835
47	0x3edd45eb	0.43217406
48	0x3db021cc	0.08600196
49	0x3e01f653	0.12691621
50	0x3e80b960	0.2514143
51	0xbe90ce55	-0.2828242
52	0x3f257bc1	0.6464196
53	0xbeea6acf	-0.45784613
54	0x3d3d25fc	0.046178803
55	0x3d42d6d7	0.04756817
56	0xbbcbb6f0	-0.006216876
57	0x3e993e7d	0.29930487
58	0xbc4f74a7	-0.012662089
59	0xbea5ad47	-0.32358763
60	0x3f0a550d	0.5403603
61	0x3e1e029a	0.1543068
62	0xbe21e2b7	-0.15809141
63	0x3e353db0	0.17699313
64	0x3d7d5840	0.06185174
65	0x3d9d6a6e	0.076863155
66	0x3dab719a	0.08371277
67	0xbe34e29b	-0.17664568
68	0xbd924acf	-0.07143175
69	0xbe592097	-0.21203838
70	0x3f415daf	0.75533575
71	0x3cfd3037	0.03090678
72	0x3d45ac62	0.0482601
73	0xbd772cb6	-0.060345374
74	0xbe92eccb	-0.28696284
75	0xbea6f165	-0.32606044
76	0xbedd8466	-0.43265074
77	0x3e9178c3	0.28412446
78	0x3de3a429	0.111152954
79	0x3dcce40f	0.10004436
80	0x3dad5dbb	0.08465143
81	0x3db83f29	0.08996422
82	0x3c636331	0.01387863
83	0xbf06aa41	-0.52603537
84	0xbc9f6092	-0.019455228
85	0xbeec9881	-0.462101
86	0xbd5a3264	-0.053270712
87	0x3e25f851	0.16208006
88	0xbf5fbafb	-0.87394685
89	0xbe91ac15	-0.284516
90	0x3f80f558	1.0074873
91	0x3da77aa0	0.08177686
92	0x3e0214be	0.12703225
93	0xbef14c35	-0.47128454
94	0x3d135b25	0.035975594
95	0x3d96f997	0.07371824
96	0x3d3f90e1	0.046769027
97	0xbe8202ce	-0.25392765
98	0x3c8c538b	0.01712968
99	0xbeb50932	-0.35358578
100	0x3bade515	0.0053068497
101	0xbf03d888	-0.51502275
102	0x3e1fa2a5	0.15589388
103	0x3dfe3c78	0.12413877
104	0x3e08a794	0.13345176
105	0xbe4b37c2	-0.19845489
106	0xbd5a110c	-0.053238913
107	0xbbde06eb	-0.006775727
108	0x3cdd9c45	0.027052054
109	0x3e7b18ae	0.24521133
110	0xbe6f3f54	-0.23364002
111	0xbd3f72c0	-0.046740294
112	0x3d96553f	0.07340478
113	0xbf3fd745	-0.7493785
114	0x3cb3b16f	0.021935193
115	0x3e963945	0.29340568
116	0xbd3f0001	-0.046630863
117	0x3c709876	0.014684787
118	0xbf148a46	-0.5802349
119	0x3d5da043	0.054107916
120	0x3e1ef7e7	0.15524255
121	0x3db2c435	0.0872883
122	0xbc250242	-0.010071339
123	0xbd8f9745	-0.07011274
124	0xbe2a0425	-0.16603144
125	0x3dc050d7	0.09390419
126	0x3d29e22e	0.041475467
127	0x3de34fa3	0.11099174
128	0xbdd87339	-0.10568852
129	0xbb891865	-0.0041838163
130	0x3de2a5c6	0.11066775
131	0x3e0f75a8	0.14009726
132	0x3f4d6ff6	0.80248964
133	0x3da15831	0.07878149
134	0x3dfb2229	0.12262375
135	0x3d4c0d35	0.049817283
136	0xbffd1436	-1.9771793
137	0xbc36ee87	-0.011165268
138	0xbe8834c2	-0.2660275
139	0x3cc873b2	0.02446923
140	0xbee450f9	-0.44593027
141	0x3d26bf6f	0.04070991
142	0x3d278b70	0.040904462
143	0xbd159a64	-0.03652419
144	0x3dd8b79a	0.10581894
145	0x3db5d3b9	0.088782735
146	0x3d923cbd	0.07140491
147	0x3fa64a02	1.2991335
148	0xbe23be47	-0.15990554
149	0xbe656484	-0.22401625
150	0x3f2b9461	0.67023283
151	0x3dd336dc	0.10313198
152	0xbd27bd76	-0.04095217
153	0x3d1d8a5a	0.03846202
154	0x3d08e4c3	0.03342129
155	0xbef43d06	-0.47702807
156	0x3cc8d4e9	0.024515586
157	0xbe1252fa	-0.14289466
158	0x3e052da3	0.1300569
159	0x3d7306d8	0.0593327
160	0x3e42a089	0.19006552
161	0x3debb9c8	0.11510044
162	0xbe0d2254	-0.13782626
163	0x3cdecf14	0.027198352
164	0x3d9a2bd1	0.075278886
165	0x3cf10d45	0.029425273
166	0x3d2e7fcd	0.04260235
167	0x3ce1ef1d	0.027579838
168	0x3ddbe03c	0.10736129
169	0x3e1cd52e	0.15315697
170	0xbf292a61	-0.6608029
171	0xbe91fcfe	-0.2851333
172	0xbe917131	-0.2840667
173	0x3d627948	0.055291444
174	0x3ded8e07	0.11599355
175	0xbf4ae833	-0.7926056
176	0x3d71f45c	0.05907093
177	0xbf9fba2d	-1.2478691
178	0x3e48e495	0.19618447
179	0x3d1dbda6	0.03851094
180	0x3d71e367	0.05905476
181	0x3d304995	0.043038923
182	0x3daa1bc4	0.08306077
183	0xbe0a5764	-0.135099
184	0x3d5414c1	0.051777605
185	0xbe2a1cd7	-0.16612564
186	0x3e3e8900	0.18606949
187	0x3ed83583	0.42228326
188	0xbd5e29b9	-0.05423901
189	0x3e5bd0d2	0.21466377
190	0x3e5d4aa8	0.2161051
191	0x3c4db292	0.0125547815
192	0x3e36eaea	0.1786305
193	0x3d634652	0.055486985
194	0x3f21da4d	0.63223726
195	0x3dd3cb72	0.103415385
196	0xbc469f5a	-0.012122953
197	0x3d9e086e	0.077164516
198	0x3e4de4a3	0.20106749
199	0xbdf5ccb8	-0.12001938
200	0xbcd53953	-0.02602831
201	0x3d0a54c2	0.033772238
202	0x3e093ecd	0.13402863
203	0xbd009f93	-0.03140218
204	0x3dbbf984	0.09178451
205	0x3d5c42f3	0.053774785
206	0xbe933795	-0.28753343
207	0xbf924fe4	-1.1430631
208	0x3be12201	0.0068705087
209	0x3eb068bb	0.34454903
210	0x3f196536	0.5992006
211	0xbe241b64	-0.16026074
212	0xbcdd08d2	-0.026981745
213	0xbd91048a	-0.07080944
214	0x3d79c9a3	0.06098331
215	0xbdca51ec	-0.098789066
216	0x3e39d960	0.18149328
217	0x3e05efc9	0.13079752
218	0x3f382b10	0.7194071
219	0xbd840b7b	-0.06447502
220	0xbf1b1a12	-0.60586655
221	0x3dd84d5f	0.10561632
222	0x3e194d79	0.1497096
223	0xbdfb3bea	-0.12267287
224	0xbe10c7cd	-0.14138718
225	0xbd0d2f55	-0.034468967
226	0x3f205e2d	0.626437
227	0x3e0a574f	0.13509868
228	0xbf0d0324	-0.5508292
229	0x3da704fb	0.08155247
230	0x3cc09645	0.023509154
231	0x3e030e94	0.1279853
232	0x3e376c17	0.17912327
233	0x3fb2ff9b	1.3984255
234	0x3df2820e	0.11841212
235	0x3e4d7678	0.20064723
236	0xbf3f6340	-0.7476082
237	0x3df12837	0.117752485
238	0x3d1c8c2c	0.038219616
239	0x3e0892f6	0.13337311
240	0x3d3ecac5	0.046580095
241	0xbd43b827	-0.047783043
242	0x3e98c882	0.29840475
243	0x3df4f13a	0.11960073
244	0x3de91d3d	0.1138253
245	0xbd44ac47	-0.04801586
246	0xbcd791e1	-0.026314678
247	0xbe8b33bc	-0.27187908
248	0x3f34f6a5	0.7068885
249	0x3fcf0820	1.6174355
250	0x3d252f6f	0.04032844
251	0x3e5010fe	0.20318982
252	0x3d0cd113	0.034379076
253	0x3e3eadeb	0.18621032
254	0x3dad38a2	0.084580675
255	0xbe26b80d	-0.16281147

bias f4 [200]
0	0x3dde9a0b	0.10869225
1	0x3e36bde5	0.17845877
2	0xbc2b5ea6	-0.010459578
3	0xbd6009c5	-0.054696817
4	0xbd52638b	-0.051364463
5	0xbd07d289	-0.033159766
6	0x3cca4e98	0.02469568
7	0xb836f2b7	-4.3618227e-05
8	0x3dcf5327	0.10123282
9	0xbdb114c3	-0.08646538
10	0x3dcbc395	0.09949414
11	0xbd8ac444	-0.06775716
12	0xbd0090fd	-0.03138827
13	0xbd53b9c2	-0.051690824
14	0x3dfa8a63	0.122334264
15	0xbd2f4c02	-0.042797096
16	0x3cee463d	0.029086227
17	0xbd5cfe60	-0.05395353
18	0xbe54bb8f	-0.20774673
19	0x3bd53155	0.006506125
20	0xbdb805b7	-0.08985465
21	0x3dfc681a	0.12324543
22	0x3c1c92b7	0.009556464
23	0xbccdba0c	-0.025113128
24	0xbdafed2e	-0.0859016
25	0xbdd8160b	-0.10551079
26	0xbdc3fabe	-0.0956931
27	0xbb12e356	-0.0022413335
28	0xbd9faf57	-0.07797115
29	0xbe13e556	-0.14442953
30	0xbd78fe86	-0.060789607
31	0xbca3ff65	-0.020019243
32	0x3d888e80	0.06667805
33	0x3dd89de2	0.10576989
34	0xbd343628	-0.04399696
35	0xbd36f4fb	-0.044667225
36	0xbd1ef486	-0.038807414
37	0x3c9386c7	0.018008603
38	0xbbb716a9	-0.005587418
39	0xbd209038	-0.039200038
40	0xbc3854b8	-0.011250667
41	0xbcc8f79a	-0.024532128
42	0xbce91570	-0.028452605
43	0xbd004955	-0.031319935
44	0xbe2260b2	-0.15857199
45	0xbc276257	-0.010216317
46	0x3ddc0789	0.10743625
47	0x3d8ebd7a	0.069697335
48	0x3dc7189f	0.09721493
49	0x3cb47655	0.022029081
50	0xbbc0add8	-0.005880099
51	0xbca12a48	-0.019673482
52	0xbd5e0659	-0.054205272
53	0xbd148e67	-0.036268618
54	0x3cd82432	0.026384447
55	0xbd1d01d1	-0.03833181
56	0xbd8457a2	-0.06462027
57	0xbcf71748	-0.030162469
58	0xbe490cd9	-0.19633807
59	0x3dd60175	0.10449497
60	0x3dde95c2	0.10868408
61	0xbe001dce	-0.1251137
62	0xbdcd6733	-0.10029449
63	0x3d9a1a42	0.075245395
64	0xbdd172b0	-0.10226953
65	0x3e1f8634	0.15578538
66	0xbe3178b0	-0.17331195
67	0xbd7bc644	-0.061468378
68	0xbe824f1a	-0.25450975
69	0xbdc20a20	-0.094745874
70	0x3d6a9361	0.057269458
71	0xbd8d8520	-0.06910157
72	0xbe6c513e	-0.23077866
73	0xbe05907f	-0.13043402
74	0xbd7db8fb	-0.06194399
75	0x3cd8a7b0	0.026447147
76	0xbbfd0500	-0.0077215433
77	0xbbf65416	-0.007517348
78	0xbdecaf05	-0.1155682
79	0xbda521cf	-0.08063089
80	0xbdc98659	-0.09840078
81	0xbac549c9	-0.0015051897
82	0x3d92eb18	0.07173747
83	0xbd77b1f8	-0.06047246
84	0xbcbd2d42	-0.02309287
85	0xbe24f02a	-0.1610724
86	0x3cc493c1	0.023996236
87	0xbe09a2ba	-0.13440982
88	0xbcf7731d	-0.030206257
89	0xbd8e4d38	-0.06948322
90	0xbcc3a092	-0.023880277
91	0xbcb2d258	-0.021828815
92	0x3dfad0a5	0.12246827
93	0xbc705ea4	-0.014671002
94	0x3d6b1435	0.057392318
95	0xbe476fd8	-0.19476259
96	0xbd8c2faa	-0.06845029
97	0xbcc1a8da	-0.023640085
98	0xbe39b5fd	-0.1813583
99	0xbc1310c3	-0.008976164
100	0xbe1c6471	-0.1527269
101	0x3d92a46e	0.07160269
102	0xbc130ecd	-0.008975697
103	0xbd81de6c	-0.06341252
104	0xbd36ac90	-0.044598162
105	0xbcde53ee	-0.02713963
106	0x3ddb39b5	0.10704366
107	0xbc88dd89	-0.016707199
108	0x3de4be65	0.111691274
109	0xbc230394	-0.009949584
110	0x3dc66977	0.096880846
111	0x3e461f30	0.19347835
112	0x3dd2bf7e	0.102904305
113	0x3b5041a5	0.0031777408
114	0xbdce7242	-0.10080387
115	0xbd17a54c	-0.037022874
116	0x3dd3f873	0.10350122
117	0x3d6cbf18	0.05779943
118	0xbbc93dac	-0.006141385
119	0x3dca74ec	0.09885582
120	0x3d0910a4	0.033463135
121	0x3de29a10	0.11064541
122	0xbe04b3be	-0.12959191
123	0xbd725d0a	-0.05917076
124	0xbcbc0500	-0.022951603
125	0x3c835313	0.016030824
126	0x3a9a8362	0.0011788423
127	0xbd92aa50	-0.07161391
128	0xbbc2a521	-0.005940095
129	0xbd66b0f5	-0.056321103
130	0xbdfaf06c	-0.12252888
131	0xbe2d11df	-0.16901349
132	0xbd6fdf23	-0.05856241
133	0xbbd96d6e	-0.0066353595
134	0xbaf3248c	-0.001855032
135	0x3c9414ca	0.01807632
136	0xbd8eb5ea	-0.06968291
137	0xbc097d9b	-0.008391763
138	0xbd50aa8f	-0.050943907
139	0xbb913f7d	-0.004432617
140	0xbe37dfaf	-0.17956422
141	0xbd889d6d	-0.066706516
142	0xbd076c8b	-0.0330625
143	0xbdbbd5e7	-0.09171658
144	0x3e2e802f	0.17041086
145	0xbd862c21	-0.06551386
146	0xbe9f7097	-0.31140587
147	0xbe793cbb	-0.24339573
148	0x3dc0244d	0.09381924
149	0xbb4f0458	-0.0031588282
150	0xbd8272b3	-0.063695334
151	0xbea486d4	-0.32134116
152	0x3d4c25f2	0.049840875
153	0xbcfd03a2	-0.030885521
154	0xbe6ce975	-0.23135932
155	0xbe497ed3	-0.19677286
156	0x3a3983ae	0.0007076812
157	0x3e1821cb	0.14856641
158	0xbd9b1c07	-0.07573705
159	0xbc181cd7	-0.00928422
160	0xbe56293a	-0.20914164
161	0x3e3911ed	0.18073244
162	0x3db37a7d	0.08763597
163	0x3d8535fa	0.06504436
164	0xbe418b25	-0.18900736
165	0x3dc3c67e	0.09559344
166	0x3df9a980	0.12190533
167	0x3d6536c9	0.05596045
168	0xbda86e61	-0.08224178
169	0xbc45d870	-0.0120755285
170	0xbd527525	-0.05138125
171	0xbd878d59	-0.06618757
172	0xbd626bb7	-0.055278506
173	0x3e2a654b	0.16640203
174	0xbd5a81bd	-0.053346384
175	0xbd2b47df	-0.04181659
176	0xbe0d0a89	-0.1377355
177	0x3e12b77c	0.14327806
178	0x3e1f0fe2	0.15533403
179	0xbd874991	-0.066058286
180	0xbc570df5	-0.013125886
181	0xbdc6e6e8	-0.097120106
182	0xbe0155dd	-0.1263041
183	0xbdadb925	-0.08482579
184	0x3d83f926	0.06444006
185	0xbe8f0e45	-0.27940574
186	0xbce9f848	-0.028560773
187	0x3dcc5e6d	0.09978948
188	0xbd7a81e2	-0.061159022
189	0x3df2f90a	0.11863907
190	0xbc8620c8	-0.016373053
191	0xbda8a761	-0.0823505
192	0xbd193674	-0.037405446
193	0xbcb733dd	-0.022363598
194	0xbe5ccd26	-0.21562633
195	0x3cf7665d	0.030200178
196	0x3987741e	0.0002583572
197	0xbe1017c3	-0.14071564
198	0xbdf3b6c9	-0.11900098
199	0xbca193cf	-0.019723801

weight f4 [1, 200]
0	0xbef77a7f	-0.48335645
1	0xbf146d8e	-0.5797967
2	0x3c8a6ca2	0.016897503
3	0x3ba5c7bd	0.005059211
4	0x3b92e767	0.0044831517
5	0xbca9a197	-0.020706935
6	0x3d2259f4	0.039636567
7	0x3bcd5538	0.0062662624
8	0xbeeb3c1b	-0.45944294
9	0xbeeea803	-0.46612558
10	0x3ecb711a	0.39734727
11	0xbe5dcee9	-0.21660961
12	0xbf987c29	-1.1912891
13	0xbf239be0	-0.6390972
14	0xbf2eff9f	-0.68358797
15	0xbf45afa1	-0.77221113
16	0x3f1cf798	0.613153
17	0xbea15841	-0.31512645
18	0xbf4f5a5b	-0.80997247
19	0xbf0f1765	-0.5589507
20	0xbf580c2a	-0.8439356
21	0xbf0e3c0b	-0.5556037
22	0xbb0963f4	-0.0020964118
23	0xbc336e6a	-0.010951618
24	0xbf42191a	-0.7581955
25	0xbeb58ffc	-0.35461414
26	0xbf78f5c3	-0.9725
27	0x3d10a8ed	0.03531735
28	0xbf174e96	-0.5910429
29	0xbf1f6a76	-0.6227182
30	0x3cff6f86	0.031181108
31	0x3d09c8c6	0.033638738
32	0xbfc847cc	-1.5646911
33	0xbf0a2fc7	-0.5397915
34	0x3d3ea63e	0.04654526
35	0x3cfe2f84	0.031028517
36	0x39070623	0.0001287689
37	0xbfb08d9a	-1.3793213
38	0xbf11d10f	-0.56959623
39	0x3c77b551	0.015118913
40	0x3c18a7ae	0.009317322
41	0x3e397ae7	0.1811329
42	0x3d2d2ebc	0.042280897
43	0x3c3718e5	0.011175369
44	0xbf226834	-0.6344025
45	0xbf31c31b	-0.6943833
46	0xbf3f0609	-0.74618584
47	0x3f485801	0.78259283
48	0x3f26eae6	0.65202177
49	0xbc7ecd57	-0.0155518865
50	0x3d5812b7	0.052752223
51	0xbaaf197c	-0.0013359035
52	0x3d7cb8ee	0.0616998
53	0xbeee2297	-0.46510765
54	0x3f8a7371	1.081648
55	0xbba24877	-0.004952486
56	0xbf67de04	-0.90573144
57	0x3ce66ce6	0.028128099
58	0xbf90e77e	-1.1320646
59	0x3f324164	0.6963103
60	0xbeb3ee9e	-0.35142988
61	0xbfad1f4c	-1.3525176
62	0xbf8fe119	-1.1240569
63	0xbed5c89a	-0.4175461
64	0xbf0527ff	-0.52014154
65	0xbf105b42	-0.5638925
66	0xbef2cff3	-0.47424278
67	0xbd5cc6fb	-0.0539007
68	0xbf6e4674	-0.9307625
69	0xbf31982a	-0.6937281
70	0x3eec0231	0.46095422
71	0x3d0455be	0.032308333
72	0xbf1ba1fa	-0.6079403
73	0xbf28f47a	-0.6599804
74	0x3f7c0c01	0.98455817
75	0xbebc4a0c	-0.36775243
76	0xbe525d23	-0.20543341
77	0xbf83f386	-1.0308692
78	0xbfdd6a28	-1.7298021
79	0x3c4c35f4	0.012464035
80	0x3f3719d5	0.7152379
81	0x3d2a3774	0.04155679
82	0xbf8f2593	-1.1183342
83	0xbf93c3cb	-1.1544126
84	0x3d0e6c65	0.03477134
85	0xbf13d9b0	-0.5775404
86	0x3cbdf9ef	0.023190467
87	0xbf3b7e7c	-0.73239875
88	0x3d757580	0.05992651
89	0xbf3ede47	-0.7455792
90	0xbf9467a7	-1.1594132
91	0x3f5506a9	0.8321329
92	0xbf014f44	-0.50511575
93	0x3d46ea64	0.048563376
94	0xbfbd0eff	-1.4770201
95	0xbf1f7703	-0.6229097
96	0xbf3ccc52	-0.7374927
97	0x3ccea769	0.025226312
98	0xbf84ff17	-1.0390347
99	0xbeadc2f8	-0.33937812
100	0xbfa139fe	-1.2595823
101	0x3f87f3fc	1.0621333
102	0xbfa15853	-1.260508
103	0x3d431cd3	0.04763491
104	0x3c5552fe	0.013020275
105	0x39e3598e	0.00043363537
106	0xbec92cc4	-0.39291966
107	0xbb1f9a84	-0.0024353573
108	0xbf9b9e59	-1.2157699
109	0x3cf03aa4	0.029324837
110	0x3f07fc91	0.5311976
111	0x3f649d97	0.89302963
112	0xbf028811	-0.5098887
113	0xbbd835ad	-0.0065981955
114	0xbfa78586	-1.3087623
115	0x3cc3a7c7	0.023883713
116	0x3ec5bde0	0.38621426
117	0xbf398fcf	-0.7248506
118	0xbf3ccb7d	-0.73748
119	0x3efa2b9c	0.48861396
120	0xbf1d72fa	-0.61503565
121	0x3ebc0aaa	0.36726886
122	0xbf15a09d	-0.584482
123	0x3d2f4fb7	0.04280063
124	0x3d2f2ccd	0.042767335
125	0xbf31bfc7	-0.69433254
126	0x3bbca53d	0.0057570026
127	0xbe93bc1c	-0.28854454
128	0x3d3dbc25	0.046322007
129	0x3ad2589f	0.001604814
130	0x3f3da402	0.7407838
131	0xbf21cd72	-0.6320411
132	0xbdc93813	-0.098251484
133	0x3b77a73e	0.0037788893
134	0x3c9d3103	0.01918841
135	0xbe2f085c	-0.17093033
136	0xbf274d79	-0.6535259
137	0xbc04b147	-0.008098907
138	0xb9654a81	-0.00021866897
139	0xbf5f599a	-0.87246096
140	0xbf3eebd5	-0.745786
141	0xbf099245	-0.53738815
142	0xbf614b92	-0.88005936
143	0x3f198f8f	0.5998468
144	0xbf1690a2	-0.5881444
145	0xbf0becda	-0.5465828
146	0xbf8a2bf1	-1.079466
147	0xbf886441	-1.0655595
148	0x3f8fa7fc	1.122314
149	0x3bd9b198	0.0066434853
150	0xbfab7a9d	-1.3396794
151	0xbf897335	-1.0738283
152	0xbefb38f7	-0.49066898
153	0x3c89cb54	0.016820587
154	0xbec91a22	-0.3927775
155	0xbf63316c	-0.88747287
156	0xba29c30f	-0.00064759044
157	0xbef42d11	-0.47690633
158	0xbf0a6d32	-0.5407287
159	0x3ba2ff06	0.004974249
160	0xbf4af5b1	-0.79281145
161	0x3f4b3e19	0.7939163
162	0xbf4c9680	-0.79917145
163	0xbecf85a9	-0.40531662
164	0xbea86051	-0.32885984
165	0xbf90bd0d	-1.1307694
166	0xbed954f7	-0.42447636
167	0x3f56ad56	0.8385824
168	0xbf332786	-0.6998218
169	0xbbfa3ff1	-0.007637017
170	0x3f2ed14b	0.68288106
171	0xbf385fb1	-0.72021013
172	0xbea7dca6	-0.3278553
173	0x3f915d85	1.1356665
174	0xbea21af9	-0.31661204
175	0x3bcc6c44	0.006238492
176	0xbf14bcbb	-0.5810048
177	0xbf61a6e9	-0.8814531
178	0x3f27a736	0.6548952
179	0xbf32289a	-0.69593203
180	0xbf69ad1d	-0.91279775
181	0xbe915390	-0.28384066
182	0xbf5eabed	-0.8698109
183	0xbf2c06af	-0.671977
184	0xbf638066	-0.88867795
185	0xbf501835	-0.81286937
186	0xbf3395b8	-0.7015033
187	0x3f8d134c	1.1021514
188	0x3f5793c4	0.8420985
189	0xbee5dd9a	-0.4489563
190	0xbf140986	-0.5782703
191	0xbf383286	-0.7195209
192	0xbf140286	-0.5781635
193	0x3b5f0ebe	0.0034035887
194	0xbf2ed68b	-0.68296117
195	0x3f4eda49	0.80801827
196	0x3ceae4c2	0.028673533
197	0xbf989f0e	-1.192354
198	0xbf2bdc6e	-0.67133224
199	0xba981a07	-0.0011604436
