lab2/problem2/neural-network-2-critic.pt (torch, 340877 bytes, 5 tensors)

weight f4 [400, 8]
00000000: cb6f cdb8 ae86 ca3d 411b 9abe 5f52 793e
00000010: 1086 193f 6123 153f 7c60 023f e865 b2be
00000020: ca4d f5bd fc30 bf3e 6d34 373f 268c 76bf
00000030: 9b42 35bf ab44 813e e815 af3e 4a8b 72bd
00000040: fea8 ac3d b01b ab3e 6382 2bbe 9dbc 5a3f
00000050: 38c0 73be dc5a cc3e 91c3 0e3d 7d4a afbd
00000060: 488d dd3e 8a60 f4be 5bf0 9abe b717 bbbd
00000070: a7d1 923e bd79 55be d249 c1be 905b cfbe
00000080: a667 8a3d dc37 ae3e 4cd7 703d 414f 03bf
00000090: 4f9d fdbe 728b 463f 50aa bfbe e4af 94be
000000a0: df53 df3e 0bdf e8be 2be1 cf3c fc72 7bbe
000000b0: 36ae 333d 5993 34be 97dd 18be fad2 bfbd
000000c0: 869e 963e b739 03bf 702c ac3e edeb ca3d
000000d0: c008 70be dc3e 95bd f3fa 9abe e1b2 46be
000000e0: 64eb 8cbe 4288 a83d f194 f33d 8c61 cabe
000000f0: b80f 25bd e3a2 f6be 908b d43e a9df 973c
00000100: e84e b63e ff21 fabd 7927 373e 0e9f 8b3e
00000110: ce8a 07bf b141 cf3e f977 cfbd ccf8 dd3e
00000120: 7e27 4a3c 7ef2 633e f146 8dbf e218 a3bf
00000130: 98cb 8cbe b13c b3be 13c4 233b 0794 2a3d
00000140: d907 c73d 31f0 59be a5a7 333e 8d72 06be
00000150: c38f ad3f 0568 853f cc7d 583e 9abb 25be
00000160: eea4 263c cce5 85bb 7cc6 413c 93b6 3dba
00000170: 566f 13c0 6171 b23d 8e47 4f3e 1d50 c03c
00000180: 340e adbe 17f6 05be 5cb1 1fbe d473 9cbe
00000190: 46ce 6f3e a3ab 403f fd8e 6c3d c3aa 76be
000001a0: 5a58 45bd 360a ff3d 3e80 1e3e 7d93 1fbf
000001b0: 5c38 e73d 7259 0a3f 4232 9f3e d5fb 74b8
000001c0: 139f 44be 176e dbbe 6d93 c63c b40d 7e3e
000001d0: a10d a13e 733f f13e 87c9 62be 323a fbbe
000001e0: 8bac c43e 49ce adbe 423e 903f 0697 ae3e
000001f0: 0f7f 6fbf 1d52 753e 0706 0dbe 4cc4 983e
00000200: 838b c5be af1c 923e 914e ea3e 9798 063c
00000210: 6332 aebf b121 78bc 2049 023e fcae 76bc
00000220: 0bec abbe cb12 cabb f33c c7be 6c8e c13d
00000230: f3eb 053f 98fe 133f dde4 7ebe 94c9 63bd
00000240: e861 75bd ab3d 34bf 1bc9 01bf 041c f03e
00000250: c21e 953e 2cd5 a43e 9202 ce3e 56ca bfbe
00000260: d91f 2f3d 8d70 dfbd a20d ea3e e423 8fbf
00000270: 21ce 30be 96a9 86be c951 743e c0bd 68bd
00000280: c3b7 d03d 4123 373e 018f b43d 540b 10be
00000290: 68d2 1cbf d84b 2fbf 3924 42be c8ff a83c
000002a0: 5e8b ffbe 21d9 963e a83c 223e 1774 05bf
000002b0: 7dd6 5b3d 6973 b83c a40e 8a3e 6750 1d3d
000002c0: 05eb 6dbd 6987 aabf a53a a53d 696f 273e
000002d0: aa3e 633e 6ebb 2bbf 9a63 da3e 745f 6d3e
000002e0: 8a09 48be 04f3 9dbe 9b65 a73e 59f8 e33e
000002f0: 620a 883d 0ef1 afbd c403 87be 5535 26bf
00000300: 6d77 2b3e ffb5 fbbc a16c 36bf e3bc 553d
00000310: 7605 95bc e38f d5bd 0800 b1be 7d8a ebbd
00000320: 8c12 1abd 9300 a7bd 139a cbbe 3856 023e
00000330: 2736 c63f 1223 ff3d 6527 c63d 3df7 9c3d
00000340: 9774 853c 27ac 683d c1f4 12c0 3bb0 82be
00000350: 11a4 523c fffb 8cbe 5200 393b 84a4 82bf
00000360: b95b c1be 5faa a5bd 6c75 1bbf 9aed 463a
00000370: be5e 473f 5f5a 853e 429e fa3a b640 c2be
00000380: 3731 bc3c 981e 93bd 11d8 54bf b617 10bf
00000390: 11dd 77bf 80f1 e7bd f60e f7be f072 e3be
000003a0: 7a9e b73d e6e0 4c3e 0877 a43e 81ac 27bf
000003b0: f642 adbe 5b94 0ebf 3c0e 81be 44fb b0be
000003c0: a837 8bbe 94ee bf3c cb3b 8dbd c1bf 19be
000003d0: 13dc eabb 4f0f 0b3f b388 0b3e 2470 00bf
000003e0: ce4c c1be 6da0 71be 9ca6 0fbd 69b5 383f
000003f0: 0dc8 f43e 55ca 83be 834f 25b9 dd19 8bbd
-9.795985e-05 0.09888969 -0.30098918 0.24347828 0.5997019 0.5825711 0.50928473 -0.34843373
-0.11977728 0.3734206 0.7156437 -0.963076 -0.70804757 0.25247702 0.341964 -0.059214868
0.0843067 0.3341956 -0.16748957 0.8544405 -0.23803794 0.3991307 0.034854475 -0.085591294
0.43271852 -0.47729903 -0.30261502 -0.091353826 0.28675577 -0.2084722 -0.37751633 -0.40499544
0.067580506 0.34026992 0.058799073 -0.51292807 -0.4953408 0.77556527 -0.37434626 -0.29040444
0.43618676 -0.45482668 0.025375923 -0.24555582 0.043867312 -0.17634334 -0.1492828 -0.093664125
0.2941782 -0.5125994 0.33627653 0.099082805 -0.23440838 -0.0728738 -0.30269584 -0.19404174
-0.2752334 0.08229114 0.11893643 -0.39527547 -0.040298194 -0.48171148 0.41512728 0.018539267
0.35607076 -0.122135155 0.17886151 0.27269787 -0.52946174 0.40479806 -0.10130305 0.4335388
0.012338517 0.22260472 -1.1037275 -1.2741969 -0.2749908 -0.3500724 0.0024988696 0.041645076
0.09718294 -0.21283032 0.1754442 -0.13129635 1.3559498 1.0422369 0.21141738 -0.16184846
0.010171158 -0.004086232 0.0118271075 -0.00072369835 -2.3036704 0.087130316 0.2024214 0.023475701
-0.337999 -0.13082157 -0.15595001 -0.3055712 0.23418531 0.75261897 0.05775355 -0.24088578
-0.04817996 0.124531195 0.15478608 -0.62334424 0.112900466 0.5404273 0.3109303 -5.840867e-05
-0.19201307 -0.4285743 0.02424022 0.24809915 0.3145571 0.4711872 -0.22147189 -0.49067837
0.3841289 -0.33946446 1.1269 0.34099597 -0.9355325 0.23957105 -0.1377183 0.29837263
-0.38583001 0.2853751 0.45763066 0.008215091 -1.3609127 -0.015144751 0.12723207 -0.015056368
-0.33578524 -0.006166791 -0.38913688 0.09450993 0.52313155 0.57810354 -0.24891992 -0.05561216
-0.059907824 -0.704066 -0.5069749 0.46896374 0.2912503 0.32193887 0.40236336 -0.37459058
0.04275498 -0.10910139 0.45713526 -1.1182828 -0.17266132 -0.2630126 0.23859324 -0.056821585
0.101913 0.17884542 0.08816338 -0.14066821 -0.61258554 -0.68475103 -0.1895913 0.020629779
-0.49911016 0.2946253 0.15843451 -0.52130264 0.05367135 0.02251597 0.26964295 0.038406756
-0.05808546 -1.3322574 0.08067826 0.16351093 0.22191873 -0.6708287 0.42654115 0.23180944
-0.19534889 -0.3084947 0.32694706 0.44525412 0.06642605 -0.085908994 -0.2637006 -0.6492513
0.16744776 -0.030726431 -0.71259505 0.05218209 -0.01819108 -0.10427835 -0.34570336 -0.11501024
-0.037615344 -0.081544064 -0.39765987 0.12728202 1.5485276 0.12457861 0.09675483 0.076643445
0.016290946 0.056804802 -2.2961886 -0.25525078 0.012856499 -0.27536008 0.002822895 -1.0206456
-0.3776529 -0.08089136 -0.60726047 0.0007588506 0.7787894 0.2604551 0.0019120651 -0.37939996
0.022972686 -0.0718357 -0.8314219 -0.5628618 -0.96821696 -0.11325359 -0.48253602 -0.44423628
0.08965774 0.20007667 0.32122064 -0.65497595 -0.3384015 -0.5569512 -0.25206172 -0.345667
-0.271909 0.023429193 -0.0689617 -0.15014555 -0.007167348 0.54320234 0.13626365 -0.50171113
-0.3775391 -0.23596354 -0.035071 0.7215181 0.47808877 -0.25740305 -0.00015765247 -0.067920424

bias f4 [400]
00000000: dd0b bb3d d097 8abe 8707 013e e003 503e
00000010: d5fc 2fbd 83cd 57be 1966 81be 0917 17bf
00000020: f55f d8be 92d5 323e 83f3 74bd 2e8b 70ba
00000030: ad32 7cbe cf89 23be 6243 8abe 2d43 a6bc
00000040: 89dd abbe 47aa cebe 15cd df3d f5a8 683e
00000050: aeea edbe fd48 f0be ff1b 7dbe 4a66 4fbe
00000060: aa46 e73d 14a8 bb3c c70c 463d 1cec 6f3d
00000070: 4105 beb9 741a d1be 95e6 56be 8612 f13d
00000080: c7bf d1be 5b6c d8bd dee0 e4bd 4b37 553d
00000090: ecd1 34be 0a0c 293e b506 5abe 2761 afbe
000000a0: ebd0 a73d 3d0e 8ebb e0c2 19be 6f42 c73c
000000b0: c895 afbd 111d 8b3d d07a a2be 5799 d7be
000000c0: 9444 723b 920e 51be e8a2 8c3d b6dd 1a3d
000000d0: 5b11 e4be 98a0 b03e cce0 583e e62a 55be
000000e0: 90ad 003e c83f 053d 66d4 f8bd c28c 453b
000000f0: 232d 5c3e 82cc 9f3d f095 e1be 0cf7 e23e
00000100: f419 8ebe e4f3 cdbd 26fe 5d3d 76ed 263e
00000110: bee0 00bd 502b 043e 66e5 2e3c 68ad e9be
00000120: a2dd b5be 320b 813d 1df4 a4be bf44 06bf
00000130: d202 8a3c b748 b6be ebd3 8dbe 994c 91be
00000140: 3150 8ebd 5540 ab3e bb93 9dbe 05ec 5abe
00000150: 9cfe 3c3e 3d77 1c3d 586e a6be a002 f53c
00000160: 0df3 fabd 581b a5be 6650 14bf b8de 0abf
00000170: 5621 cdbe 7283 5f3d 45bd a53d bd83 97be
00000180: e782 21be 0c18 033e c807 7f3e d25a e7bc
00000190: 3149 50be 86a0 553e eadb 14bf daf6 51bd
000001a0: 4879 e63d 6611 c4bd 80be d0be 81b8 27bc
000001b0: f52a 433e 89d1 42bd 7d69 943e 86ef b93d
000001c0: e55f a73c 9a06 40bd 02af dbbe 3e74 16bf
000001d0: aa14 273e 36ad 163d e6e2 9ebe d046 85be
000001e0: 994a 86be 5daf 8cbd 6fba b4be 5899 053c
000001f0: 01f2 b93d 8e86 18bb b615 0a3d 85b7 10be
00000200: ce71 a7be 37ec b2be a894 53bd 4a95 96be
00000210: c965 abbe c224 95be a717 f9be 2abd b7be
00000220: 45e1 fe3d 03bd d73d 50b2 32be b750 9ebe
00000230: 5ec4 c2be 6225 a6be a6ec 833b b823 2ebd
00000240: e1f8 5abe 296b 79be c293 623e faa0 c03d
00000250: c46a a7be dd9f efbe 2f21 c13d 84aa adbe
00000260: 560a 9cbd 5b64 babb 5e73 f53c a97a b0be
00000270: fdfc a43d 3e3c 99be 9e04 c2be 61c9 bbbe
00000280: 3a98 c83c 7e27 08be f743 bebe f982 9bbc
00000290: 69cb 6b3d 16b5 b1bd 1f53 813e e68f 32be
000002a0: 5d0d 493b 3cbb ccbe 7060 e23c 1822 7abe
000002b0: a824 41be 07e4 373d c945 a4bc a87b d9be
000002c0: d6d2 eebe 2b18 80bc 1292 0cbd e95a 953d
000002d0: 538f 0a3d cca5 3dbe 7908 b23e 8c87 373d
000002e0: bc2f cfb8 64fd b1be 509a 35be 4d88 97be
000002f0: 3c12 52be 98ee 343e ea15 383d 0ca5 aa3d
00000300: b6a0 76be 09fe abbd 2a23 adbe 6f47 973d
00000310: 793b 01be e9df d6bd cd24 adbe abd6 0ebe
00000320: fb29 16be a0c3 3cbe e606 1c3e 1075 723e
00000330: 3062 c4bc 019f 7abe 7e17 1abf 892b a1be
00000340: 69e2 8b3e 057d f9bd 22a0 9bbe 105e 81be
00000350: ebef 333e eeb3 74bd 941f 60bc fed9 74be
00000360: 5c63 c8be 2654 2c3d c734 80bd 907f 393e
00000370: 7011 18bf 9095 a73d 921a aa3d 977f 893c
00000380: fe22 8bbe fd5e f9be 5eff 87be 4360 57be
00000390: 956a 71be f0df 0cbe 7f00 a0be 2ffe cdbb
000003a0: 0e76 6fbe e289 42be 4bd5 ad3d d3db 4cbe
000003b0: 2ff5 96bd 01cc e8bc 2bd8 9a3e 821b 99bd
000003c0: fd4c 47bd 570f 20bc 90f3 8bbe 273f 78be
000003d0: ada7 57be 3596 60bc 9f58 6fbe 7c7c fbbe
000003e0: c519 843e c128 b03d 5f1b ff3a 776f 0abe
000003f0: ce91 463e c7ca f7bc 4316 0ebf 9a31 a3be
0.09133122 -0.2706895 0.12600528 0.20313978 -0.04296573 -0.2107449 -0.25273207 -0.59019524
-0.4226071 0.17464283 -0.059802543 -0.0009176013 -0.24628706 -0.15970539 -0.27004534 -0.020295704
-0.33567455 -0.40364286 0.10927788 0.22720702 -0.4646811 -0.46930686 -0.24717711 -0.20253864
0.11292775 0.022907294 0.04835203 0.05857478 -0.00036243538 -0.40840495 -0.20986398 0.11771111
-0.40966627 -0.10567542 -0.111757025 0.052054685 -0.17658204 0.16508499 -0.21291621 -0.3425381
0.08194145 -0.0043351934 -0.15015745 0.02432367 -0.085734904 0.06792653 -0.31734324 -0.42109177
0.0036967145 -0.20415714 0.068670094 0.037809096 -0.4454449 0.34497523 0.21179503 -0.20817146
0.12566209 0.03253153 -0.12149887 0.0030143713 0.21501593 0.07802679 -0.44059706 0.44329107
-0.27754176 -0.10056284 0.054197453 0.16301522 -0.03146433 0.12907147 0.01067481 -0.4564011
-0.35520655 0.063009635 -0.32217494 -0.5244865 0.016847048 -0.35602352 -0.27700743 -0.28378752
-0.06948889 0.3344752 -0.30776772 -0.21379097 0.18456501 0.038199652 -0.3250606 0.029908478
-0.122533895 -0.32247424 -0.5793518 -0.5424609 -0.40064496 0.054568715 0.08092741 -0.29592696
-0.15772592 0.12802142 0.24905312 -0.028241549 -0.2034042 0.20862016 -0.5814806 -0.051260807
0.11253601 -0.09573631 -0.4077034 -0.01023686 0.19059356 -0.04756311 0.2898673 0.090788886
0.020431468 -0.046881296 -0.42906958 -0.5877112 0.16316476 0.03678628 -0.31032485 -0.26030588
-0.26228788 -0.068693854 -0.35298488 0.008154236 0.09079362 -0.002327356 0.03371211 -0.14132507
-0.32704014 -0.34945843 -0.05165544 -0.29410774 -0.33476093 -0.29129606 -0.48650858 -0.35886508
0.124453105 0.10534098 -0.17450833 -0.30920956 -0.3804044 -0.32450396 0.0040260134 -0.042514533
-0.21384002 -0.24357285 0.22126678 0.09405704 -0.32698643 -0.46801654 0.094301574 -0.33919156
-0.07619159 -0.005688233 0.029962238 -0.34468582 0.08056066 -0.29928774 -0.37894148 -0.36677077
0.02448665 -0.13296315 -0.37161228 -0.018983351 0.057567034 -0.086771175 0.2525873 -0.17437705
0.003067813 -0.39986598 0.027633876 -0.24427068 -0.1886164 0.0448952 -0.020052807 -0.42477155
-0.4664523 -0.015636524 -0.03431899 0.0729273 0.03382809 -0.18520278 0.3477209 0.044807002
-9.8794204e-05 -0.34763634 -0.17734647 -0.29596177 -0.20514768 0.17669141 0.044942774 0.083322614
-0.24084744 -0.08398063 -0.3381589 0.07386672 -0.12620343 -0.10491926 -0.3381714 -0.13949077
-0.14664452 -0.18434 0.15237007 0.23677468 -0.0239726 -0.24474718 -0.60192096 -0.31478527
0.27321175 -0.12182049 -0.3039561 -0.25267076 0.1757199 -0.059741907 -0.013679404 -0.23911282
-0.39138305 0.042072438 -0.062600665 0.18115067 -0.5940161 0.08182824 0.08305849 0.016784472
-0.27175134 -0.48705283 -0.26562017 -0.21032815 -0.23575814 -0.137573 -0.31250378 -0.0062864046
-0.23384878 -0.1899791 0.08487948 -0.20005731 -0.07370984 -0.02841759 0.30243048 -0.0747595
-0.048657406 -0.009769282 -0.2733426 -0.2424284 -0.21060057 -0.013707687 -0.2337365 -0.49118412
0.2580091 0.08601523 0.0019463113 -0.13519083 0.19391558 -0.030248059 -0.5550272 -0.3187378

weight f4 [200, 402]
00000000: 70f4 a9be af91 bf3e 89f6 213d 32d8 36be
00000010: b64b e6bb 4b86 a23e 848a 06bf 9139 013f
00000020: b890 673e ac15 d4be 4d48 11bd 3966 b73e
00000030: 91b8 6a3d 9abf 1d3d e55d 20bf ce6a bd3e
00000040: 6c4e 013f 8c0d 083f 56e8 1ebf 26ec 143e
00000050: 1793 8ebc 13b0 d33e e893 443e 349b 79bd
00000060: 8db6 bdbe 353a 77be 7a18 fdbf ab2f 0ebf
00000070: 639f a3bf 669c 8f3e 2e4a dabe 9c15 12bd
00000080: cd7e 163f 5682 9ebd d8af ffbd 3dcd bfbc
00000090: da9d 92be fcdc 163e 237c 0fbf 9bee 89be
000000a0: 330e 7b3d cf2c c93e 79ff 133e 6e65 073d
000000b0: 1fb6 d8bd fa17 adbd f8ed d33e 6e6d 643d
000000c0: fc71 533e d5f6 a03e 2a58 10be 3699 65bd
000000d0: daea 9e3e 90a2 71be e998 99be 35e6 153d
000000e0: 5240 afbd 5548 b43e cf93 b5be d2fd d8be
000000f0: 5486 333e 3db0 ac3d fdbe f9bd d14b 893d
00000100: 596d c1bd cc19 19be 08ab 0abe c967 0e3e
00000110: f777 e83d 24d9 b03e 8efc 003e 1e65 9d3e
00000120: 7b4f c3bb e250 6abd 4805 13be 665c b6bd
00000130: 1842 a9bd 556d acbe 10ce e5bc 3a8f 8b3e
00000140: f6ca 02bf 5189 3a3d 6301 d1be 8e13 66be
00000150: 79d2 bb3e 056b 0dbd a3d4 44bb 4e80 903f
00000160: a356 84be 0407 0f3f e403 04be 7ab3 943e
00000170: f334 1bbf 773e 563e cb69 afbd 46d3 da3f
00000180: bab1 123f be62 af3e a14f 9d3d c07c 973d
00000190: 67b3 263f 8464 533e a3f1 333d b558 843e
000001a0: a0b6 743e 5f7c 913e f1ac 34bd 2b67 753e
000001b0: 0e28 a6be 9394 90be 08d0 223e 2d45 013e
000001c0: 671d 1f3e 14e1 f0be c0e7 9a3d 32c0 0e3e
000001d0: a4a4 c1be 30fb 103f adc0 493d 9f01 843e
000001e0: 91e5 673e e455 bfbe 8c1b 80bd a217 563e
000001f0: 1e22 b33d f9a0 7c3f 49f7 d33e 3b7d 273f
00000200: 510d ed3c b8e7 cebe 8e0b af3e af54 32bb
00000210: 2e75 79bd 078c 91bd 1cc5 b5be 18b1 a3be
00000220: 1d90 553e f139 b9be 31a6 c1bd 1d70 983e
00000230: 2683 863e de98 c3be 7652 df3e 526a 73be
00000240: 5b17 c23d 2fb6 96be f13a 41be 96ef 65be
00000250: 5cda 003f aa9f 8fbe fe3b 9a3e 4e64 c2be
00000260: 82dd f83e fc2f 9e3f 99ed 9f3e e511 5dbe
00000270: 828b 5bbe f038 7c3e 835e 2c3e 991d 1a3f
00000280: ee98 67bf 9980 62bc d170 d6bc 9b3b bdbe
00000290: 0e9f 26bf f7a5 04bf 79dd 663e 4a38 29bf
000002a0: 17f1 243d 0e83 f03d 5ff0 45bf 4dba 1f3e
000002b0: 1c37 9c3e 0d86 36be b278 a83e d69a 913e
000002c0: b983 a3be 072c e9be 690a bcbc c4d1 30be
000002d0: 59c8 fbbe 1f31 643e 1c28 443d 9da4 e13c
000002e0: 6915 ec3e 2518 39bf 3566 f53e 1d70 57be
000002f0: 9cb4 13be 2794 2b3f f2a9 0abd 1903 9d3d
00000300: be4c a23d 760d 19be ba26 8abc 10d4 e23d
00000310: 4c17 f93e 2ff6 1fbe 1bbc f93e 8cfc 8dbd
00000320: 2f66 9cbc 1d1e e63e 9f83 87bc 408a e6be
00000330: d6e9 d8bd 3799 82be 8fd5 c9be f5f3 f03e
00000340: 1c98 c13d 5eeb 4f3e 3648 b43d d14e 453e
00000350: 9e4b 26be 1ab5 963d d50c d93c 4a9d 4e3e
00000360: f4e4 523e 4371 843e d483 66be 11fc ddbe
00000370: af66 adbe 0a9d 4cbb b8e0 73be 6807 cebd
00000380: 3060 a8be 7019 92be 4d36 88be c9a8 d3be
00000390: 600d 833d d883 ef3e 4c70 a3bd 221c 86be
000003a0: bf4c d3be 1ba7 b2be a773 91be a0c7 cdbe
000003b0: 9ff0 3ebe 9014 583e cad0 753e 5cc5 d23e
000003c0: fa90 1bbe 7a38 ccbc 9721 663b 6d54 1bbf
000003d0: ff31 433e 1a3c aa3e a27f 56bf 8008 c83d
000003e0: 54b7 53bc 235f df3d 5c87 26bc 8e85 aa3e
000003f0: 5319 2d3e b9f7 383e d3fe 583d 184e 85be
-0.33194304 0.37415835 0.039541755 -0.1785591 -0.0070280684 0.31743082 -0.5255511 0.50478464
0.226138 -0.41422784 -0.035469342 0.35820177 0.057304922 0.038512804 -0.6264327 0.36995548
0.5051029 0.5314567 -0.62073267 0.14543208 -0.017404122 0.4134527 0.19197047 -0.06093903
-0.37053338 -0.24143298 -1.9773095 -0.55541486 -1.2783016 0.2804901 -0.4263472 -0.03566514
0.5878723 -0.07739703 -0.124847114 -0.023413295 -0.28636056 0.14732736 -0.5604879 -0.26939854
0.06129284 0.39292 0.14452924 0.033055715 -0.10581612 -0.08451839 0.41392493 0.055768423
0.2064895 0.31438318 -0.14096132 -0.056054316 0.31038553 -0.23597169 -0.29999474 0.036596496
-0.0855719 0.35211435 -0.35464332 -0.4238115 0.17531711 0.08432052 -0.12194631 0.06703914
-0.094446845 -0.14951247 -0.13541806 0.13906778 0.113510065 0.34540665 0.12596342 0.3074121
-0.0059604025 -0.057206042 -0.14357483 -0.08904342 -0.082645595 -0.33677164 -0.02805236 0.2725771
-0.51090944 0.04554111 -0.4082137 -0.22468397 0.36684015 -0.03452589 -0.0030033968 1.1289155
-0.2584735 0.5587008 -0.12892109 0.2904318 -0.6062767 0.20922266 -0.085651 1.7095726
0.5730244 0.34255022 0.07681204 0.07396841 0.65117496 0.20643812 0.043931615 0.25848928
0.23897791 0.284152 -0.044110242 0.23965137 -0.32452434 -0.28238353 0.1589967 0.12624045
0.1553856 -0.4704672 0.07563734 0.13940504 -0.37820923 0.5663328 0.049256016 0.25782487
0.22646166 -0.37370217 -0.06255254 0.20907453 0.08746742 0.98683125 0.413996 0.6542546
0.028937014 -0.40411162 0.34188503 -0.002721112 -0.060902767 -0.07106786 -0.35501945 -0.3197105
0.20855756 -0.36177018 -0.094555266 0.29773036 0.26271933 -0.38202566 0.436176 -0.23771027
0.09477111 -0.2943587 -0.1887014 -0.22454676 0.5033319 -0.28051502 0.30123895 -0.3796715
0.48606497 1.2358394 0.3123596 -0.21588857 -0.21439937 0.24631095 0.16832928 0.6020141
-0.9046773 -0.013824605 -0.026176842 -0.36959538 -0.6508645 -0.5181574 0.22545423 -0.66101515
0.040268984 0.11743747 -0.773199 0.15598412 0.30510795 -0.17824574 0.32904583 0.28438443
-0.31936434 -0.45541403 -0.022954183 -0.17267519 -0.4917629 0.22284363 0.047889814 0.027544314
0.46110085 -0.72302467 0.4792954 -0.21038862 -0.14424366 0.6702294 -0.03385348 0.076666065
0.07924794 -0.14946541 -0.01686417 0.11075604 0.48650587 -0.15621255 0.48776326 -0.06932935
-0.019091694 0.4494485 -0.016542254 -0.4502735 -0.10591476 -0.2550752 -0.39420745 0.47061124
0.09452841 0.20304629 0.08802836 0.19268347 -0.16239783 0.07358761 0.026495377 0.20177189
0.20595151 0.25867662 -0.22511226 -0.43356374 -0.33867404 -0.0031221532 -0.23816192 -0.100600064
-0.32885885 -0.28535032 -0.26603928 -0.4133971 0.063990355 0.46780276 -0.07980403 -0.2619334
-0.4126949 -0.34893116 -0.28408548 -0.40191364 -0.18646477 0.21101594 0.24005428 0.41166198
-0.15192023 -0.024929274 0.0035115236 -0.606757 0.19062041 0.3324898 -0.837885 0.09767246
-0.012922127 0.10906818 -0.010164108 0.3330502 0.16904192 0.18063249 0.052977394 -0.26036143

bias f4 [200]
00000000: e473 abbd c523 543d da8d 0cbe f394 373e
00000010: 23e4 553e b405 183e ec4d 4fbd 6534 95bd
00000020: b76b dcbc b26d 02bc 45a1 b4bc 0e8b 823e
00000030: 757a 973d 819a 5e3e fa2d bd3b 494b 84bc
00000040: 1996 c0bd e1ed c9bc 2821 92bd 7586 443e
00000050: 4ad3 8cbd 8f77 d1bb 8d0f 2dbe edbe 7abd
00000060: fde8 eabd 0429 a23d 3872 18bd 4e47 993e
00000070: 09a6 68be 17cb debc 3c17 053d 5317 293d
00000080: f97d f6be 5465 3a3e 91ed 43bd 2d55 bb3c
00000090: 32f4 dd3b 4ed0 b5bd ff67 05be 2c16 28be
000000a0: 4fc8 83be 22f3 31bd 7d39 dfbd e2d3 24bc
000000b0: 651f 3d3e 23f1 e5bb ed8d 323d 97e3 8c3c
000000c0: 90f9 073c fa6e 42bd 0190 99bb 6ff5 efbc
000000d0: 3178 383e 2dac 263e cbc1 94bc 5dbf 883e
000000e0: 6c25 f23d b178 293e 2572 82bd 958a 82be
000000f0: 8f3d 323e f102 3ebd 02a9 25bd cceb 0abb
00000100: ea09 97be 8329 c8bd 544a 82be ec79 50be
00000110: 66b1 adbc 73de bb3d 2a6f 82bd dd70 883d
00000120: 2f98 a3bd dcb7 45be 46dc 41be 662a 92bd
00000130: 015a 9ebe db60 7c3e 073d b3bd 8f0f 283e
00000140: f172 683d 2f0b 7cbe 00e7 0e3d 8a78 80bd
00000150: 3bef 763e aafe 0a3d 435b 12bd 7ba4 133d
00000160: 76cf 043c 0c1b 96bd 828b 17be c0cb 9abd
00000170: 3dfd e23b ede4 67be bd5c fabd 1ddf 58bb
00000180: ba41 3abd a4c6 7c3e 25ab fc3d 5095 8a3d
00000190: 4de8 97bd ba06 87bd c540 603c 834d 893c
000001a0: 87d8 2bbd aa73 60bb ca0a 74be 5236 4ebe
000001b0: 037a 373e 2719 4fbd 24b9 bc3d d593 213e
000001c0: 8d29 29bd a41f 04bc ab3d 0d3d 46c3 693e
000001d0: 6a09 033d 75d1 29bc c430 98be bfea 3abd
000001e0: 66df 75be d8ad 94bc 255d 54bc c432 7ebe
000001f0: f648 d0bc d824 113c ef59 893c 8562 f5bc
00000200: 8ab3 83bd 4396 37be 4072 263e 7ef2 b83e
00000210: 1043 a83d 7cf2 9dbd 634b 233e 91e2 53be
00000220: d402 3ebd 7d02 32bd 5771 9a3d 61e5 fc3d
00000230: 8608 2bbe 3131 293a 7c04 2dbe 6424 4fbd
00000240: 2c03 49bd 1810 a6be 710a 89bd c3c5 f1bd
00000250: f90a b23d 5053 29bd 8594 bebc d9e5 b6bd
00000260: e7d5 853e 628d 32bd bd2d 293e f4ad fbbc
00000270: 7181 2abe db86 093e 2e76 46be b52e 91bd
00000280: 6ac7 743d a04f 723e 756a 1dbd 2bbb 97bc
00000290: 5472 5b3e 5d91 cabc 6c8c 173e 9dd1 f43d
000002a0: 83eb c7bc 2b0e 433e 7a6e 173e 238d c3be
000002b0: 8850 2dbe a54e 3ebd 424a 77bd 171e 73bd
000002c0: 4926 ac3d a0a8 5d3e 287b 38bd 0742 6bbe
000002d0: b86d 343e 8b9f 0ebd bbdd 5fbe 1378 6cbc
000002e0: d6d5 6fbd 3615 113d c67d d6bd 09a1 ecbd
000002f0: 8f73 853e d94e 74bb 7acb 853e 2e35 403e
00000300: 6357 3c3c 6c87 50be 0a8c 85be e092 453c
00000310: 8c2b 323e 743f 773e 23de b23d cda9 0a3e
-0.08371714 0.051791925 -0.13725987 0.17927913 0.20887809 0.14845926 -0.05061142 -0.07285384
-0.026906831 -0.007960724 -0.022049556 0.25496715 0.07396404 0.21738626 0.005773303 -0.01614918
-0.09403629 -0.024649562 -0.0713523 0.19191916 -0.06876238 -0.0063924263 -0.16900463 -0.061217237
-0.1147022 0.07917979 -0.037218302 0.29937214 -0.22719587 -0.02719645 0.03249286 0.04128201
-0.48142985 0.18202716 -0.047833983 0.022867763 0.006773495 -0.088776216 -0.13027953 -0.16414708
-0.2573876 -0.04344476 -0.10899637 -0.010060282 0.18469007 -0.007017271 0.043592382 0.017198367
0.008299246 -0.047469117 -0.004686356 -0.029291837 0.180146 0.16276617 -0.018158814 0.267085
0.11823544 0.16549946 -0.063694276 -0.25496355 0.17406295 -0.046389524 -0.04044438 -0.0021197675
-0.2949975 -0.09773543 -0.25447333 -0.2035901 -0.021202754 0.09173288 -0.06368859 0.06662152
-0.07988011 -0.19308418 -0.18931684 -0.07136993 -0.30928043 0.24646322 -0.087518744 0.16412185
0.05675024 -0.24613641 0.034888268 -0.06272991 0.24114697 0.033934273 -0.035731565 0.036045533
0.008106103 -0.073293775 -0.14799312 -0.075583935 0.006927161 -0.22645922 -0.1222472 -0.003309197
-0.045472838 0.2468515 0.12337331 0.0676676 -0.07417355 -0.0659308 0.013687317 0.016760593
-0.041954543 -0.0034248629 -0.2383224 -0.20137909 0.17917638 -0.050561097 0.09215 0.1577905
-0.04129939 -0.008064184 0.03448264 0.22828397 0.0319914 -0.01036488 -0.29724705 -0.045634028
-0.24011001 -0.018149301 -0.0129616605 -0.24824053 -0.025425415 0.008858882 0.016766516 -0.029954204
-0.06430729 -0.17928414 0.1625452 0.36122507 0.08215916 -0.07712266 0.15946727 -0.20691897
-0.046389416 -0.043459404 0.07541149 0.12348438 -0.1670247 0.00064541685 -0.16896242 -0.050571814
-0.04907529 -0.32434154 -0.06691445 -0.11805298 0.08693499 -0.04133922 -0.023264179 -0.08930559
0.26139757 -0.043591864 0.16521354 -0.030722596 -0.1665094 0.1343035 -0.1938102 -0.07088987
0.05976049 0.23663187 -0.038431603 -0.018521866 0.21430331 -0.024727518 0.1479966 0.11954043
-0.024404293 0.19048373 0.14788237 -0.38193616 -0.16925251 -0.04646172 -0.060373552 -0.059354868
0.0840574 0.21646357 -0.045039326 -0.22974406 0.1761998 -0.03482012 -0.21861927 -0.014432925
-0.05855354 0.03542062 -0.10473208 -0.115541525 0.26064727 -0.0037278442 0.26131803 0.18770286
0.011495444 -0.2036416 -0.26083404 0.0120589435 0.17399424 0.24145299 0.087337755 0.13541336

weight f4 [1, 200]
00000000: b301 3a3f f33f 203e 32bf e1be fb78 43be
00000010: c362 8a3f 016f 743f ac13 a03b ef00 f1be
00000020: 02f2 df39 489a e63c 48ff 233d e52c a4be
00000030: d44b 2abe 6dae f4be 7bc0 673d fd72 ad3b
00000040: 704a f0be 2a31 0d3d f6cd fa3e 4d90 c2be
00000050: 1f65 0e3d 4b79 47bb 34e5 14bf d125 4bbf
00000060: 22b2 d9be dd7c 2bbc 43e1 53bf 5fac f2be
00000070: 14aa f5be 10be 9f3f bc0b b4bd ed9e 533e
00000080: e7ba cabe fed1 a53f acba 0e3b 91ae c83e
00000090: 25e4 c93c b8ac 43bf 092a 16bf f988 27bf
000000a0: cc83 cfbe f9fa 26bf a8c4 81be 60fd 50bc
000000b0: 5b01 e8bd f894 323d 1ba6 efbe 336e 603c
000000c0: 4c5c 073e bf8f 5fba 5626 0cbf 861b e03b
000000d0: 0972 8ebd cde5 8abe 4caf 0fbc 88aa 71be
000000e0: aa35 a63e eb48 10be d1d8 013c 1539 23bf
000000f0: ef81 6c3f 7d82 0b3d 4cc2 7e3d fa4a fa3c
00000100: 82a4 2abf cad6 85bf 8b3c cdbe 3039 b2be
00000110: 77d7 143d f59e d0be e561 be3c 9e48 dbbe
00000120: 38c6 46bf e5d6 19bf 28b0 a7be 7ddf 743c
00000130: f80a eebe f5ff 5dbe c38e 44bf c9e3 53be
00000140: b478 9bbe ab24 8ebe 7076 903e 5a9b 37bc
00000150: 6a22 3cbe ef60 533d da86 5a3f 518a d1be
00000160: bed2 e6be c31d 46be dfa6 4abf 40bc 65bf
00000170: 7dd9 573c 43ac ebbe 8112 e1be 2166 223c
00000180: 104c 1bbb 17c2 98be 6e96 cebe d81b d5bd
00000190: f129 a6be 084b bfbe 9387 5a3e ee55 793c
000001a0: b787 0c3d 4884 793a 0d7f 1cbf 9ab6 e0be
000001b0: 3146 b1bd dc33 e73c 0f05 1a3e 5512 d8be
000001c0: 1339 183c e083 0a3c ab96 37be 5e41 08bf
000001d0: 4450 8c3f c128 403c faab b13e 60de 393d
000001e0: 2934 a7be 51b6 ef3c be47 1cbb c413 19bf
000001f0: 68da d43c 7f62 c6be d469 b03e ba77 693f
00000200: 1701 273d 2f51 30bf 05cd 5ebe c0a3 e2be
00000210: 8d71 453f 0603 ccbf ff9c 36be 1dec fe3e
00000220: cb2a 0c3a 325a 183d 9532 36be dc9d 903f
00000230: 7798 5dbf 93d8 21bc fd6f 53be 0e5c 313c
00000240: 47b3 a53b 0086 14bf 9ae2 02bd 9e76 acbe
00000250: 9b7a 1fbe 0d07 d33c 833f 3a3d 00f1 03bf
00000260: e119 b03f 8644 e13d f12d 81bd da7e 3b3d
00000270: 9a29 bbbe adeb 873f e1fb 28bf bcf9 40be
00000280: 422a 47be c2d7 a0be bb37 003b f062 4e3c
00000290: 20d4 bcbd 81b1 7cbb 3be0 60be 80a1 85bd
000002a0: 56f7 f7bb 547d d3be 88d2 bebd ed6c 983e
000002b0: b8be bfbe 68f6 513d ba25 223f 4203 41be
000002c0: 935f 5c3e 9363 cfbd 16c7 99bb e6d7 7bbf
000002d0: 52d2 5fbe 08bd 0f3f 6109 c7be 8899 773f
000002e0: e8e0 8d3a 8033 b23e f85f b43e 191d c1be
000002f0: 3297 6dbe d3ff eb3c c1ad 5d3f a129 a8be
00000300: f945 3e3d 3a49 07bf 7823 0ebf cff4 46be
00000310: bf3b c5bd c318 5cbe 4c59 11bd c31b 94be
0.7265884 0.15649395 -0.44091183 -0.19089119 1.081139 0.9548188 0.0048851576 -0.47071025
0.00042714184 0.028149739 0.040038377 -0.32065502 -0.16630489 -0.47789326 0.056580048 0.0052932487
-0.4693179 0.034470715 0.4898526 -0.38000718 0.034764405 -0.0030437286 -0.58162236 -0.7935458
-0.42518717 -0.010466781 -0.827656 -0.47397134 -0.47981322 1.2479877 -0.08791301 0.20666094
-0.3959572 1.295471 0.0021778746 0.39195684 0.02464492 -0.7643542 -0.5865789 -0.6544338
-0.4053024 -0.65226704 -0.2534535 -0.012755722 -0.113283835 0.0435991 -0.46806416 0.013698149
0.13218802 -0.0008528195 -0.54745996 0.0068392185 -0.06955344 -0.2712845 -0.008769821 -0.23600209
0.32462817 -0.14090316 0.007925228 -0.63758975 0.9238576 0.03405999 0.062197015 0.03055333
-0.6665727 -1.0456173 -0.40085253 -0.34809256 0.036338296 -0.40746275 0.02324004 -0.4282884
-0.7764621 -0.6009353 -0.32751584 0.014945862 -0.46492743 -0.21679671 -0.7678034 -0.20692362
-0.30365527 -0.2776235 0.2821536 -0.011206472 -0.18372503 0.051606115 0.8536202 -0.4092584
-0.4508266 -0.1934729 -0.79160875 -0.8974037 0.013174412 -0.46029863 -0.4395943 0.009912045
-0.002369646 -0.2983558 -0.40349144 -0.104057014 -0.32453874 -0.37361932 0.2134078 0.015218241
0.034309115 0.00095183076 -0.61131364 -0.43889314 -0.08655966 0.02822297 0.15040992 -0.42201486
0.009290951 0.008454293 -0.17928569 -0.5322474 1.0961995 0.0117284665 0.3470152 0.04537809
-0.32656983 0.02926174 -0.0023846473 -0.59795785 0.02598305 -0.38747022 0.3445574 0.91198313
0.040772524 -0.68873876 -0.21757896 -0.44265556 0.7712639 -1.5938423 -0.17833327 0.49789515
0.0005346953 0.037195392 -0.17792733 1.1298175 -0.8656077 -0.0098782955 -0.20648189 0.01082517
0.005056772 -0.5801697 -0.031954385 -0.33684248 -0.15574114 0.025760198 0.045470726 -0.5153961
1.3757898 0.10999398 -0.06307591 0.045775272 -0.36555177 1.0618798 -0.66009337 -0.18845266
-0.19449714 -0.3141461 0.0019564468 0.012596831 -0.09220147 -0.003855795 -0.21960537 -0.06524944
-0.0075673265 -0.41306555 -0.093174994 0.29770604 -0.37450194 0.051260382 0.63338816 -0.18848899
0.21520834 -0.10126414 -0.0046929223 -0.9837631 -0.21857575 0.56147814 -0.38874343 0.96718645
0.0010824474 0.34804916 0.35229468 -0.37717512 -0.23202208 0.02880851 0.8659325 -0.3284426
0.04645345 -0.5284611 -0.5552287 -0.19429325 -0.09630536 -0.21493821 -0.03548555 -0.2892743
