lab2/problem2/neural-network-2-actor.pth (torch, 340225 bytes, 6 tensors)

weight f4 [400, 8]
00000000: c630 133d 5a96 633d ffdf 7d3e e861 c7be
00000010: 80b0 a5be 5d3a abbe 5f62 a8be d222 9d3d
00000020: f43a c1be 5638 48be fd6e b9be 9ca3 21be
00000030: c97d 98be 7991 c73d 793e 7ebe 193c 8cbd
00000040: 83ab a23e 0e8f f7bd 983b 09bf 6f0f 9bbe
00000050: 6241 1e3d 4133 3d3e 221d 243e 9fd3 203e
00000060: 9fa0 0abe ea8c 743e f24a 023f c451 ffbe
00000070: 9ab3 373e 17ad a5bd 647b 8a3c 4253 3d3d
00000080: 57cc ffbe 329b 03be 28b2 8fbd 3e9f e83d
00000090: 6929 af3e 5231 09bd 4e7e 22be 48c9 793e
000000a0: 2481 74be e81d 753e fd28 903d 0f75 813e
000000b0: 2691 7a3d 3499 ac3e 6c2a 203d 2a63 72be
000000c0: b607 5fbe bcb4 b33e 5c03 e8be e50f b0be
000000d0: c730 81be ab00 7cbe ff89 80be 26f2 7ebe
000000e0: 9609 9e3d 5199 d4bd e5cf fb3e afa6 acbd
000000f0: 2051 42be 0b53 2e3e 4498 5f3e 19a7 be3e
00000100: 4da0 0abe 1aff c8bd ca8e c9be 81fd 45be
00000110: ca12 83be c607 67bc 7fa5 553e bf5c e33e
00000120: 6f95 b13e 6b92 0cbc 8ba8 ce3e 50f6 e73c
00000130: 3a58 3e3f bbcb b33e e949 25be 11e1 833e
00000140: d455 523d 1197 d1bd 581c ee3e 76d4 b43e
00000150: 2d52 f43e 1d03 763d 91be 7cbe 8ecd 693d
00000160: 8079 f83d 3455 943e e5df 1dbf 9191 a4bd
00000170: 3960 42bd 9fc7 41be 6b4d bc3e c8c5 54be
00000180: a0f4 8ebd 3cb1 793e 9f7a fabe 98af b9bd
00000190: 9129 6fbf cedd 36be 366c 41be f637 80be
000001a0: ccb8 643e d82c c7bd 7c5d 023d e15d a23d
000001b0: 346c 843e 58f0 c9be 7b25 353e 2091 23bd
000001c0: c396 993d 8a63 4c3d e83d 12bf 622d 25bf
000001d0: c184 8a3c baa4 42be 4423 a1ba 9941 a63e
000001e0: 447d 8abd 1f75 a73d 6391 1f3e f88c cbbd
000001f0: 7665 18bf 37a7 dabd 4b67 23bd 4db5 583a
00000200: 042b d93d 2346 83bd ccca 8ebe 58bf 9d3e
00000210: d6a9 f73e 7b3f 5e3e fabe 763e 5bb4 0f3e
00000220: 0daf 5f3d 11f8 583e 4606 843e 7f88 b0be
00000230: dd8f 3e3e 4786 25be 361f 003e e1ac 7b3d
00000240: 95a0 3ebd 1537 563e 36fd 12bf 5647 81be
00000250: 4ff3 38bf 361f c53e 4cfc 5e3d b8e0 41be
00000260: 61ee a03e 5512 623e 96c2 b73e 872f 593c
00000270: 404b abbe f5b4 733e 562d e73e 5381 04be
00000280: adb0 ddbe e82f b3be 55b7 3ebc c816 293f
00000290: 95ea 2f3e d821 ecbe a450 dbbd 048f 243d
000002a0: 27ee e93d 6cf4 883e bd1a 893d 9d06 ea3e
000002b0: 210c 06bf 9125 e2bc a62c 9d3e 666b 503e
000002c0: ea39 cf3d 3416 2e3e 85bd 0f3e 26b7 63be
000002d0: 9772 e4bd 77eb 1ebe ed02 25be c603 053e
000002e0: 357a 8fbe efb7 1fbe 62ac d53d bb29 2dbd
000002f0: fd15 8a3d 5cbf 34be 0421 87be c709 183e
00000300: 46fa e0bd c8cf 7a3e 9616 aa3e ddec afbe
00000310: e238 54bd 3f63 00bf 192f 703e a04a 92bd
00000320: 21e1 803e dd1f 5a3e 5af1 7b3e c0f3 46be
00000330: 99fc 38be 8f36 8ebc 794f 9b3e 50c4 9f3e
00000340: b39e 43be 4d0d 363e e2f7 2dbf 994a ed3d
00000350: 1954 52bf 300e 00bf bbb3 df3d 94e2 91bd
00000360: 06a7 9b3e 281b 6c3e 9235 80be 621a 513e
00000370: 4f04 b7be b0e6 90be 3437 253e 4d6a afbd
00000380: dcf1 59be bcf2 c1bc 5b7c 103e 56b1 d7be
00000390: cab5 9cbe 6eca 423e de5a 1d3e 93e6 aa3e
000003a0: d93a dabd 5e41 03be f759 343e 84d5 223d
000003b0: 93c3 ec3e 327d ac3c 53d0 6e3d 2f19 883e
000003c0: ed6b 073e 7d78 a73b 56dd d83e af5b 863e
000003d0: 8c15 dd3d 1461 5abe 244e 99be f618 9bbe
000003e0: 82f9 82be 6258 2ebe d74c 9fbe 4504 c53d
000003f0: 7acd 573d eac5 e13e 3449 0cbe 07bc 403c
0.035935186 0.05556331 0.24792479 -0.38941884 -0.3236122 -0.33442965 -0.3288755 0.07672657
-0.3774029 -0.1955274 -0.3621749 -0.15785068 -0.29783466 0.097445436 -0.24828519 -0.068474
0.31771478 -0.120878324 -0.5360656 -0.30285212 0.038636573 0.18476583 0.16026738 0.15705727
-0.13537835 0.2388188 0.5089561 -0.4986707 0.17939606 -0.08089655 0.01690454 0.04622198
-0.49960586 -0.12852171 -0.070164025 0.11358498 0.3421128 -0.0334943 -0.15868494 0.24393189
-0.23877388 0.2393719 0.07039068 0.2528462 0.06117358 0.33710635 0.039102957 -0.2367064
-0.21780285 0.35098827 -0.45315063 -0.34387127 -0.25232527 -0.2460963 -0.25105283 -0.2489706
0.07716672 -0.10380805 0.49182048 -0.0843023 -0.18976259 0.17023866 0.21835428 0.3723686
-0.13537712 -0.09814282 -0.39366752 -0.19334985 -0.25600272 -0.014100974 0.20863913 0.44406697
0.3468432 -0.008579831 0.40362963 0.028315693 0.74353373 0.35116372 -0.16141476 0.2575765
0.051351383 -0.10233892 0.46506 0.35318345 0.47718945 0.060061563 -0.2468207 0.057080798
0.12132549 0.28971255 -0.6166976 -0.08035577 -0.047455046 -0.18923806 0.36777815 -0.20778573
-0.06980252 0.24384016 -0.48921677 -0.09066695 -0.934228 -0.1785805 -0.18888935 -0.25042695
0.2233612 -0.0972535 0.031827435 0.07928062 0.25863802 -0.3944118 0.17690079 -0.039933324
0.07499459 0.049899615 -0.5712571 -0.64522374 0.016909005 -0.1900815 -0.0012293835 0.32471922
-0.06762174 0.08176636 0.15582804 -0.09938997 -0.5952982 -0.10676425 -0.03989343 0.0008266762
0.10603908 -0.06409862 -0.27889097 0.30810046 0.48371762 0.21703903 0.2409629 0.14033644
0.0546103 0.2118838 0.25786036 -0.34479138 0.18609567 -0.16164504 0.12511906 0.061444167
-0.04653986 0.2091945 -0.5741762 -0.25249738 -0.7224626 0.38500375 0.054439828 -0.1893338
0.3143187 0.22077306 0.35890645 0.01325596 -0.3345585 0.23799498 0.45151776 -0.12939958
-0.43298855 -0.34997487 -0.011640389 0.66050386 0.1717933 -0.4611957 -0.1070874 0.040175453
0.11422377 0.2674898 0.06694553 0.4570817 -0.5236226 -0.027605804 0.30698127 0.20353469
0.10118468 0.17000657 0.1403714 -0.22237834 -0.11154669 -0.1551951 -0.16114397 0.1298972
-0.28022924 -0.15597509 0.1043327 -0.042276125 0.06742475 -0.17651123 -0.26392376 0.1484748
-0.10985236 0.24493325 0.33220357 -0.343604 -0.05181206 -0.5015144 0.23455466 -0.0714314
0.2517176 0.21301217 0.24603787 -0.19428921 -0.18065108 -0.01736 0.3033407 0.31204462
-0.19103508 0.17778511 -0.67956364 0.11586494 -0.8215957 -0.5002165 0.10922953 -0.071232945
0.30400866 0.23057234 -0.2504087 0.2042022 -0.35745475 -0.28301 0.1613434 -0.08565197
-0.21283668 -0.023675315 0.14109938 -0.42127484 -0.30607444 0.19022533 0.15366694 0.3337904
-0.106557555 -0.12817904 0.17612444 0.039754406 0.4624296 0.021055792 0.058304142 0.26581714
0.13224764 0.005110799 0.42356366 0.26241824 0.10795125 -0.21326095 -0.2994243 -0.3029248
-0.25580984 -0.17025903 -0.31113312 0.09619955 0.052686192 0.4409631 -0.136998 0.011763579

bias f4 [400]
00000000: f21c 2d3e 8993 5a3e bb03 07be 3504 873e
00000010: 5fea 873c 30a8 823d 7d83 b63d 4406 233d
00000020: e94c 17be 5a1d 2b3e 0841 3e3d f98b cebd
00000030: 8736 ba3b 6416 823e 3dd0 b2bc b21b a73d
00000040: 54ac 773e 0a92 983d b41e 1a3c f459 3c3d
00000050: bf66 a5bd 8d39 1ebe 81e8 55be 0011 2a3e
00000060: b396 5dbe 806d d4bc 6836 f53d df4d 8c3c
00000070: 76f9 96bc 54b4 2f3e abd6 4c3e 9c1f a53e
00000080: f9d8 5c3e c612 44bd c561 943e 0ccc 053e
00000090: a71d 4e3e 1d06 a13d 6996 debc 7e2f 2fbd
000000a0: 0731 7d3d b57a 06bd d17d dfbd 1a5f a1bc
000000b0: d0a8 9ebd ddef 8fbe 0fb8 283e 9631 dd3d
000000c0: 9f0d 25ba 050e 1a3e f391 a33e b803 19be
000000d0: bb25 81be 8a66 dc3c 327f 01be db4f 833d
000000e0: 47bf a73c c20a 6a3e 7c83 b8bc aef4 9f3e
000000f0: a380 353e b296 a53e 301a 4c3e 4f94 713d
00000100: e646 713d ebd1 c93d c4bc 54be 74c9 e5bd
00000110: e5e3 3ebe ad29 8abd d5d2 c9bc 668d 833e
00000120: 1e4b cb3d 9677 3dbe e37f 7a3e 2ae6 8b3e
00000130: 0928 173e 5863 113e 2215 e63d 3d67 1cbe
00000140: 9330 d5bd 5d13 913e 0f57 7ebd 4f44 49be
00000150: b416 023e 9fbc 46bd 536e 083e 75a3 7a3e
00000160: 0df7 253e 8432 6dbe dc16 fd3d cf62 a7be
00000170: b045 0dbb da1d 8a3d a0bf 913e 6692 2f3b
00000180: e68b 123e b1a5 663a d47b 3b3e b465 83bb
00000190: a47b 0e3e 266f ae3c e393 9bbe e128 8e3e
000001a0: 619e 1b3e 1675 31be 040f 143e 3efa 57bd
000001b0: c0c7 d5bd b01a 2a3d 12d0 29be 0a7c 323e
000001c0: 8d34 f53d 7e8b 5cbe b7ff 9a3e 15ee c2bc
000001d0: ebfb 553c eefc 783d 869c 063e b0fd 8bbd
000001e0: 41af 42bd ab97 ac3e 3bd5 b83c c217 a2be
000001f0: e54a 963e d853 6e3e 6e37 403e deb8 a03e
00000200: e27f 80be 3ff8 debd c3dc bf3c f97d 47be
00000210: de2e 6db9 6e64 2cbe 71c8 42bd 8232 2abe
00000220: 76e3 983d f1b4 b2be ead2 0e3e e6a9 ed3d
00000230: 5a1b 4e3d f2f9 2ebe 6e48 343e 83cc 4fbd
00000240: eea0 23be b954 05be ab25 38bd af91 773d
00000250: 8be3 f3bc 63e4 a13d 4cea bebd 6f29 42bd
00000260: f647 9b3e 20a3 c83e 56a3 973e 9fd8 16be
00000270: a564 e93c d797 bfbe eaa3 25be 6704 313e
00000280: 4113 243d 036c 803e 5f79 893e fb34 823e
00000290: 5405 82be 8356 7b3a bf35 583e efa2 54be
000002a0: 5465 27bd 4b51 88bc 3be0 a5be 34ae 75be
000002b0: 7d29 243d c933 72be 82bc 243e 53de 46be
000002c0: 2613 333d ddbf 153c a840 183d c4eb a53e
000002d0: d592 693e c7ac 053e f185 e93d 1b1e ee3d
000002e0: bab6 58bc 23f5 463d c677 76be 38f5 903c
000002f0: 2ee9 753e 6512 e1bc 4930 dbbd 6c25 ff3d
00000300: 6400 2c3e 61d4 a33c ee7a 2dbc 3dfa 713d
00000310: 64cf 66bd 2e31 56bd 3b88 b03d 5fe4 323e
00000320: 31be 8bbd a511 0fbb a82b 8ebd 08cf 0cbe
00000330: ac74 babb b56b 283e e0b7 b33e 74cd 05be
00000340: 5c31 e53d 2920 313d 2429 aa3d a91c 0f3e
00000350: 9ec6 8c3e ada7 b33e 5488 5dbd 063c 8a3e
00000360: 237f 94bd 5970 e3bd d75c 353d 4ad8 773e
00000370: 5bff 723e 82d7 38be b708 f43c 34e3 bf3d
00000380: 0346 693e dcff 563e e82a 7abc a20f 043e
00000390: 1bc4 d33d 78f2 333d c168 d6bb 8407 8ebd
000003a0: 1fac d53d 9692 7b3e 8c5d 2c3d 026c 723e
000003b0: 7932 093e dc7a 203e c0d4 91bb 74c6 553e
000003c0: 2022 65bd 3f04 7b3d 29ce b03e 8c3e ae3c
000003d0: fece 6dbe 78e2 9f3e d7f7 31bd c899 19be
000003e0: 26d1 7a3e 5f5c fe3d 4584 6f3d 5a87 703d
000003f0: 655f dc3d 09ba 07bd 3f8f 843e b732 8fbe
0.16905573 0.21345343 -0.13185017 0.26370397 0.016591249 0.063797355 0.08911798 0.039800897
-0.14775433 0.16710415 0.046448737 -0.100852914 0.0056827697 0.25407708 -0.021827811 0.08159579
0.24186832 0.0744973 0.009406734 0.045984223 -0.08076238 -0.15451641 -0.20889474 0.16608047
-0.21639518 -0.02593112 0.11973268 0.017126976 -0.0184295 0.17158633 0.20003764 0.3225068
0.21567143 -0.047869466 0.28980842 0.13066119 0.20128499 0.07862494 -0.02717133 -0.0427699
0.061814334 -0.032831866 -0.109126695 -0.019698668 -0.07747042 -0.2811269 0.16476463 0.108004734
-0.000629628 0.1504441 0.31947288 -0.14942825 -0.252241 0.026904363 -0.12646177 0.064117156
0.02047695 0.22855666 -0.022523634 0.31241363 0.17724852 0.32341534 0.19931865 0.05897933
0.058905505 0.09854492 -0.20775133 -0.11220065 -0.18641622 -0.0674623 -0.024636665 0.25693816
0.09926437 -0.1850265 0.24462847 0.2732404 0.14761366 0.14198053 0.112344995 -0.15273757
-0.104096554 0.28335086 -0.062094744 -0.19654964 0.12703973 -0.048519727 0.13323335 0.24476416
0.16207524 -0.23163801 0.12357876 -0.32692572 -0.002155643 0.06743975 0.2846651 0.002679014
0.1431118 0.00087984937 0.18308955 -0.0040099267 0.13914353 0.021293234 -0.30386266 0.27765563
0.15197136 -0.17329821 0.14458853 -0.052728884 -0.1043849 0.041529357 -0.16583279 0.1743013
0.11972914 -0.21537587 0.3027322 -0.023795167 0.01306055 0.060788088 0.13145646 -0.068354964
-0.047530416 0.33709463 0.022562614 -0.3165875 0.29354015 0.23274171 0.18771145 0.31391042
-0.25097567 -0.10887193 0.023420697 -0.19481649 -0.0002261954 -0.16835186 -0.047554437 -0.1662083
0.0746526 -0.34903672 0.13947645 0.11604671 0.050319053 -0.17087534 0.17605755 -0.050732147
-0.15979359 -0.130206 -0.044957798 0.06044167 -0.029771587 0.079048894 -0.09322032 -0.047402795
0.3032834 0.39186954 0.29616803 -0.14731072 0.028490374 -0.37420532 -0.1617581 0.17286836
0.040057424 0.25082406 0.2685041 0.25431046 -0.2539469 0.00095877814 0.21114253 -0.20765279
-0.04086812 -0.016640326 -0.32397637 -0.23992234 0.04007863 -0.23652567 0.16087535 -0.19420747
0.043719433 0.009139982 0.037171036 0.32406437 0.22809918 0.1305419 0.114025004 0.11626836
-0.013227159 0.048573624 -0.24069127 0.017695054 0.24014732 -0.027474592 -0.10702569 0.124583095
0.16797024 0.019998731 -0.010588391 0.059076536 -0.056350127 -0.052292995 0.08619734 0.17469929
-0.068233855 -0.0021830585 -0.069419205 -0.13750851 -0.005690178 0.16447337 0.35101223 -0.13066655
0.11191055 0.04324356 0.08308628 0.13975777 0.27495283 0.35088864 -0.05408509 0.2699892
-0.07250812 -0.11105413 0.044277992 0.24203601 0.23730223 -0.1805096 0.029789312 0.093695074
0.22780614 0.2099604 -0.015269019 0.12896588 0.103401385 0.043932408 -0.0065432494 -0.06935027
0.1043322 0.24567637 0.0420814 0.23674014 0.1339816 0.15671867 -0.0044504106 0.20876485
-0.055940747 0.061283346 0.34532288 0.021270059 -0.23223493 0.3122747 -0.04344925 -0.15000069
0.24493846 0.12419962 0.05847575 0.05872283 0.107603826 -0.0331364 0.25890538 -0.2796838

weight f4 [200, 400]
00000000: f79f 543b ae2b 163d c6c2 61bc 6d24 f43c
00000010: c991 b73d e66d e03c 66dc 26bd c52c 24be
00000020: b505 0a3e bc21 183d d697 963e dfdb babe
00000030: a44b 2fbe 0e1b 1fbc 8737 c4be bbcb 78bd
00000040: 42fe 773d 18cd 45bc 1d92 9abe 15ae 8c3c
00000050: f469 963c ecc3 3fbd afc6 cabd ebf3 5e3c
00000060: 2703 84be d4c5 78bd 8734 9ebd b32e 24bd
00000070: 1371 66bd f1a7 8d3c 9eb7 413d 21d1 17bd
00000080: e0ed 6cbd cded 6d3b 1079 42bd 851b 0a3d
00000090: 9701 133d 4654 83bd 21aa 5a3e c2b4 003e
000000a0: ece7 3d3e 5187 8b3e f55c 8bbc 190e 03bd
000000b0: 0941 b93d 5882 d5bd b2ee d9bd e153 1c3c
000000c0: eb03 983d e4c3 d13d 5b2b 803c 27ae 343e
000000d0: 5261 59be eb20 e2bd 6002 083e abf7 40be
000000e0: 00a8 fd3c ed0e 99bc e8f7 6dbe 23e3 02bd
000000f0: d529 81bd ca93 333c 81ac c2bd 99e2 15be
00000100: 3fd6 aa3d 6dad 9a3d 15c2 d63c 8b6d 09bd
00000110: 213e d8bd 8b72 debc 0b53 893d c8af 203d
00000120: 717e 983d 3e2c db3d e026 77bd 2835 03bd
00000130: 86c2 ca3d 5a2e 403d 69c6 113e 69c0 9cbe
00000140: 62eb ecbe b720 693d de49 28bd cf9b a2bd
00000150: 1e69 41ba a00c 513d 3f88 6dbd 8c36 60bc
00000160: 809d 433d e8a1 38bd ee50 a5bc 48e9 013e
00000170: 6372 6bbe 1317 52bd c844 533d 1ccc 88be
00000180: e37c d13c 7837 a1be 6aab b3bc 00f7 83bd
00000190: 9949 8f3b 49bd 43bd 473b e23b b315 913a
000001a0: e52d 713d df43 32bd 9aa5 1bbd 7659 d7bc
000001b0: 3ae2 e6bd ddaf ffbd a71d 72bd a703 a1bd
000001c0: 8421 48bd a958 acbe a8bb 39bd f6b6 c9be
000001d0: 773a 723e c04a c1bd 9e17 a5bd d713 82be
000001e0: d712 98be 27d9 323d 2a85 83bd f634 913b
000001f0: 4c61 83bb 2387 c93b 866b 083e 9c25 01bc
00000200: 63d6 7cbe e65b 0c3d e58b b23c c80e 853d
00000210: c55e a93d 2c76 81bd 8bf6 95be d8fd f9bc
00000220: a4eb f43d 6eaa f33d da3f 8dbb 6892 81bb
00000230: 0c94 003e c5a4 a43d 76e1 983d a58b f4bc
00000240: 2b94 14be ff63 8e3e b22d b8be b8fd af3c
00000250: 13d8 003e 7586 1bbd 886e d63a 4de3 41be
00000260: 47c4 eabc 847e 763d 601c 99bd 9b6d 30be
00000270: b52e 0fbd e6f6 77be 4fd4 6c3d fffc ce3c
00000280: 785f 963c b7cc 1cbd 109b 4f3d f7e2 8dbd
00000290: 3366 6abc 128c 1abe 7a5a 2bbd ff92 c93d
000002a0: 64d6 813e d652 3dbe f913 5ebe 0ee5 9fbe
000002b0: d076 84bd 7d5a fbbc 59d9 5f3c f4f3 f8ba
000002c0: 82c1 cdbd 0683 be3d 667f 3ebe ba5d 663c
000002d0: ebeb 10bb a49e 96bd f077 6d3c b728 223d
000002e0: 0bd3 a6be c6bb 193e b044 81be 4993 2a3e
000002f0: 7e22 8fbc c21f 7fbc c4d5 0b3e d5af bbbc
00000300: c44c 61bd 9450 71bc 7a56 73be 8f69 593e
00000310: 9612 f2be 137d babe 6ac4 a6ba 7c7b b63c
00000320: 6dea 593e c3bb f0be f9a4 b2bd 0f74 9c3d
00000330: aad8 50be 9bae 88bc 14dd bebd 30d3 d03d
00000340: 54d8 aa3d 8ad7 883c 3b02 d83d de9d 2e3e
00000350: 027a 893d d745 8cbd 6c3e e4bd d999 053b
00000360: 4367 b8bb f12d 0bbf 4de8 d83d 2a3e fcbc
00000370: 6008 aa3c 23b5 eb3d 2c42 923d 61ec 1abd
00000380: 7d92 a2bc a0fa 093c 9230 353e 1622 a0bd
00000390: d310 a0bb ba94 5abe 5af1 9ebe 9f0c d7bd
000003a0: 2cda 083d 4295 e53b 2c13 663d b3f7 cc3d
000003b0: c85e 66bd e7f9 b53a 95bb 68bd 8478 bd3c
000003c0: b6b6 7cbe 4a51 023e fd15 d4bc a4c5 88be
000003d0: 364f 863d 4411 7c3c b1c7 56bd 7bb6 44be
000003e0: 6313 c3bb fbc1 043c 961e 8bbd c0d0 adbd
000003f0: 1950 98bc e7c7 c13b c612 55bd e796 e73d
0.003244398 0.03666275 -0.013779348 0.029802525 0.08963353 0.027396154 -0.040737532 -0.16032703
0.1347874 0.037141547 0.29412717 -0.36495873 -0.17118698 -0.00971104 -0.38323614 -0.060741168
0.060545214 -0.012072824 -0.301896 0.017172853 0.01836107 -0.046817705 -0.09901177 0.013607959
-0.25783655 -0.06073554 -0.077248625 -0.0400836 -0.05626018 0.017291995 0.04729425 -0.037064675
-0.057844043 0.003630507 -0.047478735 0.03371765 0.035890188 -0.06412558 0.21353962 0.12568954
0.18545502 0.27251676 -0.017012099 -0.031995866 0.090456076 -0.10425252 -0.10641231 0.009541483
0.07422622 0.10242441 0.015645673 0.17644559 -0.21228531 -0.11041435 0.13282156 -0.18844478
0.030963898 -0.018683875 -0.232391 -0.031954896 -0.06306807 0.010960529 -0.09505559 -0.14637221
0.083416454 0.075526096 0.026215592 -0.033551734 -0.10558725 -0.027154228 0.06705292 0.039230138
0.07445992 0.10701798 -0.06033981 -0.032033116 0.09900384 0.046919204 0.14235844 -0.30615547
-0.46273333 0.056915965 -0.04108607 -0.079398744 -0.00073780294 0.05103743 -0.057991263 -0.01368488
0.047757626 -0.04507628 -0.020180192 0.12686646 -0.22992854 -0.051291537 0.051579267 -0.26718223
0.025572246 -0.31487632 -0.021932323 -0.06443596 0.004372787 -0.04778794 0.006904039 0.0011069089
0.05888166 -0.04352176 -0.037999727 -0.026287775 -0.11273618 -0.12484715 -0.05911031 -0.07862025
-0.048860088 -0.33661392 -0.04534498 -0.393974 0.23655115 -0.094380856 -0.08061145 -0.25405762
-0.29701874 0.043664124 -0.064218834 0.0044313623 -0.0040094014 0.0061501428 0.13322267 -0.007882502
-0.24691157 0.03426733 0.021795223 0.0649696 0.08270029 -0.063213676 -0.2928966 -0.03051655
0.119590074 0.11897741 -0.00431059 -0.0039542206 0.12556475 0.0803924 0.07464878 -0.029851744
-0.14509647 0.27810666 -0.35972363 0.021483287 0.12582426 -0.037970025 0.0016359845 -0.18934365
-0.028658045 0.06017925 -0.07476115 -0.17229311 -0.034956653 -0.24215278 0.05781966 0.025267122
0.01835607 -0.03828117 0.05068499 -0.06928056 -0.014306593 -0.15092495 -0.041834332 0.098424904
0.2535888 -0.1848863 -0.21687306 -0.31229442 -0.06467974 -0.030682797 0.01366266 -0.0018993602
-0.10046674 0.093023345 -0.18603286 0.014060432 -0.0022113274 -0.07354477 0.014493927 0.03958961
-0.32582888 0.15013036 -0.25247717 0.16657747 -0.017472502 -0.0155715365 0.13655764 -0.022910992
-0.05500485 -0.014728684 -0.23763457 0.21231674 -0.47279805 -0.3642355 -0.0012723331 0.022275679
0.21280833 -0.4701825 -0.08722872 0.07639324 -0.20395151 -0.01668482 -0.09319511 0.10196531
0.083420426 0.01670434 0.105473004 0.17052409 0.06712724 -0.068492584 -0.111447185 0.002038589
-0.005627544 -0.54366976 0.10591183 -0.03079136 0.020755947 0.115091585 0.071415275 -0.037823085
-0.019845242 0.00842157 0.1769431 -0.078190014 -0.004884818 -0.21345797 -0.31043512 -0.10500454
0.03341119 0.0070063183 0.056170627 0.100081824 -0.056242734 0.0013883681 -0.056819517 0.023128755
-0.24679074 0.12726322 -0.025889391 -0.26713288 0.06558077 0.015384976 -0.052436534 -0.19210236
-0.005953239 0.008102889 -0.06792943 -0.084870815 -0.018592881 0.005913723 -0.052019857 0.11308079

bias f4 [200]
00000000: a85c 44bd 9b23 413c 2534 1e3d 8390 ce3c
00000010: 11f7 95bc 0245 3db9 1077 42bc 14ef e53b
00000020: 5ab2 a43c 6ea1 25bd 27a6 bb3c a044 6b3d
00000030: c1de b23c d67a 483c 4c92 d53c f847 01bd
00000040: 1372 ee3c 1ea4 2ebc 4a14 e2bb 355a 7b3c
00000050: 2124 733c 7947 2c3c fa41 803d f753 ec3b
00000060: 10d6 0f3d dc40 5dbd 66c9 6f3d ccd5 753d
00000070: 9dcc a23b 8cde b0bc 1332 15bc 526f 953c
00000080: 8a81 61bc d26d 573d bc0c 0b3b 379c d93c
00000090: bce7 773c 49af 2bbd 5c17 733d b083 373d
000000a0: 3c69 b33c 90bd c53c 64d3 1fbb da32 33bd
000000b0: cc4b 5bbc 3c2d b03c d057 1fbc 2f50 443d
000000c0: 4d40 6bbc 941d 10bd 5c2a 843c 9791 d93c
000000d0: 1ee1 053d f5a2 00bd 0c02 8b3d 5354 183d
000000e0: a696 1dbc c59a 033d 8f83 713d 4273 78bc
000000f0: 67f8 a3bc 6613 bc3c ca80 40bd c7dd ca3c
00000100: 4514 76bd dd33 3d3d a092 db3c 6197 87bc
00000110: f031 983c ab40 83bc 05dc af3c 569b 83bc
00000120: dc50 973b 03ae 943c 5a07 88bc 5227 e6bc
00000130: 2bd2 203d c6c6 20bd 56d0 e23c d235 c83c
00000140: 7e82 e3bb 5dc6 d8b8 27b2 8e3c 6006 7dbc
00000150: 3fd8 fdbc de43 f3bc f563 5ebb 12f0 0dbc
00000160: 1656 dcbc 668d de3c d070 74bc c9b9 553d
00000170: c7be 673c 16c6 4abd 942d fa3c 4195 0d3a
00000180: 5d1e 7a3d 0b36 e1bc 33c2 a1bb 417a 273c
00000190: c17c f9bc 5001 a6bc 6953 67bc ff16 803c
000001a0: e111 fc3c 78aa 293d 49c8 58bd 1821 d03c
000001b0: e74c 8d3c 930b 693d 87a8 acbc 7862 723c
000001c0: 797c 453d 4e7e 933c 492e 323c f885 72bc
000001d0: f459 82bc 0ccb a7bc 2ab5 983c 0d2d 5f3d
000001e0: bbd4 d03c f949 293c b7e5 423c c7cf 69bb
000001f0: 8dc9 323b 93c3 303d b9a8 ddbc d2d3 f43c
00000200: e021 f7bb 354e 413c a2aa 0cbd 2dbb 51bb
00000210: 642c b1bb b9f1 0dbd 31ba e93c cb5c 163d
00000220: 3ac0 743d c07e 51bc 9a40 e0bc f440 5fbd
00000230: d90b d8bb 516c 793c 8731 8c3c 560c d93a
00000240: bf80 e93c 8837 e0bc b34d 9c3c a003 11bd
00000250: 72e4 d23a ef62 023d d795 893b fbdd 153d
00000260: c6ef c9bc e43e 483d 0a94 14bd c5a9 6c3c
00000270: 6d0d 983c f72a 32bc 4288 c83c fe83 17bd
00000280: dccd 373d cf3c 82bc 3d22 293d 9378 453d
00000290: 4633 db3c 3590 ae3c c40d fa3c ff49 923c
000002a0: 6c47 173d 33e3 cc3c 1469 633d 3e63 68bc
000002b0: 40d6 dbbc 1a1f 1ebd 35d6 d1bc 1712 043d
000002c0: 05de d1bc a8b7 aa3c a39b 16bd c41b 54bd
000002d0: 2859 32bd 6e8a 593b 2204 22bd 8fbc 4c3d
000002e0: f64c 92bc a35d 013b d6e4 40bc 879f a9bc
000002f0: d27a 1bbc d590 bd3c 9053 f23c 9759 59bd
00000300: 0968 803d 9fb9 933d 1a07 cbbb 74b1 9fbc
00000310: 86ad bd3c fb3c a83c db7e 9c3c ad33 183d
-0.047939926 0.011788274 0.038623948 0.025215393 -0.018306287 -0.00018050152 -0.011869207 0.0070170257
0.020104576 -0.040437154 0.022906376 0.057438493 0.021834733 0.012236318 0.026070736 -0.031562775
0.02910713 -0.010659246 -0.0068993913 0.015341331 0.014840157 0.010515087 0.06262584 0.007212158
0.035116255 -0.054016933 0.058541678 0.060018346 0.0049682395 -0.021590494 -0.009106177 0.018241558
-0.013763795 0.052594967 0.0021217307 0.026563747 0.015130933 -0.04191521 0.05934845 0.04480332
0.021900766 0.024138242 -0.0024387473 -0.043749668 -0.013384771 0.021505944 -0.009725526 0.04792803
-0.014358592 -0.035184458 0.01613348 0.02655868 0.03268539 -0.031405408 0.067875 0.037189793
-0.009618437 0.03213002 0.058963355 -0.015164198 -0.020015908 0.022958469 -0.046997823 0.024763955
-0.060077924 0.04619204 0.026803315 -0.016551675 0.0185785 -0.016022047 0.021467218 -0.01606528
0.0046177935 0.018149382 -0.016605068 -0.028094921 0.03926293 -0.039252065 0.027687233 0.024439726
-0.006943046 -0.00010336631 0.017418934 -0.015443414 -0.030986903 -0.029695448 -0.003393409 -0.008663194
-0.026896518 0.027167033 -0.014919475 0.05217913 0.014144606 -0.049505316 0.030539311 0.0005400964
0.061064113 -0.02749159 -0.0049364804 0.010222019 -0.030454995 -0.020264298 -0.014119008 0.015635965
0.030770244 0.041422337 -0.05292538 0.025406405 0.017248584 0.056895804 -0.021076454 0.014793985
0.04821441 0.018004563 0.010875293 -0.014802448 -0.015912034 -0.020482562 0.018641073 0.054486323
0.025492063 0.010332578 0.011895589 -0.0035676823 0.0027280778 0.043155264 -0.027057992 0.02988616
-0.00754188 0.011798431 -0.034342416 -0.0032002435 -0.005406903 -0.034654353 0.028531166 0.036709588
0.059753634 -0.012786567 -0.027374554 -0.054505304 -0.006593209 0.015223579 0.01711346 0.0016559463
0.028503774 -0.02737023 0.019080019 -0.035403848 0.001608981 0.03183263 0.0041987705 0.03658865
-0.024650466 0.048888102 -0.036273994 0.014444773 0.01856109 -0.010874501 0.024479035 -0.036991112
0.044874057 -0.015898136 0.041292418 0.04821069 0.026757848 0.021308998 0.030524142 0.01785755
0.036933348 0.02501068 0.055520132 -0.014183817 -0.02683556 -0.03860388 -0.025614837 0.032243814
-0.025618562 0.020839527 -0.03676952 -0.051784292 -0.043542057 0.0033194083 -0.039554723 0.04998451
-0.017858963 0.001973965 -0.011773309 -0.020705951 -0.009489732 0.02314035 0.029580861 -0.053063955
0.06269843 0.07213139 -0.006195915 -0.019493796 0.023154031 0.02053689 0.019103458 0.037158657

weight f4 [2, 200]
00000000: aa8f 4c3c ba9a 1abd c8a7 87be e813 e4bd
00000010: 1952 15bf a3ae 68be 9fa4 df3d 52b5 87be
00000020: fae4 d83d 79df b4bd 8b85 3f3e b75b 033e
00000030: 1471 a8bc 18c2 f3bd 8b96 64be 9553 363e
00000040: c5b8 e7bd ace2 53bd 3785 cbbd 2dad 0ebe
00000050: bfcd febd 3887 9dbd c6d6 cc3e d327 423e
00000060: e994 96be 0491 503c 3db5 aabd 9d9d e53e
00000070: d476 c6bd ad28 133e 856d 173e e428 fdbc
00000080: 8f9b b23e adaf 223e 46ef db3e abfd 403e
00000090: e595 d23e 53c9 7cbd 9a39 743e 311c 013f
000000a0: 1414 f9bc 3c68 14bd c901 00be 1ff9 873d
000000b0: 9e37 2d3e f2f4 e7bc 5d5a 0d3e 33fd 983e
000000c0: 33a4 9c3e 4c7a babe bcc4 ce3e 406d ba3e
000000d0: ed46 003e 3744 0b3f a882 c13e f88f 7abd
000000e0: cbd4 7b3e 1756 a23d 7c1a ee3e ec76 af3d
000000f0: 08f9 01be bdc6 a939 0b75 233e d556 babd
00000100: 66fe 9ebe 9235 d03d cc26 85be a72e 693e
00000110: 7ed6 cbbd a105 ec3e f336 28be ef8c bcbd
00000120: dfeb 493e 3cf7 a4bd 1b59 303e 59fc 6cbb
00000130: 1fc5 03bf f313 843e 83f3 0bbe 9e9e 163e
00000140: a27f b3bd 6e47 06bf 2c14 26be 9330 29be
00000150: 028f 0bbe c58f bb3d d260 07be f452 ea3e
00000160: 7ea2 2c3e a87f 19be 5615 683e b1d3 b93d
00000170: 29eb aebd 3540 893e cb09 073f aa1e d1be
00000180: 97df 4d3e eba2 81be 078e cb3e 54d2 fbbe
00000190: 88d4 293e bda3 af3e efe0 57bd 9c8a 00bf
000001a0: 7188 b03d d40c b1bd ce7c 3d3e a18c d93d
000001b0: f068 cc3d 9d70 233e ffb9 4dbe b21b 1a3e
000001c0: ed61 263e e924 2a3e d3fb 223e b04c a8bc
000001d0: 73c2 38be 066d 383e 7c72 9f3e 9e9c a53d
000001e0: 632e 533e c612 2cbe 405b 313e 6e99 d43e
000001f0: 0e2b 93bd e45a d0bd a055 a53e c4f1 f33d
00000200: 04e2 85bd e8ec a53e 2c64 e63a f653 f53e
00000210: 579c b9be 012e bd3d a258 a8be b515 9a3e
00000220: 83f2 f03d b075 2d3e 83bd 85be 0c4e e13d
00000230: e0a4 22be 54a4 b9bd ab21 c03e 5470 313e
00000240: 2cd3 c93b 5a30 59bd 3eda 30be 6eee 22be
00000250: e790 2ebd cab0 4dbc f742 b03b 42c9 c5be
00000260: 246f 05be 310a 1c3e 557d 80be 32ff b03e
00000270: d3fc c2bd 4faa b33d eebd 363e 9414 4ebf
00000280: 39d0 f2bd 52d1 2a3e 4ef1 09be 7a68 8a3e
00000290: 19bd 7e3d e3ec 5f3c 71b7 9abe 2eff 113e
000002a0: b55e e53e 2307 06be ad08 ae3d a6c5 943e
000002b0: bf22 13bd 13d9 3f3e cba5 88be 8153 a43d
000002c0: 237f f5bb 9884 79bd 08a4 d9bd 6ecc a2be
000002d0: 6364 7abe a4de 9fbd 24a4 88bd 1047 ddbd
000002e0: 312c 143f 0015 d0bc 3a62 9f3d 4d5b 853e
000002f0: 79e7 15bd a763 eabe 3195 e43d 7cfe c1be
00000300: b05c 953d 8ba4 c13d 53b1 963e d523 3dbd
00000310: 45c3 a9bc bbfa 0e3f 5ad2 ae3e 0f7c 483e
00000320: 6704 273f 8c06 76bc 4dc6 90be cef1 31be
00000330: 7e2b a1be 168b 0b3f c690 753e 0e3a f33d
00000340: d49b d9bd 81fd c53e 4fa2 babd aa58 18be
00000350: 1df4 443e 40d7 c23c 76c1 82be 6fef 4b3d
00000360: 52aa cb3e 2c1a 0b3f 60f7 0fbe a7fa a6bd
00000370: b4b5 ad3d 6be9 343f 6771 17be f3a8 7dbd
00000380: 6abb 4e3e ab0c eb3e 9877 0e3e 8176 87bd
00000390: 987d 3bbd d519 d3bd a69b 83bd 4e1c 22be
000003a0: d352 813f d4de 32be 6221 5b3e a61b ef3b
000003b0: b374 63bd 5099 f13e 99b6 23bd 3bbf 813e
000003c0: 8f9e 25bd 7b3f 243f a3ec 06bd 6738 e8bc
000003d0: b649 733d fb98 153f d2ed d4bd 6a68 5a3e
000003e0: f9eb b6be c783 4fbd 594e 073e f90a 643f
000003f0: c632 c8bd ce38 543f d4b5 f0bd 17ad 273f
0.012485424 -0.037745215 -0.26495194 -0.11136609 -0.58328396 -0.22722869 0.10920071 -0.26505524
0.10590549 -0.088316865 0.18703286 0.12827955 -0.020561732 -0.11902255 -0.22323053 0.17805322
-0.11314539 -0.051729843 -0.09937518 -0.13933249 -0.12441587 -0.076918066 0.4000761 0.18960504
-0.29410484 0.012729887 -0.0833535 0.44846812 -0.096906334 0.14370985 0.14787872 -0.030903287
0.34884307 0.15887327 0.4295599 0.18846767 0.41129985 -0.061715435 0.23850098 0.5043364
-0.030405082 -0.03623222 -0.12500681 0.06639313 0.16915748 -0.028315041 0.13804002 0.29880676
0.30594024 -0.3642143 0.4038447 0.36411476 0.12527056 0.5440096 0.37794995 -0.061172456
0.24592893 0.079265766 0.4650458 0.085676044 -0.12692654 0.00032382263 0.15962617 -0.09098593
-0.31053466 0.10166468 -0.26006162 0.22771703 -0.099530205 0.46098045 -0.16427211 -0.092065684
0.19718884 -0.08054969 0.17221491 -0.0036161153 -0.5147266 0.2579647 -0.13667111 0.14708945
-0.087645784 -0.52452743 -0.16218632 -0.16522436 -0.13628772 0.09158281 -0.13220528 0.45766413
0.16858861 -0.14990103 0.22664389 0.0907358 -0.08540947 0.268068 0.5274932 -0.40843707
0.20104824 -0.2531961 0.39756796 -0.49183905 0.1658498 0.3430461 -0.052704748 -0.502115
0.08619774 -0.08645025 0.1850464 0.10622526 0.09980953 0.15960927 -0.20090483 0.15049627
0.16248293 0.16615643 0.15916376 -0.02054438 -0.18042926 0.18010339 0.31142032 0.08086513
0.20623164 -0.16804036 0.17319965 0.41523308 -0.071859464 -0.10173586 0.3229189 0.119113475
-0.0653725 0.32407308 0.0017577461 0.4791562 -0.3625209 0.0923729 -0.3288012 0.30094686
0.117650054 0.16939425 -0.26121148 0.110012144 -0.15883207 -0.09064546 0.37525687 0.17328006
0.006159207 -0.053024627 -0.17270753 -0.15911266 -0.04261866 -0.012554357 0.0053790766 -0.3863011
-0.13030678 0.15238263 -0.2509562 0.345697 -0.09520879 0.08772718 0.1784589 -0.8050015
-0.118561216 0.16681412 -0.13470957 0.27032834 0.062192056 0.013667318 -0.3021808 0.142575
0.44798818 -0.1308866 0.084977485 0.29057044 -0.03592181 0.18735151 -0.2668899 0.080237396
-0.0074919625 -0.060917467 -0.106269896 -0.31796592 -0.24452357 -0.07806137 -0.06671932 -0.1080457
0.5787993 -0.025400639 0.07782407 0.2604622 -0.036597703 -0.45779154 0.111612685 -0.3788947
0.07293069 0.09455212 0.29432163 -0.04617675 -0.020722995 0.55851334 0.3414486 0.19578575
0.6524109 -0.015016209 -0.2827629 -0.17377397 -0.31478494 0.54509103 0.23981008 0.118763074
-0.10625425 0.3866997 -0.09112989 -0.14877573 0.19233747 0.02378428 -0.25538224 0.04978889
0.39778382 0.5433681 -0.1405921 -0.08153277 0.08481923 0.7066867 -0.14789353 -0.0619287
0.2018868 0.45908102 0.13912809 -0.066144 -0.045774072 -0.103076614 -0.06426172 -0.1583111
1.0103401 -0.17467815 0.21399453 0.007296997 -0.055531215 0.4718728 -0.03996906 0.2534121
-0.040434416 0.64159364 -0.032940518 -0.028347207 0.059396468 0.58436555 -0.10396923 0.21328893
-0.35726908 -0.050662782 0.13213481 0.8907924 -0.09775309 0.8289918 -0.11753431 0.6549849

bias f4 [2]
00000000: 5bdc c8bc 6f3e e93c
-0.024519136 0.028472153
