lab2/problem2/neural-network-2-actor-gamma-0_01.pth (torch, 340225 bytes, 6 tensors)

weight f4 [400, 8]
0.3897664 -0.013697468 0.1665148 -0.121198826 0.23211627 0.114175685 -0.23796761 -0.025037425
-0.4141572 0.29197383 -0.47560403 0.07727909 0.013716251 -0.26944637 0.43230212 0.4327544
-0.2864987 0.10213218 -0.26721403 -0.21353354 -0.07832556 0.20585623 0.15435264 0.38706586
0.27914953 0.30806988 -0.3174178 -0.22593388 0.22550958 0.27213466 0.28894243 0.36858416
0.18776587 -0.15732516 0.1372838 -0.11718927 -0.4461364 0.18425661 0.0031513409 0.1933925
-0.23199834 0.100566894 -0.33801958 -0.03141656 -0.13905776 0.38281244 -0.11726111 0.1609657
0.06990568 -0.07079116 0.19513501 -0.33705923 0.4091681 -0.039332706 -0.22692195 0.07107282
-0.085998155 -0.23302771 0.035490956 -0.23241644 -0.23422116 -0.1266464 0.0033028796 -0.064874664
0.032618824 -0.19665423 0.355038 0.426224 -0.011542838 0.04690931 -0.16344488 -0.3546982
-0.20217253 -0.10810398 -0.5235541 0.43708745 -0.44989806 0.066612445 -0.22864047 -0.053181317
-0.15892762 -0.23265247 0.32044193 -0.36365557 -0.44760272 0.16490218 -0.034271464 0.19509509
0.060268395 0.22241116 -0.15125845 -0.3172306 -0.37487188 -0.039393 0.15622796 0.13726999
0.09532115 0.2519764 -0.530034 0.15089427 0.04009524 -0.32107788 0.028828952 0.07739084
0.08791866 0.08993252 -0.18987375 -0.31145898 0.11508277 0.021226136 -0.3940714 -0.14538981
0.006555944 0.12032683 -0.30510548 -0.2657113 -0.3657671 -0.38544902 0.1866769 -0.18178506
0.298466 -0.003928205 0.099840574 -0.28525954 -0.354157 0.25433147 -0.28533182 0.14774558
0.30354223 -0.23363283 -0.10649068 -0.19197161 0.39056095 0.33975402 -0.002731653 0.25395104
-0.26883233 0.10526783 0.36620173 -0.20430775 -0.11885203 -0.0108711 -0.20623486 0.39884058
-0.24605425 0.15522099 0.22116967 0.21039538 -0.45654893 -0.32516736 0.04602338 -0.20005287
0.031592414 -0.122358106 -0.5001914 0.26910117 0.45776114 0.10027771 0.14558886 0.014871103
-0.1413805 -0.06496481 -0.083465405 -0.3885776 -0.27431697 -0.041510444 -0.044396207 -0.13257624
-0.34304082 0.2058374 -0.13798061 -0.3596905 -0.08815606 -0.15665862 0.02036933 -0.2428905
-0.11997727 0.094620936 0.32565477 0.1722918 -0.29376477 -0.13925232 -0.13604398 0.17750622
0.043050822 -0.34229717 -0.38011125 -0.23481217 -0.08754702 -0.3048108 0.34224418 0.43589407
0.15959466 0.19841518 0.8886203 0.06771492 -0.10179285 0.33115768 0.42003894 -0.07309193
0.0675746 -0.1993985 0.41395968 0.27473155 -0.03203065 -0.052831687 -0.041304722 0.018569686
-0.03990756 -0.106223114 -0.46843103 -0.23179407 0.3756645 0.052433055 -0.11383992 0.14433806
-0.35563278 0.005443391 -0.39575884 0.030888153 0.24647062 0.3616903 -0.063599415 0.010782349
-0.030282691 0.21118477 0.5148995 -0.14403726 -0.049681228 -0.3007704 -0.18392369 -0.17836879
0.23573838 0.279196 -0.09404762 -0.38031036 0.056964647 0.15880862 -0.23544903 0.3765634
0.1252515 -0.01016635 -0.04812527 -0.07979173 -0.1221085 -0.06638083 0.32136256 0.14230503
0.35555494 0.18850562 0.7353247 -0.29332173 -0.12818766 -0.09404537 -0.11690696 -0.27223924
00000000: 768f c73e 586b 60bc db82 2a3e 1737 f8bd
00000010: e3af 6d3e f1d4 e93d c8ad 73be 491b cdbc
00000020: 6a0c d4be 987d 953e 5f82 f3be 8044 9e3d
00000030: 20ba 603c e0f4 89be b456 dd3e fc91 dd3e
00000040: f5af 92be ad2a d13d 47d0 88be 89a8 5abe
00000050: 2769 a0bd facb 523e 9e0e 1e3e 7f2d c63e
00000060: b0ec 8e3e 56bb 9d3e 9684 a2be 365b 67be
00000070: fceb 663e 3c55 8b3e 43f0 933e 10b7 bc3e
00000080: b245 403e d919 21be 2094 0c3e ee00 f0bd
00000090: fd6b e4be c4ad 3c3e ba86 4e3b af08 463e
000000a0: f990 6dbe 04f6 cd3d e710 adbe a7ae 00bd
000000b0: 2865 0ebe feff c33e 9826 f0bd 31d4 243e
000000c0: b62a 8f3d f5fa 90bd 79d1 473e 0793 acbe
000000d0: 7b7e d13e 551b 21bd 3a5e 68be a08e 913d
000000e0: cd1f b0bd d19e 6ebe f75e 113d 93fe 6dbe
000000f0: acd7 6fbe 98af 01be 2075 583b 02dd 84bd
00000100: 519b 053d ba5f 49be 8ac7 b53e 083a da3e
00000110: 2c1e 3dbc fa23 403d 185e 27be 019b b5be
00000120: 5106 4fbe 9f65 ddbd a407 06bf edc9 df3e
00000130: 0a59 e6be 1b6c 883d ba20 6abe a7d4 59bd
00000140: ecbd 22be 733c 6ebe f710 a43e 1031 babe
00000150: 2f2c e5be 1edc 283e 3c60 0cbd 02c7 473e
00000160: fedb 763d c0bf 633e 7fe3 1abe 0d6c a2be
00000170: 35ef bfbe 8e5a 21bd 39fa 1f3e 8190 0c3e
00000180: bc37 c33d 0d03 813e 4fb0 07bf 0784 1a3e
00000190: e83a 243d 5264 a4be b22a ec3c 177f 9e3d
000001a0: b30e b43d 8b2e b83d 446e 42be 8d77 9fbe
000001b0: 84b0 eb3d 6fe2 ad3c bac3 c9be 11e1 14be
000001c0: 3fd3 d63b ea6d f63d c936 9cbe 500b 88be
000001d0: d345 bbbe 9359 c5be 3b28 3f3e dd25 3abe
000001e0: 89d0 983e 2cb8 80bb 3779 cc3d 8a0d 92be
000001f0: 1154 b5be bc37 823e 0317 92be 9e4a 173e
00000200: e369 9b3e 723d 6fbe c917 dabd 3594 44be
00000210: 9bf7 c73e 3df4 ad3e 8805 33bb df05 823e
00000220: 64a4 89be a996 d73d cb7e bb3e 0d36 51be
00000230: b168 f3bd b31c 32bc 3b2f 53be d534 cc3e
00000240: a5f5 7bbe 40f2 1e3e 4d7a 623e e371 573e
00000250: c8c0 e9be 567c a6be 0383 3c3d a9da 4cbe
00000260: 0c67 013d e396 fabd 8b0c 00bf a1c7 893e
00000270: ab5f ea3e 665e cd3d 3f15 153e eda5 733c
00000280: 0dc6 10be 450c 85bd e9ef aabd a5f3 c6be
00000290: 4673 8cbe db06 2abd ccd8 35bd 11c2 07be
000002a0: 0ca3 afbe 0ac7 523e ca4a 0dbe 5a29 b8be
000002b0: 2a8b b4bd 1e6b 20be 95dd a63c 4ab8 78be
000002c0: a5b6 f5bd 9fc8 c13d 39bc a63e 436d 303e
000002d0: 5668 96be 2998 0ebe 1d4f 0bbe 31c4 353e
000002e0: 0f56 303d 9341 afbe f19d c2be 9a72 70be
000002f0: da4b b3bd 2910 9cbe a13a af3e 822d df3e
00000300: c86c 233e 592d 4b3e 9f7c 633f 1fae 8a3d
00000310: c578 d0bd 808d a93e 580f d73e 39b1 95bd
00000320: 8d64 8a3d 1f2f 4cbe 86f2 d33e 9da9 8c3e
00000330: 9232 03bd 0a66 58bd 242f 29bd 741f 983c
00000340: 1c76 23bd 818b d9bd 31d6 efbe 6d5b 6dbe
00000350: 1957 c03e 0bc4 563d e724 e9bd 5bcd 133e
00000360: 8015 b6be 795e b23b e7a0 cabe 2709 fd3c
00000370: cb62 7c3e 792f b93e 6940 82bd 73a8 303c
00000380: 6813 f8bc d240 583e 74d0 033f 817e 13be
00000390: 8b7e 4bbd 94fe 99be 7e56 3cbe 4fa6 36be
000003a0: 6765 713e c7f2 8e3e 0a9c c0bd 0ab8 c2be
000003b0: c353 693d ba9e 223e 8d19 71be ebcc c03e
000003c0: ee41 003e c390 26bc 011f 45bd d969 a3bd
000003d0: 0514 fabd acf2 87bd a289 a43e 69b8 113e
000003e0: 4c0b b63e 9e07 413e 3d3e 3c3f 442e 96be
000003f0: a043 03be dc9a c0bd eb6c efbd f162 8bbe

bias f4 [400]
-0.028781904 0.008183867 0.22142124 0.0535775 0.049475513 0.015296041 0.12239422 -0.03274785
0.33966368 -0.0481193 0.07870331 0.3380132 0.05769928 -0.010735427 0.03942154 -0.18809377
0.008833758 0.2196968 -0.013836428 0.2922351 0.32624686 0.213131 -0.052460995 0.20205821
0.19942848 0.3280122 -0.045553062 0.3220611 0.18536358 0.18761827 0.24026918 -0.06027784
-0.22415936 0.20685273 0.33448955 0.05882265 -0.029255165 0.080529526 -0.29798466 -0.143708
0.0036633709 0.22498435 -0.23089099 0.09729132 -0.17796874 -0.15782411 0.051482283 -0.2936558
-0.14091435 0.15559094 0.12800066 0.08721776 -0.01842607 0.21584176 0.049919724 -0.13536197
-0.044577003 0.14545767 -0.07048974 -0.15884103 -0.1574813 0.3374546 0.240467 -0.008369549
-0.22379188 0.12264094 -0.117287025 0.2146493 -0.16064255 0.032879032 -0.1722575 0.042842958
-0.09221948 0.32009608 0.23301849 0.23825425 -0.005258921 -0.20634021 -0.021415668 0.057738964
-0.18624248 -0.10432225 0.20734924 -0.15255353 0.12672782 0.17813054 0.2809575 -0.23989889
-0.08646916 -0.12630895 -0.24794084 -0.13861443 0.1726209 -0.12784968 -0.13009714 -0.22069559
0.12978727 -0.12229508 -0.027174175 -0.25298575 0.093993 -0.040924553 0.3055176 -0.1587727
0.04507801 -0.06939826 -0.18117681 -0.19510274 0.017988281 -0.046751406 0.099976 0.2563901
0.33625346 0.33266458 0.31259662 -0.047350537 -0.12524799 0.26171708 0.15232463 0.23517835
-0.16796483 0.27816802 0.3681177 0.06082042 -0.1729158 -0.14698933 -0.12720555 -0.12567897
-0.044863205 -0.109209575 -0.052169617 0.1435451 0.27553213 0.045874946 -0.10668804 -0.13493998
0.24726745 -0.23463805 0.1762027 0.27083597 0.20474972 -0.08312425 -0.10063742 -0.22512437
0.18367298 0.06790514 0.28551754 0.0122398045 0.12724896 -0.055541728 0.26855898 -0.23111223
-0.058166575 -0.24460007 0.03441154 -0.16677147 0.32804814 0.16456804 0.13783006 -0.12791818
0.21982211 -0.07807785 0.15306042 0.10621849 0.30228338 0.18952389 -0.1396755 0.3919661
-0.1773418 0.3392257 0.33395857 -0.14244068 0.027121844 -0.20243205 0.20028725 -0.12692076
0.11103371 -0.104003906 0.024137208 -0.33137313 -0.2638552 -0.25728065 -0.15007664 0.09217403
-0.15674795 0.25145736 -0.119868174 0.22525412 0.11458768 0.22413945 0.33748946 0.26566586
-0.2754182 0.35627887 0.31577474 -0.35936874 -0.1106613 -0.24703324 0.2712954 0.124624915
0.1976074 0.21261597 0.37139282 0.25056383 -0.17200042 0.13782752 -0.2475458 0.27547047
-0.12634526 0.34790465 -0.17996599 0.07028878 0.29417726 0.09421383 0.268858 0.12659976
0.17336707 -0.25042465 0.30468914 0.17529595 0.034829494 -0.18462864 0.22498906 0.21681237
-0.05993031 0.41400892 0.28861693 -0.07533311 0.20243087 0.19191675 -0.27005437 0.17277783
0.11661477 0.019644508 -0.072308965 0.08413452 -0.14581408 0.028047653 -0.27471852 -0.08058793
0.23614015 0.28687114 -0.18469782 0.19050902 -0.29505503 0.13168657 -0.118941404 -0.017354984
-0.052577667 0.17442766 0.016065406 0.053473655 0.2995214 0.20942478 0.2390431 0.30549297
00000000: 07c8 ebbc a015 063c 40bc 623e 1574 5b3d
00000010: d6a6 4a3d 3f9c 7a3c d2a9 fa3d 9c22 06bd
00000020: 66e8 ad3e be18 45bd 332f a13d 1110 ad3e
00000030: 1556 6c3d a5e3 2fbc 7b78 213d a79b 40be
00000040: 77bb 103c 33f8 603e 2fb2 62bc d79f 953e
00000050: d409 a73e 033f 5a3e 57e1 56bd 59e8 4e3e
00000060: fb36 4c3e 37f1 a73e d995 3abd 31e5 a43e
00000070: f3cf 3d3e 011f 403e 2009 763e e5e5 76bd
00000080: 088a 65be 34d1 533e 3742 ab3e 05f0 703d
00000090: 87a8 efbc aaec a43d 7291 98be 3128 13be
000000a0: 2a15 703b 4c62 663e b06e 6cbe ac40 c73d
000000b0: 703d 36be a59c 21be 16df 523d 0e5a 96be
000000c0: da4b 10be 3b53 1f3e 9b12 033e 3a9f b23d
000000d0: 45f2 96bc 9f05 5d3e a078 4c3d 549c 0abe
000000e0: 6096 36bd dbf2 143e ed5c 90bd 39a7 22be
000000f0: c742 21be d9c6 ac3e fb3c 763e 6f20 09bc
00000100: b329 65be 2c2b fb3d 2e34 f0bd 07cd 5b3e
00000110: 7b7f 24be 2aac 063d 4564 30be 197c 2f3d
00000120: 91dd bcbd a2e3 a33e 669c 6e3e ecf8 733e
00000130: 0753 acbb d94a 53be e96f afbc b17f 6c3d
00000140: 59b6 3ebe e7a6 d5bd 5c53 543e fe36 1cbe
00000150: f0c4 013e da67 363e a9d9 8f3e 0ea8 75be
00000160: be16 b1bd 2257 01be 34e4 7dbe f1f0 0dbe
00000170: 89c3 303e 07eb 02be 2f38 05be 06fe 61be
00000180: f4e6 043e d875 fabd 609c debc 5987 81be
00000190: 677f c03d 81a0 27bd ce6c 9c3e 5095 22be
000001a0: b8a3 383d ad20 8ebd 6a86 39be 03c9 47be
000001b0: 295c 933c 677e 3fbd 38c0 cc3d 9045 833e
000001c0: 6a29 ac3e 0353 aa3e aa0c a03e a3f2 41bd
000001d0: 0241 00be c8ff 853e fdfa 1b3e 98d2 703e
000001e0: f9fe 2bbe 0a6c 8e3e ec79 bc3e d51e 793d
000001f0: d710 31be 5f84 16be 2c42 02be fdb1 00be
00000200: 7bc2 37bd 45a9 dfbd cfaf 55bd 7dfd 123e
00000210: 8c12 8d3e 5ee7 3b3d 427f dabd b52d 0abe
00000220: ae33 7d3e f544 70be 7b6e 343e 03ab 8a3e
00000230: e9a9 513e 0c3d aabd fe1a cebd 0187 66be
00000240: c514 3c3e da11 8b3d 5b2f 923e 7689 483c
00000250: 8d4d 023e b97f 63bd 9080 893e afa8 6cbe
00000260: 1340 6ebd 7178 7abe 1df3 0c3d 24c6 2abe
00000270: edf5 a73e 8684 283e 5323 0d3e fcfc 02be
00000280: 0c19 613e 48e7 9fbd dfbb 1c3e 1489 d93d
00000290: e3c4 9a3e 8d12 423e 1807 0fbe c8af c83e
000002a0: 1799 35be feae ad3e 9efc aa3e f8db 11be
000002b0: a12e de3c 594a 4fbe 1a18 4d3e 84f7 01be
000002c0: a465 e33d 0000 d5bd 65bb c53c bda9 a9be
000002d0: 0718 87be 4aba 83be b1ad 19be bdc5 bc3d
000002e0: 8982 20be 05bf 803e 727d f5bd 04a9 663e
000002f0: f2ac ea3d d084 653e 6bcb ac3e 5b05 883e
00000300: 9d03 8dbe 2f6a b63e 3aad a13e 2eff b7be
00000310: 64a2 e2bd 48f6 7cbe 3be7 8a3e 593b ff3d
00000320: 9859 4a3e 00b8 593e 3327 be3e e749 803e
00000330: e120 30be a822 0d3e a57c 7dbe 770a 8d3e
00000340: a760 01be 8f20 b23e 0149 38be 90f3 8f3d
00000350: 679e 963e 2ef3 c03d c1a7 893e 5ea3 013e
00000360: 2387 313e a937 80be 3700 9c3e c880 333e
00000370: 5fa9 0e3d 4a0f 3dbe 8863 663e 1004 5e3e
00000380: 7c79 75bd faf8 d33e 99c5 933e 3f48 9abd
00000390: 0a4a 4f3e d385 443e 9144 8abe acec 303e
000003a0: b9d3 ee3d 85ed a03c b916 94bd b84e ac3d
000003b0: 4950 15be 31c4 e53c e8a7 8cbe 490b a5bd
000003c0: b9ce 713e c6e0 923e 6d21 3dbe cc14 433e
000003d0: 7411 97be d8d8 063e 8d97 f3bd 0a2c 8ebc
000003e0: ae5b 57bd 2a9d 323e 999b 833c 3107 5b3d
000003f0: de5a 993e 7373 563e b7c7 743e 9369 9c3e

weight f4 [200, 400]
0.03685284 0.039695356 0.025560088 0.047923844 -0.04573255 0.020328945 0.08505662 -0.0012603466
-0.023138061 0.12642957 -0.046458796 -0.00843086 0.043999657 0.03999879 0.004887515 -0.08769101
0.021398664 -0.019617228 -0.09162765 -0.034285214 0.018187406 0.025310898 -0.11212795 0.08514548
0.0037464057 -0.056661803 -0.0010854094 -0.042693004 0.0026049702 -0.007955819 0.06421875 -0.024728062
-0.07572645 -0.0033655304 -0.0058713593 -0.07658221 -0.07959549 0.039434116 -0.045351043 -0.078912
0.022740455 -0.019846419 -0.093521565 -0.014881646 -0.013169859 0.0024579742 0.0047296286 -0.09298553
-0.016771242 0.043921713 0.023028415 0.060272742 -0.009412615 0.027899332 -0.055568818 0.060166404
-0.0033512034 0.02634928 -0.12811536 0.006105136 0.0031922904 0.019899704 0.0344147 -0.058217216
-0.066161215 0.090753116 0.049195725 0.02903382 0.09118487 0.00060183124 0.09761743 -0.045142896
0.025951678 -0.06571663 -0.07057549 0.105652615 -0.011294448 -0.040245526 0.09096341 0.038853664
-0.052341726 -0.012469619 0.0047002817 0.0116316015 0.040729966 0.08111158 0.03772851 0.042592436
0.12348284 -0.064149484 -0.030617388 0.09959816 -0.03420074 0.085512504 0.0053237635 0.06776742
0.014297226 0.01379702 -0.043509588 -0.082564235 0.011176844 -0.039045643 -0.009356673 -0.052755196
0.042310067 -0.07630886 0.006410833 -0.014981492 0.06685968 -0.16792086 0.11244372 0.042018864
0.062294234 0.0024453152 0.05675454 -0.06397135 0.000272548 -0.036709808 -0.015012736 -0.03138624
-0.05815642 0.042338625 -0.0042816624 0.046808507 -0.059779897 -0.036529455 -0.082482554 0.012896137
0.024309093 -0.04922429 0.020771077 0.014299245 0.04256335 -0.02072577 0.11443714 0.02864176
-0.013867794 -0.0948001 -0.0033179012 0.02561261 0.012240627 0.08935659 0.16267487 -0.037874658
0.0064833704 0.036800887 -0.05145013 -0.059823137 -0.10384818 -0.12521207 -0.001413661 -0.045112528
-0.021563448 0.016483387 0.00773181 0.059511192 0.03546073 0.07173556 0.026927372 0.04299971
-0.03824263 -0.14835405 0.019155243 -0.1160953 0.030832507 0.031548616 0.003444773 0.05170978
0.0076756813 0.02714841 -0.0055103153 -0.07023328 0.0074085398 0.08865655 0.030162599 -0.011281104
-0.014548263 -0.07549074 0.011282973 0.05418467 -0.058965586 -0.08219419 -0.045479998 0.0065163937
0.058856275 -0.12468568 -0.0055857496 -0.04596086 -0.09928944 0.06891653 0.0031780794 -0.058001895
-0.02875895 0.04549359 0.04625062 -0.028404254 -0.0473895 0.08933179 0.015652617 0.0030376217
0.04064656 0.035443608 -0.015787903 0.013491215 -0.03887523 -0.08067328 -0.10923544 0.010725609
-0.0836073 0.013011483 -0.1467041 -6.792207e-05 0.024411092 0.018813042 0.027094232 -0.006038255
0.12833293 5.9910553e-06 -0.047630053 -0.005757857 0.026474044 0.13463971 -0.042678848 -0.016512612
0.011342858 0.015927203 -0.046547003 -0.099888854 -0.028017309 0.0028103616 -0.083161786 0.0002953305
-0.080406785 0.03559212 0.0075622518 -0.051260818 -0.055643633 -0.06189541 -0.053340994 0.0015012744
0.029152209 -0.016684368 0.013019231 0.03120854 0.09923488 0.017699368 0.0064521274 0.005554439
0.02455292 -0.060737684 0.020336643 -0.0350085 -0.037453797 0.053218428 -0.024874685 -0.015546493
00000000: 01f3 163d 9997 223d 6463 d13c cb4b 443d
00000010: 0e52 3bbd e388 a63c 2a32 ae3d 3732 a5ba
00000020: 088c bdbc c176 013e 944b 3ebd 9721 0abc
00000030: fc38 343d c5d5 233d 7327 a03b 5897 b3bd
00000040: 404c af3c 4fb4 a0bc 47a7 bbbd a76e 0cbd
00000050: c1fd 943c cd58 cf3c 57a3 e5bd c160 ae3d
00000060: 4286 753b 3516 68bd 4c44 8eba dcde 2ebd
00000070: 26b8 2a3b 2059 02bc 1f85 833d 8192 cabc
00000080: 7816 9bbd 3b90 5cbb 8864 c0bb 22d7 9cbd
00000090: f602 a3bd ab85 213d 04c2 39bd 9d9c a1bd
000000a0: 314a ba3c f594 a2bc 3c88 bfbd 26d2 73bc
000000b0: 64c6 57bc f715 213b 00fb 9a3b 336f bebd
000000c0: d863 89bc 41e7 333d 16a6 bc3c 8de0 763d
000000d0: 5e37 1abc 248d e43c 219c 63bd 0c71 763d
000000e0: dd9f 5bbb 72da d73c ac30 03be 980d c83b
000000f0: bf35 513b b404 a33c 6ef6 0c3d 2d75 6ebd
00000100: 887f 87bd c5dc b93d 7581 493d 55d8 ed3c
00000110: 22bf ba3d 36c4 1d3a a6eb c73d c2e7 38bd
00000120: 9d98 d43c 7196 86bd e289 90bd 6660 d83d
00000130: 590c 39bc 7ed8 24bd 064b ba3d 0525 1f3d
00000140: 4764 56bd 5f4d 4cbc d204 9a3b 7992 3e3c
00000150: 77d4 263d d41d a63d 3689 1a3d 6875 2e3d
00000160: 92e4 fc3d ce60 83bd 51d1 fabc 1ffa cb3d
00000170: 1316 0cbd 2e21 af3d f772 ae3b a5c9 8a3d
00000180: ea3e 6a3c e50c 623c 1c37 32bd 7017 a9bd
00000190: 151f 373c 53ee 1fbd bb4c 19bc d515 58bd
000001a0: 524d 2d3d d247 9cbd f711 d23b ef74 75bc
000001b0: baed 883d 72f3 2bbe e548 e63d f91b 2c3d
000001c0: 3d28 7f3d 9541 203b 7377 683d 6903 83bd
000001d0: c6e4 8e39 065d 16bd fbf7 75bc dc8e 00bd
000001e0: 6d35 6ebd 446b 2d3d 304d 8cbb 47ba 3f3d
000001f0: c4db 74bd e99f 15bd 9dec a8bd 524a 533c
00000200: dd23 c73c 699f 49bd 1b28 aa3c 6147 6a3c
00000210: e856 2e3d 17c9 a9bc 055e ea3d 20a2 ea3c
00000220: be35 63bc 8e26 c2bd 2571 59bb 89d1 d13c
00000230: e98c 483c 9600 b73d 3e94 263e 7522 1bbd
00000240: 7472 d43b 87bc 163d 5fbd 52bd 1b09 75bd
00000250: 5bae d4bd 9837 00be 984a b9ba eac7 38bd
00000260: d4a5 b0bc 2b08 873c 205b fd3b 02c2 733d
00000270: 453f 113d 18ea 923d cb96 dc3c 7720 303d
00000280: 4ea4 1cbd 20ea 17be 75eb 9c3c 5fc3 edbd
00000290: 7494 fc3c 1f39 013d b3c1 613b a2cd 533d
000002a0: 4884 fb3b 5866 de3c e08f b4bb 77d6 8fbd
000002b0: 56c3 f23b 9191 b53d 8e17 f73c 61d4 38bc
000002c0: d65b 6ebc e49a 9abd 38dc 383c bff0 5d3d
000002d0: e685 71bd 6d55 a8bd 3c49 3abd 7987 d53b
000002e0: 4713 713d 355b ffbd aa08 b7bb 7441 3cbd
000002f0: 4358 cbbd 1c24 8d3d 5347 503b 6593 6dbd
00000300: e497 ebbc 7d57 3a3d 4a71 3d3d 0ab0 e8bc
00000310: 7e1b 42bd 96f3 b63d eb39 803c d612 473b
00000320: 027d 263d 512d 113d a255 81bc 420a 5d3c
00000330: a23b 1fbd 0838 a5bd d5b6 dfbd 77ba 2f3c
00000340: 4e3a abbd 1d2e 553c 9939 16be 6271 8eb8
00000350: c5f9 c73c cf1d 9a3c b9f4 dd3c 8edc c5bb
00000360: b569 033e c606 c936 bb17 43bd 68ac bcbb
00000370: 18e0 d83c fede 093e 04d0 2ebd 7545 87bc
00000380: 65d7 393c c479 823c 12a8 3ebd 8792 ccbd
00000390: 8e84 e5bc 0b2e 383b ba50 aabd 97d6 9a39
000003a0: 50ac a4bd 0bc9 113d c4cc f73b ddf6 51bd
000003b0: 94ea 63bd 0b86 7dbd 167c 5abd 69c6 c43a
000003c0: 9dd0 ee3c a8ad 88bc 9d4e 553c 0da9 ff3c
000003d0: a83b cb3d 44fe 903c 5e6c d33b 0302 b63b
000003e0: 3523 c93c 14c8 78bd 0899 a63c 1365 0fbd
000003f0: 2769 19bd 91fb 593d ffc5 cbbc b8b6 7ebc

bias f4 [200]
0.026291603 0.053733263 0.070229426 -0.070955075 0.015926449 -0.02914362 0.033675145 0.039913625
0.035577267 0.031665422 0.035390142 0.011083475 -0.0069191577 0.02999347 0.020143744 0.032242127
-0.02017601 0.016738135 0.024240142 -0.02887133 7.497963e-05 -0.029010337 -0.021017568 0.019578926
-0.03118663 0.043803573 -0.00451882 -0.0036950745 0.009546161 0.055558868 -0.0021885517 -0.014175428
0.038821824 0.00641301 -0.016758291 -0.020734305 0.00049929076 -0.030167483 0.0016839005 -0.024004906
0.02661824 -0.010465916 0.025302453 -0.01463516 -0.015845358 0.006601908 -0.012463306 0.0041583455
-0.010110472 -0.030769402 -0.03288532 0.046027675 -0.0070727807 0.04374469 -0.018666873 0.028677631
0.035838895 0.014043738 -0.03856442 0.0155390585 0.003704701 -0.038726076 -0.0014801204 -0.034290332
-0.025344 -0.04858131 0.008632744 0.0101133995 0.044629302 -0.04482242 0.003612746 0.0030730302
0.064861245 -0.021301867 0.02062115 0.034313865 -0.00077706325 0.009185375 -0.016575247 -0.039145686
0.05124731 -0.0051355897 0.008493022 0.05583208 -0.0045945817 -0.015346901 -0.003384923 0.012293376
0.0020841078 -0.019817183 0.05224067 0.04103228 -0.013085767 0.04430573 -0.0148235485 0.054147
0.035328504 -0.03125404 0.047540974 0.03185465 -0.02799667 -0.001989194 0.028492501 0.016175084
0.039461896 0.054975454 -0.019920547 -0.02403062 0.006750154 -0.0029011115 0.03569974 0.009502337
0.028233605 0.037040297 -0.0063739335 0.048197858 -0.011021728 -0.029320698 -0.032071676 -0.023535846
-0.012596203 0.036858615 0.050819643 -0.024250885 0.03492797 -0.01719104 0.01464914 -0.02379354
-0.017055513 -0.020011159 -0.01745112 0.024059894 0.03428434 -0.017052934 0.003396125 0.017012062
-0.035029303 0.029532176 0.015087763 -0.0307796 0.020240912 0.044960883 0.0036238085 0.004620055
0.052905582 0.012047181 0.01457647 0.011688387 -0.011133684 0.005762118 -0.034104865 0.033894613
-0.042211458 -0.03878615 0.011357749 0.043869976 0.029640624 -0.00015114406 0.028041845 0.053866588
0.037380457 0.055796478 0.013354986 -0.010361858 0.048484623 -0.0233028 0.037568297 -0.00856753
0.005595882 -0.04599812 -0.030278955 -0.005678715 -0.017484397 -0.006981297 0.045358226 -0.009596193
-0.012399832 0.006883644 -0.020351246 -0.006207233 -0.0024927752 -0.017773036 -0.017994426 -0.008738542
-0.023136873 0.043999128 0.023809526 0.047570392 0.0018937708 0.036354482 0.048272863 0.032465767
-0.0124867475 -0.040680304 -0.031684045 -0.032671828 0.016055573 -0.0025044794 0.053775974 0.007836287
00000000: 7d61 d73c 6917 5c3d 72d4 8f3d e550 91bd
00000010: 2f78 823c 9abe eebc f3ee 093d 787c 233d
00000020: 78b9 113d 9ab3 013d 41f5 103d 7797 353c
00000030: 1aba e2bb deb4 f53c 7e04 a53c 5210 043d
00000040: 2948 a5bc 6a1e 893c 4393 c63c 9183 ecbc
00000050: 623e 9d38 16a7 edbc 092d acbc fc63 a03c
00000060: 1a7b ffbc 606b 333d 9c12 94bb 1029 72bb
00000070: 8067 1c3c b291 633d ce6d 0fbb 0e40 68bc
00000080: a203 1f3d 3a24 d23b af48 89bc fdda a9bc
00000090: d6e2 023a cc21 f7bc 53b6 dc3a f0a5 c4bc
000000a0: 7f0e da3c 3c79 2bbc 1747 cf3c 4fc8 6fbc
000000b0: 20ce 81bc d154 d83b e532 4cbc bb42 883b
000000c0: 65a6 25bc 1d10 fcbc c2b2 06bd 8487 3c3d
000000d0: c9c2 e7bb a22d 333d 45eb 98bc 5aed ea3c
000000e0: cecb 123d b517 663c baf5 1dbd 8997 7e3c
000000f0: 92ca 723b 3c9f 1ebd 9900 c2ba 0574 0cbd
00000100: 389e cfbc 32fd 46bd 5a70 0d3c acb2 253c
00000110: 37cd 363d b797 37bd d2c3 6c3b e464 493b
00000120: f9d5 843d 4181 aebc b0ed a83c b28c 0c3d
00000130: d5b3 4bba 417e 163c d0c8 87bc 3a57 20bd
00000140: b3e8 513d 7348 a8bb 5126 0b3c 2eb0 643d
00000150: 258e 96bb 9171 7bbc 96d5 5dbb 286a 493c
00000160: 8795 083b a557 a2bc 50fa 553d 7711 283d
00000170: af65 56bc ed79 353d 78de 72bc 3fc9 5d3d
00000180: 9fb4 103d 3c04 00bd 53ba 423d 057a 023d
00000190: 4659 e5bc 235d 02bb 1b69 e93c 9c81 843c
000001a0: cca2 213d f12d 613d 6a30 a3bc dddb c4bc
000001b0: 6530 dd3b 9320 3ebb e439 123d b1af 1b3c
000001c0: 294a e73c 91b7 173d 6edc d0bb 1e6b 453d
000001d0: 7a94 34bc f631 f0bc 975d 03bd 3fce c0bc
000001e0: 4e60 4ebc 0ff9 163d 4228 503d cba9 c6bc
000001f0: a210 0f3d 39d4 8cbc f202 703c acea c2bc
00000200: 01b8 8bbc 71ee a3bc a7f5 8ebc 4119 c53c
00000210: bc6d 0c3d 98b2 8bbc 8691 5e3b e15c 8b3c
00000220: e37a 0fbd 76ed f13c aa32 773c 8025 fcbc
00000230: 45d0 a53c e728 383d 6b7d 6d3b d563 973b
00000240: 86b3 583d 8a61 453c 25d2 6e3c a680 3f3c
00000250: 0e6a 36bc 26d0 bc3b 8bb1 0bbd 14d5 0a3d
00000260: ece5 2cbd 3ade 1ebd da15 3a3c 01b1 333d
00000270: e5d0 f23c 6d7c 1eb9 03b8 e53c 36a3 5c3d
00000280: 401c 193d d98a 643d dfce 5a3c c8c4 29bc
00000290: d097 463d 83e5 bebc 37e1 193d d35e 0cbc
000002a0: a95d b73b 8668 3cbd 920b f8bc 8414 babb
000002b0: 703b 8fbc 5dc3 e4bb 8cc9 393d 5a39 1dbc
000002c0: aa28 4bbc 3190 e13b a8b7 a6bc 0b66 cbbb
000002d0: d45d 23bb c298 91bc 0c69 93bc 1a2c 0fbc
000002e0: 8a89 bdbc 6e38 343d 320c c33c 2cd9 423d
000002f0: 6738 f83a 70e8 143d c4b9 453d d3fa 043d
00000300: 3795 4cbc 64a0 26bd 21c7 01bd e5d2 05bd
00000310: fa86 833c 3122 24bb 3244 5c3d c563 003c

weight f4 [2, 200]
0.17811273 0.050431795 0.08745589 -0.14994003 0.08510133 -0.13488676 -0.13643934 0.01473604
-0.053930167 0.14525543 0.08423515 -0.09398438 0.08158131 -0.10899402 -0.119512774 -0.06870617
0.0550109 -0.0024135057 -0.10884052 -0.10082285 -0.15827194 0.12688236 -0.13996421 -0.028740274
0.13369912 0.035214316 -0.09285186 0.08660797 0.1763693 0.118509345 -0.10337781 0.08580338
0.17871734 -0.16769464 -0.049243208 -0.084233925 0.11064048 0.026396483 0.060164813 0.14067467
-0.26786175 0.08605193 0.055560555 0.08538692 0.13525954 -0.15628703 -0.089288235 0.08837006
0.052306693 -0.025152147 -0.064121574 0.024073912 0.11593904 -0.019321896 -0.10454596 0.1542641
-0.14667387 -0.11240772 -0.14073436 -0.14259638 0.12148177 0.05498491 -0.13734186 -0.047784
-0.056674104 -0.14107475 0.12235144 -0.07977445 0.12651154 -0.13793732 -0.08963427 -0.042784855
0.075985685 -0.0692177 -0.054874875 0.19379973 -0.12534648 -0.11418011 -0.12339069 -0.1393339
0.08737301 -0.04340545 0.14491434 0.11160068 0.11552008 -0.027271643 -0.1154832 -0.08864488
-0.107587 -0.13269386 0.019728014 0.10789791 0.069085255 -0.101884924 0.13098437 0.16285753
-0.1056025 -0.12095311 0.08082504 0.14304464 -0.1391858 0.04488241 0.080893315 -0.12410798
0.13279712 0.12913494 0.12859644 0.1370762 -0.048934594 0.14206855 0.11637375 0.09821643
-0.114388615 -0.116508126 -0.044648174 0.11357209 0.1574007 0.11701212 0.15701747 0.15927131
0.12447547 0.08050967 -0.030083966 -0.15579593 0.095329106 -0.066823006 -0.07079247 -0.017549079
0.17054597 0.1682549 0.09249005 -0.04400167 -0.09452327 0.12823826 -0.14553832 0.106269024
-0.15466687 0.07501809 -0.14835274 -0.11152393 0.08105366 -0.064062074 0.03456037 0.070090786
-0.097158514 0.08947874 0.12154266 -0.10089158 0.10641774 0.13905302 -0.10701271 0.13580368
-0.14398597 -0.057150207 -0.11420463 -0.12359432 -0.12928808 -0.13993745 0.07696439 0.08859814
-0.06346252 -0.15321714 -0.093367286 0.13918264 0.06709207 -0.10628573 -0.15359181 -0.011605326
0.007507452 -0.06448444 -0.105526194 -0.11852282 -0.11023333 0.11524739 -0.13277003 -0.054240722
-0.1290684 0.009170095 0.1023776 0.044920933 -0.095251754 0.07185952 0.14678814 -0.047133666
-0.16673672 -0.1425886 -0.083689936 0.11417282 -0.049329095 -0.11689744 0.082697995 0.10188512
0.11841251 -0.0934535 -0.20060395 0.09471204 0.13999137 -0.046581093 0.15387546 -0.050728854
-0.03237957 0.07341276 0.056006823 -0.21029176 0.10160722 0.07336191 0.018733397 -0.058599968
0.25783247 -0.040942017 0.106896736 0.122552924 -0.08368365 0.03383758 -0.07986752 -0.24209265
0.10876323 0.056695085 -0.022009255 0.30405647 0.08259434 0.07401776 0.032468688 -0.24366929
-0.10112126 -0.027694412 -0.06614825 0.119181536 0.006951755 0.10357107 0.07395056 -0.0761436
-0.03357566 0.037073884 0.023381678 -0.18029585 0.10064754 0.014280476 -0.07578171 -0.022661492
-0.26218435 -0.102985464 0.14965673 -0.15125133 -0.089670025 -0.0010200607 -0.20553243 0.104920104
-0.07468124 -0.009012258 -0.04160062 -0.21614218 0.072056495 -0.2558481 -0.048099104 -0.037479512
00000000: 2f63 363e 9291 4e3d 131c b33d e189 19be
00000010: 9b49 ae3d c11f 0abe c1b6 0bbe 6e6f 713c
00000020: e1e5 5cbd d7bd 143e 7a83 ac3d e27a c0bd
00000030: 1a14 a73d 4238 dfbd 1dc3 f4bd d2b5 8cbd
00000040: 1c53 613d e82b 1ebb c7e7 debd 367c cebd
00000050: 0a12 22be 73ed 013e c752 0fbe b970 ebbc
00000060: 6ce8 083e e33c 103d 1e29 bebd 855f b13d
00000070: 279a 343e 07b5 f23d bfb7 d3bd afb9 af3d
00000080: ae01 373e 25b8 2bbe 3fb3 49bd d682 acbd
00000090: 7a97 e23d 703d d83c 616f 763d 050d 103e
000000a0: 2d25 89be ff3b b03d 7793 633d 56df ae3d
000000b0: 7a81 0a3e b509 20be c0dc b6bd 5dfb b43d
000000c0: 8b3f 563d e00b cebc 2c52 83bd a736 c53c
000000d0: 7371 ed3d f448 9ebc 311c d6bd 69f7 1d3e
000000e0: ad31 16be 0536 e6bd ab1c 10be c904 12be
000000f0: 6fcb f83d db37 613d 58a3 0cbe 28b9 43bd
00000100: 1b23 68bd e675 10be 6493 fa3d c960 a3bd
00000110: 3e8c 013e 713f 0dbe 2c92 b7bd 2c3f 2fbd
00000120: 629e 9b3d 02c2 8dbd 7ac4 60bd 7073 463e
00000130: d45a 00be 43d7 e9bd 42b4 fcbd 8cad 0ebe
00000140: 9ff0 b23d eac9 31bd 6d64 143e e68e e43d
00000150: cb95 ec3d c868 dfbc 7582 ecbd 728b b5bd
00000160: 9356 dcbd e6e0 07be a59c a13c 94f9 dc3d
00000170: 927c 8d3d 0ba9 d0bd c420 063e 20c4 263e
00000180: 2046 d8bd 44b6 f7bd 9987 a53d 4b7a 123e
00000190: b986 0ebe 9ed6 373d 65ab a53d 532c febd
000001a0: f8fb 073e f33b 043e c9ae 033e b45d 0c3e
000001b0: a46f 48bd 6b7a 113e 5c55 ee3d b225 c93d
000001c0: 9444 eabd d09b eebd 01e1 36bd 7c98 e83d
000001d0: a62d 213e 0da4 ef3d 30c9 203e 0518 233e
000001e0: ffec fe3d 41e2 a43d a672 f6bc f888 1fbe
000001f0: e83b c33d 80da 88bd a4fb 90bd 16c3 8fbc
00000200: 9aa3 2e3e 034b 2c3e 6c6b bd3d 183b 34bd
00000210: 6b95 c1bd e450 033e ff07 15be 93a3 d93d
00000220: fe60 1ebe 16a3 993d c8e9 17be a966 e4bd
00000230: 76ff a53d fa32 83bd 2d8f 0d3d c28b 8f3d
00000240: 0bfb c6bd a140 b73d 5ceb f83d 3fa0 cebd
00000250: 8bf1 d93d ea63 0e3e 7b29 dbbd 1f10 0b3e
00000260: 0f71 13be 5616 6abd 1ee4 e9bd 051f fdbd
00000270: 1864 04be c34b 0fbe 829f 9d3d f172 b53d
00000280: a3f8 81bd f4e4 1cbe 5937 bfbd e585 0e3e
00000290: 9167 893d 55ac d9bd 2c47 1dbe 4424 3ebc
000002a0: 1201 f63b 6b10 84bd 1e1e d8bd 18bc f2bd
000002b0: 03c2 e1bd d306 ec3d def4 07be 852b 5ebd
000002c0: 822a 04be 2b3e 163c 59ab d13d 03ff 373d
000002d0: 5a13 c3bd 162b 933d a14f 163e 3b0f 41bd
000002e0: 08bd 2abe bf02 12be a165 abbd 70d3 e93d
000002f0: 4e0d 4abd ed67 efbd 915d a93d 25a9 d03d
00000300: 4282 f23d 8c64 bfbd 1f6b 4dbe 63f8 c13d
00000310: e659 0f3e d1cb 3ebd 8791 1d3e 0fc9 4fbd
00000320: 71a0 04bd 6e59 963d 6967 653d b956 57be
00000330: 7217 d03d c53e 963d c876 993c 8506 70bd
00000340: 9e02 843e d1b2 27bd adec da3d 07fd fa3d
00000350: 5562 abbd 4699 0a3d 9591 a3bd 23e7 77be
00000360: 42bf de3d 1b39 683d c14c b4bc 4aad 9b3e
00000370: 3927 a93d a096 973d e3fd 043d 7184 79be
00000380: aa18 cfbd 64df e2bc bc78 87bd 7315 f43d
00000390: 8ccb e33b 121d d43d 6473 973d 2df1 9bbd
000003a0: a286 09bd c9da 173d ef8a bf3c 7a9f 38be
000003b0: 4c20 ce3d a8f8 693c 7133 9bbd 98a4 b9bc
000003c0: 073d 86be 0bea d2bd 9d3f 193e a1e1 1abe
000003d0: eba4 b7bd 8fb3 85ba 1877 52be 5ae0 d63d
000003e0: 7af2 98bd 26a8 13bc 6965 2abd 6054 5dbe
000003f0: 5b92 933d 86fe 82be 9103 45bd 1e84 19bd

bias f4 [2]
-0.04390651 0.03805536
00000000: 50d7 33bd f0df 1b3d
