lab2/problem3/neural-network-3-critic-08-epsilon.pth (torch, 339275 bytes, 5 tensors)

weight f4 [400, 8]
0	0xbce923fa	-0.028459538
1	0xbf85682d	-1.0422417
2	0xbeb05331	-0.3443847
3	0x3e5592d9	0.20856799
4	0xbe627633	-0.22115402
5	0xbe028863	-0.1274734
6	0xbf207578	-0.62679243
7	0x3e54fcd8	0.20799577
8	0xbbe2be34	-0.0069196466
9	0xbdfc96b9	-0.123334356
10	0x3e09e779	0.13467206
11	0x3e71a751	0.23598982
12	0x3dd1124d	0.10208569
13	0x3e05d980	0.13071251
14	0xbf13bd9c	-0.57711196
15	0xbeaf4f1f	-0.34240052
16	0xbe9d22cf	-0.3069062
17	0x3d415c39	0.04720709
18	0xbdf813cf	-0.12113153
19	0x3eab7340	0.33486366
20	0x3d49e0a1	0.04928649
21	0x3da0a173	0.07843294
22	0xbe75b8a5	-0.23996218
23	0x3cff3664	0.031153865
24	0xbf93ae6b	-1.1537603
25	0xbe0ec422	-0.13942006
26	0xbec0e836	-0.37677163
27	0xbedc3edc	-0.43016708
28	0x3e82c5cb	0.2554153
29	0x3cd3a06f	0.025833337
30	0x3c0215b1	0.007939742
31	0x3e10e4cf	0.14149784
32	0xbccd913f	-0.025093673
33	0xbecad5b8	-0.3961618
34	0xbce80716	-0.028323691
35	0x3f5b8dde	0.8576335
36	0x3e99bb8c	0.300259
37	0xbd4ab33d	-0.04948734
38	0x3e97fbb6	0.29684228
39	0xbec36977	-0.381664
40	0xbd8f7c2d	-0.070061065
41	0xbed6f377	-0.41982624
42	0xbd14b6ed	-0.036307264
43	0x3abaf164	0.0014262614
44	0xbdc2d75e	-0.09513734
45	0x3e8a0165	0.2695419
46	0x3f232f7d	0.63744336
47	0x3d59f11d	0.05320846
48	0x3d0502b6	0.03247329
49	0xbea47302	-0.32118994
50	0xbe4373bf	-0.19087122
51	0x3dd22d04	0.10262492
52	0x3b4e9af7	0.0031525472
53	0xbeda93d0	-0.42690897
54	0xbe928ab1	-0.28621438
55	0xbf08e4e7	-0.5347428
56	0x3da65b1b	0.08122846
57	0x3d3dacb7	0.04630729
58	0xbd0c4360	-0.03424394
59	0xbeb12fbc	-0.3460673
60	0xbda302fd	-0.07959554
61	0xbd22673c	-0.039649233
62	0xbd9d5537	-0.07682269
63	0xbefb6e01	-0.49107364
64	0x3e35e648	0.17763627
65	0xbf207160	-0.62672997
66	0xbd5e7131	-0.054307166
67	0x3e4c98be	0.19980142
68	0x3e645985	0.22299774
69	0x3e4f653f	0.20253466
70	0xbf3e0d48	-0.74239016
71	0x3ebbcce2	0.3667975
72	0xbf2075b8	-0.62679625
73	0xbd954c0b	-0.07289895
74	0x3c8743cc	0.01651182
75	0x3a85cbf3	0.0010207876
76	0x3e5c8627	0.2153555
77	0xbd781878	-0.06057021
78	0xbe94445e	-0.2895841
79	0xbe44fe5e	-0.19237658
80	0xbf111ae0	-0.56681633
81	0xbf18ecb1	-0.5973616
82	0xbedce240	-0.43141365
83	0xbf174e16	-0.59103525
84	0x3eb9dea8	0.36302686
85	0x3e8e1cb4	0.27756274
86	0xbccf75e2	-0.025324766
87	0x3dcac385	0.09900574
88	0xbf978787	-1.1838235
89	0x3ebf2c14	0.37338316
90	0xbebcaf5c	-0.3685254
91	0x3f0179a5	0.5057624
92	0x3ebf6a22	0.3738566
93	0x3ddf75b5	0.10911123
94	0xbe2499e2	-0.16074327
95	0xbe12b46f	-0.14326642
96	0x3e962212	0.2932287
97	0xbeef0137	-0.46680614
98	0x3ebd3044	0.36950886
99	0x3ddc0fb0	0.1074518
100	0xbddcf205	-0.10788349
101	0xbe99362a	-0.29924136
102	0xbf5f58cd	-0.87244874
103	0xbeb697b7	-0.35662624
104	0x3dc4c709	0.096082754
105	0xbf3028d5	-0.68812305
106	0x3e04b251	0.12958647
107	0xbd828eed	-0.06374917
108	0xbe6ef567	-0.23335801
109	0xbeeb649b	-0.45975193
110	0xbf1be7fa	-0.60900843
111	0xbcd4e719	-0.025989102
112	0xbeb3b8ef	-0.3510203
113	0xbfad7a0f	-1.3552874
114	0xbcb9750f	-0.022638826
115	0x3fb121ac	1.3838401
116	0xbed08c34	-0.40731966
117	0x3f1e9c7a	0.61957514
118	0x3edcc05d	0.43115512
119	0x3dbf6ed7	0.09347313
120	0xbd56f758	-0.05248198
121	0xbf08390e	-0.5321206
122	0xbe9f327a	-0.31093198
123	0x3dcdda55	0.10051409
124	0x3f010e99	0.504129
125	0xbe6e1f89	-0.23254217
126	0xbdc323c0	-0.09528303
127	0x3e399e37	0.1812676
128	0x3f41c919	0.75697476
129	0xbed95266	-0.42445678
130	0x3e1f3d58	0.15550745
131	0xbe60231b	-0.21888392
132	0xbe47de60	-0.19518423
133	0xbdcc8db9	-0.09987969
134	0x3e151a78	0.14560878
135	0xbe1a8e2b	-0.15093295
136	0xbded1af6	-0.11577408
137	0xbe2cb109	-0.16864409
138	0x3ced51f9	0.028969752
139	0xbe501e50	-0.20324063
140	0x3e584721	0.21120884
141	0xbdafe950	-0.08589423
142	0xbe373ec8	-0.17895043
143	0xbe0183b2	-0.12647894
144	0x3f014ee8	0.50511026
145	0x3f2f8313	0.6855938
146	0x3e428eea	0.1899983
147	0x3f31420d	0.6924141
148	0x3e10cc39	0.14140405
149	0x3e81e13a	0.25367147
150	0x3ed3961c	0.41325462
151	0xbe44ec5e	-0.19230792
152	0xbd928533	-0.07154312
153	0xbf8056e2	-1.0026515
154	0xbe3f6006	-0.18688974
155	0x3eb2a9fd	0.34895316
156	0xbc60d169	-0.013721802
157	0x3e0df3f9	0.138626
158	0xbebfa4ed	-0.37430516
159	0xbd0a6a5d	-0.033792842
160	0x3d4d4ccd	0.05012207
161	0x3da2a6d0	0.07941973
162	0xbe524f20	-0.20537996
163	0xbeb98646	-0.36235255
164	0xbe4f2c33	-0.20231704
165	0x3dd1f2ee	0.10251413
166	0x3ea49ea9	0.32152298
167	0x3c2c8f32	0.010532187
168	0xbed609c4	-0.41804326
169	0x3dd78d3d	0.10524986
170	0x3d7196f1	0.05898184
171	0xbf080628	-0.53134394
172	0x3e2a3162	0.166204
173	0xbda7884b	-0.08180293
174	0x3e1f96da	0.15584889
175	0x3c8a5843	0.01688779
176	0x3eab7f76	0.33495682
177	0x3f01ed79	0.5075298
178	0xbef86484	-0.48514187
179	0x3f525feb	0.8217761
180	0x3ec3c2b5	0.38234487
181	0x399e6f01	0.00030218813
182	0x3ee8a05a	0.4543484
183	0x3d5023da	0.05081544
184	0xbd9968f0	-0.07490718
185	0xbf7709d8	-0.96499395
186	0xbe8791c6	-0.26478404
187	0x3ec4d512	0.3844381
188	0xbc940a88	-0.018071428
189	0x3def5839	0.11686749
190	0xbeac5e45	-0.33665672
191	0xbd7b111a	-0.061295606
192	0xbc95dc6d	-0.018293584
193	0xbe435814	-0.19076568
194	0xbde9084c	-0.11378536
195	0xbe03652b	-0.12831561
196	0xbf1123a2	-0.56694996
197	0xbd1f6229	-0.038911972
198	0xbdf2eeef	-0.11861979
199	0xbee8eea9	-0.45494583
200	0x3c79f72f	0.015256687
201	0x3f0f0c4a	0.55878127
202	0x3db509b1	0.08839739
203	0xbf0cdd9a	-0.5502564
204	0xbd962751	-0.07331718
205	0x3eb795b5	0.35856405
206	0xbdef6373	-0.1168889
207	0xbe1804c1	-0.14845563
208	0xbf025778	-0.50914717
209	0xbed4e278	-0.41579032
210	0xbea4cc7e	-0.32187265
211	0xbf0c0750	-0.5469866
212	0x3eed6a00	0.46369934
213	0x3f50459c	0.81356215
214	0x3deb99ef	0.1150397
215	0x3d23c564	0.03998317
216	0xbbd31620	-0.0064418465
217	0xbd92b08c	-0.0716258
218	0x3d95f220	0.07321572
219	0x3dda888b	0.10670575
220	0xbef915b0	-0.4864936
221	0x3e611f00	0.21984482
222	0x3e129680	0.14315224
223	0xbee3c841	-0.4448872
224	0xbe1e4108	-0.15454495
225	0xbee23c78	-0.4418676
226	0xbe19f100	-0.1503334
227	0xbcd9eb83	-0.026601559
228	0xbdc87a53	-0.097889565
229	0xbe96ed4b	-0.29477915
230	0x3f394a9a	0.7237946
231	0xbd9b4003	-0.07580569
232	0xbe8ae7d0	-0.27129984
233	0xbf24132e	-0.64091766
234	0xbdfa961d	-0.12235663
235	0x3e864a01	0.26228335
236	0x3bd4b2c4	0.006491037
237	0xbf096f65	-0.536856
238	0xbee56fe8	-0.4481194
239	0xbf86e934	-1.0539918
240	0xbe8d626c	-0.27614152
241	0xbf91dbd0	-1.1395206
242	0xbd319b36	-0.04336091
243	0x3f506056	0.81396997
244	0xbef0f8ce	-0.47064823
245	0x3edb2092	0.42798287
246	0xbf0e9518	-0.5569625
247	0x3ede2494	0.43387282
248	0xbd5c7676	-0.05382391
249	0xbef6eb03	-0.48226175
250	0xbe90d070	-0.28284025
251	0x3e1d233c	0.15345472
252	0x3ee8d9b8	0.45478606
253	0xbdf9e2dc	-0.12201473
254	0xbe374b84	-0.178999
255	0x3def7469	0.11692125

bias f4 [400]
0	0x3e9d60cb	0.3073791
1	0xbe5c9ed5	-0.21544965
2	0xbead3d51	-0.33835843
3	0xbe189a24	-0.1490255
4	0x3f1826fa	0.59434474
5	0x3e051ced	0.12999316
6	0x3d5b4c49	0.053539548
7	0x3e8f328c	0.27968252
8	0x3ddb40d9	0.10705728
9	0xbe19ade6	-0.15007743
10	0xbdf2613b	-0.118349515
11	0x3daacc7e	0.08339785
12	0xbde4b42f	-0.1116718
13	0x3ccce022	0.025009219
14	0x3f0f1e37	0.5590548
15	0x3ec5f17c	0.386608
16	0xbe4d9abe	-0.2007856
17	0xbea9cd26	-0.33164328
18	0x3d96c22c	0.07361254
19	0x3e746f6a	0.23870626
20	0x3ed253cd	0.4107956
21	0x3e0b87f2	0.13626078
22	0x3ded5602	0.1158867
23	0x3e8a0930	0.26960135
24	0xbe446710	-0.1917994
25	0x3dd09bdc	0.10185978
26	0xbe3a2540	-0.18178272
27	0xbedff9fc	-0.4374541
28	0x3dc427f2	0.095779315
29	0x3e96e6ec	0.29473054
30	0x3ef543c1	0.47903255
31	0x3eb16218	0.34645152
32	0x3e10bdce	0.14134905
33	0xbeb9b3d5	-0.36270013
34	0x3e826069	0.2546418
35	0xbed48cb4	-0.41513598
36	0x3e398f24	0.1812101
37	0x3e6ca748	0.23110688
38	0xbd9dbf05	-0.0770245
39	0xbe7e7e9a	-0.24852982
40	0x3efb3f13	0.4907156
41	0xbe162520	-0.146626
42	0xbe01b15e	-0.12665316
43	0xbe704aa7	-0.23465978
44	0xbe55d79f	-0.20883034
45	0xbdb1f067	-0.08688431
46	0x3da4a353	0.08038964
47	0x3e837c76	0.25680894
48	0x3e859143	0.26087388
49	0xbdda36e0	-0.10654998
50	0xbec72319	-0.38893965
51	0xbe1c6be0	-0.15275526
52	0x3ea75d0d	0.3268818
53	0xbe3290f6	-0.1743811
54	0x3e3c1340	0.18366718
55	0xbe876da8	-0.2645085
56	0xbe49321e	-0.19648024
57	0x3e99bd78	0.30027366
58	0xbcf2db50	-0.029645592
59	0xbe763cad	-0.24046583
60	0xbde96448	-0.1139608
61	0x3eb9e2e4	0.36305916
62	0x3eab3df0	0.33445692
63	0x3efc3bad	0.4926428
64	0xbe283dc0	-0.16429806
65	0x3cf13b8b	0.029447338
66	0xbdbc69cf	-0.09199869
67	0xbda79bc5	-0.081840076
68	0x3e130be0	0.14359999
69	0x3e95c57e	0.29252237
70	0xbd84232b	-0.0645202
71	0xbe535bba	-0.2064046
72	0x3dc17013	0.094452046
73	0xbdbb966b	-0.09159549
74	0x3dadd97a	0.08488746
75	0x3b1fa87a	0.0024361894
76	0x3c3ab5a1	0.011395843
77	0x3daa5379	0.083167024
78	0xbb853020	-0.004064575
79	0xbd3f4ef6	-0.046706162
80	0xbe9f57fd	-0.31121817
81	0xbe74d63a	-0.23909846
82	0x3ed1210f	0.40845534
83	0x3e722f7e	0.2365093
84	0x3e385357	0.18000542
85	0xbd4aa661	-0.049475078
86	0x3d178a05	0.03699686
87	0x3e8bcf43	0.27306566
88	0xbce8a066	-0.028396796
89	0xbd01086a	-0.031502165
90	0x3e77eded	0.24211855
91	0x3e4e2b7b	0.20133774
92	0x3ece8d31	0.40342095
93	0xbd17a12e	-0.037018947
94	0x3e950557	0.29105636
95	0xbc1e89d8	-0.009676419
96	0x3f0e902a	0.55688727
97	0x3e9467be	0.289854
98	0x3ebb6d70	0.36606932
99	0x3d91416a	0.07092555
100	0x3db7d8aa	0.08976872
101	0x3cbaa618	0.022784278
102	0x3ea46659	0.32109335
103	0xbda62105	-0.08111767
104	0xbce0dad2	-0.027448092
105	0xbe4731f4	-0.1945265
106	0x3ea3fa68	0.32026982
107	0xbe0225ea	-0.12709776
108	0x3ddfd933	0.10930099
109	0xbd397272	-0.04527516
110	0xbd2257ce	-0.03963452
111	0xbc926310	-0.017869502
112	0xbd65437a	-0.055972554
113	0x3e4b6ec8	0.19866478
114	0x3eb45f66	0.35229033
115	0xbe75255a	-0.2394003
116	0xbe5744a6	-0.21022281
117	0x3e7c5f3e	0.24645707
118	0x3e9bff23	0.3046809
119	0x3e76c721	0.24099399
120	0x3ec74ba8	0.3892491
121	0x3db22390	0.08698189
122	0xbede14fb	-0.43375382
123	0x3e8d11a1	0.27552512
124	0xbe534fd9	-0.20635928
125	0xbe5fd8aa	-0.21859995
126	0x3ccc59d4	0.024945177
127	0x3d0a5d2b	0.03378026
128	0x3e2b1f7f	0.16711234
129	0x3dd919d3	0.10600629
130	0xbeb5e0d1	-0.35523084
131	0x3f20844a	0.6270186
132	0xbe17c563	-0.14821391
133	0x3dd10fe1	0.10208107
134	0x3d3d2d4e	0.046185784
135	0xbd878524	-0.066171914
136	0xbe0c6cc2	-0.13713363
137	0xbe03f69f	-0.12887047
138	0x3e0e5a09	0.13901533
139	0xbf10049a	-0.5625702
140	0xbee7390b	-0.45160708
141	0x3e0bac62	0.13639978
142	0xbe6ebeea	-0.23315015
143	0xbce33c51	-0.027738722
144	0xbee8b8d9	-0.45453528
145	0x3e3b5417	0.18293796
146	0xbcd92d76	-0.026510935
147	0x3dd1d1ac	0.1024507
148	0xbdfa1aad	-0.12212119
149	0x3def6e2a	0.11690934
150	0x3ce8ecbb	0.028433194
151	0x3e1ae89b	0.15127794
152	0xbed38eee	-0.41319984
153	0xba14dfa2	-0.0005679076
154	0x3e10f41e	0.14155623
155	0x3da28d16	0.07937066
156	0xbecddc77	-0.40207264
157	0x3cb89ec5	0.022536645
158	0xbe55ca0d	-0.20877858
159	0xbddc5b5e	-0.107596144
160	0xbd940412	-0.07227339
161	0x3df71cb0	0.120660186
162	0x3e0aa681	0.13540079
163	0xbe6c68c4	-0.2308684
164	0xbdf8e4bb	-0.12153002
165	0x3d22a7d8	0.03971085
166	0xbdce278e	-0.10066138
167	0xbbc33e96	-0.0059583886
168	0xbe061a63	-0.13096003
169	0xbe13629e	-0.14393088
170	0xbd0338f9	-0.032036755
171	0x3e6f9db3	0.23400001
172	0x3e00ffc2	0.12597564
173	0xbe945720	-0.2897272
174	0x3d7353c7	0.05940607
175	0x3e82d3ab	0.25552115
176	0x3ecba1e4	0.3977195
177	0xbc2022e6	-0.009773945
178	0xbbc460a5	-0.0059929662
179	0xbd742659	-0.059606884
180	0x3dc19f7b	0.094542466
181	0x3dd0607b	0.10174652
182	0x3e2e0471	0.16993882
183	0xbdd7dea5	-0.10540513
184	0xbe6d2d4f	-0.23161815
185	0xbe122e63	-0.14275508
186	0xbe1b13d9	-0.1514429
187	0x3eea6367	0.45778963
188	0xbe1c1e1f	-0.15245865
189	0xbe9d92da	-0.307761
190	0xbdb8a799	-0.09016342
191	0xbde227ff	-0.11042785
192	0x3c70ee00	0.014705181
193	0xbdf1a296	-0.11798589
194	0x3d8a8455	0.067635216
195	0x3f26ae1b	0.65109414
196	0x3c82d8aa	0.015972454
197	0xbe71c4de	-0.23610255
198	0xbe905900	-0.28192902
199	0xbe5ed8dd	-0.21762414
200	0xbe1b4c09	-0.15165724
201	0x3ddf6e4c	0.10909709
202	0xbdfc54e0	-0.12320876
203	0x3e0bf825	0.13668878
204	0x3e803afd	0.25045004
205	0xbdea097d	-0.11427591
206	0x3d711537	0.058858123
207	0x3f0b9ec8	0.54539156
208	0x3d992eff	0.07479667
209	0xbe93f4ed	-0.288978
210	0xbddcf5f7	-0.107891016
211	0x3e8488d0	0.2588563
212	0x3d8788c3	0.06617882
213	0x3e45efc8	0.1932975
214	0xbe9928f4	-0.29914057
215	0xbe0531a6	-0.1300722
216	0xbe3c2fb4	-0.18377572
217	0x3d4ac825	0.04950728
218	0x3e88942b	0.26675543
219	0xbeab4576	-0.33451432
220	0xbe79caaf	-0.24393724
221	0xbd901870	-0.07035911
222	0x3da75f65	0.08172492
223	0x3cab3241	0.020897986
224	0x3e903c30	0.2817092
225	0x3e4d2a27	0.20035611
226	0x3e5a26a7	0.21303807
227	0x3ea38150	0.31934595
228	0xbdeb407e	-0.1148691
229	0x3e6581c9	0.2241279
230	0x3e885220	0.26625156
231	0x3c717d38	0.014739327
232	0xbe02fadb	-0.12791006
233	0xbc823e0b	-0.015898725
234	0xbf032497	-0.51227707
235	0x3db4bec3	0.088254474
236	0xbe31bc85	-0.1735707
237	0xbe263003	-0.16229253
238	0xbd1e9ebb	-0.038725596
239	0x3edb48ff	0.4282913
240	0xbe1b94ec	-0.15193528
241	0xbdd22284	-0.102604896
242	0xbe2b4b84	-0.16728026
243	0xbe61d89d	-0.22055288
244	0xbdf9d3c3	-0.121985935
245	0xbddfdbae	-0.109305725
246	0xbcb57526	-0.022150587
247	0xbe6bd66e	-0.23031017
248	0xbc9c063f	-0.019045947
249	0x3ce69123	0.028145378
250	0xbe534e12	-0.2063525
251	0x3f065726	0.5247673
252	0xbeece13c	-0.4626559
253	0xbc813939	-0.015774356
254	0x3ea857ed	0.32879582
255	0x3dc019f5	0.09379951

weight f4 [200, 400]
0	0x3e7ec2e8	0.24879038
1	0x3e67cf5c	0.22637695
2	0x3e4f15d9	0.20223178
3	0xbeb7d8dd	-0.3590764
4	0x3efd2fec	0.49450624
5	0x3efc1db2	0.49241406
6	0x3e097b2d	0.13425894
7	0x3e918cc7	0.28427717
8	0x3d14931a	0.0362731
9	0xbe050736	-0.12991032
10	0xbe8b2b80	-0.27181625
11	0xbd441d94	-0.04787977
12	0xbe1e7435	-0.15474017
13	0x3d6c5b30	0.05770415
14	0x3f242bb4	0.64129186
15	0x3e902e1d	0.28160182
16	0xbea3c60f	-0.31987044
17	0x3e180049	0.14843859
18	0x3ef06638	0.46952987
19	0x3e21e109	0.158085
20	0x3eea0407	0.45706198
21	0x3e88288e	0.2659344
22	0x3e82c146	0.2553808
23	0x3e056fa3	0.13030867
24	0x3d90c30e	0.07068454
25	0x3ef137ab	0.47112784
26	0xbe886a17	-0.2664344
27	0xbd872dc4	-0.06600526
28	0x3eda2f2b	0.4261411
29	0x3f0fdaab	0.56193036
30	0x3f43572b	0.7630488
31	0x3e36ad11	0.17839457
32	0x3e5e310e	0.216984
33	0x3c8d4516	0.017244857
34	0x3eeac1ae	0.4585089
35	0x3e5047ea	0.20339933
36	0x3e647e46	0.22313794
37	0x3eef5d2f	0.4675078
38	0x3f361bd3	0.71136206
39	0xbea02685	-0.31279388
40	0x3e7b9ec5	0.24572285
41	0xbf14882c	-0.5802028
42	0xbebdc0d9	-0.37061194
43	0x3e00ff4d	0.1259739
44	0x3e636d9f	0.22209786
45	0xbd12687f	-0.035744186
46	0x3da6ba45	0.08140997
47	0x3dd551b4	0.10415974
48	0x3d2efa74	0.04271932
49	0xbe795e2a	-0.24352327
50	0x3e3c258e	0.18373701
51	0x3f1ecdc1	0.62032706
52	0x3e898312	0.2685781
53	0xbc209c68	-0.009802915
54	0x3ea3f4e5	0.32022777
55	0xbe9ff754	-0.31243384
56	0xbf2ba25e	-0.6704463
57	0x3ee969f9	0.45588663
58	0xbf230fd2	-0.63696015
59	0x3f0980eb	0.5371234
60	0xbe83d424	-0.25747788
61	0x3e1e872e	0.15481254
62	0x3ea36e59	0.31920126
63	0x3f0d3930	0.55165386
64	0xbe1e06c1	-0.15432264
65	0xbdefba3f	-0.117054455
66	0xbe9aaaf1	-0.30208543
67	0xbea30adf	-0.3184423
68	0x3e7bad01	0.24577715
69	0x3ee390eb	0.444465
70	0xbf3e6d98	-0.74385977
71	0xbcc2f3fd	-0.023797983
72	0x3ea9aeb3	0.33141097
73	0xbdf49df8	-0.11944193
74	0x3ed6a287	0.41920874
75	0x3e37ac39	0.17936791
76	0x3d706f27	0.058699753
77	0xbd024a42	-0.0318091
78	0x3d80dd14	0.06292167
79	0xbd8fb24a	-0.07016428
80	0xbd1a4959	-0.037667606
81	0x3e83b254	0.2572199
82	0x3eb0a394	0.344998
83	0x3e8499ef	0.25898692
84	0x3e80d0b1	0.2515922
85	0x3f1f235c	0.6216333
86	0x3d418371	0.047244493
87	0x3ecb8fc4	0.39758122
88	0x3dad4331	0.08460081
89	0x3f49b6f2	0.7879478
90	0x3ecf86ad	0.40532437
91	0x3eb3e754	0.35137427
92	0x3ec56398	0.38552547
93	0xbee954d3	-0.45572528
94	0x3e9bbf23	0.30419263
95	0xbe895d44	-0.2682897
96	0x3f3427e1	0.7037335
97	0x3ee9103e	0.45520204
98	0x3d220c55	0.039562542
99	0x3f4c2ec7	0.79758877
100	0x3e581625	0.21102197
101	0x3eb69703	0.35662088
102	0x3eae89a0	0.34089375
103	0x3ebf51ad	0.37367
104	0x3d961577	0.07328313
105	0xbeb3dd72	-0.35129887
106	0x3ed102f7	0.40822574
107	0x3ed47a82	0.41499716
108	0xbe5934af	-0.21211503
109	0xbe818baa	-0.25301868
110	0xbf0a64a9	-0.54059845
111	0x3f85d176	1.0454547
112	0xbde3f868	-0.11131364
113	0x3eecdcd1	0.4626222
114	0x3e336c7a	0.1752185
115	0x3e9ebb5a	0.31002313
116	0xbe6006b4	-0.21877557
117	0x3edf4201	0.43605044
118	0x3e7bfb8a	0.24607673
119	0x3eebe43b	0.46072564
120	0x3e263719	0.16231956
121	0x3eb7fe99	0.3593643
122	0x3ed8c00a	0.42334014
123	0x3e94da59	0.29072836
124	0xbef9da1c	-0.48799217
125	0x3e263d83	0.16234402
126	0xbf41659a	-0.75545657
127	0x3dddd06a	0.108307675
128	0x3e45dd6d	0.19322748
129	0xbdc409b9	-0.09572167
130	0x3e87d883	0.26532373
131	0x3ed5c5eb	0.41752562
132	0x3eaf5a3a	0.34248525
133	0x3e3a0b0c	0.18168277
134	0x3b807032	0.0039196247
135	0xbe39729f	-0.1811013
136	0xbf0e7633	-0.5564911
137	0xbd3fae06	-0.04679682
138	0x3e666baf	0.22502016
139	0xbe0fa5d4	-0.14028102
140	0xbd79962e	-0.060934238
141	0x3e5a0bd7	0.21293579
142	0xbeccd5bf	-0.40006825
143	0x3f5c0bb8	0.8595538
144	0x3e5af864	0.21383816
145	0x3e34dec5	0.17663105
146	0xbed7ee3f	-0.42173955
147	0x3ec73aae	0.38911957
148	0x3d7794bf	0.06044459
149	0x3eb6c447	0.35696623
150	0xbefb4d83	-0.49082574
151	0x3eac9b7c	0.33712375
152	0x3db344a2	0.08753325
153	0x3e568044	0.20947367
154	0x3e950c87	0.2911112
155	0x3e4d2df7	0.20037065
156	0x3c8c3a10	0.01711753
157	0x3f0f2dd3	0.559293
158	0x3ee7bf95	0.45263353
159	0xbf1e5a39	-0.6185642
160	0xbe8a6bf7	-0.27035496
161	0xbf01735e	-0.5056666
162	0xbe83ab18	-0.25716472
163	0xbe982052	-0.29712158
164	0xbecb297a	-0.39680082
165	0xbefd6bc1	-0.49496272
166	0xbea4a411	-0.32156423
167	0x3f29ed01	0.66377264
168	0x3e9ae74f	0.302546
169	0x3e272baf	0.16325258
170	0xbeb6e246	-0.35719508
171	0x3e547467	0.20747529
172	0x3f57dd79	0.84322315
173	0xbce9aa8e	-0.02852371
174	0x3e5d7146	0.21625242
175	0x3f359814	0.7093518
176	0x3e90b455	0.28262582
177	0x3e45c72d	0.19314261
178	0x3f324c7a	0.69647944
179	0x3f1fe700	0.62461853
180	0x3e551efb	0.208126
181	0x3e4fbc65	0.2028671
182	0x3ea0f4d5	0.31436792
183	0x3e40351b	0.18770258
184	0xbeec312c	-0.46131265
185	0xbee81131	-0.45325616
186	0x3e1cde15	0.15319093
187	0x3e9b1ec9	0.30296925
188	0xbeb29f5f	-0.34887215
189	0x3e853890	0.26019716
190	0xbeb8c549	-0.36088017
191	0xbf0a2344	-0.5396006
192	0x3e846010	0.2585454
193	0x3dcbfd1c	0.09960386
194	0x3eace9d1	0.33772138
195	0x3f0d4d5e	0.5519618
196	0x3e6e1160	0.23248816
197	0x3e14edfd	0.1454391
198	0x3cf56374	0.02995465
199	0xbec37813	-0.38177547
200	0x3dd986b3	0.10621395
201	0x3ad3e22c	0.0016165427
202	0x3f0cd821	0.55017287
203	0x3d2356ea	0.03987781
204	0x3eb1898d	0.34675255
205	0xbf05abbb	-0.52215165
206	0x3f0ebe9a	0.55759585
207	0x3e50474b	0.20339696
208	0xbee1defd	-0.4411544
209	0x3eaa919d	0.3331422
210	0x3ec76b32	0.3894897
211	0x3c28515f	0.010273307
212	0x3f0b3546	0.54378164
213	0x3eac44a4	0.3364612
214	0x3e7f6af7	0.24943148
215	0x3e5201ba	0.20508471
216	0x3e2fcd4c	0.17168158
217	0xbf529b66	-0.8226837
218	0x3e620454	0.22071964
219	0x3f4a5678	0.7903819
220	0xbd9908ae	-0.07472359
221	0xbee7e87b	-0.45294556
222	0x3e0097d5	0.1255792
223	0xbee2a596	-0.44266957
224	0x3edb5337	0.42836925
225	0x3e920b01	0.2852402
226	0x3f0c666d	0.5484379
227	0x3e9e7345	0.3094732
228	0xbc66127f	-0.014042496
229	0x3ec75e08	0.38938928
230	0x3f051f9a	0.52001345
231	0xbeaa7739	-0.33294085
232	0x3ed611ac	0.41810358
233	0x3f158e53	0.58420295
234	0xbd8e3689	-0.069439955
235	0x3d1efbaa	0.038814224
236	0x3f239832	0.63904107
237	0xbe8250b3	-0.25452194
238	0xbea0bdea	-0.31394893
239	0x3ef0645a	0.46951562
240	0xbf1e6e38	-0.6188693
241	0x3e5ab8a4	0.21359497
242	0x3e02c29d	0.12769552
243	0xbd0e9f76	-0.034820043
244	0x3f277b99	0.6542297
245	0x3f87711c	1.0581393
246	0xbea10b8e	-0.31454128
247	0xbe334ac2	-0.17508987
248	0xbda0d23a	-0.078525975
249	0x3e0fd149	0.1404468
250	0x3f67c2bf	0.90531534
251	0x3e334623	0.17507224
252	0x3da08975	0.07838718
253	0xbe1103a2	-0.14161542
254	0x3ea23176	0.3167836
255	0x3e45c9b6	0.19315228

bias f4 [200]
0	0x3f162c1e	0.5866107
1	0x3f195399	0.59893185
2	0xbd046b14	-0.03232868
3	0xbe387d34	-0.18016511
4	0xbce7341c	-0.02822309
5	0xbc7a3a3d	-0.015272674
6	0xbc736c5c	-0.014857378
7	0xbc3d2e5d	-0.011546698
8	0xbd0ea9e0	-0.034829974
9	0x3ccbb614	0.024867095
10	0xbcb8481d	-0.022495324
11	0xbca0d107	-0.019630922
12	0xbcca4dd0	-0.024695307
13	0xbd0aa295	-0.033846457
14	0x3d0b3c8e	0.033993296
15	0xbc4a76e0	-0.012357444
16	0xbda4d4a7	-0.08048373
17	0xbd582f61	-0.05277956
18	0xbdb9c482	-0.09070684
19	0x3d04c3c7	0.03241327
20	0xbd7ad62e	-0.061239414
21	0xbcc34480	-0.023836374
22	0xbd6198f1	-0.055077497
23	0xbec82e3c	-0.39097774
24	0xbd09e493	-0.03366525
25	0xbd8a9eb7	-0.06768554
26	0x3c713622	0.014722379
27	0xbd0fe9c9	-0.035135064
28	0xbd62277d	-0.05521344
29	0xbcf89cbf	-0.03034818
30	0xbd6b5abd	-0.05745958
31	0xbd8fe9f0	-0.07027042
32	0xbd9ca511	-0.076486714
33	0xbc8ebcf9	-0.017424094
34	0x3c9c2392	0.01905993
35	0xbe5bbc2c	-0.214585
36	0x3f14ce75	0.5812753
37	0xbd1a8422	-0.037723668
38	0xbcd0588f	-0.025432853
39	0xbdb0efb0	-0.08639467
40	0x3b8bc864	0.004265832
41	0xbbf77745	-0.00755206
42	0x3f0de707	0.55430645
43	0xbc83317c	-0.016014807
44	0x3db2adc0	0.087245464
45	0xbd5936e0	-0.05303085
46	0xbcbb9df4	-0.022902466
47	0x3c3428a4	0.010996018
48	0xbc2dded3	-0.010612207
49	0xbc8a1b56	-0.016858738
50	0xbd908dca	-0.07058294
51	0xbd095cfa	-0.033535935
52	0xbd87ed54	-0.066370636
53	0x3e9f65a8	0.31132245
54	0x3f095114	0.5363934
55	0xbd54dea9	-0.051970158
56	0xbdef3924	-0.116808206
57	0xbc57d18c	-0.013172518
58	0xbcce6e39	-0.025199043
59	0xbb819173	-0.0039541065
60	0xbd42b6db	-0.047537666
61	0xbbdd999b	-0.006762696
62	0xbd0fbc41	-0.035091642
63	0xbd6a56bb	-0.05721162
64	0xbd9653e0	-0.07340217
65	0xbb1f2fd8	-0.0024289992
66	0xbe2fdb94	-0.17173606
67	0xbd5908e9	-0.052987013
68	0xbc97e58b	-0.018542072
69	0xbcfe10a8	-0.031013802
70	0x3c8da5cb	0.01729097
71	0xbe04d8ac	-0.12973279
72	0xbc99cd8b	-0.018774768
73	0xbd578682	-0.05261851
74	0xbd427ceb	-0.047482412
75	0xbba4de37	-0.005031373
76	0xbe059b78	-0.13047588
77	0xbc268fb4	-0.010166097
78	0xbd018f75	-0.031630952
79	0x3d1e7cfa	0.038693406
80	0xbdd9e116	-0.10638635
81	0xbc26b702	-0.010175468
82	0xbd350091	-0.044189993
83	0xbd376d4d	-0.04478197
84	0xbd580ed0	-0.0527485
85	0xbd096bc9	-0.033550058
86	0xbd110387	-0.035403755
87	0xbd920259	-0.07129354
88	0x3bf919ca	0.0076019512
89	0xbc2556e8	-0.010091521
90	0xbd3403d3	-0.04394896
91	0xbd21c250	-0.03949195
92	0xbd39be5f	-0.045347568
93	0xbc877fbd	-0.016540403
94	0xbd8c2137	-0.06842273
95	0xbb4c18ef	-0.0031142791
96	0x3f362552	0.71150696
97	0xbc33d062	-0.010974975
98	0xbc7ad3b1	-0.01530926
99	0xbd3f2d00	-0.046673775
100	0x3ccb6aa9	0.024831133
101	0x3eb464d2	0.3523317
102	0x3cef6ce2	0.029226724
103	0x3c47aa37	0.0121865785
104	0x3ed93808	0.4242556
105	0xbd075162	-0.033036597
106	0xbd408766	-0.047004126
107	0xbed529e1	-0.41633514
108	0xbbccd62b	-0.0062511167
109	0xbc4282d1	-0.011872009
110	0xbd60765e	-0.054800384
111	0xbd8c9dfc	-0.06866071
112	0xbd9d6723	-0.076856874
113	0xbcc5bba9	-0.024137335
114	0x3cd212f2	0.0256438
115	0x3f12ea85	0.573891
116	0xbd0841c6	-0.03326585
117	0x3eec106c	0.4610628
118	0x3f2c8970	0.67397213
119	0xbd79e4b1	-0.061009113
120	0xbc542915	-0.012949248
121	0x3b250b68	0.00251838
122	0x3d9be074	0.076111704
123	0x3ed53dc6	0.41648692
124	0x3e8442fd	0.25832358
125	0x3f598607	0.84970134
126	0xbd8004ea	-0.06250937
127	0xbc8a3a88	-0.016873613
128	0xbc4cd10a	-0.012501011
129	0xbd8f3bec	-0.06993851
130	0xbb823217	-0.0039732563
131	0x3c83211a	0.016006995
132	0xbbf3d295	-0.007440875
133	0x3d78c431	0.060733978
134	0xbd46ee38	-0.048567027
135	0x3dc66e5d	0.09689019
136	0x3dd88326	0.105718896
137	0x3bb9bdd5	0.0056683817
138	0xbd0190e5	-0.031632323
139	0x3cf2b485	0.029627094
140	0xbcf95c21	-0.030439438
141	0xbc5481c8	-0.012970395
142	0xbce14704	-0.027499683
143	0xbda3bf64	-0.07995489
144	0xbcf90179	-0.03039621
145	0x3a568363	0.00081830303
146	0x3cb82d33	0.02248249
147	0xbd97c0d0	-0.07409823
148	0x3cb60dda	0.022223402
149	0x3cd6ed77	0.026236279
150	0xbc2d80a5	-0.010589753
151	0xbce9236e	-0.028459277
152	0x3cb0cf0f	0.021583108
153	0xbd2bb41b	-0.04191981
154	0xbd085b34	-0.033290103
155	0xbd90ca4e	-0.070698366
156	0xbdaa6f06	-0.08321957
157	0x3b0307fd	0.0019993775
158	0x3cccca1a	0.024998713
159	0xbce2e7a8	-0.027698353
160	0x3f1a9c1c	0.60394454
161	0x3cea1d5f	0.028578458
162	0xbd35e7ef	-0.044410642
163	0xbd705aa1	-0.05868018
164	0xbcfa97b4	-0.030589916
165	0xbeb1a992	-0.34699684
166	0xbcc5919d	-0.024117285
167	0x3f2aced1	0.66721827
168	0xbc447870	-0.011991605
169	0xbd9b08c0	-0.07570028
170	0xbca864a1	-0.020555796
171	0xbda2b806	-0.07945256
172	0xbd93c6af	-0.0721563
173	0x3e4717ee	0.19442722
174	0xbd786c98	-0.060650438
175	0xbd1e8634	-0.038702205
176	0xbea388d5	-0.31940332
177	0xbc37ad0f	-0.011210694
178	0xbd1ad565	-0.037801165
179	0x3a833b68	0.0010012211
180	0xbdd1fee4	-0.10253695
181	0xbcf7f782	-0.030269388
182	0xbd063a2c	-0.03277032
183	0xbb83bd80	-0.004020393
184	0xbdabf6c8	-0.08396679
185	0x3cb0b393	0.021570003
186	0x3c77f432	0.015133904
187	0xbce01d55	-0.027357737
188	0xbd2a52dc	-0.041582927
189	0xbd6289d7	-0.055307236
190	0x3cc8ab3e	0.024495717
191	0x3eb51e12	0.35374504
192	0xbcc8a31a	-0.024491835
193	0xbd6a6a74	-0.057230428
194	0xbc885f9d	-0.016647154
195	0xbd7f859b	-0.062383275
196	0xbd6e2237	-0.0581381
197	0x3851f038	5.0053204e-05
198	0x3e914b38	0.283777
199	0xbcf9ca47	-0.030491961

weight f4 [1, 200]
0	0x3eebb346	0.46035212
1	0x3efe8b54	0.49715674
2	0x3d1dd586	0.03853371
3	0xbe10c132	-0.14136198
4	0x3d284a11	0.04108626
5	0xbc572d58	-0.013133369
6	0xbc8f2d7d	-0.017477745
7	0xbccd9bcc	-0.025098704
8	0x3cc383fd	0.023866648
9	0x3d6ca609	0.05777553
10	0xbcdc7345	-0.026910434
11	0xbc85da76	-0.016339522
12	0x3d73277e	0.059363835
13	0xbbd3fdb7	-0.006469454
14	0x3e188359	0.14893855
15	0xbd137ebe	-0.036009543
16	0x3b13df07	0.0022563355
17	0x3cb2f55e	0.021845516
18	0xbcddd7cb	-0.027080437
19	0xbcfc5e0e	-0.030806568
20	0x3d2993ec	0.041400835
21	0x3b9bd7eb	0.004755964
22	0x3d4f1d74	0.050565198
23	0x3ed8a0f8	0.4231031
24	0xbc8298ef	-0.015942065
25	0xbd045451	-0.032306973
26	0xbdb56c31	-0.088585265
27	0x3c39eb6f	0.011347636
28	0x3bf7f5ee	0.007567159
29	0xbc481dbf	-0.012214123
30	0xbce7f9de	-0.028317388
31	0xbd19749c	-0.037464723
32	0x3b2fb2ba	0.002680941
33	0xbc83f086	-0.016105901
34	0xbcd347b2	-0.025791023
35	0x3cd29110	0.025703937
36	0x3ec21dcf	0.37913367
37	0x3cf65f9e	0.03007489
38	0xbcc0f653	-0.023554957
39	0x3bd3e5bd	0.006466596
40	0x3d3870e3	0.045029532
41	0xba813808	-0.0009858618
42	0x3eaa2e58	0.33238482
43	0x3d212c32	0.03934879
44	0x3e897f28	0.26854825
45	0xbcc4733b	-0.023980727
46	0xbd151b64	-0.036403075
47	0x3c9dc63b	0.019259563
48	0x3b871497	0.0041223275
49	0xbd2d09ae	-0.04224556
50	0xbd01425e	-0.031557433
51	0xbb36f792	-0.002791856
52	0x3b86a494	0.0041089747
53	0x3e9d493a	0.3071993
54	0x3e7ed6b2	0.24886587
55	0xbc9a8da6	-0.018866371
56	0x3cc3c3eb	0.023897132
57	0xbd0e1801	-0.03469086
58	0x3d3ab142	0.045579202
59	0x3c85c89c	0.01633101
60	0xbcc8a486	-0.024492513
61	0xbcdbfeca	-0.026854891
62	0xbcfe1f91	-0.031020911
63	0xbb8a85f3	-0.004227394
64	0xba8a7fbe	-0.0010566635
65	0xbba160f5	-0.0049248883
66	0x3dff0706	0.124525115
67	0x3d2e16eb	0.042502325
68	0x398ac114	0.00026465266
69	0xbce75eba	-0.028243411
70	0x3cd1c782	0.025607828
71	0xbd58006b	-0.052734774
72	0xbcf70352	-0.03015295
73	0xbc889abf	-0.016675351
74	0x3cfa673d	0.030566806
75	0x3b8f8526	0.004379886
76	0xbdbb1624	-0.09135082
77	0x3c922b79	0.017842995
78	0xbc2b7749	-0.0104654515
79	0x3c7d4a09	0.015459546
80	0xbb933215	-0.004492054
81	0xbd0e885d	-0.034798015
82	0x3aca1b2a	0.0015419472
83	0xbceb1a36	-0.028699022
84	0x3d2afc4b	0.04174451
85	0xbc8ad1b4	-0.016945697
86	0xbc759946	-0.0149901565
87	0xbd0653c7	-0.03279474
88	0xbcaa073b	-0.0207554
89	0xbcfce4c7	-0.030870808
90	0xbc959dfb	-0.018263808
91	0xbccff7e4	-0.025386758
92	0xbcc9ce66	-0.024634551
93	0xbd277a56	-0.040888153
94	0x3bb0f804	0.0054006595
95	0x3d1c0088	0.038086444
96	0x3f11a362	0.5688993
97	0xbc789c60	-0.015174001
98	0x3bddf948	0.0067741014
99	0xbb828289	-0.003982846
100	0xbd1740fa	-0.0369272
101	0x3e7fdc0b	0.24986283
102	0xbd5ca960	-0.053872466
103	0xbd05081e	-0.032478444
104	0x3e879253	0.26478824
105	0x3bb9f57f	0.0056750174
106	0xbbd253d5	-0.006418685
107	0x3e339d89	0.17540564
108	0x3b59f96f	0.0033260246
109	0xbcd7ab77	-0.026326878
110	0x3ba1d2e8	0.004938472
111	0xbd01729c	-0.03160344
112	0xbcacfe01	-0.021117212
113	0xbcc21c7e	-0.023695227
114	0x3cb508d1	0.02209893
115	0x3ef99f94	0.4875456
116	0x3cc6039c	0.024171643
117	0x3eca675f	0.3953199
118	0x3f056b62	0.5211698
119	0xbc889942	-0.016674642
120	0xbcf9c078	-0.030487284
121	0x3a82178c	0.000992523
122	0x3d16b607	0.03679469
123	0x3e9ae0d3	0.30249652
124	0x3e51cf53	0.20489244
125	0x3f24af4f	0.6433
126	0x3d4f4ee6	0.050612353
127	0xb98e898b	-0.00027186828
128	0xbcc2f937	-0.023800476
129	0x3b6d9ea4	0.0036257887
130	0x3cfd1a14	0.030896224
131	0xbd0179a4	-0.031610146
132	0xbc94d4a3	-0.0181678
133	0xbda801dc	-0.0820348
134	0x3bc22d5f	0.005925819
135	0x3d82cf10	0.0638715
136	0x3dbb7966	0.09154014
137	0x3d230163	0.039796244
138	0xbc0ae8e7	-0.00847838
139	0x3c28f4b3	0.010312247
140	0xbd8aaf19	-0.067716785
141	0xbcb80d15	-0.022467175
142	0xbc708721	-0.014680655
143	0x3d028922	0.03186906
144	0x3d08fc9c	0.033444032
145	0xbafdaf58	-0.0019354625
146	0x39f80728	0.00047307578
147	0xbce4483e	-0.027866479
148	0x3d2e77a4	0.042594567
149	0x3aa7593e	0.0012767685
150	0x3b0ada0b	0.0021187093
151	0xbbebc6ae	-0.0071953153
152	0x3cdb3bfe	0.026762005
153	0x3bc54fef	0.0060214917
154	0xbd9aa168	-0.07550317
155	0xbd787a7e	-0.060663693
156	0xbb6e4cbf	-0.0036361662
157	0xbc43d10d	-0.011951697
158	0xbbba2c76	-0.0056815697
159	0xbd036de6	-0.03208723
160	0x3f03fc5f	0.5155696
161	0x3c9c36f4	0.019069172
162	0x3c1a3a26	0.009413278
163	0xbccceaab	-0.025014242
164	0xbb1a2393	-0.002351974
165	0xbd30b32c	-0.04313962
166	0xbc95721f	-0.018242894
167	0x3f114c35	0.5675691
168	0xbc252f2b	-0.0100820465
169	0xbcc73f0a	-0.024322052
170	0x3d150120	0.036378026
171	0xbdcb1c25	-0.099174775
172	0xbd3c0072	-0.045898862
173	0x3e36a114	0.17834884
174	0x3cd8ad2a	0.026449759
175	0xbcf960f5	-0.03044174
176	0x3e0037d7	0.12521301
177	0xbc8d4141	-0.01724303
178	0x3b89481f	0.0041895057
179	0x3d531c12	0.05154044
180	0xbe0e934c	-0.13923377
181	0x3d4e62d6	0.050387226
182	0xbcc1c565	-0.023653695
183	0x3cfabdb4	0.030608036
184	0xbc8c7de2	-0.01714987
185	0x3ced2f22	0.028953139
186	0xbeb884cb	-0.36038813
187	0x3bea103c	0.0071430486
188	0x3d0e7bbc	0.03478597
189	0xbcedc1d2	-0.029023085
190	0x3c923c86	0.017851125
191	0x3e9ef15a	0.31043512
192	0xbd0c4a41	-0.0342505
193	0xbd87d4df	-0.06632399
194	0xbc9d00c3	-0.019165402
195	0xbc212b3f	-0.009836971
196	0xbcf6ab95	-0.030111114
197	0x3f277caf	0.6542463
198	0x3f2d886b	0.6778628
199	0xbcd0af02	-0.025474075
