lab2/problem3/neural-network-3-critic-gamma-1.pth (torch, 339275 bytes, 5 tensors)

weight f4 [400, 8]
00000000: 8776 813f 4933 8bbe c630 b23e 6ac5 4dbe
00000010: ce53 ddbd 1bcf e9be 11c5 39bf bc70 31bf
00000020: 86c9 f4be d8bf 153e 94b2 e53e 7d21 673e
00000030: 108d e23e 5535 04bf d157 50bd 0d54 d3bd
00000040: e05c e0bd 55e8 2ebd f5b7 df3c 33f8 f23d
00000050: 4b59 1fbf 0366 843e 58f7 d6be d2d5 71be
00000060: 7644 d83e 0dc2 a0be a7cb 00be 73cc 803e
00000070: 61c8 423e e651 53bd 4e2c e8bd bbdd 31bf
00000080: e794 c2bc 8954 ccbd 360e afbd 2fca 1b3f
00000090: 760b 3d3e c9ca 9f3c 93d8 66be 91e6 94be
000000a0: bacf 81be 7ad6 f8bd 583e 543e 3513 893f
000000b0: 8aaa d3bb ecfd 53be 5e69 eb3e 3997 63be
000000c0: 502b 9cbd 01cf 0c3f d21f 21be 3099 f5be
000000d0: 28f1 a33e 9de7 1abd 1b45 fbbe 76f3 06bc
000000e0: 8947 cdbd 88a2 663e b6fa d6bd b6e4 f2be
000000f0: 9df6 c5bf c558 623e 396e 0fbd 6d1e 81be
00000100: 03b2 513e 10e7 0d3e 595b f1be 5050 4e3f
00000110: 34c5 8cbe a873 213f 0997 07be 88ed 55be
00000120: f1fb 213d 46fa 2b3e c255 c4bd a933 1d3e
00000130: e7c4 3bbe 222d f1bd e3a4 95bd 4798 0e3e
00000140: 56cb 353d c44b 7e3e e154 80be c73f 1ebe
00000150: d6c4 6f3e 7d05 99bd 17d4 c6be 4960 cdbb
00000160: db9f 92be c6e0 18be c7cd a13e 3853 f33e
00000170: 31e8 13be ad38 853e c09d f63d cf40 ee3d
00000180: fed0 773f 5aa0 bebd 7f44 ab3e 3e9b d73e
00000190: 069d 0dbd 104f 78be 56dc 923e 4eae a2bd
000001a0: fa2e 053d aa2a 2abe e33b 8ebe e2a3 0b3f
000001b0: 6ab7 473e a92e 15bf 9743 f5bc 6cbf 2cbe
000001c0: 50f1 813e 317d d7be 998b c43e c210 483e
000001d0: e406 b2be 9436 803d 4cc0 43be 614a a63e
000001e0: 89c8 e9bd 83c6 9f3d fa07 63be 74ea 7d3e
000001f0: de8c 9d3d 9614 16be 40df 44be 8ab4 bcbe
00000200: aa7b 9a3c e313 073e 2634 17be 9f4e 173d
00000210: 6311 10bf bc2b 18be b631 933d a25b 9dbe
00000220: 2e31 04bf fd91 33be d17e a6be 71aa 973e
00000230: 0a78 b4bd 3963 3a3c 13e2 3f3e 062c 00bf
00000240: d262 1fbe b228 45be 338e efbd 7b88 ee3e
00000250: caaa f73d 461f c3be 4bc1 a8be 2c42 433e
00000260: a511 103d e296 92be 23f7 153e 237b 9c3e
00000270: 4710 adbe 423b 4dbe 26b9 febe 52fb 00bf
00000280: f6a7 943d 98a4 babd 3b1d 993e c401 983d
00000290: 6bba 103f ae31 3dbc 26a8 11bf a7da 68bf
000002a0: 9e3f 35bf 6f88 433d c8f2 26bd a1b5 b23f
000002b0: d7fb 82be 80aa 1ebe 0775 b2be 503f 28bc
000002c0: 53d9 003f 5410 b13e 437d 42be cd7a 6c3f
000002d0: cefd 833e 3f1f febd c942 353c 3136 973d
000002e0: 7d07 3b3d 6c13 c73e 1ce3 5ebd 61f5 923e
000002f0: 56b5 bd3e c44a 03bd 32d9 7bbe d669 0fbf
00000300: de42 02bd a420 8cbd 4da0 e3bd bf9c 843e
00000310: 1cab edbe c068 7cbd 5fd8 fc3d 413d 48be
00000320: 323e cf3e 8fd1 823d f33d e1bd f64f 443f
00000330: eabf 1d3e a833 f9be 98cd 293d 4667 6ebf
00000340: a120 2b3e 7e39 0abe 02bf f43d 2801 283e
00000350: 2732 cabe 5ea0 33be 5448 f5be 2f23 05bf
00000360: 0c64 293d 7dbb 66be 0da0 70bc 42c6 e53e
00000370: 94c7 42bd 3986 44bd 8575 d4be 437a 4cbe
00000380: 4cf5 833e 4a0b 403d 5965 55be 19de a2bd
00000390: a7fe a3bd 2b2b adbd fc80 d2be 4dff c3be
000003a0: c122 91bf c3b3 a2be aa29 03bf f882 913e
000003b0: ac93 ab3e 3657 f93e b2a4 4fbe 5ade 3bbf
000003c0: 3546 d2bd f757 87bd 0be5 e0bd ed12 643e
000003d0: bb0a 103e 2d32 a23e e822 4ebe 0d69 1ebf
000003e0: cc4c 3f3e 24f3 4dbe 2c90 6dbe 7143 26be
000003f0: bf17 6fbe ef50 ee3d 1017 dfbe e2ad d5be
1.0114297 -0.27187565 0.34802836 -0.20094839 -0.10807 -0.4566582 -0.72566324 -0.69312644
-0.4781 0.14623964 0.44862807 0.22571369 0.44248247 -0.5164388 -0.050865 -0.10318766
-0.109552145 -0.042702038 0.027309397 0.118637465 -0.62245625 0.2585908 -0.41985583 -0.23616722
0.42239732 -0.3139805 -0.12577687 0.25155982 0.19021751 -0.051591776 -0.113365754 -0.6947896
-0.023752643 -0.09977061 -0.085476324 0.6085538 0.18461403 0.019505875 -0.22543554 -0.29082158
-0.25353795 -0.12150283 0.20726907 1.0708987 -0.006459539 -0.20702332 0.45978826 -0.22225656
-0.07625449 0.5500336 -0.15734795 -0.47968435 0.32019925 -0.03781854 -0.4907616 -0.008236757
-0.1002341 0.22522938 -0.10497038 -0.47440118 -1.5465885 0.22104175 -0.035017226 -0.25218526
0.20478062 0.13857675 -0.47140005 0.805913 -0.27494204 0.630671 -0.13241209 -0.20891392
0.03954691 0.1679469 -0.095866695 0.15351738 -0.18336831 -0.117761865 -0.0730684 0.13925277
0.04438337 0.2483359 -0.25064757 -0.15454017 0.2341493 -0.0747175 -0.38833687 -0.0062675816
-0.28637585 -0.14929494 0.31602308 0.47524428 -0.14444043 0.26019803 0.12041807 0.11633455
0.9680327 -0.093079284 0.33450696 0.42110628 -0.034573577 -0.2424891 0.28683728 -0.07943402
0.032515503 -0.16617838 -0.27780065 0.5454694 0.1950356 -0.5827432 -0.029939456 -0.16869897
0.2537942 -0.420877 0.38387755 0.19537643 -0.34770882 0.0626041 -0.19116324 0.32478622
-0.11415202 0.07801535 -0.22171012 0.24796468 0.07692884 -0.1465629 -0.19225788 -0.3685649
0.018857796 0.1319118 -0.14765987 0.036940213 -0.5627653 -0.14860433 0.07187216 -0.30733973
-0.5163754 -0.17536159 -0.32518628 0.29622224 -0.08811958 0.011376196 0.18738584 -0.50067174
-0.1556504 -0.19253805 -0.11697044 0.465885 0.12093122 -0.38109797 -0.3295997 0.19068211
0.035173077 -0.2863074 0.14645056 0.30562696 -0.3380148 -0.20042136 -0.49750632 -0.50383484
0.072585985 -0.09113425 0.29905114 0.07422212 0.5653445 -0.011547489 -0.568972 -0.90958637
-0.708002 0.047737535 -0.040758878 1.3961679 -0.25582764 -0.15494728 -0.3485491 -0.010269001
0.5033161 0.3458277 -0.18993096 0.9237488 0.25779575 -0.124083035 0.011063286 0.07383383
0.04566144 0.38882005 -0.054415807 0.28702834 0.3705241 -0.032053724 -0.24594572 -0.5602087
-0.03180205 -0.06842163 -0.11114559 0.25900838 -0.4641961 -0.061623335 0.12345957 -0.19554617
0.4047714 0.063876264 -0.10998144 0.7668451 0.1540524 -0.48672223 0.041455835 -0.9312633
0.16711666 -0.13498494 0.11950494 0.16406691 -0.39491388 -0.17541644 -0.47906744 -0.5200681
0.041355178 -0.22532459 -0.014686597 0.4487782 -0.047553614 -0.047979567 -0.4149591 -0.19968514
0.25773084 0.046885766 -0.20839442 -0.07952518 -0.080075555 -0.08455499 -0.41114032 -0.38280717
-1.1338731 -0.31777772 -0.5123545 0.28420234 0.33511102 0.4869935 -0.2027767 -0.73386157
-0.10267297 -0.06608575 -0.109811865 0.22272845 0.14066593 0.31678906 -0.20130503 -0.61879045
0.1868164 -0.20112282 -0.23199528 -0.16236664 -0.23348902 0.116365306 -0.43572283 -0.41734225

bias f4 [400]
00000000: 77f3 19bd 1d9f 82be 6596 e13c aa81 a63e
00000010: a767 883b 577a 8abe af41 aabe 6dac c0be
00000020: 3b97 95be 7933 febe 9a8b 14bd 8284 f53e
00000030: 7a51 ee3e b99e ee3e 87fe 263f e876 83bd
00000040: a9a6 a7be 20bc 95be d7bf 1d3f 4b8d 1a3e
00000050: c54e 573e 9ad2 10be 92dc c1bd 7ed5 d3be
00000060: b798 7fbe 7147 3abe c9b8 aabd c39e ff3d
00000070: b2f9 90be c9bc aa3e b10b 0a3d 2701 a9be
00000080: 5435 e7bd c964 5fbe 8348 b03e 10c6 083f
00000090: 450d fdbe b76e a23e a5a2 8bbe dc5d 81bd
000000a0: 640e 253e 2225 803e bc89 2a3f b56d 043e
000000b0: db28 3dbc 4df8 4e3e 3233 fc3d 83ab a2bd
000000c0: 2a7e 15be a5c8 c2bd 22a9 ba3d 0b1f 9bbe
000000d0: 2741 503d 0f45 013e 4641 293f 59ad a2bd
000000e0: 7092 2ebd 686e e83d 6593 8e3d c301 4ebe
000000f0: 2497 27be 8027 253f e8b5 e1be 6e22 a5bd
00000100: 972a 913e 8a2a 88be ed4d 7d3e 2798 54be
00000110: 3582 02be d473 cb3d d6ca acbe 5ea7 17bd
00000120: 61cd 2cbe d3f5 f5bb c5f7 10bd bf2b c4be
00000130: 1a13 01bf 7f48 d43c 4ee8 cebd fe55 1abd
00000140: 2564 983d 5b32 67be 0b08 143e 5752 8b3e
00000150: 09e5 9abe 2628 6fbe e6f5 16bc 7f41 883e
00000160: 42fc 35be 2be0 873e 9a86 983e fe98 c83e
00000170: 13a0 78be 6448 6ebe df77 f0bd 4f39 263e
00000180: db98 e63d 7b95 113f 58fd c83e 6f2c 1fbe
00000190: c66f d2bd 878e c93c 51df ed3c bba7 163d
000001a0: 2418 c1bd 4ca8 163d 84de cabe 5d84 b4bd
000001b0: 24f7 7f3e 30e9 76be f1a8 4ebe 62a1 0bbf
000001c0: d073 93be 5610 203f b78b 57bd 392b debc
000001d0: c976 debe d2bd 6f3d dd1b 7dbe a662 5fbe
000001e0: 6aa1 223f fc82 bebe f352 aa3e b5b7 743e
000001f0: c4dc 083e 40ec 41bd 726e dcbe 421e 733c
00000200: bc7b 3ebd 494f cc3e 52cf c1bd d21d 033f
00000210: ad36 89be e5c6 9b3e 7b95 993e 07bc 18be
00000220: e5ab dabc ba59 3dbe 2591 6bbe 60bc f7bd
00000230: 75d3 213d bc8a a53e 992a e7bc 3be7 173f
00000240: 6b17 9abd 03c6 87be d86c ec3e 997e 05be
00000250: 9a2e 8cbe 6b9c c13e 8674 8ebe fe23 c8be
00000260: 99c7 2c3e 767a dabd 6f3f 74be 8b71 0a3f
00000270: 39e7 43bd ad13 e13e c0c4 a5be 0192 a83d
00000280: 41f7 babc 26fe cdbe ec07 153e 2ae0 773c
00000290: 3775 ae3e 2f70 77bd 240f f2bd a35b c93e
000002a0: 9fb6 9a3b 8f8f 1dbe 9888 c83e f216 01be
000002b0: 11cc 803c b6c5 9f3e 6d4f d53d 0088 983e
000002c0: b86a bf3e 875b 8e3e 2ea2 a7be 45b7 bf3d
000002d0: 6635 953d fecc b03d 06df 363e 2743 47be
000002e0: e3a1 db3d 5bc7 3bbe c145 563e 6cd2 3e3d
000002f0: ebb8 263e 4f4c ee3e 87d0 c63c e3fd a9bd
00000300: 48ca e0be 5986 d8bd 7183 babe f1c6 353f
00000310: d650 29bc 43bd 50be 0147 933c 377d 8a3c
00000320: 4fca 97bd 89ff cb3e 3568 013f f907 2d3e
00000330: bde0 4d3b 93dd 233e 4281 693e 4a6a 4abe
00000340: 12fd 80be 1fa8 9b3c 6af7 113d 3e54 a3be
00000350: 4697 eb3d e5d1 60be ecd4 23be f702 0e3f
00000360: 0556 033e ab8a f73d 2880 ddbe d7aa e03e
00000370: 775a 42be d667 96bd 0e8b 0cbd f6bc 773d
00000380: 088b 5c3e b64b 183f 4c56 51be cfc7 0a3d
00000390: e58a 653c a71f 2e3e 9a48 c83d dee2 09bc
000003a0: 1159 c4be 2575 41be 5fbc eebd 0f5d c0be
000003b0: 8d88 c13d c579 283e 49d6 303f cb31 14ba
000003c0: f527 133f e013 bebe 6a99 c63e a863 883e
000003d0: d29c 873d f34b 0d3d 8f1e 2dbe 16a9 3bbe
000003e0: 3264 9b3e 5b3e d1be 0222 493e cb3f 82be
000003f0: 1122 8f3e 6f68 8f3e 45a8 d3be c27e a9bd
-0.0375857 -0.2551202 0.027537534 0.325208 0.004162747 -0.27046463 -0.33253238 -0.3763155
-0.29216942 -0.49648646 -0.036265947 0.47952658 0.46546537 0.4660547 0.6523213 -0.06419164
-0.3274434 -0.2924509 0.6162085 0.15092961 0.21026142 -0.14142838 -0.094658986 -0.4137382
-0.249606 -0.18191315 -0.08336026 0.12481453 -0.28315502 0.33347157 0.033702556 -0.33008692
-0.112894684 -0.2181579 0.34430322 0.5342722 -0.49424186 0.31725094 -0.27272525 -0.063167304
0.16118771 0.2502833 0.66616416 0.12932475 -0.011545385 0.20211907 0.12314452 -0.079428695
-0.14598909 -0.09510926 0.09114291 -0.3029712 0.050843384 0.12624 0.66115224 -0.0794322
-0.042620122 0.11349183 0.06961707 -0.2011786 -0.1636625 0.645134 -0.44084096 -0.080632076
0.28352806 -0.26594955 0.24736758 -0.20761167 -0.12744983 0.09934202 -0.33748502 -0.03702485
-0.16875221 -0.007506111 -0.03539254 -0.38314626 -0.5041977 0.025913475 -0.10102902 -0.037679665
0.07440976 -0.22577803 0.14456193 0.27211258 -0.30252865 -0.23355159 -0.0092139 0.2661247
-0.1777201 0.26538214 0.29790193 0.39179224 -0.24279813 -0.23269802 -0.117416136 0.16232799
0.112596236 0.56868714 0.39255786 -0.15544294 -0.10275225 0.024604095 0.02903715 0.036781054
-0.094284326 0.036781594 -0.3962289 -0.08814309 0.2499662 -0.24112391 -0.20181634 -0.54543126
-0.28799295 0.62524927 -0.052623477 -0.02712022 -0.4345 0.058530636 -0.2471766 -0.21814975
0.6352755 -0.37209308 0.3326641 0.23898204 0.13365465 -0.047344446 -0.43053013 0.014838757
-0.04650472 0.3990424 -0.09463371 0.5121738 -0.26799527 0.30425182 0.29996857 -0.14915477
-0.026693294 -0.18491259 -0.23004587 -0.120964766 0.0395083 0.32332408 -0.028218554 0.59337205
-0.07523998 -0.26518258 0.4617679 -0.13036574 -0.27379304 0.3781465 -0.27823275 -0.3908996
0.16873015 -0.10667889 -0.23852323 0.540795 -0.047827933 0.43960324 -0.3237667 0.08230973
-0.022822978 -0.40232962 0.14553803 0.0151291285 0.34073803 -0.06040972 -0.11819294 0.39327726
0.004721477 -0.15386795 0.39166713 -0.12606409 0.015722306 0.3120553 0.1041554 0.2979126
0.37386107 0.27804205 -0.3274092 0.09361128 0.072855756 0.08632849 0.17858514 -0.1945921
0.10724237 -0.18337767 0.20925047 0.046587393 0.16281478 0.46542594 0.024269355 -0.08300378
-0.43904328 -0.105725 -0.36428407 0.71006685 -0.010334214 -0.20384698 0.017978193 0.01690541
-0.07411634 0.39843395 0.5054963 0.16897573 0.0031414472 0.16002493 0.22803214 -0.19767109
-0.25193077 0.019001065 0.035636343 -0.3190021 0.115034625 -0.21955068 -0.15999192 0.55473274
0.12825783 0.12086996 -0.43261838 0.4388034 -0.18979822 -0.07344024 -0.0343123 0.06048294
0.21537411 0.59490526 -0.20443076 0.03388196 0.014010166 0.17004262 0.09779473 -0.008415906
-0.38349202 -0.18892343 -0.11657023 -0.37570998 0.09449873 0.16452701 0.69076973 -0.00056531717
0.57482845 -0.37124538 0.3878892 0.26638532 0.06621708 0.03449626 -0.16906188 -0.1832622
0.3034988 -0.40867886 0.19641879 -0.25439295 0.27955678 0.28009364 -0.41339317 -0.0827613

weight f4 [200, 400]
00000000: f0a2 b93d b7d8 a0be 1b73 b7bc 3678 5c3e
00000010: cf35 f3bd 3128 72bd 1b9f c4be c076 6e3e
00000020: 37ca 3fbc 7fca 64bd d3ac a9be 8d83 9ebd
00000030: 3982 24bd 1eeb 40bd 46ea 183e 9981 f2be
00000040: 29a8 a93d b06f 9bbd 2a94 4fbc 7ca8 e3bd
00000050: 0f08 c53e 7ae8 24be a970 45be d826 98be
00000060: 8ba7 b43e 16aa 14bf a6a0 74bd e6e3 02be
00000070: 9a9c b03d cd5a 04bc 8aca 443d 935a 943e
00000080: 9592 8ebe 14c4 c73b 1bdf 9f3d 8354 043d
00000090: f824 a5bd 7373 d83d 6f7f 52be 2e38 003e
000000a0: 9f55 eabd 682f bfbc 9c0b 10be d2a5 baba
000000b0: 8c28 46be e587 833e 1337 28be 7409 873d
000000c0: 2b69 dcbd 0b56 2bbe 8127 b5bd 352f 07be
000000d0: 45b1 0a3e ab3b cdbd 0d31 f53d f693 0bbd
000000e0: aa18 5c3d e44e 92bd 5cae d03c c404 57bd
000000f0: 6bf0 47bd 2525 873e 1340 493c 1a9b 0fbd
00000100: 6687 593d 9013 9dbd 0d78 c43e 1e2b 66be
00000110: 09cd d1bc f0a3 c1bd cbc7 d5be 5536 ac3e
00000120: c311 0fbe a5fc 3ebe fcbc a0be 2c30 2f3d
00000130: 1eb3 583d 6bd6 74be 4f4d f1bc e720 02be
00000140: 8c49 a73e 2199 7f3d 50dc 99bd 0380 433e
00000150: a174 f6be 6ebc 88be c9fd 8ebe 5508 ce3d
00000160: 9b2d d4be dea0 283d 17d8 583e 3aff 88be
00000170: 9c5b 2f3d e137 f3bc 51db 3cbe 928f 73be
00000180: 284a 8cbd 44e1 bb3d 8e3b 1f3e a753 6fbc
00000190: d658 7fbe 34c4 0ebe 975b 813b 5a71 3cbe
000001a0: 6407 65be 4f3a 06be 4a3e 083e 8b5c 80be
000001b0: e806 db3d 9122 0dbd f51e 87bd dde3 99bc
000001c0: c326 ccbe 4539 9c3e 544d 3ebe 83c8 fc3d
000001d0: 4585 12be b48d babd f4fd c9bc 29b9 2cbe
000001e0: 55ea 07bb 6a14 003e 1fba 363e cbd9 763d
000001f0: ddbf 5ebc 0af1 83bd 1839 acbd a9d4 75bc
00000200: 87fd 9cbd a449 c53d 5363 0d3d 794b 483e
00000210: 6e87 38be 3803 59be dce4 05be 7caa 17be
00000220: ff49 b2be 7c35 4cbe 793c 13bd 0efd 6fbe
00000230: 2125 0bbe 4284 833d d8d1 cc3e 6473 4d3e
00000240: c3f1 29be 2d2e 5dbe f3be 5a3d 77f9 253e
00000250: 98f4 57be 1e47 433d f33d 9e3e 0918 06be
00000260: 1139 d0be 2b36 ce3e ad55 92be feba febd
00000270: fc52 18be 9eac c63d 76f7 063e a1fc a2bc
00000280: 76ab babd 83c4 8c3e 5589 1cbe 2d54 dc3c
00000290: 888b af3e 8f82 2f3e 6645 23be 35be c03d
000002a0: b8af 963e 9680 14be 9471 c93d 8242 8fbe
000002b0: 8353 a8be 0204 4f3d 06b3 51be a15a 63bc
000002c0: 99c0 b13d c831 ef3d bd84 a3bd bbd7 35be
000002d0: 2e90 55be c1fd 473d 97da b83d 7b84 0c3e
000002e0: 1413 0dbe 1c0a 9dbe 6044 9a3d 9b94 a03c
000002f0: f826 eebd 074c 5d3d 7671 acbe 3e48 45be
00000300: d867 b4bd 0cb7 bb3d 587b 053d 7fb0 93bc
00000310: b0b0 e6bd e56b e4ba d099 e83e fcbc fcbd
00000320: e917 a3be b6be bcbc 7424 593e 93f3 a8be
00000330: 97b4 2cbe f609 04bc 1adf a9bd 94de 05be
00000340: bdc8 bebe 1de0 58be 5b1c abbe 2052 afbe
00000350: 602e e73c 0291 123d c021 753e dafc 873e
00000360: 3b2c febd a36f dbbd ae17 b7bd 6add 47bc
00000370: 7c0e 593d b60d aabd ef80 8cbe 1211 58be
00000380: 1aa3 4d3e 7163 533d 9313 c7bd 5624 293e
00000390: aede b3bc c162 17be 634c bfbd 3cf4 75bd
000003a0: 5dac d3bd 6d72 f33d eca2 94be b3ac 123e
000003b0: ebd7 c7bd 00f8 2e3e b854 f03d 8e3f 3d3e
000003c0: f1f5 c53d 1fbc d6bc 8966 063e 9223 8abe
000003d0: 033e 763d 8d49 47be d83b 94be 6ba2 febd
000003e0: 94e6 143e d5c7 06be 9faa 75be 094f 303c
000003f0: 77f7 c63d 36e7 62be 1d88 b43b 1fc3 bebe
0.09064281 -0.3141534 -0.022393754 0.21530232 -0.118754975 -0.05912036 -0.38402638 0.23287487
-0.011705927 -0.055857178 -0.33139667 -0.07739935 -0.040163253 -0.047099225 0.14933118 -0.473645
0.08284027 -0.07589662 -0.012669602 -0.1111612 0.3848271 -0.16104308 -0.19281258 -0.29717135
0.35284075 -0.5807203 -0.05972352 -0.12782249 0.086236194 -0.008078289 0.04804472 0.28975353
-0.27846208 0.0060963724 0.07806226 0.03230716 -0.08063692 0.10568895 -0.20556425 0.12521431
-0.11442112 -0.023338035 -0.14066929 -0.0014240092 -0.19351405 0.25689617 -0.16427259 0.065936
-0.10762247 -0.16732042 -0.088454254 -0.13201602 0.13544185 -0.100211464 0.11972246 -0.034076653
0.05373446 -0.071439534 0.025473766 -0.05249478 -0.048813265 0.26395527 0.012283343 -0.035060026
0.05310764 -0.07669747 0.3837284 -0.22477385 -0.025610464 -0.09455097 -0.41753992 0.33635202
-0.1397162 -0.18651064 -0.31394184 0.04277055 0.052905194 -0.23909919 -0.029455809 -0.12707864
0.326733 0.062401894 -0.075127244 0.19091801 -0.48135856 -0.2670626 -0.27927998 0.10060183
-0.41441044 0.04116904 0.21176182 -0.26757222 0.042811975 -0.029689731 -0.18443038 -0.23785236
-0.06850082 0.091738254 0.15550062 -0.014607347 -0.24936232 -0.13942033 0.003947686 -0.18402615
-0.223661 -0.1310818 0.13305011 -0.25070605 0.10694677 -0.034456793 -0.065977015 -0.018785411
-0.39873323 0.30512443 -0.18584186 0.12342932 -0.14308651 -0.09109059 -0.024657227 -0.16867508
-0.0020739038 0.12507787 0.17844437 0.060266297 -0.013595548 -0.06442459 -0.08409327 -0.015004315
-0.07665544 0.096331865 0.03451855 0.1956004 -0.18020412 -0.21192634 -0.13075584 -0.14811128
-0.3482208 -0.19942278 -0.035946343 -0.23436376 -0.13588382 0.064217106 0.40003848 0.2006355
-0.16596131 -0.21599646 0.05340476 0.16208445 -0.21089399 0.047675245 0.30906639 -0.13095106
-0.40668538 0.40275702 -0.2858099 -0.1243801 -0.14875406 0.09700893 0.13180336 -0.019895853
-0.09114735 0.27493677 -0.15286763 0.026895607 0.3428614 0.17139648 -0.15944442 0.09411279
0.29430938 -0.14502177 0.098361164 -0.2798043 -0.32876214 0.05054093 -0.20478448 -0.013876588
0.08679313 0.11679417 -0.07984302 -0.17758076 -0.20855781 0.048825983 0.09026068 0.13722412
-0.13776809 -0.30671775 0.07532573 0.01960211 -0.116285264 0.054027583 -0.33680314 -0.1926584
-0.08808869 0.09165773 0.032588333 -0.018028496 -0.11264169 -0.0017427175 0.4542985 -0.123407334
-0.3185418 -0.023040157 0.21205312 -0.32998332 -0.16865765 -0.0080590155 -0.08294506 -0.13073188
-0.37262526 -0.21179242 -0.3342007 -0.34242344 0.028220356 0.03578282 0.23938656 0.26560098
-0.1241078 -0.107146524 -0.089400634 -0.012198785 0.05299233 -0.083033964 -0.2744212 -0.21100262
0.2008175 0.051608507 -0.0972053 0.16517767 -0.021956768 -0.14783765 -0.093407415 -0.060047373
-0.1033561 0.11887059 -0.2903055 0.14323692 -0.0975798 0.17086792 0.11734909 0.18481275
0.0966605 -0.02621275 0.13125052 -0.26980263 0.060117733 -0.19461651 -0.28951907 -0.124333225
0.14541084 -0.13162167 -0.23990868 0.010761031 0.09715169 -0.22158512 0.00550939 -0.3725824

bias f4 [200]
00000000: 500e 65ba 87b2 c03e f991 8c3e fef5 ac3e
00000010: 383b b43c 0771 a23b 0784 b9bc 93bd 6bb9
00000020: 8f81 053d fd76 993c cc17 56bd 60bd d4bc
00000030: 3cd9 193e 6a05 a7bd d9f6 873c 6b84 ed3e
00000040: 0f21 b0bd ed0e 943e 1100 593e 13eb 7c3e
00000050: 0e35 23be cbb0 f3bb ca7f 16be 1dcc 6bbc
00000060: a190 b83c d593 ed3e 93ea d63e cabe f5bc
00000070: ea1f 92bd fa5d 6abc 0109 693e 4812 663e
00000080: caa5 cb3e 0f4a 6bbd ae00 153d 7acb 33bd
00000090: 4be7 523e 3ef7 11bd ec10 903e 1c1c a33c
000000a0: 4845 993e ca87 69be 9106 c0ba 63bb 743e
000000b0: 43b3 533e 1dcf ba3e 3cac 31bd 8dbf 7bbd
000000c0: d6ba 923e 8f60 c33e ae34 98bd 9dcf 0d3c
000000d0: c71e 4cbd c818 09bb 5f56 8ebc f274 30bd
000000e0: d5f2 11bd 7a19 c33e 7624 cebe 3516 a53c
000000f0: 0051 2a3d 15d9 e73e 4f45 cd3e b7fa 423e
00000100: 75cf 8b3e f3d0 5e3c 3321 953e 4adc 84bc
00000110: 97f7 b83e 9281 833e d87e 9e3e b1f8 8f3e
00000120: 165a 88bc edaf 593e af77 dabb f3ce 0cbd
00000130: 040f 22bd 1e72 cb3e 29d5 ba3e 55b8 4dbd
00000140: 89ea f93b 9021 7f3e f0ce bd3e f13c c43e
00000150: 7f2d da3c 684d 8bbc 0328 a53d d6cb 03bd
00000160: fa53 df3e b0f1 9f3e 7dd6 5c3e 9c4a d43c
00000170: 37d6 f7be 6a19 c33e a1c2 6d3e a5ba cc3e
00000180: 5c77 833e eecb 7d3e e9da 803e d760 913e
00000190: a9de e03e 2310 8f3e ccf4 623e 8338 a63e
000001a0: 52a8 c13e 7845 dd3e bbf7 6cbd 90de 403b
000001b0: 5846 33bc 989a 8ebc 780c 983e d16f af3e
000001c0: e6c8 e3bb ba13 b63e ddaf 203d 4c8f 873e
000001d0: 71a7 993e 099f 883e 65cc 4abc 0234 023d
000001e0: 8866 bd3e 5d42 f3bc ae0d 6c3e 9028 813e
000001f0: 673a bd3e 9db4 16be a218 c4bc c07f 56be
00000200: aedd 193b 5e25 923e 8232 853e a8aa 963a
00000210: 63be 6a3e 6685 b03e 89d6 73bd caf7 b33e
00000220: 6d77 1d3c 054e 993e ae38 9cbc 12d9 b73e
00000230: f10e 04bd 9de7 b13e 0c6d c23e 5705 25bd
00000240: fe66 923e 832c 5abd 0383 953e 9e02 40bd
00000250: 4650 01bd 355a 79b8 1b88 edbc 9195 b93e
00000260: 4b34 a2bb ffa0 c03e 1795 943e 4d25 bf3c
00000270: f3c0 95bd ca2e 1dbd f095 413d 7518 c73e
00000280: bdbb e93c 9499 16bd 0982 86bd 5c87 813e
00000290: 27c2 8b3e 6ccb c83e 50c3 8b3e 026d cc3e
000002a0: be7f 64bd 93df 833e a5b6 e1bc 97cd 833e
000002b0: 4b17 8e3e 3bce b33e 5ad8 ef3e 6ce1 653c
000002c0: 246e 44bd 47ad 613e 2b52 e93e 55e6 7c3e
000002d0: 252d fb3b 2f21 d33d 8eb2 5cbd b26d 403e
000002e0: 19f1 563e dd39 f43e 603c 89bd f798 34bd
000002f0: f16a 3cbd f0bf 993c b154 693e a632 933e
00000300: acc0 e83b 88a4 bebe f0a3 31bd bd19 443c
00000310: 87d6 833e 2cea e63e 448d 68bd 3de2 d43e
-0.00087377895 0.37636206 0.27455118 0.33781427 0.022000894 0.0049573216 -0.022645963 -0.00022481968
0.03259426 0.018733496 -0.05226879 -0.025969207 0.15024275 -0.081553295 0.016597198 0.4639009
-0.086000554 0.28917637 0.21191432 0.24699049 -0.15938208 -0.007436847 -0.14697185 -0.014391926
0.022529902 0.4640185 0.4197584 -0.029998202 -0.071349934 -0.014304632 0.22757341 0.22467911
0.39774925 -0.057443675 0.0363776 -0.043895222 0.20596044 -0.03563618 0.2813791 0.019910865
0.2993567 -0.22805706 -0.0014650394 0.23899607 0.20673852 0.3648614 -0.043377146 -0.061461974
0.2865817 0.38159606 -0.07431923 0.008655456 -0.04983404 -0.0020919312 -0.01737517 -0.043080278
-0.035631973 0.38105375 -0.40262192 0.02015219 0.041581154 0.45282808 0.4009194 0.19040953
0.27306715 0.013599622 0.29126891 -0.016218323 0.36126396 0.25684792 0.3095615 0.28119424
-0.016644519 0.21258517 -0.0066670994 -0.03437705 -0.0395651 0.39735502 0.36490753 -0.05022462
0.0076268357 0.24915147 0.37071943 0.38327745 0.026633022 -0.017004684 0.08064272 -0.032176815
0.43618757 0.3123908 0.21566196 0.025914483 -0.4840562 0.38105327 0.23218776 0.39986148
0.25677 0.24784824 0.25167015 0.28394195 0.43919876 0.27942 0.22163695 0.3246499
0.3782373 0.43217063 -0.05785344 0.0029429533 -0.010942064 -0.0174077 0.29697013 0.34264997
-0.006951439 0.35561925 0.039230216 0.26476514 0.3001056 0.26683834 -0.012377833 0.03178788
0.36992288 -0.02969473 0.23052093 0.2522626 0.3695862 -0.14717336 -0.023937527 -0.2094717
0.0023478079 0.28544134 0.26015097 0.0011494951 0.2292419 0.34476775 -0.05953077 0.35149986
0.009610993 0.29942337 -0.019069996 0.359078 -0.03224081 0.3474702 0.3797382 -0.040288296
0.28594202 -0.053265106 0.29201517 -0.046877496 -0.031570695 -5.9450238e-05 -0.028995564 0.36246923
-0.0049500815 0.3762283 0.29019997 0.023333216 -0.07312193 -0.0383747 0.047262132 0.38885847
0.028531903 -0.036767557 -0.06567771 0.25298584 0.27296564 0.392177 0.2729745 0.39926916
-0.055785887 0.2575651 -0.027552912 0.2574279 0.27752146 0.3511828 0.4684475 0.014030796
-0.0479566 0.22038756 0.45570502 0.2469724 0.0076652938 0.10309064 -0.05388122 0.18791845
0.20990409 0.47700396 -0.06700969 -0.04409119 -0.046000425 0.01876828 0.22786213 0.2874958
0.0071030464 -0.37234902 -0.043369234 0.011969027 0.2574961 0.45100534 -0.056775346 0.41578856

weight f4 [1, 200]
00000000: 339c fc3b 95f2 27be 079b bcbd 91f2 00be
00000010: 398c 663e 25b8 643b c679 ccbc c519 2f3d
00000020: a678 303d f12b bc3b 3585 82bd e203 9c3d
00000030: e761 d23e 5832 863b f5e1 313d 2516 1cbe
00000040: e04a d33b 7187 09bd 13a5 e9bd f8b6 eebd
00000050: 87d8 283c d969 273c 8c24 02be b43f bd3c
00000060: 307f 733d 4e45 57be b28d 32be 6228 81bd
00000070: 2c2d e13c 806e 443d c003 11be cae0 06be
00000080: c511 19be 09a1 e539 4fcc cabd 0805 343d
00000090: b933 a8bd b87c a63b 0048 f9bd 19b9 ddbb
000000a0: 2479 2dbe 90d6 df3a 3877 9a3c a136 93bd
000000b0: 45ae 09be da61 e1bd 2252 2b3d a4cb 2e3d
000000c0: 86af a4bd b03a 1fbe dff7 d8bc 1a73 983c
000000d0: f579 933b 5a1f f9ba 9985 243d 8167 2e3d
000000e0: ef38 023b 4c03 18be 1e07 ab3d c1c3 df3c
000000f0: 6468 983c b06b 77be 01b5 5bbe e1fe 10be
00000100: c596 1bbe ff1f 073d 65c3 90bd ab31 453c
00000110: df1b 0ebe ff6c 0fbe 8b4e 2bbd 4244 19be
00000120: aa72 3c3d 0c17 9dbd da9f 8f3b fc42 ae3b
00000130: 0d29 b83c 9672 20be 38bb e2bd 2efc c13a
00000140: 2bef e33c f8c5 10be 18dd b7bd f430 29be
00000150: 4fbb fb3b 9939 743b 329d 9a3e b464 1dbd
00000160: 20e0 fa3e 2673 9ebd 1e7a 01be 6432 fe3c
00000170: 475e 7c3e a599 29be 09c1 1ebe 42e1 fabd
00000180: 114c f4bd 01f1 ddbd 9ec7 25be 767d 0fbe
00000190: ea00 36be 7142 12be 4dea a7bd f810 2cbe
000001a0: 6a2d 07be b5b4 213f ac1f 883c 73ab 1d3d
000001b0: ffb5 243d 3ce7 9b3c a19d 07be bc14 13be
000001c0: eb86 d73c f8f7 09be 79fd 1d3d 8096 9abd
000001d0: d04c 14be 62c4 fcbd fa61 463d 52c8 c53c
000001e0: 1405 18be 27c0 623d 36db 11be 2e1e d8bd
000001f0: 6ad5 a33e 5e10 93bc f357 203b 82b6 e43b
00000200: 0b8e 523c 1d4c 43bd 98d4 8bbd 2128 b9bb
00000210: e054 d6bd f276 a93e de30 423c 8eab db3e
00000220: aff9 6a3c 8252 1fbe 56d5 253c 142e 40be
00000230: 215c bb3c 751b 3fbe 5a70 1ebe 7e86 573d
00000240: b175 58bd bb23 533d bfeb d1bd 2f3a 003d
00000250: 0110 013d 209d 2a3b 4d52 3b3b 174b e9bd
00000260: de74 693c 9b1b 11be 49ad a83e a7d1 6a3c
00000270: 9704 4a3c 1d2e f2bc fa4d bc3e 158b 0abe
00000280: f6a7 493d d523 b93c 55d1 0a3d 1e8e 07be
00000290: 6c2e 18be 8f7b 04be a124 3abd 083e 0e3f
000002a0: 26b8 1d3d 6af2 90bd 465d 733d 6e1d aabd
000002b0: dbdc 14be 1c79 25be 8a75 3abe 4a11 943c
000002c0: e3e6 493d 993b d2bd 5eb4 69be 28a0 95bd
000002d0: ef13 ac39 f719 fc3e 72de 453c 451e bfbd
000002e0: d222 813e a975 34be 7830 ab3c 7bcc 3f3b
000002f0: ae18 483d 54ef 313d 1faf d3bd 1076 d6bd
00000300: cbf1 5e3c 9a67 a8bd fa44 2c3d 59ee ff3c
00000310: 4e5c aabd 2ce4 51be 67dc 7b3c 4705 09be
0.00770905 -0.16401131 -0.092092566 -0.12592532 0.22514428 0.0034899798 -0.02496041 0.042749185
0.04308381 0.005742543 -0.063730635 0.07617928 0.4109032 0.004095357 0.04342838 -0.15242822
0.006448135 -0.033576433 -0.114084385 -0.11655992 0.01030553 0.010218107 -0.12709254 0.023101665
0.059447467 -0.21022531 -0.17436865 -0.063065305 0.02748736 0.047956944 -0.14161587 -0.13171688
-0.14948185 0.00043798264 -0.0990225 0.04395011 -0.0821299 0.0050807856 -0.12171936 -0.00676645
-0.16940743 0.0017077494 0.018855676 -0.07188154 -0.13445385 -0.11004992 0.041826375 0.042674676
-0.08041291 -0.15549731 -0.026485382 0.018609572 0.0045006224 -0.0019006536 0.04016647 0.042579178
0.001987036 -0.14845008 0.08350967 0.027315022 0.018604465 -0.24162173 -0.21455766 -0.14159729
-0.15194233 0.0329895 -0.070685185 0.012035768 -0.1387782 -0.14006422 -0.04182295 -0.14967445
0.04600779 -0.076704115 0.0043830695 0.0053180438 0.022480512 -0.15668711 -0.110708654 0.0014799887
0.027824005 -0.14138019 -0.08977717 -0.1652258 0.007682241 0.0037265776 0.30198056 -0.038426116
0.4899912 -0.077368066 -0.1264424 0.031029887 0.24645339 -0.16562517 -0.15503325 -0.12249996
-0.11928571 -0.108369835 -0.16189429 -0.14012703 -0.17773786 -0.14283158 -0.08198986 -0.16803348
-0.13200918 0.6316636 0.016616665 0.038493585 0.040212628 0.01903116 -0.13243724 -0.14363378
0.026309451 -0.13473499 0.03857181 -0.07548237 -0.14482427 -0.123421445 0.04843328 0.024143372
-0.14845687 0.055359032 -0.14243779 -0.10552631 0.3199876 -0.01795214 0.0024466484 0.0069797644
0.0128512485 -0.04768001 -0.068276584 -0.0056505357 -0.10465407 0.3309856 0.011852471 0.42904323
0.014341756 -0.15558818 0.010121664 -0.18767577 0.022871079 -0.18662818 -0.15472546 0.052618496
-0.052846614 0.051547747 -0.10250043 0.03130549 0.031509403 0.0026033595 0.002858299 -0.113912754
0.014249055 -0.14170687 0.32944706 0.014332212 0.012330196 -0.029563004 0.3677824 -0.13529618
0.049232446 0.022600094 0.03389104 -0.13237807 -0.14861459 -0.12937759 -0.04544509 0.555634
0.038505696 -0.07077487 0.059415124 -0.083063945 -0.14537375 -0.16159481 -0.182089 0.01807465
0.049292456 -0.102652736 -0.22822711 -0.07305938 0.00032821248 0.4923856 0.012076961 -0.09331945
0.25221878 -0.17623009 0.020897135 0.0029266167 0.04885166 0.04344113 -0.10336136 -0.104717374
0.013607453 -0.082228854 0.04205797 0.031241583 -0.08318387 -0.20497197 0.015372372 -0.1338092
