lab2/problem3/neural-network-3-actor-005-epsilon.pth (torch, 664397 bytes, 10 tensors)

weight f4 [400, 8]
00000000: 29cb 0bbd f5af 92be 06bc 88be aa1b 1f3e
00000010: aa31 193d 98cc 81be 0579 a7be aace 7d3e
00000020: dcc2 503e a35f 27be 6e8d 08be 650d a5be
00000030: 606a 6cbe 24fa 3bbe f154 893a 2a81 8a3e
00000040: 1422 463e 1a80 10be 4cef 0f3d c5e6 5cbd
00000050: 5dcf a93e aad5 77be 9786 6cbe f8ba 06be
00000060: ee59 b5bd 9d96 4ebd 3928 87be 8e54 06bd
00000070: 1a45 a23e 1c04 59be 5967 023e aab3 f5bd
00000080: a50f 69be 72b8 4f3e 0f6c a63d 11f3 babc
00000090: 99fe 03be 1417 79be 830f 44be 37e6 c9bb
000000a0: 6877 983e 28e1 5abe 6674 943e fce7 0c3e
000000b0: ec2a 413e 31e5 b53d 36ae 843e c7c4 22bd
000000c0: a576 35be 5885 06be 81dc 08be c957 c2be
000000d0: ee6f b9be 2e46 cebd b254 62be bddf 543e
000000e0: 518d ae3e 293d 8c3b f6d9 28be ede5 98be
000000f0: b64f c03e 2ec9 253e 2cd8 953e 7ac9 41be
00000100: 7e56 813e cb7c 613e 231b bb3c a6bf 303d
00000110: 1b65 50be 98c3 a3bd 71c2 a8be a9b6 63bd
00000120: 4645 613e 5394 74be d5c4 043e 6f1b 15be
00000130: fecb 5fbe 7156 fcbd 1fa9 413e 56bc 1fbe
00000140: 6b2c 46be 188a 983e 9f5c 8d3e 838c 19be
00000150: 609c cbba 1efe 073e 7724 23bd 0c92 4abe
00000160: 3bd3 40bd c374 673e 44c4 ba3d 040d 6bbe
00000170: b893 3f3e 49a2 11bd b57a 9abd 6eb3 d53d
00000180: d252 dfbc 0b38 943e 3daf 20bc 8c3c 62be
00000190: ef94 c23e b763 8c3e 7a9b d5bd 8b2a 31bd
000001a0: d6af 813e 6c5f 323e 5784 e03d fec8 bd3d
000001b0: f2e7 723e f05a 73bd 29ff aebc 0c66 b33e
000001c0: 1fc5 6f3e 9add 84bd dbe6 53be 9385 bbbd
000001d0: c660 92be 592c aa3e ccb7 5bbd aff4 88bd
000001e0: df1c 69be 38f3 543d 15db 733e fbc3 78be
000001f0: e700 873e 3997 453d ae6d c5bc d75d 583e
00000200: 156c a33e edfb 85be 0b9d 163d 5ded 3dbd
00000210: d687 413e f2ab d13d f788 cf3d 548e a8be
00000220: ba70 a4bd eb64 65be 4b07 9e3c ae30 79be
00000230: 2e3d 473d ecf5 b4bd 8ecb 2f3e d21b 893e
00000240: f0d0 763e 82b8 90be 9033 bb3d 0e84 bfbd
00000250: e566 9cbe 5c7b 4ebd 6a95 fc3d 94ac 6e3e
00000260: 8098 ccbd 33a6 48be dc3c a1bd b093 103d
00000270: b06d 80bc 8073 f73b 41c2 29be c057 993c
00000280: 8285 99be d1e2 49be 26a9 84bd 2ff4 483e
00000290: 28c1 8a3e f349 3fbe d034 903d 7968 8f3d
000002a0: 7189 cebd de24 5d3e e9da 54be 3f3e a7be
000002b0: fbbe 31be d5f4 a83a 7800 abbd b68a 423e
000002c0: 35db d3bc 8125 9a3e 51d1 91be 150c 06be
000002d0: 4b04 963e 3d2e 8a3e 0ba7 09be 50b0 b03e
000002e0: 56eb 3fbe 3661 053d df81 f4bd 2517 993e
000002f0: de80 b7be d5ea 44be 78f9 bebd 1d45 1e3e
00000300: 1da7 b13d 5c55 2b3e 89a4 a8be a84c aebe
00000310: 3e79 853d cd75 cfbd 1fe6 1a3d 8046 ad3e
00000320: 6bd8 9c3e 943b d13d 84b7 d6bd f75e a73e
00000330: 6556 9e3e 1ef5 1fbc b136 99be 2a0a 293e
00000340: afaa 8b3e 15d0 fc3d a593 d7bc cd19 c83d
00000350: 67e7 0f3e d91c 663d 81a2 5bbe 2fa0 d23d
00000360: 9cc3 5cbe 7fa5 943e b9ab 77be b1f2 81be
00000370: c33c a93d bbc1 803e 342c 7bbe d6d1 ab3d
00000380: 2e43 933e cac4 02be f776 9dbe 4ffc 5c3d
00000390: 59d3 e6bc c1ec 8bbe 57d7 c8bd f5de 72bd
000003a0: f9a0 aabe 8e97 78be 1a07 07bc 8c9d a23e
000003b0: 6535 b7bd 4839 67be fd49 a93a 8cdd 94bb
000003c0: 7f44 59bd 69a3 0c3e 2487 023e f19a b1bc
000003d0: 8cda 6b3e 0d0b 1fbd 79ce ae3e 3be1 9dbc
000003e0: 3bbb 99be 1810 7cbe 4cbd 12bd 6206 773e
000003f0: 9613 aabe df68 a63e 0ab0 84be e4ec ad3e
-0.034129295 -0.2864987 -0.2670595 0.15537897 0.03740088 -0.25351405 -0.32709518 0.24785867
0.20386833 -0.16345076 -0.13335201 -0.32236782 -0.23087454 -0.1835714 0.0010477585 0.2705167
0.19348937 -0.14111367 0.03514032 -0.053931016 0.33166018 -0.242026 -0.23098217 -0.1315726
-0.08855043 -0.050436605 -0.26397875 -0.03279548 0.31693345 -0.21192974 0.12734737 -0.11997159
-0.22759874 0.20285204 0.08126079 -0.022820981 -0.1289009 -0.2432521 -0.19146542 -0.006161477
0.297786 -0.21374953 0.28995055 0.1376037 0.1886403 0.088816054 0.25914162 -0.039738443
-0.1772104 -0.13136804 -0.13365366 -0.379576 -0.36218208 -0.100719795 -0.22102621 0.20788474
0.3409219 0.004279752 -0.16489395 -0.2986292 0.37560815 0.16190025 0.2926649 -0.18924513
0.252613 0.22020261 0.022840088 0.04315152 -0.20351069 -0.07996291 -0.32960847 -0.05559412
0.21999082 -0.23884706 0.1296571 -0.14561246 -0.2185516 -0.12321175 0.18912171 -0.15599188
-0.19352882 0.29792857 0.27609727 -0.14995007 -0.0015534274 0.13280532 -0.039829697 -0.19782275
-0.047076445 0.22603135 0.09119466 -0.22954184 0.18708694 -0.035555158 -0.07542936 0.10434614
-0.027261171 0.28949007 -0.009807405 -0.2209341 0.38004252 0.27419826 -0.104300454 -0.043253463
0.25329465 0.17419213 0.10962742 0.09266852 0.23721293 -0.059412897 -0.021361904 0.35038793
0.2341504 -0.0648758 -0.20693533 -0.09156337 -0.28589457 0.3323696 -0.05364208 -0.06687295
-0.2276492 0.051989764 0.23814042 -0.2429351 0.26367876 0.04823992 -0.02410015 0.21129547
0.31918398 -0.26168767 0.03677086 -0.046368945 0.18899474 0.10237874 0.10133546 -0.32921088
-0.080293134 -0.22401778 0.019290587 -0.24334976 0.04864233 -0.088359684 0.17167494 0.26779038
0.24103141 -0.28265768 0.09140694 -0.09351359 -0.30547252 -0.050410613 0.12333186 0.23308021
-0.099900246 -0.1959465 -0.07872936 0.035297096 -0.015677303 0.0075516105 -0.16578008 0.0187186
-0.2998467 -0.1971543 -0.06477575 0.19624399 0.27100492 -0.18680553 0.07041323 0.070023485
-0.100848086 0.21596095 -0.20786633 -0.32664678 -0.1735801 0.0012890348 -0.08349699 0.18998227
-0.025861362 0.30106738 -0.28480008 -0.13090546 0.2930015 0.26988402 -0.13442628 0.34509516
-0.18742117 0.03256341 -0.119388334 0.2990047 -0.35840505 -0.19230206 -0.09324926 0.15456052
0.086744525 0.16731781 -0.3293803 -0.3404286 0.06517266 -0.101298906 0.037817117 0.3384285
0.30633864 0.10216442 -0.104842216 0.3268964 0.3092529 -0.00976303 -0.2992454 0.16507784
0.2727866 0.12344376 -0.02631552 0.09770546 0.14053117 0.056179855 -0.21448709 0.10284459
-0.21558994 0.29032513 -0.241866 -0.2538047 0.082635425 0.25147805 -0.24528581 0.083896324
0.28762192 -0.12770382 -0.30754825 0.053951558 -0.02817695 -0.27329066 -0.09806698 -0.05929466
-0.33325937 -0.24276564 -0.008241439 0.31760824 -0.08945731 -0.22580445 0.0012915727 -0.004543012
-0.05304384 0.13734211 0.12746865 -0.021680327 0.23032588 -0.0388289 0.341419 -0.019272437
-0.30025658 -0.24615514 -0.03582506 0.24123529 -0.33218068 0.32501885 -0.25915557 0.33969796

bias f4 [400]
00000000: 452a 823e b747 6ebe d9c9 a9be 28ac 1b3e
00000010: a986 ef3d c716 dabc 7518 2d3d 0a7d f83d
00000020: 5a36 353c 70ae aebe e645 b13e 31ef 2c3e
00000030: f593 bb3d 66cd d33d dc9d 1e3e 6b88 ae3e
00000040: c0ff ff3d 428e e53d 83fb 1a3e 8c91 a43e
00000050: f288 90be 9a2e 94be b9dd 8f3e 0038 103e
00000060: 516b 523e fc0e c8bc 8e0b 22be d4a0 f03d
00000070: da8a 6abe 42fd ae3d 8115 103d d160 683e
00000080: 8a6a ecbd d958 c1bb 2649 9ebb 0f4a 3abe
00000090: efbc 1ebe 6212 98be df73 9abe b599 65be
000000a0: 3795 70be 32b0 b63e ba42 5e3e 37a9 dabc
000000b0: f6bf 9ebd 9c8c 9fbd d0e5 3d3e 4f7a 91bd
000000c0: c1b8 5d3e 4ff2 123e 31ea 353e ab6e 0fbe
000000d0: bbc1 543e 13aa ff3d 4d54 adbe e353 113e
000000e0: 2c64 ac3e 7387 ab3e 96fa 313e 8d52 143e
000000f0: a65a fc3d 9228 49be deb6 603e 9cfb e5bc
00000100: b8d7 a93e 29b9 b33e ac9d d7bd 163e dd3d
00000110: 9a3f 993e 3a56 463e fae0 cf3d cc50 9b3d
00000120: 65c7 a5be 1b08 8d3e 4863 583e 76d9 27be
00000130: d866 993e 77af 67be 6d83 f0bd 7e68 68be
00000140: cf7c 8e3c 8333 e63d cccc d63d 172d 673e
00000150: 8809 803e 88fd 65bd 2a00 633d bcb5 68be
00000160: f1bc 9c3e 01af 4e3e 1161 53be ba8d 44be
00000170: 5758 943e fffb aabe beed 35be 88d8 a3be
00000180: 2324 79bd 1720 773d 2c8d 0b3c d24b 72be
00000190: de15 6dbc e0dc 0f3e 56dc 94bd 3376 b3be
000001a0: f22e 79be 7cb9 743e cd23 973e f75b 39be
000001b0: 42b0 b8bc fcc5 a9be b71c 4d3e 06cc 4abe
000001c0: 9069 e03d 2b10 603e 373b efbd eb16 ad3e
000001d0: a6a7 9ebe 76a6 3fbe 039d 0ebe b852 5cbd
000001e0: fa61 713e 3ef2 553e 5123 b73e f2df 8abe
000001f0: 75c8 0a3e 3c57 d4bb 3f7f b63e 42df 563e
00000200: da4d 94be 0360 95bd e0b7 54be d56c 13be
00000210: a682 2abe f639 1dbe 08d3 0c3d fb58 8fbe
00000220: 1903 46be 4ea7 dc3d 4dd1 053e 2b7c b43e
00000230: 81a0 e2bd 1f18 f9bd 8e8e 71be d642 f03b
00000240: a21a 553d f1ef 7b3c e9fa 9e3e 3113 f1bd
00000250: 8f64 1abd f740 a3bc 066d 6c3e db35 c53d
00000260: ed08 ad3e 63aa 843e 1ead 6cbd 71f3 b13d
00000270: 8b57 b0be 6f54 033e 9653 483e ac65 633e
00000280: 2ed6 8dbe 8cdc 84be 8489 51be 53f9 923c
00000290: 4a91 833d b3bc 423e 5b78 ca3d 62ff ea3c
000002a0: 1d87 91be dad4 88be e732 a33e af75 633e
000002b0: 4419 813e 6c9e ab3e 9938 61be 4823 123e
000002c0: 5e85 de3d 821c 7abe ff0d f6bc 256e a83e
000002d0: 3289 93bc 9a3c 6c3e d698 e4bd 7959 a33d
000002e0: f842 6b3d 3e6c b1bc 7ca4 623e 3847 ce3d
000002f0: 1736 98be 9f79 d3bd 9474 c53d 2210 3f3e
00000300: 9454 4e3e e101 b43e da00 b23e b04f 96bd
00000310: c35f cd3c e737 2fbe 7345 4b3b fea5 cbbd
00000320: a59f 1dbe 9594 fe3d 5c77 0abc b44c a8be
00000330: 5d17 773d 4db3 193e d5df dfbd 8163 8fbb
00000340: fa07 49be 2331 61be 3527 9d3e 447e 243e
00000350: afa9 8ebd 3375 1ebe 1bd6 123d ccd3 3cbc
00000360: 2a6e 913e 7b04 523e 57e7 923e dad9 63be
00000370: 8f52 be3c 8029 923d aaf7 023e 572e 743d
00000380: 74b1 a6be 0acc a33e 2d82 913e 3260 fcbd
00000390: 3379 ab3e b07e 943e 20f3 c23d 9a76 b33d
000003a0: 3e9e f7bd b54f a33d 1276 1f3d 6f88 203c
000003b0: f818 8bbe 1362 523e 3928 4b3e f12f 553e
000003c0: 2255 abbe eec1 19be 5f8a 8abd 290a 873e
000003d0: 0850 523e d7e7 263e f53d d8bd a961 963e
000003e0: 34cd 76be b468 a53e 2bd6 b43e 88f6 8d3e
000003f0: aa76 39bd e2b6 123d 4f27 d8bd 637b a1be
0.25422874 -0.23269545 -0.3316181 0.15202391 0.11695606 -0.02662219 0.042259652 0.12133224
0.011060322 -0.3411746 0.3462364 0.1688812 0.0915908 0.10341911 0.15489906 0.34088454
0.12499952 0.11208774 0.15135007 0.32142293 -0.2822948 -0.28941804 0.28098848 0.14083862
0.2054875 -0.024421208 -0.1582472 0.117494255 -0.2290453 0.08544399 0.035176758 0.22693183
-0.11543758 -0.005900484 -0.0048304973 -0.18192314 -0.1550176 -0.29701525 -0.30166528 -0.22421916
-0.23494421 0.356813 0.21705142 -0.026692016 -0.077514574 -0.07790491 0.18544698 -0.07103407
0.2165251 0.14350246 0.17765118 -0.1400706 0.20777027 0.12483611 -0.3385338 0.14192156
0.33670175 0.33501777 0.17380747 0.14484616 0.12321977 -0.19644383 0.21944758 -0.028074078
0.33172393 0.35102203 -0.105281204 0.108028576 0.29931337 0.1936883 0.10150333 0.0758377
-0.32378688 0.27545246 0.21131623 -0.16391549 0.29961276 -0.22625528 -0.117438175 -0.2269611
0.017393498 0.11240294 0.10488281 0.22575794 0.25007272 -0.05614999 0.05542008 -0.22725576
0.306129 0.20183946 -0.20642497 -0.1919469 0.28973648 -0.33395383 -0.17766473 -0.32001138
-0.06082548 0.060333338 0.008517545 -0.23661736 -0.014470546 0.14049101 -0.07268588 -0.35051116
-0.24334314 0.23898882 0.295195 -0.18101488 -0.022544984 -0.33158863 0.20030485 -0.19804391
0.109576344 0.21881168 -0.11681216 0.33806548 -0.3098728 -0.18715844 -0.13927083 -0.053789824
0.23572531 0.2089319 0.35769132 -0.27123982 0.13553031 -0.0064801257 0.35643956 0.20983604
-0.28965646 -0.072937034 -0.20773268 -0.14396985 -0.16651401 -0.15354142 0.034380943 -0.27997574
-0.19337119 0.10774098 0.13068123 0.35250983 -0.1106577 -0.12162804 -0.23589537 0.007332186
0.052027352 0.015377031 0.31050804 -0.117712386 -0.037693556 -0.019928439 0.23088464 0.09629413
0.33795872 0.25911245 -0.057782285 0.08689011 -0.3444179 0.12825178 0.19563136 0.22206753
-0.2770247 -0.25949514 -0.20462614 0.017941153 0.06424196 0.19017296 0.09886237 0.02868623
-0.28423396 -0.26724893 0.31874773 0.22212861 0.2521459 0.33519304 -0.21994247 0.14271271
0.108652815 -0.24424937 -0.03003597 0.32896534 -0.018009756 0.23069993 -0.11161964 0.0797605
0.057436913 -0.02165806 0.22133058 0.10072178 -0.29728767 -0.10325932 0.09641376 0.18658498
0.20149451 0.35157683 0.34766275 -0.07339418 0.025070077 -0.17111169 0.0031016737 -0.0994377
-0.15392931 0.124306835 -0.008451309 -0.3287102 0.060325015 0.15009804 -0.109313644 -0.0043758755
-0.19631949 -0.219914 0.30693975 0.16063792 -0.06965958 -0.15474395 0.035848718 -0.011525106
0.2840436 0.20509522 0.28692123 -0.22251073 0.023232726 0.07136822 0.12789789 0.059614506
-0.3255726 0.31991607 0.2841963 -0.12323035 0.33490905 0.29002905 0.09519029 0.08762856
-0.12090729 0.07974187 0.03893096 0.009798153 -0.27167487 0.20545225 0.19839562 0.2081907
-0.3346339 -0.15015385 -0.067646734 0.2637494 0.20538342 0.16299377 -0.10558692 0.29371384
-0.24101716 0.32306445 0.35319647 0.2772715 -0.045279182 0.035818942 -0.105543725 -0.3153945

weight f4 [200, 400]
00000000: 9e0d 953b b611 353c d989 b2bc ccaa 3bbc
00000010: 3566 013d 2d3e 01bd 243f 913a 2265 093d
00000020: 18d9 3dbd 8d73 63bc 68e6 4a3d 0a4b 1dbc
00000030: 7964 b53c b8d5 2cbd d75a 253d 2ab8 343d
00000040: edbe e53c 7b2f 1cbb b174 143d 87c0 c43b
00000050: 1c4b 003d 8405 13bd 2756 10bd 9961 36bd
00000060: c17a 153d bbfe 2abd d1f0 d7bb c037 0f3d
00000070: 361a 84bc c6d0 cabc 74cd fbbb ba95 16bd
00000080: e016 463c 8073 0cbd efaf 043d b3fd 113d
00000090: 571b fc3c 4c19 703d cb2e 08bd 8a24 59bd
000000a0: 6185 323d 8c40 273d 2b27 d83c 7902 2ebd
000000b0: 86bd e43c 4766 80bb 4587 e93c 1eec 49bd
000000c0: aab2 13bd d8e2 11bd dfe5 1c3d a2c7 ef3c
000000d0: 1c88 c5bc c8e4 40bd 26f0 eebc a88f 58bc
000000e0: 07da 4cbd 8616 15bd f482 82bc 10b9 273d
000000f0: 8192 5a3d 6201 f13c bdee 163d a359 0bbd
00000100: c35b 953c 45c1 1f3d cee6 12bd 6b77 b63c
00000110: 66ea 5cbc f9cd 34bd aff3 bd3c 01ee afbc
00000120: 9597 473d a143 0a3d 6155 02bd 71e6 873b
00000130: 0b45 b73b dc48 fbbc 8a48 2bbd 8536 5b3d
00000140: 5af4 9cbb 2a42 053d 5f7c acbb 8a2f 02bd
00000150: 6df3 163d c38c 3ebd c756 813c 1682 a13c
00000160: 576d 2b3d 745b 29bc dc51 713c 864f 25bd
00000170: a1a4 7b3c fd7b f9bc acbc 013d c3b7 413d
00000180: c147 433d 0415 0bbd 7a29 afbb 4a69 383d
00000190: 4e8e fd3c 3f51 13bc 9ed1 0cbd 6030 21bd
000001a0: dd91 2d3c 0be3 cabc 129b ecbb 75d9 1bbd
000001b0: 9524 8abd eafe 013d d1eb 1cbd 054f 293d
000001c0: 21a5 ffbc 797a aabb b86a 143d 1d62 b83b
000001d0: b33f 06bd b551 dd3c 8c32 64bc a900 87bc
000001e0: 289c f13c 2758 243d e7a9 533d 6bd9 eabc
000001f0: 40dd fdbc e19c c539 b421 263d 912c 80bd
00000200: 16ec feba bbca 0fbd 2d4d 183d 5e65 7dbc
00000210: e7f5 5abd b432 003c 6a4e 45bb 2ae9 4a3d
00000220: 844b 363c 2464 c23c 3239 4bbd 4296 55bc
00000230: 7a6c 2f3c f40e 803c bdb4 c53b cfeb 143d
00000240: 9c69 93bb a9e3 ab3c d6be 1abd 99fc 6fbc
00000250: 9a03 9fbc e9a9 9a3b ec62 843b 7504 683c
00000260: 15d2 0f3d f379 22bd 7b5d 7f3d 2cb8 5dbd
00000270: a313 03bd cec5 bb3c 12b0 95bb 27d4 1c3c
00000280: 5af8 063d 3c08 53bc d186 163d 6592 843d
00000290: 43f4 29bd 0492 f7bb 87a6 e53c 5658 eebc
000002a0: 023f 393d cf10 67bc 3f4f 0e3d d8c3 573c
000002b0: de69 1b3c e2e2 f13c 85b2 fcbb 4e9d 433d
000002c0: 56eb 8d3a efc7 183d ccb1 033d 966b a6bc
000002d0: 3f3d f9bc 8faf 243d d6e1 8a3c 5a2d eebc
000002e0: f365 9f3c 0d5e 35bc 67d6 283d cdc8 4fbc
000002f0: cba2 07bd 4c76 16bd 3ad3 863c 2de0 383c
00000300: 94ff 043d 6060 1a3c 78e3 b33c 7b57 f839
00000310: 248c 6fbd e82c b6ba 5aeb 553d 07e4 da3c
00000320: 3182 b0bc 200d c03b b1a9 f83c ab6e 40bd
00000330: db3c 8a3d 590f 58bd 581b 15bd ea6c 713a
00000340: ac51 4e3c bee1 4a3d 6d14 303d 9d63 50bc
00000350: 80ea 733b 814c 38bc ab1b 0cbd 30a8 443d
00000360: cb0c 32bd c9eb 26bd 4263 0c3d 8a7e 19bd
00000370: e360 38bc c4f3 12bb e204 013d ee2a f03c
00000380: f027 7b3b 70a8 71bc d12a 283d 0e46 673c
00000390: 420c a63c 30b5 0b3d 3ad7 5ebd c836 fabc
000003a0: 670e ff3c 1437 633c 83c9 263c 41b8 85bc
000003b0: 58aa 88bc b55c 8cbb a3fd 3c3d cb85 72bd
000003c0: 61c7 2f3d c9e1 cbbc c8a8 a8bb 7fca 64bb
000003d0: e613 e8bb 59ab bf3b a749 68bd 0dd6 c1bb
000003e0: 6eef 59bc 8650 943c f401 c43c b04a 87bc
000003f0: 6a1c 3cbd 3720 b63b 3fc7 06bb ba1a 823c
0.0045487424 0.011051586 -0.021794247 -0.011454295 0.031591613 -0.031553436 0.001108144 0.033543713
-0.046349615 -0.01388253 0.04953614 -0.00960041 0.022142636 -0.042196006 0.040369835 0.044120945
0.028045142 -0.0023832012 0.036244098 0.0060043964 0.03132163 -0.035893932 -0.03523841 -0.04452667
0.03649402 -0.041746836 -0.006589987 0.034965277 -0.01612578 -0.024757754 -0.007684404 -0.036763884
0.012090415 -0.034289837 0.032394346 0.035642337 0.030774755 0.058617875 -0.03324775 -0.053013362
0.04358423 0.04083304 0.026385864 -0.042482827 0.027922403 -0.0039184424 0.028506884 -0.049297445
-0.03605906 -0.035616726 0.03830516 0.029269997 -0.024112754 -0.047093183 -0.029167246 -0.013217844
-0.050012615 -0.036398433 -0.015931584 0.040947974 0.053362373 0.029419605 0.036848772 -0.03402103
0.018232232 0.039002676 -0.035864644 0.02227374 -0.013483619 -0.044141743 0.023187486 -0.021475794
0.048728544 0.033755902 -0.031819705 0.004147344 0.0055929474 -0.03067439 -0.041817226 0.05351879
-0.004789871 0.032533802 -0.0052638496 -0.031783618 0.036853243 -0.04652096 0.015788449 0.01971535
0.04185232 -0.0103367455 0.014728989 -0.040359043 0.015359075 -0.03045463 0.031674072 0.04729439
0.04767585 -0.03395559 -0.0053455206 0.045022286 0.030951645 -0.008991539 -0.034379594 -0.039352775
0.010593859 -0.024766466 -0.0072206343 -0.03804918 -0.06745259 0.031737246 -0.03831083 0.041335125
-0.03120667 -0.005202588 0.036234587 0.0056269304 -0.032775592 0.0270165 -0.013928067 -0.016479807
0.029493406 0.04012313 0.051675703 -0.028668126 -0.03098929 0.00037691652 0.040559486 -0.062585
-0.0019449021 -0.03510545 0.037182976 -0.015466062 -0.053457167 0.007824589 -0.0030106553 0.04953877
0.011126403 0.023729391 -0.049615093 -0.013036313 0.010707015 0.01563213 0.0060335086 0.036357697
-0.0044986736 0.02098258 -0.03777965 -0.014647626 -0.019410897 0.004719962 0.0040401127 0.014161219
0.03511246 -0.03966708 0.06234501 -0.054130718 -0.03200115 0.022921469 -0.0045681084 0.009572065
0.03295169 -0.012880381 0.036749665 0.06473235 -0.04149271 -0.007555248 0.028033508 -0.029094856
0.045226105 -0.014103129 0.034743544 0.013169251 0.00948569 0.029527131 -0.007711711 0.04775744
0.0010827582 0.037300047 0.032151982 -0.020314973 -0.030424712 0.04020649 0.01695339 -0.02907436
0.019457793 -0.011069787 0.041220095 -0.012682152 -0.033114236 -0.03673391 0.016458143 0.011283916
0.0324703 0.009422392 0.021959051 0.00047367424 -0.058483258 -0.0013898881 0.052226402 0.02672006
-0.021546455 0.0058609396 0.030354353 -0.04698054 0.067498885 -0.05274901 -0.03640303 0.000920965
0.012592714 0.04953169 0.04298823 -0.012719062 0.003721863 -0.011248709 -0.034206074 0.04801196
-0.04346923 -0.040752206 0.034274347 -0.037474193 -0.011253568 -0.0022423128 0.031498797 0.029317345
0.0038323365 -0.014749631 0.041056458 0.014115823 0.020269517 0.03410834 -0.054404475 -0.0305437
0.031134797 0.013868112 0.01017988 -0.01632321 -0.016682789 -0.0042835125 0.046140324 -0.059209626
0.042914752 -0.024887936 -0.0051470734 -0.0034910736 -0.00708245 0.0058492837 -0.056710865 -0.0059154094
-0.013301713 0.018104803 0.023926713 -0.016515106 -0.045925535 0.0055580395 -0.0020565537 0.015881885

bias f4 [200]
00000000: 2db9 c5bc 91b7 8c3c d2be c23c 6b32 22bb
00000010: 6a28 d13c 3efb 8b3c 34d9 b639 dfd8 53bc
00000020: dbfb 363d e378 fdbc 4dbe b2bc c07c 07bc
00000030: bb85 abbc b9fe da3c d633 bf3b 1efc 93bb
00000040: 51ad e43c e3ea f4bc bc47 d63c 7a11 aabb
00000050: def8 d43c 742a 2d3d d4f4 5abc ac99 57bc
00000060: ed3a d5bb 09ab ab3c 6e8d 58bc de18 15bc
00000070: f4e5 10bb a293 563c ebd2 e0bb 8c5b 2ebd
00000080: 5beb b0bb 427e d33c fd5b df3b 4378 193b
00000090: b30d 413d 1f23 be3b b765 da3a 72a8 083d
000000a0: ada2 f53b 1167 0fbd 03f2 c6bc 7c16 3ebd
000000b0: 1f4e 20bd 0134 273d 1677 5abd 5c40 92bc
000000c0: c766 36bc 8732 ed3c 673d 143c 1f97 b8bc
000000d0: 9f9b f9bb 7e9a 433d 426c 8dbb 7478 0fbd
000000e0: c3c2 cfbc 5952 98bc b02b fcba 057d 383c
000000f0: 6894 cb3c d0a4 5dbc e674 17bc 35a2 2e3d
00000100: 9443 d4bc 50d0 b13c a345 2f3d 3388 d4bc
00000110: b18b 2f3d 4d17 00bd 173e 01bd 0731 043d
00000120: 6d12 9abc d5df 8ebc f7f4 24bd a1eb 1f3d
00000130: 0391 1cbd 44c6 02bd 6e82 483d 6d5f c9bc
00000140: 9d2a 493d e774 0e3c 7d3f d4bc 55c4 4fbc
00000150: 3910 17bd 1453 913b 7077 893c 36fa f93c
00000160: ec04 05bc fa3d ecbc 7f5e ad3c e4ac 983b
00000170: e643 e83c f92d 04bc 5fed 1c3d d274 103c
00000180: 8bea fcbc 8203 c53c 525c 0e39 1409 1f3c
00000190: f195 debc 80da 533c 8d67 bebb 236d 963c
000001a0: faa8 0fbd 8c43 dbb5 ada5 91bc cae3 22bd
000001b0: af44 1bbd 14f7 143d 2731 223d 606d cd3c
000001c0: d334 fd3c 34d8 793c 8ab4 40bc 9dcc 373d
000001d0: 1f2e 18bd fc20 afbc c8d7 19bd 0c8a eabc
000001e0: 2f0d c33b cdf8 d53a 2171 2c3d 6a03 2fbd
000001f0: 48f5 2c3d 7443 d0ba 1708 023d 6807 963c
00000200: 7b6f c33b 8e51 933c 7404 423d 5a6a 10bc
00000210: bea3 d73c 563b 82bc 0b2e 6f3c 81a0 febc
00000220: 54f8 b43b 34db 223d 87db a93c 8975 20bd
00000230: e007 f83c 0d3e 123d a2a6 f4bc 07ae 1ebd
00000240: f1e8 0fbd 8628 15bd 7568 493a 71c6 583d
00000250: 600c a93c 49c0 113d 656d 04bd a1e5 a8bc
00000260: 89e0 bebc dc0a 443b 371e 3e3d b9fa 3e3d
00000270: f2bc 0dbd 64f2 11bd faaf c0ba ad10 81bc
00000280: d1ce 163d 7ec0 b33b aa18 3f3d e6a1 13bc
00000290: 2f4e aebc 48c3 74bc f27a cc3c ac75 143d
000002a0: 6291 22bd ecfe c53c b9aa b33c 5479 05bd
000002b0: 50dc abbc 6d39 5b3c 285b 2bbd 86ac 613c
000002c0: 5639 eb3c 190d 1abd 12b0 753c 37dd 34bd
000002d0: c63d 293d d0bd 21bd 17a0 da39 f3ee 013c
000002e0: 1a2f 8bbc abe1 803c 591e 14bc 7304 a6bc
000002f0: 02a1 18bd 8fcb 25bd 074f 16bd 65bd 72b9
00000300: 5550 fcbb 0ca6 0fbd 2441 04bd 28b5 4cbd
00000310: 966b e4bc 10b0 53bc 1b67 d4bc f42d a83c
-0.02413615 0.017177375 0.02377263 -0.002474929 0.025531966 0.017087575 0.00034875574 -0.012930124
0.04467378 -0.030941432 -0.021819258 -0.008269489 -0.020937791 0.02673279 0.0058350367 -0.0045161387
0.027914675 -0.029897159 0.026157252 -0.0051900716 0.025997575 0.042276815 -0.013364036 -0.013159197
-0.0065072686 0.02095558 -0.013217313 -0.009100167 -0.002210972 0.013096722 -0.006861081 -0.042567775
-0.0053991503 0.02581704 0.006816386 0.002341763 0.047132205 0.0058025266 0.0016662393 0.033363767
0.007496199 -0.0350104 -0.024285322 -0.04640816 -0.039137002 0.04082108 -0.053336225 -0.017852955
-0.0111329025 0.028954757 0.009047843 -0.022532998 -0.0076174284 0.047754757 -0.004315884 -0.035026982
-0.025361424 -0.018593954 -0.0019239094 0.011260276 0.024851039 -0.013528064 -0.009244179 0.04263516
-0.02591113 0.021705776 0.04279102 -0.025943851 0.04285783 -0.03127222 -0.031553354 0.03227332
-0.018807614 -0.017440716 -0.04027268 0.039043073 -0.03822423 -0.031927362 0.048952512 -0.024581635
0.049112905 0.008694864 -0.02590918 -0.012681087 -0.036880706 0.0044349525 0.016780585 0.030514818
-0.008118849 -0.028838146 0.021163223 0.004659282 0.028352689 -0.008067601 0.038312312 0.008816915
-0.030873558 0.024049524 0.00013576567 0.009706754 -0.027171107 0.012930512 -0.005810684 0.018362587
-0.035073258 -1.633643e-06 -0.017779196 -0.039768018 -0.0379073 0.036368445 0.039597657 0.025076568
0.030908978 0.015249301 -0.011761794 0.04487287 -0.03715336 -0.021378033 -0.0375593 -0.028630279
0.0059524993 0.0016324759 0.042100076 -0.042727865 0.042226106 -0.0015889243 0.031745996 0.018314078
0.0059642172 0.017983224 0.047367528 -0.008814419 0.026323196 -0.015897434 0.01459838 -0.031082394
0.005522767 0.03975983 0.020734562 -0.03917459 0.030277193 0.035703707 -0.029864613 -0.038740184
-0.03513426 -0.0364156 0.0007683107 0.052923623 0.020635784 0.035583768 -0.03233089 -0.020617308
-0.023300426 0.00299137 0.046415534 0.046625827 -0.03460402 -0.035631552 -0.0014700883 -0.015755022
0.03681833 0.0054855933 0.04665438 -0.009010768 -0.021277515 -0.014939137 0.024960969 0.036245033
-0.03968943 0.024169408 0.021931993 -0.03258641 -0.020979077 0.013380391 -0.04183498 0.013774043
0.028713863 -0.037610147 0.014995592 -0.04415628 0.041318677 -0.03948766 0.00041699476 0.007930505
-0.016990233 0.015732607 -0.009040439 -0.020265793 -0.037262924 -0.04047733 -0.03669646 -0.00023149473
-0.007700006 -0.035070464 -0.032288685 -0.04997745 -0.027883332 -0.012920395 -0.02592807 0.020529725

weight f4 [2, 200]
00000000: 4eff 6f3d 3b37 7fbd 47b5 153d 3b79 5c3d
00000010: bdab 853c 7037 2d3c 57c2 9fbd 80d3 acbd
00000020: 4cf7 4c3d d3ec 53bc cc2f 163d b17c 623d
00000030: 5b5e 993d b4e6 763d 1a30 943d 43e8 ed3c
00000040: 7b25 ff3c 6a2f b33d 2415 6c3d ad46 63bd
00000050: b82a f23c 6f92 37bd 61bc 7ebd 6f95 823c
00000060: d5c9 df3c fd9d 72bc f5f6 803d d6c5 3abd
00000070: 9bcf 0b3c c0e8 8b3c 0323 dc3c 23ba 8a3d
00000080: 4bbc 6abd c4a0 103d e478 11bd 2383 6d3d
00000090: 1746 dcbc 9910 ebbc fe40 ac3c 102d 823d
000000a0: df43 95bd d65f 6abd 374f 073c 453b 083d
000000b0: 41c2 f6bc 8dad bc3c dd8a 3c3d 6c97 b7bc
000000c0: 704c d43a 14e7 9abd adec 8a3d 0ee5 4d3b
000000d0: 2683 cc3a b13e 4d3d b593 66bd d1f8 203b
000000e0: d9c9 a8bd 6f49 54bd 0edc 6abd 96ec 243c
000000f0: ab27 adbb 7b35 563d 2ff2 19bd 831e 5ebd
00000100: b303 52bd f448 913d c852 f53c 66a9 803d
00000110: 4b47 d9bc 6a20 b13d 8f0a ac3c f99d b2bd
00000120: e67b 1d3d 68cd 5ebd 5af8 a4bb ba60 513d
00000130: fb15 973c 6965 953d 1b14 39bd f196 943c
00000140: 9464 983d 3ff3 9dbc 44f8 ab3d b65f 61bc
00000150: 7ca1 14bd 7071 8fbd b9cf 37bd 4832 8c3d
00000160: e639 49bd f50c 36bd 5ec8 dbbc b904 3bbd
00000170: 1baa 943d 733b 82bd 2fe3 1e3d 3c1e 933d
00000180: 4020 92bd cccb 333d 5eea 26bd 2a41 28bd
00000190: de86 5c3d 6a93 9d3d bdd7 84bd 5d83 eebc
000001a0: fd15 45bb a78c 49bc c22d 913d 40ef 4dbd
000001b0: 3dc8 90bd 7080 40ba cb00 e73c 8327 603d
000001c0: 721d a63d 51b0 8d3c b980 74bd 5e57 99bd
000001d0: bdae 573d 07d0 8cbd 1a64 683b b8fa c4b9
000001e0: 5b6c 5f3d 1302 873d d3e5 b1bc 95fd 15bd
000001f0: 45d5 0bbd e686 5a3d b54a 273c a66d 1abc
00000200: 7739 38bc a124 b6bd 43da 80bd 1cd4 54bd
00000210: dc59 9bbd f2e8 a5bb 7ffe 4bbd f74b 743d
00000220: a880 253d 52b7 ffbc 68a0 c6bb 8621 1f3d
00000230: f065 4bbb 9527 823c af44 63bd 34c2 453d
00000240: 53fe 983d 7f3c 873d 855a d83c 652d 983d
00000250: b19b 2f3d 5f1c a0bd 330b 80bd 382f 943d
00000260: 0196 9a3d bce4 3b3d e17c 05bd 3524 2c3b
00000270: 6289 13bd 8ab9 28bd a9ea 3c3d 45bc a73b
00000280: e49b 0d3d 7288 303d 1451 75bd e7f5 88bd
00000290: 892d ec3c 341e 9a3d 7b33 663c 2b1d 8b3d
000002a0: 199f 43bd 2257 1f3d 554d acbd c729 ab3d
000002b0: bf07 9fbb d59c f43c 7a77 5b3c d1b4 023d
000002c0: 6673 783d 1bed 41bd b011 053d 47f0 79bd
000002d0: 2e42 513d 5456 b43d 4dd8 a1bd a327 843d
000002e0: ca4f 01bd 25ff e8bb bd33 943d 0767 72bd
000002f0: 98aa 47bd d11c 6abd 1465 923d ecd0 0ebd
00000300: 4ba9 a53c ae85 8fbd 99a2 a63d 5896 abbc
00000310: c2aa 99bd 2536 013c 7b91 133c bde0 99bd
00000320: 9296 703b 8515 383b fcc2 ddbc d4cc 3f3d
00000330: 4aa7 17bb b976 8cbd 8748 89bd c28f ce3c
00000340: e2d7 a03d 285c 523d 0876 853d 24cb 1a3d
00000350: 2ee7 71bd 2d1a 643d 6efd b73d fcf9 96bc
00000360: 21ba 78bd f816 2cbd a531 603d e9bf 4dbd
00000370: 9cc0 c4bc 6e16 863c 0ac2 0a3d f89d a53d
00000380: d1f1 9f3d 6921 343c 39ce 80bd a1eb 333d
00000390: e630 5a3d 02d0 2ebd 22b4 6d3b edfa 3a3d
000003a0: f38a 16bd fe06 c2bd bc04 003c 60af 9b3c
000003b0: d0dd 84bd b8d3 71bd 0594 44bc 349d 5fbd
000003c0: 5938 3cbd b292 74bd e23c f83c 5869 b53a
000003d0: ba62 273d 1164 0e3d 29f0 4b3d c3b0 953d
000003e0: c0e5 1c3c 6260 c9bc 554a 483b 77cc 8b3d
000003f0: c4f9 4dbd 4f26 a63d 8e44 7bbd 0a70 04bd
0.058593087 -0.06230853 0.036549833 0.053826552 0.016317243 0.010572299 -0.07800739 -0.08438778
0.05004053 -0.012934881 0.036666676 0.055294696 0.074887 0.06027861 0.07235737 0.029041415
0.031145802 0.08749278 0.05763735 -0.055487324 0.029561386 -0.044817384 -0.06219137 0.015940396
0.02731792 -0.014808175 0.06297103 -0.045598827 0.008533384 0.017078757 0.026872164 0.06773784
-0.057308476 0.035309568 -0.03551568 0.05798639 -0.02688889 -0.028694438 0.021027084 0.06356251
-0.07288336 -0.057220303 0.008258632 0.03325965 -0.030121924 0.023031974 0.046030868 -0.02241107
0.0016197097 -0.07563606 0.067834236 0.0031417045 0.001560305 0.050108615 -0.05629321 0.0024562369
-0.082416244 -0.051827844 -0.057338767 0.010066172 -0.00528427 0.052297097 -0.03758448 -0.054228317
-0.05127306 0.07093993 0.0299467 0.0628231 -0.026523253 0.086487606 0.021001128 -0.08721537
0.038448237 -0.05439511 -0.0050344886 0.051117636 0.018443098 0.07294733 -0.04518519 0.01813838
0.07441059 -0.019281028 0.08396962 -0.013755729 -0.036286816 -0.07004058 -0.044875834 0.06845528
-0.049127482 -0.04444595 -0.026828941 -0.0456588 0.072590075 -0.06358995 0.038790878 0.07183501
-0.071350574 0.043895528 -0.040750854 -0.04107777 0.053839557 0.076941326 -0.06486461 -0.029115373
-0.003007292 -0.012301601 0.07088806 -0.050276995 -0.070694424 -0.00073433574 0.02819862 0.05472518
0.08111085 0.017295988 -0.059693072 -0.07487367 0.052656878 -0.068756156 0.0035460056 -0.00037570833
0.054546695 0.065921925 -0.021716034 -0.036618788 -0.034138937 0.053351305 0.010210683 -0.009425556
-0.011244169 -0.08893705 -0.0629163 -0.051960096 -0.07585499 -0.0050631696 -0.049803253 0.05964276
0.0404059 -0.031215344 -0.0060616024 0.03885033 -0.0031036101 0.015888015 -0.055485424 0.04828091
0.074703835 0.066033356 0.02641035 0.07430533 0.04287309 -0.07817911 -0.06252136 0.07235569
0.07548142 0.045872435 -0.032589797 0.0026266698 -0.03601969 -0.04119257 0.046122227 0.005118879
0.034572497 0.043098874 -0.059891775 -0.06687527 0.028830307 0.07525292 0.01405036 0.06792673
-0.04775915 0.038901456 -0.084131874 0.08357578 -0.0048532183 0.02985994 0.013395185 0.03191072
0.060656928 -0.047345262 0.03248757 -0.061020162 0.051088504 0.08805528 -0.07902584 0.064528726
-0.031570233 -0.0071104937 0.07236431 -0.059180286 -0.048746675 -0.057156388 0.07148185 -0.034867212
0.020222327 -0.07007919 0.08136482 -0.020945713 -0.075032726 0.007886444 0.009006853 -0.075135686
0.003671084 0.0028088999 -0.027070515 0.0468262 -0.0023140484 -0.06858582 -0.067032866 0.025215033
0.078536764 0.05135742 0.06516653 0.037791386 -0.05905836 0.055689026 0.08983885 -0.018429749
-0.06072438 -0.042014092 0.054734845 -0.050231848 -0.024017625 0.016368117 0.033876456 0.08086771
0.07809795 0.010994294 -0.06289334 0.043925885 0.05326929 -0.04267884 0.0036270698 0.045649458
-0.036753606 -0.0947399 0.007813629 0.019004524 -0.0648762 -0.0590398 -0.011998181 -0.05459328
-0.045952175 -0.059710212 0.030302469 0.0013840599 0.040865637 0.0347634 0.04978958 0.07309105
0.009576261 -0.024582092 0.0030561883 0.06826108 -0.050287023 0.081127755 -0.061344676 -0.03233341

bias f4 [2]
00000000: ef74 70bd e4e6 8abc
-0.058705267 -0.0169558

weight f4 [200, 400]
00000000: 9eb0 9dbc e2f6 c9bb a610 cabc 485a 09bd
00000010: 60f8 343d 46ce 9ebc ba71 313d a0cf 80bc
00000020: 077e c73b 0d15 cbbc 96b1 1dbd 00e3 27bc
00000030: 7f24 233d 9ea2 ecbc 7e26 1b3d d80a ac3c
00000040: 9aec d63c 8608 3c3d e22b 07bc 238c 0ebc
00000050: e570 31bb b3fe 153d 2402 4bba 01b9 41bd
00000060: bdb7 b93c 9609 5c3c 93f3 68bc 2bbd da3c
00000070: b540 f43c 9f54 ebbb 03ea c8bb ae74 a5bc
00000080: b4ba 073d 60d2 3f3d 3708 423d f26d 163c
00000090: 0820 e83c 43df 383d c69b 093c bd4c 9d3c
000000a0: c13b 93ba d3d4 e7bb 07d7 0d3c 90be 123d
000000b0: 93d8 8e3b 2f6f 4ebc e8c0 ddbc db0f 3a3d
000000c0: c882 22bd 049c 09bd bb77 2c3d e112 853c
000000d0: 4596 a23c e98a b3bc b9ef b43c 6712 a4bc
000000e0: 11ef 193c 7735 543d 5dcc 04bd 57a1 023c
000000f0: 1840 973c 3290 ae3b ffc5 8dbc 6d57 f13c
00000100: a72f 1fbc 43d0 15bc 2eef 2f3d 3fdf 0c3d
00000110: 7329 3fbd a927 ae3c 91ec 0b3d d5e9 45bc
00000120: e286 16bd 61f3 8cbc 2d10 8dbc f05c ea3c
00000130: cc0e 0bbd 5438 94bb 4aca 443d e87e 803c
00000140: 7e23 c4bc 59c2 203c f4d1 a43c f99c 09bd
00000150: 8bb8 3f3d c5e6 8b3c 4fb3 1fbd e342 25bd
00000160: a526 bbbb 2469 3d3d 589e 36bd b94c ff3c
00000170: 3ef9 a4bc ff5e 1b3d 3424 4fbc 4831 783c
00000180: 8f29 253c a85b 383d e156 cc3c 67d0 18bd
00000190: cdf0 403d fecb 9f3b 1685 18bd cfb7 fb3c
000001a0: b2d4 a63c f879 f43c 7524 13bd 341c 2dbd
000001b0: 72c0 86bc 1d8b acba edfb 0f3d 59a9 18bd
000001c0: 503a 7a3c e094 423d dc19 a73c a21d 313c
000001d0: 47b4 773c 5eb9 0f3d 25cd 1dbc 1a29 2e3c
000001e0: 35e7 f0bc 3fca d1bc a1ba c9bc 26d7 2ebd
000001f0: a3f4 143d 32f4 a23c c808 56ba 2e44 d73b
00000200: eff5 1dbd e514 4bbd 9317 3dbd 8ef0 e1bc
00000210: 650c eabb c143 343d c577 c1bc 1a91 3bbd
00000220: 64b4 0b3d 3c37 603d 8a56 3dbd b670 583d
00000230: 8b1f 16bd 555e 0b3d 9914 53bd 160f 83bc
00000240: d5b8 21bd cea2 a93c 90de afbc 746e 453c
00000250: a05b 33bd 67ad 1cbd 2ca0 debc 7209 3f3d
00000260: 0d6b 3f3d 1fe4 0cbd 26c6 69bc 1d24 4dbd
00000270: e543 22bc 6970 ddbb c373 37bb 53ae 2ebb
00000280: 54a2 513b 7134 343d 8b75 39bd c225 f73c
00000290: 6903 96ba 8578 7abb 5cea 37bd ff5d c03c
000002a0: 1bce a83c 5526 8d3c 7830 a7bb 9c9a af3b
000002b0: 9517 083d ddfe 033d 908a fcbc ca6c 853c
000002c0: 7743 bc3b 3c46 d73c 171f b2bb c46c ef3c
000002d0: 00b2 42bb c03f 96bc 7268 19bc 13e8 a2bc
000002e0: ada0 083d 0634 1fbc 5674 30bd c2e7 513d
000002f0: c832 103d 3433 813c 8e18 47bd 525c 43bd
00000300: ff16 163d d842 22bd b072 e4bc f186 1f3d
00000310: 251f c8bc 99e5 373d d35e a2bc cc8f febc
00000320: fe07 9eba 40bf 3fbd afb4 463d 2242 0c3d
00000330: 81b8 14bc df90 23bd ce42 82bc 747b 25bd
00000340: f487 6cbc 5020 8a3c 543f e03b ed55 8c3c
00000350: efab 0bbd 72ce b03b 7da7 b4bc 8e61 19bd
00000360: 1203 d2bc 4481 413d 0445 afbc d8b0 97bc
00000370: 059e 383d 883d 433c 9a86 cb3c b44a dc3c
00000380: e51d 66bc b75b 51bc 90fa 143d 327e 60bd
00000390: 72f9 253d 496a 453c dda6 0fbd 919a f73c
000003a0: dc43 6e3c 9195 14bd fed2 583d 9367 193d
000003b0: 4a56 13bd dac9 dbbc 25fe 323c 5775 bf3c
000003c0: 23a3 9dbc 975e 393d c75f 603c c654 7bbb
000003d0: c4f1 803c 84bd e4bc b290 be3c 7027 8abc
000003e0: d406 7c3c fd57 563d 809d 543d e19b f63c
000003f0: df54 423d 8e18 183d f991 c7bc d1b7 e93c
-0.019249257 -0.006163464 -0.024666142 -0.033533365 0.04418218 -0.019385468 0.04332135 -0.015724003
0.0060880217 -0.024790311 -0.038499437 -0.010246992 0.039829727 -0.028886136 0.037878506 0.021001264
0.026235867 0.045906566 -0.008250209 -0.008700403 -0.0027075347 0.036619853 -0.00077441544 -0.047295574
0.022670621 0.01343002 -0.014218229 0.02670153 0.029816011 -0.0071817185 -0.006131412 -0.020197239
0.03313704 0.04683149 0.047371116 0.009181486 0.028335586 0.045134794 0.008398956 0.01920163
-0.0011233018 -0.007074931 0.008657224 0.035826266 0.0043593138 -0.01259975 -0.027069524 0.045425277
-0.039675504 -0.033596054 0.04210637 0.016244354 0.019847045 -0.021916823 0.022086965 -0.020028306
0.009395377 0.0518088 -0.03242146 0.007973037 0.01846318 0.005327248 -0.017306326 0.029460633
-0.009715951 -0.009143892 0.04295271 0.03439259 -0.04667039 0.021259146 0.034161154 -0.012079676
-0.036749728 -0.017205896 -0.017219627 0.02860877 -0.03394966 -0.0045233164 0.04804448 0.015685514
-0.023942705 0.009811961 0.020119645 -0.033596966 0.046806853 0.017077813 -0.03898936 -0.04034699
-0.005711394 0.046242848 -0.044584602 0.031164514 -0.02013838 0.037932392 -0.012642909 0.015148468
0.010080709 0.045009285 0.02494377 -0.037308123 0.047104646 0.0048766127 -0.037236296 0.030727295
0.020365093 0.029843315 -0.03592344 -0.042263225 -0.016449187 -0.0013164018 0.035152365 -0.037270878
0.015272692 0.04750526 0.020398073 0.010810288 0.015118665 0.03508889 -0.00963143 0.010629917
-0.029407123 -0.025609134 -0.024625124 -0.04268565 0.036366116 0.019891832 -0.00081647607 0.006569407
-0.03856462 -0.049580473 -0.04616506 -0.027580526 -0.007142591 0.044009928 -0.02361668 -0.045792677
0.03410758 0.054740176 -0.04622511 0.052841865 -0.036651175 0.03402551 -0.051533315 -0.015998404
-0.03948291 0.020707514 -0.02146843 0.01205026 -0.043788552 -0.038251307 -0.027175985 0.046639867
0.04673295 -0.03439724 -0.014268434 -0.05008327 -0.009903883 -0.006757785 -0.0027992583 -0.0026654198
0.0031987624 0.043995325 -0.045278113 0.030169372 -0.0011445108 -0.0038218808 -0.044901237 0.02348232
0.020606091 0.017230192 -0.0051022135 0.005359007 0.033225615 0.03222548 -0.03082779 0.016287226
0.005745347 0.026278608 -0.005435835 0.029226668 -0.0029708147 -0.018340945 -0.009363281 -0.019886052
0.033356357 -0.009716993 -0.043079697 0.051246412 0.03520468 0.015771486 -0.0486074 -0.047695465
0.036643025 -0.03961453 -0.027886719 0.03894705 -0.024428913 0.044896696 -0.019820606 -0.031074427
-0.0012056825 -0.04681325 0.048512157 0.034242757 -0.009077192 -0.03993308 -0.015900996 -0.040400937
-0.014436711 0.01686111 0.006843487 0.017130816 -0.034099516 0.005395704 -0.02205252 -0.03744655
-0.02563623 0.047242418 -0.021395214 -0.018516943 0.045072574 0.011916526 0.024844456 0.02689109
-0.014045213 -0.012778214 0.036371768 -0.05480785 0.040521093 0.012049266 -0.035071243 0.03022507
0.014542546 -0.03627545 0.052935593 0.03745229 -0.035970964 -0.026829649 0.010924851 0.023371382
-0.019242829 0.045256224 0.01369471 -0.003835009 0.015740283 -0.0279224 0.023262355 -0.016864508
0.015382487 0.052330006 0.051908016 0.030103626 0.04744422 0.037132792 -0.024361597 0.028530033

bias f4 [200]
00000000: ded9 8abc a480 57bd ca39 0ebc cf9e 383d
00000010: f843 0dbb 141a bebc cecb 7e3d 4725 c13c
00000020: 89b1 5bbd f4c9 0f3c 56f7 2fbd b6c1 f1bb
00000030: 3607 1d3d df94 1ebd c5ec 653c 1609 df3c
00000040: 4640 0d3d 8c79 d83c 42a4 1b3c f9f2 f63c
00000050: afc7 16bd deee ccbc 3aa7 39bd ce03 1f3d
00000060: aa06 ee3b 8666 8b3c 88e8 e03c f280 9d3c
00000070: ded1 0e3d ebd2 3a3d d872 b7bc d1d0 22bd
00000080: 3734 2dbc e923 793c 5455 11bd 7b57 3abc
00000090: 3bce 24bd 079c f5bc 2b42 46bc 388c 353d
000000a0: 356f f33a 6b00 eb3c 6220 7f3c b940 dbbc
000000b0: 84c2 b93c 57bb 60bc a6d8 e8bc 4287 24bd
000000c0: 9c52 5c3b 89eb 653b 5119 fd3b 2668 3ebd
000000d0: 2047 61bc 7297 2dbd 415c 873d 809e 0e3d
000000e0: 4512 463c 4075 0c3c 72a0 43bc 5178 bd3c
000000f0: e2a2 0bbd 033c 78bc a298 3a3a f3bc 96bc
00000100: 8854 90bc faa1 d2bc 8932 43bd 67af 113d
00000110: f2aa 41bb 6ef9 ff3c 9bad 96bc cd03 fbbc
00000120: c8ab 773b 63da 12bd 23e9 f63c 0759 08bd
00000130: 1b26 083d bdd3 c63c c3c6 c73a 6d25 a6bc
00000140: 9e21 21bd f643 3d3d 4a66 c43c 76f3 2abd
00000150: 8fd5 443d f8fa 44bd d76c 5a3c b4ff 23bd
00000160: 10f5 383d 1b4b 3e3c ebc0 283d 25c8 383d
00000170: fddb f63c 3d5d 07bd db0d 60bb 0be1 fb3c
00000180: 5d36 b9bc 8971 5b3c f9e9 0b3d 4ede bd3c
00000190: 66cd e53c c559 28bc a153 c3bc afea 92bc
000001a0: 672b 74bc 29c6 06bc ec2d 31bd 1ce9 6c3d
000001b0: 6d44 a3bc 51e6 1f3c 3804 c5bc c84b cdbc
000001c0: 4da1 2dbb 1c6d 0a3d a78d 10bd 5185 2c3c
000001d0: 4078 593d d13b c6bc 0b39 91bc 4c2c c43c
000001e0: 2252 3fbd af7f 283d a0b8 463d f909 9fbc
000001f0: c083 f9bc e0a0 543b 84dc 333d 3a73 c4bc
00000200: 3733 753b 8861 363d de62 0fbd 5c83 25bd
00000210: 447e f8bc 7134 453d 1ff9 18bd ea58 3f3d
00000220: e4c3 963b b06c 1fbd 8843 913c 298b 35bd
00000230: 9047 163c 9912 51bc c71b a0bc e4b9 1f3d
00000240: 1a2f b43c 042b ed3b 5f83 3abd 9e6e 1c3d
00000250: c7bc a8bc 2688 46bd e3d2 0c3d c1ac 583d
00000260: 17b8 17bd 93bf 5fbc 3f4a c43c f2ca 71bc
00000270: b0c6 e8bc 3aea ebbc 243e 45bd aab5 5a3d
00000280: 64a0 c3bc 7a68 53bc a721 11bd 0cc4 093d
00000290: ad9e 00bd 3868 d8bb 68c2 5e3d 8c5d 53bd
000002a0: 4682 08bd 860a c23b 5f32 fbbb 015d bebc
000002b0: a5ab 17bd 89b0 f9bc 905b 59bc 153c 023d
000002c0: 4ba3 bd3c c24b 8fbc 62c4 6f3c 63ec a7bc
000002d0: dc70 a33a 769c 413b 4903 f93c afcd 193a
000002e0: 0eb9 073c 8232 1dbc 5f0a 41bd 4b3a 93bc
000002f0: b3fa 2e3b 5f19 913c e2c7 2fbd 16d9 01bd
00000300: 460b 593d 9c07 9f3b 7407 bc3c f279 84bc
00000310: 20a9 b3bc 9ef3 c9bc d802 33bd ba24 4abc
-0.01694959 -0.052612916 -0.00868077 0.045073327 -0.0021555405 -0.023205794 0.062206082 0.023577346
-0.053636108 0.008776177 -0.042960487 -0.0073778285 0.038336955 -0.038716193 0.014033501 0.027226012
0.034485124 0.026425146 0.009499611 0.030145155 -0.036811527 -0.025016245 -0.045325495 0.038821988
0.007263978 0.01701666 0.02745463 0.019226525 0.034868114 0.045611303 -0.022393629 -0.039749924
-0.010571531 0.015206316 -0.035481766 -0.011373396 -0.04023574 -0.029981626 -0.012100737 0.044323176
0.0018572571 0.028686723 0.0155716855 -0.02676426 0.02267576 -0.01371654 -0.028423619 -0.040168054
0.0033618575 0.0035083017 0.007723965 -0.046486042 -0.013749868 -0.042380758 0.06609393 0.034819126
0.012089317 0.008572876 -0.011940109 0.02312866 -0.034090884 -0.015151027 0.0007118081 -0.018400645
-0.017618433 -0.025712002 -0.047655616 0.035567667 -0.0029551354 0.031246867 -0.018393328 -0.03064146
0.0037791599 -0.0358528 0.030140465 -0.033288028 0.033239465 0.024270887 0.0015241731 -0.020281518
-0.0393387 0.04620739 0.023974556 -0.04173609 0.048055228 -0.048090905 0.0133316135 -0.04003878
0.045155585 0.011614586 0.041199606 0.045112748 0.030134195 -0.033047903 -0.0034187946 0.030746957
-0.02260893 0.013393768 0.03415868 0.023177292 0.028052043 -0.010275309 -0.023843588 -0.017934171
-0.014902926 -0.008225956 -0.043256685 0.057839498 -0.019930089 0.009759502 -0.024049863 -0.02506055
-0.0026493848 0.03379546 -0.03529134 0.010529832 0.053093195 -0.024198445 -0.017727396 0.023946904
-0.046709187 0.041137394 0.048515916 -0.019413935 -0.030458331 0.0032444522 0.043911472 -0.023980726
0.003741456 0.044526607 -0.035006396 -0.040408477 -0.030333646 0.048145715 -0.037346955 0.046715654
0.0046009887 -0.03892201 0.017732397 -0.044322167 0.009172335 -0.012760782 -0.019544495 0.03899564
0.021995116 0.007237794 -0.04553544 0.03819143 -0.020597829 -0.048469685 0.034380805 0.052899126
-0.037040796 -0.013656515 0.023961185 -0.014757859 -0.028415054 -0.028798211 -0.048154965 0.053395905
-0.023880191 -0.012903327 -0.035432484 0.03363423 -0.031401325 -0.0066042207 0.05438462 -0.051602885
-0.033327363 0.0059216646 -0.007665917 -0.023237707 -0.037028927 -0.030479686 -0.013266459 0.03179558
0.023149153 -0.017492179 0.014634224 -0.02049846 0.0012469548 0.002954272 0.030397074 0.0005867136
0.008283867 -0.0095945615 -0.04712903 -0.017972132 0.0026699721 0.017712293 -0.042915232 -0.03170117
0.052989267 0.004853202 0.022952773 -0.01617143 -0.021931231 -0.024652299 -0.043703884 -0.012337858

weight f4 [2, 200]
00000000: ff42 e0bc fcd1 bebb c7ac 3d3c c72d a5bd
00000010: 810a e2bc b654 cf3c 6282 a2bd 9cfc efbc
00000020: 29da 143d 9e77 7bbd 495d ae3c 8051 6d3d
00000030: 15e8 8fbd 2153 003d 8fd8 86bd 7e66 523d
00000040: 2ba5 a43c b07a 87bc 18f6 673d ab7d d03c
00000050: 5db4 82bd 4d2f 803c d390 453d edf9 cf3c
00000060: f2c0 a0bd a10f 0f3d 5738 2a3d 4855 a4bd
00000070: 37fa 833d 35b3 793d 62b8 413c 1a1e b23c
00000080: de20 4b3d ef83 333c 421b 323d acbc a13c
00000090: 3ed8 2fbd 154e ea3c 48ac 713c 3af5 303c
000000a0: a513 90bd 98c8 78bd d47a 6d3d 2b5d 0cbd
000000b0: 83b6 ebbc 0ca7 9cbc 1d5d 36bd c012 a13c
000000c0: 6b9c 1c3c 9a01 abbd 561a 063c 3e24 783d
000000d0: 7f00 0b3d a951 6abc 65b4 a6bc 91cf 3abd
000000e0: ecf9 0cbd 4389 963c c50b 8f3d dd02 b7bd
000000f0: 5458 49bd bd2a 14bd 3945 75bd fc0d 1fbd
00000100: 05ef 173d b9da e93c 6408 303d f496 0dbd
00000110: 276e d9bc c6f2 d1bc 42e0 e9bc f70a 803d
00000120: cab2 7a3d 0902 23bd 3085 82bb a86d 883d
00000130: 3b6a a0bd eba5 32bd e039 48bc ec97 86bd
00000140: e4ca 063b 3617 73bd 21a8 6cbd 15cf 1f3d
00000150: 9e2b ca3c 6332 c13b 792e 21bd 41c8 f7bc
00000160: 095b 253c ec57 543c a269 8f3d bf5e bf3c
00000170: 0349 9f3c 66cc 4e3c f1a2 5dbd 72d3 c9bc
00000180: 8328 883d 6174 693d 69ba dd3c bdec ab3c
00000190: a822 493d 8e75 8bbc 375e 7bbd 24aa 863d
000001a0: 66c3 353c 3f29 98bd d92f 7f3c 3dd8 8ebd
000001b0: a7bf 1b3d a402 1f3d fd45 e9bc 9149 4cbd
000001c0: ab0b 153d 0b22 513c 6e3e 54bd 5d46 3abd
000001d0: 83fd 15bd 3141 45bc 9bed 773d b4df 84bd
000001e0: dbb5 333d a36f 6dbd 9e8f 9ebc ad9b 673d
000001f0: c832 36bd 1b49 93bd fb25 5fbd ca16 3bbd
00000200: 121b 7dbd b348 663d a997 213d 59d2 d13c
00000210: 4502 f93b 8752 c33b 4bf1 b73b a21a d9bc
00000220: 35a7 35bc 68d3 573d 9cd2 89bd 1628 db3a
00000230: 82a2 6fbc 5dab 2fbd 25da f43c f7aa 64bb
00000240: f2a7 843d 66a8 e73c 6978 a33c b0d5 fdbc
00000250: 1fa4 2cbd 672a b1ba 4b89 953c cc15 89bd
00000260: 1cc6 643d 8fe3 c13c c05f 373d 3aec 0dbd
00000270: 3a08 153d 9844 37bd bd09 423d 5b6b 01bd
00000280: af8b 9dbd ed62 bd3c 3e6c d7bc 800f 5cbd
00000290: 6d95 f0bb 3905 5bbd d3a2 4cbd 61ce 8d3d
000002a0: 5530 80bd 5096 92bd ade4 18bc 2f9a 5abd
000002b0: a72c 023d 7918 6abd 4090 3f3c dd8f 8fbd
000002c0: caff 6abd f5e6 25bd a1d7 adbd 337a 143d
000002d0: fd6c 1d3d c61c 083d 4385 f03c 2907 413d
000002e0: e5ea 4ebd 7b92 70ba 2c1f 073d ee27 95bd
000002f0: 4753 653d 6a1c 3ebc b1e7 1abd 58d4 09bd
00000300: 9628 9ebd ac28 453c cacb af3b c63c 28bb
00000310: b7d4 493d e086 003d e271 693d 71a2 95bd
00000320: b319 803d 5dc9 f33c b28b 37bd e3b4 583c
00000330: 651c 4fbd d02f 813c 19cd 0ebd dc1a 69bd
00000340: ac63 9dbc 9202 543b 77ff 803d e730 63bc
00000350: e9a2 9abd 7ea3 933d ab95 8cbc a167 cebc
00000360: 43de b83a 3f0f 173c 5fa5 66bd f78d 5fbd
00000370: 0672 393d ae76 2c3d fc30 ce3c 9fc9 a03b
00000380: 4322 ca3c 3203 e33a c2d5 963c 0d08 60bc
00000390: 8435 693d 2b05 e6ba ed7f 4a3d 496d 623d
000003a0: 76c0 89bd 6678 eb3b 85ed 85bd 5395 623c
000003b0: eebe 8c3c 0b9d 9abc a5bc 20bd 2dad 943c
000003c0: 2579 f7bc d39e 9e3b 3d2c 03bd a77c 3dbd
000003d0: c707 d13c 5e84 a5bd 2412 873c 7fbb 143d
000003e0: 14a9 5abd 7d4c 30bc 9371 dd3c 91b2 443d
000003f0: 0967 5abd 2085 56bd fab3 14bd 2f27 a3bd
-0.027375696 -0.005823372 0.011576838 -0.08065372 -0.0275929 0.025308948 -0.07935025 -0.029295258
0.036340866 -0.061393373 0.021284716 0.057939053 -0.07026688 0.031329278 -0.06584274 0.051367275
0.02009829 -0.016537994 0.056631178 0.025450548 -0.06382058 0.015647555 0.04823382 0.025387729
-0.078493014 0.034927014 0.041557636 -0.080240786 0.06444209 0.06096192 0.011823745 0.02174287
0.04959189 0.010956748 0.043483026 0.019743286 -0.042930834 0.028601686 0.014750548 0.010800654
-0.07034997 -0.060738176 0.057978466 -0.03426854 -0.028773552 -0.019122623 -0.044522393 0.019662261
0.009558777 -0.08349915 0.00818499 0.06058144 0.03393602 -0.014301696 -0.02034969 -0.045608107
-0.03441803 0.018375998 0.06984667 -0.08936093 -0.049156502 -0.03617357 -0.05988047 -0.038831696
0.03709318 0.028546678 0.042976752 -0.03456779 -0.026541783 -0.025628459 -0.028549317 0.062520914
0.061205663 -0.039796863 -0.0039831623 0.0666154 -0.07832762 -0.043615263 -0.01222083 -0.065719455
0.002056771 -0.059348308 -0.057777528 0.03901585 0.024679001 0.005895899 -0.03935096 -0.030246856
0.010092505 0.012960415 0.0700257 0.023360608 0.019443994 0.012621975 -0.05411047 -0.024636958
0.06648352 0.056995753 0.027066426 0.020986909 0.049105316 -0.017023828 -0.061369147 0.065754205
0.01109395 -0.07429742 0.015575373 -0.06974838 0.03802457 0.038820878 -0.028475756 -0.049874846
0.03638808 0.012764464 -0.05181735 -0.04547726 -0.03661872 -0.012039469 0.060529333 -0.064879805
0.043874603 -0.057967793 -0.019355591 0.05654495 -0.044482023 -0.07191678 -0.05447958 -0.04567603
-0.061793394 0.056221675 0.039451275 0.025612997 0.0075991475 0.0059607658 0.005613481 -0.026501957
-0.011087229 0.052691847 -0.06729624 0.001672032 -0.014626147 -0.042888034 0.029889176 -0.0034891942
0.064773455 0.02827854 0.019954877 -0.030985683 -0.042148706 -0.0013516665 0.018253943 -0.066936105
0.055852994 0.023668079 0.04476905 -0.03464911 0.0363848 -0.04474315 0.04737257 -0.031596523
-0.07692658 0.02311846 -0.026296731 -0.05372572 -0.0073420317 -0.053471778 -0.04995997 0.06924129
-0.062592186 -0.07157576 -0.009331864 -0.053369697 0.031780865 -0.057152245 0.011692107 -0.070098616
-0.057372846 -0.04050346 -0.084883936 0.03624935 0.038434017 0.033230565 0.02936042 0.04712597
-0.05051698 -0.0009177101 0.032988712 -0.072830066 0.055987623 -0.011603454 -0.037818614 -0.033649772
-0.07722585 0.012033623 0.0053648697 -0.002567099 0.049275126 0.031378627 0.056993373 -0.07306374
0.06254902 0.029759103 -0.04481096 0.0132267205 -0.05056419 0.01576987 -0.034863565 -0.05691038
-0.019212566 0.0032350165 0.06298726 -0.01386664 -0.07550604 0.07208918 -0.017161211 -0.025195898
0.0014104325 0.009219944 -0.056310054 -0.054578748 0.045274757 0.04210537 0.025169842 0.0049068476
0.02467454 0.0017319678 0.018412475 -0.013673794 0.056935802 -0.0017549148 0.049438406 0.055280004
-0.06726162 0.0071859835 -0.06539444 0.013829547 0.017180886 -0.018873712 -0.039242405 0.018148983
-0.030209133 0.0048407107 -0.03202461 -0.046261456 0.025516404 -0.08081888 0.016488142 0.036311623
-0.0533839 -0.010760424 0.027031695 0.048021857 -0.05332092 -0.05237305 -0.03630445 -0.07966458

bias f4 [2]
00000000: 7653 093d 04ad 08bd
0.03352686 -0.033368126
