lab2/problem3/neural-network-3-critic.pth (torch, 339275 bytes, 5 tensors)

weight f4 [400, 8]
0.3580985 -0.71613985 0.29293534 -0.43100855 0.26332942 0.5623284 -0.43164486 0.09550733
-0.124216385 -1.7100642 -0.053852443 1.4152744 -0.6849226 0.010412563 -0.6242479 0.1612244
-0.095555834 -0.51985466 -0.006627601 1.6625655 0.34604642 0.27332917 -0.4012429 -0.4425245
0.11438822 -0.49326277 0.6329738 0.79555595 2.3385549 0.13923876 0.121249214 -0.13425353
0.6933803 -0.826973 -0.22380058 0.9413528 0.6507092 -0.22455709 -0.63442993 -0.14707865
0.44490618 -1.2106506 0.40916643 -0.2828836 -0.8900162 0.9288836 0.095513485 -0.296649
0.19447576 0.27962786 0.57942975 0.9837329 0.34824297 -0.09268586 -0.64150697 -0.6038496
0.009023035 -0.029197501 -0.2588216 0.15733114 0.17390724 -0.10973322 -0.38368878 -0.13826339
-0.10283728 -0.6845704 0.6426612 0.075944744 1.0640367 -0.071964554 -0.63316137 -0.49689907
0.6325689 -0.8161574 0.16507772 -0.3835723 -0.13222703 0.2409115 -0.24539189 0.10866522
0.92695093 0.96245277 -0.4234281 -1.2340467 -0.3487535 -0.66167504 0.037141543 0.054400876
-0.39789444 -0.28085127 -0.46894592 0.51121604 0.5303219 0.61415005 0.9768495 0.21879283
0.25734717 -1.0680265 0.25718793 0.2206831 -0.4984375 0.40766293 -0.58903074 -0.2060853
0.16836709 -0.18055208 0.072815746 -0.15603644 0.57220626 -0.11832866 -0.8763111 -0.71904767
-0.97531915 -1.1727611 -0.7372901 -0.05004528 0.9137125 0.011695077 0.2847848 -1.2587185
-0.1158212 -1.5882539 0.6569264 0.21218403 -0.020990891 0.32657427 0.0100584775 -0.18398976
-0.2692841 -0.0958631 -0.8317034 -0.20580485 -0.20779304 0.6325143 -0.079649985 0.27130488
-0.54091144 -0.69462574 1.8980036 0.26997936 -0.88004845 0.36724633 0.8328751 -0.04883017
-0.29191035 -0.52257943 1.1485631 -0.09200015 -0.8404166 0.18943934 0.20557731 0.18238464
-0.36986852 -0.98073345 -1.0627505 0.27520207 -0.64418817 -0.7629225 -0.3967334 -0.6439854
-0.5912979 0.5642753 -0.066115126 0.10011402 -1.3264687 -1.636308 0.11048991 -0.37717426
-0.55901885 0.23591112 0.6468444 0.14960636 -1.2259277 -0.28015032 -0.060148474 0.43820733
0.011244471 -1.651484 -1.5100152 0.8684857 -0.89223266 -0.4503801 0.8019755 0.3217485
0.06336894 -0.49267566 -0.42142174 0.118863724 -0.37660125 -1.0138167 -0.54806703 -1.701161
0.19794138 -0.8652432 -1.7864236 0.8298611 -0.6586465 0.50423014 0.2605034 -0.6161682
0.7254465 -0.5376938 -0.33601928 0.082880005 0.760127 0.13404076 0.008327057 -0.95462227
0.7531474 -1.1891721 -0.8102474 -0.5308537 1.1905982 -1.1117865 -0.16073944 -0.18288396
0.56279707 -0.040568057 -0.904266 -0.79196745 0.7844504 0.55753344 0.22956619 -0.43836245
0.9258682 -1.1243545 -0.70376307 -0.2930627 -1.5105824 1.0707716 -0.32366157 0.46005794
-0.009194156 -1.1523706 -0.6836511 -0.3626086 -0.10111436 0.68614364 -0.9448654 -0.93523526
-0.104866005 -0.07262997 -0.17929304 0.21168733 0.12844796 -0.15167242 -0.18530537 0.020199189
0.31684858 -2.434676 2.7156596 1.0862602 -1.2764361 0.34391102 0.4666977 0.3688751
00000000: b058 b73e f154 37bf 9ffb 953e 27ad dcbe
00000010: 1dd3 863e c1f4 0f3f 8e00 ddbe 5999 c33d
00000020: 2965 febd 62e3 dabf 6194 5cbd b627 b53f
00000030: 1657 2fbf 7499 2a3c b6ce 1fbf 0218 253e
00000040: c7b2 c3bd 3215 05bf 592c d9bb f2ce d43f
00000050: ff2c b13e cdf1 8b3e b66f cdbe 9292 e2be
00000060: 5f44 ea3d f08c fcbe 920a 223f 8ea9 4b3f
00000070: e2aa 1540 9b94 0e3e 8251 f83d c279 09be
00000080: 5f81 313f 81b4 53bf fb2b 65be 7ffc 703f
00000090: e194 263f 4bf2 65be 006a 22bf c99b 16be
000000a0: beca e33e 99f6 9abf 437e d13e 1fd6 90be
000000b0: 1ad8 63bf 51cb 6d3f 939c c33d 61e2 97be
000000c0: a724 473e 622b 8f3e 8255 143f ebd5 7b3f
000000d0: e74c b23e 16d2 bdbd cd39 24bf e395 1abf
000000e0: 5ad5 133c 992f efbc 4484 84be 6a1b 213e
000000f0: bd14 323e cfbb e0bd db72 c4be eb94 0dbe
00000100: 5a9c d2bd 0140 2fbf 7285 243f eb88 9b3d
00000110: 5b32 883f 2762 93bd dd16 22bf 8e69 febe
00000120: 09f0 213f b1ef 50bf 220a 293e 9763 c4be
00000130: 8666 07be 81b1 763e 0348 7bbe df8b de3d
00000140: a84c 6d3f 4e63 763f 91cb d8be 3ef5 9dbf
00000150: d28f b2be 8963 29bf bb21 183d 74d3 5e3d
00000160: d2b8 cbbe bdcb 8fbe ae19 f0be 0edf 023f
00000170: 2dc3 073f f038 1d3f cf12 7a3f 3a0b 603e
00000180: 02c3 833e 18b5 88bf 23ae 833e c0fa 613e
00000190: 3333 ffbe 32b9 d03e b8ca 16bf 0608 53be
000001a0: 6c68 2c3e a5e2 38be 6c20 953d 04c8 1fbe
000001b0: 1c7c 123f 4c56 f2bd ed55 60bf 8213 38bf
000001c0: 84ae 79bf 091d 96bf 0bbf 3cbf 48fc 4cbd
000001d0: 10e9 693f b59c 3f3c 50cf 913e b01d a1bf
000001e0: aa33 edbd e74b cbbf 542c 283f c546 593e
000001f0: 17f5 abbc be34 a73e 50cc 243c d067 3cbe
00000200: 9bdf 89be df53 c4bd 84ea 54bf 82be 52be
00000210: b3c7 54be 75ec 213f 881f a3bd 79e8 8a3e
00000220: 2c79 0abf fed2 31bf c8f1 f23f bc3a 8a3e
00000230: db4a 61bf b607 bc3e 4d37 553f 2502 48bd
00000240: 4675 95be c4c7 05bf 1e04 933f 936a bcbd
00000250: 8b25 57bf 63fc 413e dc82 523e 0ac3 3a3e
00000260: 685f bdbe 5911 7bbf 3508 88bf 49e7 8c3e
00000270: 84e9 24bf e44e 43bf a420 cbbe 3adc 24bf
00000280: 4d5f 17bf 5974 103f 5e67 87bd 9408 cd3d
00000290: bac9 a9bf 8a72 d1bf 8948 e23d fc1c c1be
000002a0: dc1b 0fbf af92 713e 9897 253f 6932 193e
000002b0: 33eb 9cbf dd6f 8fbe 3f5e 76bd b65c e03e
000002c0: bb3a 383c d463 d3bf 2e48 c1bf 1455 5e3f
000002d0: 5c69 64bf 3898 e6be 444e 4d3f 38bc a43e
000002e0: 93c7 813d fc3f fcbe 97c4 d7be d36e f33d
000002f0: e1d1 c0be bfc4 81bf 1f4e 0cbf a5bf d9bf
00000300: 25b1 4a3e 9480 5dbf 87a9 e4bf c771 543f
00000310: 0f9d 28bf 3a15 013f b460 853e 33bd 1dbf
00000320: ddb6 393f 4da6 09bf b80a acbe febc a93d
00000330: af97 423f fb41 093e 356e 083c 2062 74bf
00000340: 45ce 403f cb36 98bf 606c 4fbf 07e6 07bf
00000350: 8665 983f 054f 8ebf e198 24be ef45 3bbe
00000360: 7813 103f b12a 26bd fa7d 67bf 61be 4abf
00000370: bed1 483f 83ba 0e3f 6613 6b3e 0b71 e0be
00000380: b305 6d3f d9ea 8fbf d129 34bf 500c 96be
00000390: c45a c1bf 0b0f 893f f8b6 a5be b78c eb3e
000003a0: 16a3 16bc e180 93bf c203 2fbf d6a7 b9be
000003b0: 0c15 cfbd 1ca7 2f3f b3e2 71bf 946b 6fbf
000003c0: fdc3 d6bd 06bf 94bd 9898 37be 90c4 583e
000003d0: dd87 033e 0450 1bbe b1c0 3dbe c578 a53c
000003e0: fa39 a23e bbd1 1bc0 5ecd 2d40 930a 8b3f
000003f0: 4262 a3bf 1b15 b03e 00f3 ee3e 32dd bc3e

bias f4 [400]
0.48538482 0.052973922 -0.38392156 -0.7168886 -0.6021017 -0.07085373 0.25703293 -0.42930683
-0.17006028 0.21340552 0.19238532 -0.06320851 -0.07969111 -0.43697485 -0.1305726 0.07393751
0.049622163 -0.44914636 -0.69870865 0.3044598 -0.2235841 -0.92570204 -0.004409597 0.25111994
-0.10903184 0.32869425 0.07571024 -0.06050029 -0.1763783 0.21263207 -0.43884426 -0.13072129
0.15630452 0.082211584 -0.1850905 -0.9467349 -0.57701546 0.3534009 0.1256692 -0.18741994
-0.102352776 0.043027874 0.0612254 0.104959875 -0.06795473 0.086324744 -0.8700759 0.21204706
-0.1869076 -0.43564975 -0.07864425 -0.068304725 0.18026039 -0.0792474 -0.54562795 -0.12427858
0.32793003 0.36522257 0.17425829 -0.056199756 -0.5927954 0.05649088 -0.19029869 0.24993347
-0.2775156 -0.26213095 -0.026214235 -0.17056616 -0.40956485 -0.58634734 -0.118157 -0.20038638
-0.28529474 -0.9732937 -0.43060523 -0.15760271 -0.036983863 0.57777196 -0.120277055 -0.16882806
0.0015669462 -0.12702715 0.2343079 0.19740903 -0.08131049 -0.064182036 0.5887569 -0.104379065
0.28015748 0.19165929 0.021887416 0.34292468 -0.15320452 -0.28035372 -0.11697516 0.32364684
-0.020705488 0.51075864 -0.22265227 -0.3427609 -0.14109528 0.5421749 -0.51938266 -0.20328413
-0.37228417 -0.13163431 -0.0072234725 0.037109368 -0.58396757 -0.42518842 -0.05617653 -0.31958824
-0.4388224 0.0773093 -0.5948286 -0.1526759 0.34597495 0.06590195 -0.5581192 0.17547116
-0.54802126 -0.028355723 -0.38648954 -0.07548744 -0.08439081 -0.84337026 0.25791645 0.040472534
-0.4800832 0.14114596 0.08175519 -0.64279103 -0.116487786 -0.4520046 0.07441174 0.0013913965
0.38512778 -0.6894356 0.03410337 -0.22044009 0.34835294 -0.44854307 0.0111177545 0.08428778
-0.27109075 -0.18122233 -0.3165851 0.33396247 0.14976062 0.23887572 -0.012441006 -0.247919
-0.2041186 -0.65359586 -0.022213725 -0.04983468 -0.48632967 0.02079719 -0.6561666 -0.114295654
-0.14163636 -0.11803231 -0.48097396 0.34584144 0.16564538 -0.266323 0.3635297 -0.6901021
0.24652906 0.24283104 -0.0796174 -0.26843223 0.26042828 -0.23527898 -0.61042154 -0.010620632
-0.27239078 -0.37255728 0.3093333 0.041420672 -0.16232596 -0.35401118 0.11009641 -0.06367759
0.06908603 -0.077637404 0.16605915 -0.76294327 -0.25456253 -0.0058126203 0.13590981 -0.2616986
0.018826121 -0.2570278 0.4727351 -0.4594988 -0.05280023 -0.14413378 0.09248232 0.1663859
0.24830928 -0.49152458 0.35633585 -0.20535038 -0.43549114 0.17719626 0.12553294 0.18316388
-0.44686952 -0.50383943 -0.13805433 -0.5760837 0.10442279 -0.4921971 -0.40308917 0.054332327
-0.27064225 -0.3735778 -0.074655846 -0.23758973 0.059796285 -0.1894429 -0.32635894 -0.6058512
-0.2682482 -0.3372418 -0.29619893 0.12653038 -0.072259516 -0.3229096 0.13567936 -0.5405232
-0.35460487 -0.1694992 0.2855884 -0.24895626 0.29393402 -0.32074082 0.09790581 0.43096
-0.79907715 0.0345634 -0.71324384 0.0072386204 -0.12735169 -0.1920158 -0.5780854 0.34395954
0.02150587 -0.5223857 -0.7141705 0.27813444 -0.36766267 -0.024448924 0.28574145 -0.33964068
00000000: 5c84 f83e 2ffb 583d 5e91 c4be 0386 37bf
00000010: 5623 1abf c31b 91bd d299 833e 1bce dbbe
00000020: 4824 2ebe fa86 5a3e a800 453e 7773 81bd
00000030: 1835 a3bd 2bbb dfbe d3b4 05be 8d6c 973d
00000040: 9c40 4b3d 83f6 e5be 92de 32bf 28e2 9b3e
00000050: 3bf3 64be cffa 6cbf 617e 90bb cb92 803e
00000060: 164c dfbd 9d4a a83e f80d 9b3d 27cf 77bd
00000070: 839c 34be 39bc 593e 32b0 e0be cddb 05be
00000080: 4b0e 203e 8c5e a83d 5d88 3dbe 385d 72bf
00000090: 49b7 13bf f6f0 b43e 6daf 003e 03eb 3fbe
000000a0: 559e d1bd ff3d 303d 7cc7 7a3d 34f5 d63d
000000b0: d92b 8bbd 07cb b03d 4bbd 5ebf dd22 593e
000000c0: b564 3fbe 7c0d dfbe 3d10 a1bd 59e3 8bbd
000000d0: 2e96 383e 764c a2bd 46ae 0bbf c585 febd
000000e0: 72e6 a73e 74fe ba3e c470 323e b731 66bd
000000f0: 70c1 17bf fb62 673d a9dd 42be 8fee 7f3e
00000100: 8616 8ebe 0736 86be 3cbf d6bc e5a8 2ebe
00000110: 7cb2 d1be dc1a 16bf 4cfc f1bd 1632 4dbe
00000120: 2712 92be c729 79bf 4a78 dcbe 9b62 21be
00000130: 647c 17bd dde8 133f d153 f6bd 43e1 2cbe
00000140: fd61 cd3a 6813 02be 69ee 6f3e 9825 4a3e
00000150: 1d86 a6bd df71 83bd c6b8 163f b1c4 d5bd
00000160: cd70 8f3e 5542 443e 3d4d b33c d393 af3e
00000170: a5e1 1cbe 868a 8fbe ac90 efbd 0ab5 a53e
00000180: 8e9e a9bc 14c1 023f f5fe 63be 5b7e afbe
00000190: 487b 10be f9cb 0a3f 43f6 04bf b729 50be
000001a0: 089c bebe 25cb 06be e1b2 ecbb feff 173d
000001b0: e67e 15bf 4cb2 d9be 5c19 66bd 12a1 a3be
000001c0: 54ad e0be 5754 9e3d b046 18bf 1257 1cbe
000001d0: a123 b13e 9af7 863d e6e0 0ebf b6ae 333e
000001e0: 1f4b 0cbf 434a e8bc f5e1 c5be 2999 9abd
000001f0: 17d5 acbd 1de7 57bf a00d 843e 87c6 253d
00000200: 77cd f5be 9188 103e 446f a73d f48d 24bf
00000210: 2691 eebd 266d e7be 2f65 983d 855f b63a
00000220: 782f c53e da7e 30bf faaf 0b3d 0cbb 61be
00000230: 515b b23e 70a7 e5be 3e27 363c 129f ac3d
00000240: 68cc 8abe 5992 39be 7117 a2be 21fd aa3e
00000250: d95a 193e d69b 743e 5cd5 4bbc 7ade 7dbe
00000260: 7704 51be 0f52 27bf 8ff9 b5bc 731f 4cbd
00000270: 3400 f9be de5e aa3c 89fa 27bf d713 eabd
00000280: 1f09 11be ecba f1bd 3842 f6be 2112 b13e
00000290: f19e 293e 7d5b 88be 9120 ba3e 88aa 30bf
000002a0: 1d72 7c3e b3a8 783e 730e a3bd f36f 89be
000002b0: db56 853e f9ec 70be 9644 1cbf 2902 2ebc
000002c0: ce76 8bbe d4bf bebe ef60 9e3e b9a8 293d
000002d0: c738 26be f440 b5be 3a7a e13d 6569 82bd
000002e0: fa7c 8d3d 5c00 9fbd 690b 2a3e 4050 43bf
000002f0: 0556 82be cb77 bebb f12b 0b3e 5cfd 85be
00000300: 3d39 9a3c 2699 83be 560a f23e 6d43 ebbe
00000310: 0e45 58bd ce97 13be 5f67 bd3d 1161 2a3e
00000320: ca44 7e3e 1ca9 fbbe a771 b63e 5f47 52be
00000330: b2f8 debe f072 353e b58b 003e 508f 3b3e
00000340: 15cc e4be 9ffb 00bf 1d5e 0dbe 397a 13bf
00000350: 9edb d53d 4201 fcbe b461 cebe 938b 5e3d
00000360: 9f91 8abe 9745 bfbe 2ae5 98bd b94a 73be
00000370: f3ec 743d 52fd 41be 8518 a7be 1019 1bbf
00000380: d457 89be f5aa acbe 63a7 97be 2e91 013e
00000390: ccfc 93bd 6854 a5be 88ef 0a3e ba5f 0abf
000003a0: c58e b5be 3391 2dbe a538 923e 64ee 7ebe
000003b0: 857e 963e 2438 a4be d782 c83d caa6 dc3e
000003c0: 5290 4cbf 5a92 0d3d 2697 36bf f331 ed3b
000003d0: 7b68 02be ca9f 44be 68fd 13bf 771b b03e
000003e0: 142d b03c 12bb 05bf e1d3 36bf a367 8e3e
000003f0: 483e bcbe 1c49 c8bc b44c 923e 62e5 adbe

weight f4 [200, 400]
-0.13859344 -0.33083537 0.011926985 -0.7931914 0.0036525691 -0.41432196 0.19656827 -0.029729588
-0.27330962 -0.5321865 0.011176095 0.064365804 0.17417999 0.008301372 0.3004518 0.043546997
-0.02073115 -0.4611929 -0.1396454 0.30431008 -0.2792392 0.036126126 0.049286596 0.224463
0.20780867 0.26937765 -0.05585483 -0.093493454 -0.3911469 -0.10229077 -0.05210345 -0.28328598
-0.01846156 -0.20035611 0.44306365 0.04725107 0.14537913 -0.1877045 -0.34062958 -0.6076616
-0.13882963 0.09705359 -0.02822337 -0.18632293 -0.46077782 0.207626 0.049604654 -0.109672464
0.56813323 0.030252632 -0.63512117 -0.6607186 -0.06426114 -0.17138395 -0.04883414 -0.120723546
-0.21608089 -0.23074602 0.13426425 -0.008973098 0.043128073 0.1316825 0.34135732 0.2209988
0.026086438 -0.11339169 -0.4746671 -0.2993845 -0.05462744 0.12612656 0.3816652 -0.7342396
0.079174645 -0.13194612 -0.38230416 -0.2053754 0.5365358 -0.67859304 -0.16001302 -0.48379847
0.028204927 -0.28085503 -0.40168113 0.02040994 -0.41582274 -0.11953921 0.17898202 0.10365078
-0.056264 -0.3346064 -0.08131829 0.021512289 -0.10463664 -0.060119264 -0.34529236 -0.4092591
-0.4853194 -0.5088544 -0.25944388 -0.03241284 -0.16966349 -0.28965443 -0.025514835 -0.08737739
-0.37551874 -0.2255585 0.15210083 0.106394 -0.038452692 -0.14185925 -0.27856576 -0.27364835
0.13086449 0.08978557 -0.19143975 0.20499487 -0.49190927 -0.7123374 -0.5409325 -0.3901893
0.21045522 0.05329696 -0.30317166 -0.13786863 0.12149449 -0.18341836 -0.1825338 -0.6715868
-0.12976176 -0.06936619 -0.27966547 0.20710464 -0.24521331 -0.46120626 -0.15104678 -0.13510232
0.17401165 0.1807244 -0.40520552 -0.08648119 -0.3615028 -0.8936583 -0.14229894 0.13190606
-0.034577396 -0.104764745 0.5597885 -0.08936973 -0.3325456 -0.16899158 -0.25232816 -0.056589883
-0.20310116 -0.03952317 -0.118861236 -0.086098015 -0.019926257 -0.29388475 0.04695588 -0.6239754
0.037566718 0.13255289 -0.047295693 0.0994675 -0.040136702 -0.19976729 -0.20321186 -0.07333919
-0.13085069 -0.37628317 -0.2851017 -0.22341157 -0.4637662 0.119068906 0.028378248 -0.12562461
-0.5814114 0.12893376 -0.4014487 -0.45360798 0.72920287 -0.33008388 0.93001515 -0.032038074
-0.17615505 0.13094318 -0.47018072 -0.23019606 0.1926002 -0.16607137 -0.4268748 -0.92061996
-0.15260723 0.049691856 -0.05308846 0.49682632 -0.9048966 -0.120499894 0.15685467 -0.07882595
-0.545779 0.16340593 -0.4251094 -0.10045822 -0.018888338 -0.28783706 -0.21582207 -0.108189024
0.13477197 0.06088883 0.036417007 0.0038421575 -0.013980059 -0.045599602 0.035035886 0.2411665
0.12828994 -0.22456919 -0.10744658 0.15217817 0.2995403 0.19307977 -0.11984236 -0.4328297
-0.08343013 0.01643141 -0.19063778 -0.18253003 -0.20374118 0.28012258 -0.025401043 -0.47186047
-0.22285822 -0.4095788 -0.23066206 -0.034456946 -0.5088687 0.21326166 -0.14480604 -0.19058204
0.026957847 -0.50056493 -0.021329494 -0.19935359 -0.17757347 -0.12094294 0.021419657 -0.23220508
-0.29210988 0.03926603 -0.078840286 -0.30634812 -0.024932858 -0.1405263 0.118535124 -0.15299839
00000000: 70eb 0dbe 4163 a9be 6769 433c 970e 4bbf
00000010: f15f 6f3b 0222 d4be 3149 493e 778b f3bc
00000020: 3def 8bbe 603d 08bf f11b 373c 38d2 833d
00000030: 3d5c 323e 7a02 083c d1d4 993e 565e 323d
00000040: 5fd4 a9bc 7a21 ecbe 34ff 0ebe 88ce 9b3e
00000050: 71f8 8ebe fdf8 133d bee0 493d a1d9 653e
00000060: cccb 543e deeb 893e 09c8 64bd 7f79 bfbd
00000070: 6844 c8be d37d d1bd 6d6a 55bd dc0a 91be
00000080: b33c 97bc 272a 4dbe 3dd9 e23e 578a 413d
00000090: 44de 143e 9c35 40be 0067 aebe b68f 1bbf
000000a0: 5b29 0ebe 08c4 c63d b234 e7bc 70cb 3ebe
000000b0: 12eb ebbe e99b 543e 402e 4b3d f59b e0bd
000000c0: 2e71 113f 5ed4 f73c 4d97 22bf db24 29bf
000000d0: 589b 83bd 467f 2fbe 4f06 48bd e83d f7bd
000000e0: 4f44 5dbe af48 6cbe 917c 093e e703 13bc
000000f0: 10a7 303d c7d7 063e 63c6 ae3e 824d 623e
00000100: 3ab3 d53c e739 e8bd 9107 f3be ed48 99be
00000110: 06c1 5fbd 5227 013e 9f69 c33e 20f7 3bbf
00000120: 5126 a23d e21c 07be 5fbd c3be ee4d 52be
00000130: 695a 093f 46b8 2dbf 74da 23be 6fb4 f7be
00000140: 050e e73c 3bcc 8fbe 26a9 cdbe bf32 a73c
00000150: b8e6 d4be f9d0 f4bd 1047 373e dc46 d43d
00000160: 1475 66bd 8851 abbe 348a a6bd 8a3a b03c
00000170: bc4b d6bd 9e3f 76bd 29ca b0be 698a d1be
00000180: c97b f8be 4844 02bf d4d5 84be 53c3 04bd
00000190: 44bc 2dbe 964d 94be 7d04 d1bc ebf2 b2bd
000001a0: fe43 c0be cff8 66be 52c0 1b3e 19e5 d93d
000001b0: 9280 1dbd 8d43 11be 2ca0 8ebe a31b 8cbe
000001c0: 5701 063e 7fe1 b73d c808 44be 2dea 513e
000001d0: 88db fbbe be5b 36bf 8d7a 0abf e4c6 c7be
000001e0: 9381 573e ea4d 5a3d 5139 9bbe 6f2d 0dbe
000001f0: 1ad2 f83d 06d2 3bbe 24ea 3abe 1ded 2bbf
00000200: 44e0 04be dc0f 8ebd 5030 8fbe 3d13 543e
00000210: 3319 7bbe 3a23 ecbe 02ac 1abe 4358 0abe
00000220: 1c30 323e d10f 393e 1977 cfbe 0d1d b1bd
00000230: e516 b9be cac6 64bf d0b6 11be 6212 073e
00000240: 07a1 0dbd e68e d6bd 4d4e 0f3f 7a07 b7bd
00000250: 6b43 aabe 210c 2dbe 2831 81be cbca 67bd
00000260: c0f9 4fbe 0ce3 21bd 856d f3bd 2854 b0bd
00000270: 643c a3bc 1078 96be cf54 403d dabc 1fbf
00000280: 8fdf 193d f2bb 073e 21b9 41bd 9eb5 cb3d
00000290: 6266 24bd cc8f 4cbe c516 50be db32 96bd
000002a0: b9fd 05be 30a8 c0be daf8 91be 01c6 64be
000002b0: c372 edbe 66da f33d 8079 e83c bda3 00be
000002c0: 61d7 14bf 3607 043e af8a cdbe 4e3f e8be
000002d0: 0aad 3a3f c100 a9be 7915 6e3f 5b3a 03bd
000002e0: fd61 34be f815 063e 87bb f0be 84b8 6bbe
000002f0: fd38 453e 9d0e 2abe 558f dabe c0ad 6bbf
00000300: 1245 1cbe b089 4b3d 4973 59bd 0560 fe3e
00000310: 4ea7 67bf a6c8 f6bd 839e 203e 806f a1bd
00000320: 2cb8 0bbf e253 273e f0a7 d9be 0abd cdbd
00000330: b7bb 9abc 615f 93be 7600 5dbe 3592 ddbd
00000340: aa01 0a3e 9166 793d 002a 153d b5cc 7b3b
00000350: 9e0c 65bc a6c6 3abd ca81 0f3d 5af4 763e
00000360: 705e 033e 77f5 65be f40c dcbd 98d4 1b3e
00000370: 595d 993e b4b6 453e e96f f5bd db9b ddbe
00000380: 6add aabd 2a9b 863c 8d36 43be 27e9 3abe
00000390: 87a1 50be 3a6c 8f3e d915 d0bc b297 f1be
000003a0: f234 64be 50b4 d1be ad32 6cbe ba22 0dbd
000003b0: 3845 02bf 4461 5a3e 0948 14be f027 43be
000003c0: b4d6 dc3c 0625 00bf 31bb aebc 5923 4cbe
000003d0: d2d5 35be efb0 f7bd 4778 af3c 2bc7 6dbe
000003e0: 6d8f 95be 6bd5 203d 0477 a1bd a9d9 9cbe
000003f0: fe3f ccbc 20e6 0fbe 8bc2 f23d 9cab 1cbe

bias f4 [200]
-0.10808079 0.3902702 0.010099752 0.27671263 -0.04880769 -0.066288605 -0.06272301 -0.0057832627
-0.036803506 -0.15732323 -0.0029855717 -0.07954604 -0.059018027 -0.023712149 -0.07189231 -0.06513325
0.603783 0.71284556 0.1466935 -0.03594673 0.009668737 0.017478904 0.19858018 -0.04033499
-0.037265763 -0.09494326 -0.039136544 -0.0032059036 -0.08103476 -0.01642736 -0.07514481 -0.066733964
-0.010252336 0.052090205 -0.042596817 -0.1893393 -0.053189605 0.19766636 0.24564989 -0.1869905
-0.027755976 0.3721965 -0.083914176 0.046392422 -0.0426881 -0.06234842 0.08499184 -0.013732735
-0.002855495 0.075491846 -0.21485336 -0.006764875 0.80544645 0.56800586 -0.093086205 -0.046419747
-0.046444196 -0.03672518 -0.090529755 0.24468684 -0.034775015 -0.025502888 0.12602663 0.032271896
-0.06445199 0.15597378 -0.04347676 0.071972534 0.16554974 -0.024754629 -0.09278032 -0.00399355
0.19029732 -0.26712507 -0.026705857 -0.028564494 -0.02226318 0.07496637 -0.014629793 -0.022072025
-0.14859876 -0.0060836794 0.46252534 -0.021195678 -0.09633327 0.45538184 0.1604327 -0.046916116
-0.00017883445 -0.015268601 -0.012785297 0.007833341 -0.21468061 -0.02042133 0.0773263 0.20773813
-7.1749186e-05 -0.01459411 -0.035619874 -0.11530722 0.015187729 -0.2094926 -0.101909354 -0.26775697
-0.06554336 -0.16027296 0.09727389 0.24377596 0.059823982 0.15148093 -0.1340911 0.11605704
-0.16644256 -0.15109174 0.005027006 -0.007172077 0.33296147 -0.09630673 -0.05111677 -0.06997101
-0.013324798 -0.038419146 0.0076118023 -0.23470595 0.25226253 -0.074459255 0.24631675 0.049847513
0.014028446 -0.008784326 0.0012698254 -0.0046699783 0.77339774 0.0097812535 -0.032933593 -0.036742933
-0.071103066 -0.38876873 -0.022297576 0.43638158 0.034950864 0.07190968 -0.05843041 -0.04960978
-0.028767258 -0.014799849 -0.034583103 0.6601299 0.114259645 0.54660916 0.0460012 0.3112685
0.00018814878 0.24683645 0.35216337 0.030115463 0.623813 -0.045105528 -0.07913027 -0.076239035
0.23261712 0.8018895 -0.04315014 -0.03400296 0.0001107444 0.034617294 -0.07541772 -0.17010468
0.10978388 -0.0037787792 -0.029809304 0.34895918 -0.022006163 -0.03643156 -0.029681664 0.56083316
0.0148559315 0.21451935 0.046319 -0.09536667 0.000997466 0.073108256 0.011572048 -0.038020037
0.9561927 0.08538634 -0.00054638536 0.24123329 0.4129727 -0.008501156 0.4380347 0.044573285
0.25802353 0.08328 -0.027950712 -0.3347251 -0.05737943 -0.1403592 -0.03639104 0.27444285
00000000: 7659 ddbd 7fd1 c73e 6e79 253c 47ad 8d3e
00000010: 93ea 47bd 52c2 87bd ec74 80bd 8681 bdbb
00000020: 46bf 16bd 5719 21be 95a9 43bb 09e9 a2bd
00000030: e3bc 71bd fb3f c2bc 473c 93bd 9564 85bd
00000040: 8691 1a3f 0c7d 363f d236 163e e13c 13bd
00000050: 9f69 1e3c eb2f 8f3c 9a58 4b3e 4d36 25bd
00000060: fca3 18bd 9d71 c2bd a44d 20bd 231a 52bb
00000070: 8df5 a5bd ac92 86bc 86e5 99bd d1ab 88bd
00000080: 6af9 27bc 8a5c 553d 007a 2ebd 29e2 41be
00000090: 58dd 59bd 0d69 4a3e a58b 7b3e 707a 3fbe
000000a0: 8060 e3bc 8a90 be3e 32db abbd fb05 3e3d
000000b0: b8d9 2ebd 0f61 7fbd 3410 ae3d 44ff 60bc
000000c0: 4223 3bbb 789b 9a3d 8502 5cbe e2ab ddbb
000000d0: bd31 4e3f d568 113f fba3 bebd a222 3ebd
000000e0: 453c 3ebd 246d 16bd aa67 b9bd 308f 7a3e
000000f0: 3f70 0ebd 6feb d0bc 200d 013e 892f 043d
00000100: 68ff 83bd 97b7 1f3e b014 32bd 5666 933d
00000110: df85 293e 38ca cabc 9c03 bebd 53dc 82bb
00000120: 4ddd 423e 9ec4 88be 3ec6 dabc 1600 eabc
00000130: 4661 b6bc f887 993d cdb1 6fbc 64d0 b4bc
00000140: 462a 18be 9a59 c7bb 1fd0 ec3e 8fa2 adbc
00000150: 614a c5bd cf27 e93e 7848 243e 1d2b 40bd
00000160: 8285 3bb9 2729 7abc 6c79 51bc 6a57 003c
00000170: 3cd5 5bbe a24a a7bc 405d 9e3d 4eb9 543e
00000180: 0d78 96b8 221c 6fbc 25e6 11bd 3126 ecbd
00000190: f4d5 783c 3a85 56be dab5 d0bd 7117 89be
000001a0: 993b 86bd 981e 24be 8937 c73d 68a0 793e
000001b0: fe09 753d d11d 1b3e 2d4f 09be 50af ed3d
000001c0: eb6f 2abe cbb7 1abe 95b9 a43b be03 ebbb
000001d0: ed79 aa3e 763c c5bd d15f 51bd f64c 8fbd
000001e0: 4150 5abc 655d 1dbd 6d6c f93b c256 70be
000001f0: 8e28 813e 187e 98bd 753a 7c3e e82c 4c3d
00000200: 91d7 653c 22ec 0fbc 4570 a63a 9e06 99bb
00000210: 65fd 453f 8d41 203c 60e5 06bd c27f 16bd
00000220: 7c9e 91bd b20c c7be 68a9 b6bc 686d df3e
00000230: a328 0f3d 6245 933d ba54 6fbd a033 4bbd
00000240: 50a9 ebbc 117b 72bc 03a7 0dbd 46fe 283f
00000250: f600 ea3d 94ee 0b3f c16b 3c3d 965e 9f3e
00000260: ce49 4539 b2c2 7c3e c24e b43e b4b4 f63c
00000270: 35b2 1f3f 93c0 38bd 0d0f a2bd 3623 9cbd
00000280: 2f33 6e3e a148 4d3f 34be 30bd b046 0bbd
00000290: 723f e838 ddca 0d3d 9b74 9abd ec2f 2ebe
000002a0: 5fd6 e03d 65a5 77bb a432 f4bc c7aa b23e
000002b0: 4546 b4bc 4239 15bd f626 f3bc c392 0f3f
000002c0: 4b66 733c f6aa 5b3e feb8 3d3d 9a4f c3bd
000002d0: 68bd 823a c8b9 953d b098 3d3c e6ba 1bbd
000002e0: 0bc9 743f 09df ae3d 4d3b 0fba dc05 773e
000002f0: 2871 d33e 6f48 0bbc 1646 e03e 7a92 363d
00000300: a91b 843e b48e aa3d e4f8 e4bc 1761 abbe
00000310: b106 6bbd 52ba 0fbe c50e 15bd c683 8c3e

weight f4 [1, 200]
0.16751046 0.9758435 0.05306241 -0.5799539 -0.18848959 -0.4238031 -0.2043476 -0.32392737
-0.44395557 0.76437557 -0.035664048 0.017537007 -0.2820505 -0.03681711 -0.30626157 -0.02340685
-0.46686763 -1.3492116 -0.43960616 0.04306519 -0.30249077 -0.346493 -0.5453089 0.02730897
0.0014498067 0.74281913 -0.26418734 -0.5537946 -0.23708032 -0.31647515 0.0052997894 0.038591865
-0.015782924 -0.14186075 -0.23274091 1.6669843 0.03141685 -0.34471002 -0.5159961 0.16947278
-0.0028688398 -0.37074006 0.009302821 0.7960592 -0.025301611 0.0049137166 -0.38333964 -0.2628448
-0.27577987 -0.5756222 0.21812265 0.026651582 1.2536783 -1.0166365 0.24965228 -0.31782544
-0.003856548 -0.01050982 -0.010683704 -0.4126313 0.031574707 0.049972262 -0.7164184 0.023011282
-0.0011776297 -0.5229811 -0.2697332 -0.95271486 -0.48229676 -0.25900954 -0.018544354 -0.2673547
-0.7222359 0.19161844 -0.2236137 -0.0074100383 0.05354483 -0.39508182 0.044227257 -2.1968548
0.20677137 0.05515428 -0.2448367 0.013862258 -1.7740514 -0.18918212 -0.4221816 0.01365594
0.70203304 -0.02858498 -0.28287613 0.02615884 0.71934134 0.67563736 -0.077147655 -0.4910563
-0.030715842 0.0021037273 -0.014883304 -0.61862373 0.0039142435 -0.9610134 0.021561677 0.72270244
-0.3060805 0.5777171 -0.38335705 -0.23427044 -0.35979944 -0.49390107 -1.009814 -0.4848578
-0.51165795 -0.37855715 -0.35065797 0.054205254 0.35723913 0.5248876 0.0013059605 -0.26079684
0.010118696 -0.2586723 -0.44826236 0.70353997 -0.47053856 0.2457169 -1.0591496 -0.7169789
-0.23606837 -0.34698242 1.3030459 0.04214298 0.968279 -0.29593813 0.0034424546 -0.0014427349
0.019881027 0.8516277 0.051243864 0.60176617 0.035191316 0.5909425 1.7688291 -0.047404405
0.04311432 -0.0063637756 0.009089433 -0.58643407 -0.47446334 -0.4591299 -0.33040366 0.5950536
-0.37525976 0.33920926 0.2956488 0.025663285 -0.95277107 -0.484485 -0.016290441 -0.2556733
-0.54109234 -1.3198686 -0.008204527 -0.03917017 0.06294834 -0.38291836 0.004983384 0.09117887
-0.5129926 0.021964848 0.6675664 1.0272241 -0.38318935 -0.039553992 0.01098017 -0.78252923
0.025879027 -0.6481967 -0.29763055 -0.2365509 0.018122945 -0.35732067 0.045065943 -0.27431893
-0.4310345 1.3001885 0.0037268125 -0.7643706 -1.2953658 -0.3213235 -0.58605194 -0.22462316
-0.64693415 -0.46228102 0.012199426 0.044583485 0.0325511 -0.6246462 0.03965535 0.8965371
00000000: dd87 2b3e e1d0 793f f857 593d dc77 14bf
00000010: 6a03 41be b8fc d8be 7f40 51be cfd9 a5be
00000020: 254e e3be 1eae 433f 7714 12bd c5a9 8f3c
00000030: ec68 90be 8acd 16bd 51ce 9cbe b9bf bfbc
00000040: 4609 efbe f7b2 acbf 0f14 e1be 2065 303d
00000050: 12e0 9abe 8867 b1be 5d99 0bbf 10b7 df3c
00000060: 7107 be3a 6529 3e3f 9043 87be 7cc5 0dbf
00000070: 2fc5 72be 0809 a2be dba9 ad3b 8112 1e3d
00000080: 314b 81bc f243 11be a253 6ebe be5f d53f
00000090: f4ae 003d d57d b0be 5218 04bf 468a 2d3e
000000a0: 2503 3cbb a4d1 bdbe dc6a 183c 89ca 4b3f
000000b0: 5345 cfbc 3e03 a13b 1845 c4be 9893 86be
000000c0: 0533 8dbe fa5b 13bf 8b5b 5f3e 6b54 da3c
000000d0: 8878 a03f 2521 82bf d9a4 7f3e 04ba a2be
000000e0: 24be 7cbb 6131 2cbc b40a 2fbc 6944 d3be
000000f0: 7b54 013d b7af 4c3d 3267 37bf 2882 bc3c
00000100: b25a 9aba 17e2 05bf 781a 8abe 1fe5 73bf
00000110: 9aef f6be e69c 84be 54ea 97bc b7e2 88be
00000120: 74e4 38bf a037 443e fdfa 64be e8cf f2bb
00000130: d351 5b3d 2a48 cabe a427 353d 4599 0cc0
00000140: e0bb 533e 74e9 613d 79b6 7abe 861e 633c
00000150: 1e14 e3bf f5b8 41be 3028 d8be 2abd 5f3c
00000160: 70b8 333f 0c2b eabc 24d5 90be 104b d63c
00000170: c126 383f 92f6 2c3f 97ff 9dbd bb6b fbbe
00000180: ca9f fbbc b0de 093b 1ad9 73bc 205e 1ebf
00000190: 0e43 803b f904 76bf 1da2 b03c 0703 393f
000001a0: 95b6 9cbe 45e5 133f 6047 c4be 97e4 6fbe
000001b0: a237 b8be 9ae0 fcbe 9641 81bf 483f f8be
000001c0: 04fc 02bf 3ed2 c1be 7189 b3be 5406 5e3d
000001d0: 0ce8 b63e 095f 063f c32c ab3a 2a87 85be
000001e0: e3c8 253c b270 84be a582 e5be 321b 343f
000001f0: 6eea f0be 369d 7b3e 3792 87bf ee8b 37bf
00000200: e8bb 71be aea7 b1be 35ca a63f 1e9e 2c3d
00000210: 22e1 773f 3485 97be ce9a 613b 261a bdba
00000220: 89dd a23c 4604 5a3f 16e5 513d 590d 1a3f
00000230: c524 103d 0248 173f fe68 e23f 1f2b 42bd
00000240: a498 303d 3887 d0bb d8eb 143c 8b20 16bf
00000250: dcec f2be 1313 ebbe ab2a a9be 6f55 183f
00000260: 0c22 c0be d6ac ad3e 485f 973e cf3b d23c
00000270: cee8 73bf 6b0e f8be 8873 85bc 9ce7 82be
00000280: 0785 0abf 74f1 a8bf 486c 06bc e670 20bd
00000290: 0feb 803d e00d c4be a84b a33b fdbb ba3d
000002a0: 7c53 03bf a0ef b33c a2e5 2a3f 147c 833f
000002b0: 6531 c4be 5e03 22bd 2ce6 333c d653 48bf
000002c0: 4100 d43c 38f0 25bf 0863 98be 663a 72be
000002d0: 9276 943c bcf2 b6be 1197 383d 8873 8cbe
000002e0: 8eb0 dcbe 946c a63f 8a3d 743b cbad 43bf
000002f0: 8cce a5bf 8484 a4be 8007 16bf 9d03 66be
00000300: 7a9d 25bf 19b0 ecbe 1ae0 473c 2c9d 363d
00000310: 4d54 053d d0e8 1fbf a66d 223d 7583 653f
