lab2/problem3/neural-network-3-actor.pth (torch, 664397 bytes, 10 tensors)

weight f4 [400, 8]
00000000: 6e34 a4be 2165 b5be 0879 93be 8991 8fbe
00000010: 21c5 a43e cae0 9cbc f293 453e f507 7e3e
00000020: 3641 973e 40f2 a33b 4f1a 58be 6df9 84be
00000030: 683b 4cbe e0bc 893e 21cc 0dbe ccbc 7bbd
00000040: 4473 cabd e146 af3e 79ed d33b 06e7 1cbd
00000050: 7a11 a5be 806a 83be 9686 a83e 3db1 233d
00000060: 6687 a3be ac79 3d3e b514 c7bd 5d88 1cbd
00000070: dd34 7bbe 456e 96bd 618d a53d f40d 7a3d
00000080: 2251 06be cffd 533e 7da4 b3be 74e9 943e
00000090: 3be7 ad3e 9b0a 8ebe b72e 223e 3b54 4b3d
000000a0: 6b08 41be 0d6b 6bbc ac9a 4cbd bb31 bbbe
000000b0: 840b 023e f0e1 36be aa63 b03e 392f 823e
000000c0: 4206 4f3e 7631 d2bd 4c44 65be 75e8 8f3e
000000d0: 480a afbd 5c9b 54bc b871 b83d e07b a3bd
000000e0: e811 eabc dcfd 37be 54eb b03d f37d c93d
000000f0: 457e 06be ac24 3abe 0a91 a13e 4f26 41be
00000100: 8566 e5bd 69b1 823e b51c 963e 3601 443d
00000110: ddc0 57be e371 1a3e a05c 893e 9cd9 e23d
00000120: 1b1a 313e 5b7b 123e dd49 b63e edb3 2b3e
00000130: 04c6 373e 7479 4c3e a218 11be 9a65 99be
00000140: 7596 073e ca46 0a3d 092b f03c 4131 303e
00000150: 70ec b83e 8275 8cbe 667d 52be 7e04 b43e
00000160: 12d3 d1bd 22ee b1be 235f 0e3e dc28 903e
00000170: 812e 0ebe 1d04 a2bd 8512 9bbe 336e 3ebe
00000180: 9713 a2be 4bbb 883d cf08 6abe 8153 91bc
00000190: 9dbd 493e 0d1e b13e 477f 18be 6cb1 433e
000001a0: 5bc3 003e 4286 1c3e 1e0a 253e f43c 12be
000001b0: 266a b93e 5541 6b3e 9cf4 4a3e ef93 9b3e
000001c0: 0bb1 383e 2db0 0bbd f67a a8be 3639 ae3d
000001d0: 23da 9f3e cb0f 953e 335a 3fbe 089b 923e
000001e0: 0c97 963c 9cc7 6d3e d8fb e03c 1657 b7be
000001f0: ef90 313d 0149 86be 7b24 4a3d 576c 643e
00000200: c609 243e eedd b63e 232a 5d3e a6a4 7e3e
00000210: dc84 a63e 9d69 2bbe 8364 aa3e a265 573e
00000220: 0301 9d3e 5a83 bf3d 93b5 90be b74a fc3d
00000230: a50c 8fbe eaac fdbd 111f 953e 8c13 3c3e
00000240: e5e3 3fbe 8b67 92be 614a 813e 1ada 5cbd
00000250: d789 cdbd 1242 483d ee7a 5bbe bc1d 54be
00000260: 9479 643e bc6d a6be 1e7f b7be cda3 163b
00000270: 39fe 333d f8dd 12be 179f cfbd e7af 8fbe
00000280: 0f8e 8b3e 9904 573e 9295 30bd b860 db3d
00000290: de6e 92be f2cf 6dbe fc21 8e3e 9c95 753d
000002a0: 938d 52bc e5fe 9e3d d59e 09be 6153 933e
000002b0: 2358 2ebe 3bc5 51bd 7c42 34be c3a2 353e
000002c0: 07b1 00be 8e2b 7dbd a8df fd3d cc96 c4bd
000002d0: bcbe bcbd 310e 943d 3762 9abe 2521 20be
000002e0: 850a 35bd ffeb e3bd c27d ca3d 7175 6abe
000002f0: a1d5 4b3e f8a7 83be 45de 263e bc2b 07be
00000300: b496 993e 65f6 543e 3fa7 91be db0e 98be
00000310: 1046 963e 2714 32be 83fe ac3e ebb1 23be
00000320: 4b55 8cbe c8ae 0dbe c616 53be f19e 8ebd
00000330: c37b 06be aebd d3bd 3e6d 31be 4149 ce3c
00000340: dc56 9dbe 1519 323e 4957 03bd 3e7e 2dbe
00000350: 612d 3e3d 9195 1e3e a4d1 4c3d 8164 323e
00000360: e6da b83c 075e 643e 3a75 84be ec22 90be
00000370: 56f6 4bbe 6cd2 32be fe95 b2be 03f0 aa3e
00000380: db41 9d3e 53ac b73d 4960 c13d 778f bbbe
00000390: 73db a7be cad8 bdbe c290 c83c 0ec2 933e
000003a0: fad3 3f3e c47f 393d cc92 f9bd 5ef6 413e
000003b0: 9306 69be 9354 b4be f131 153b cbac 87be
000003c0: 5427 273e 52d1 703e fd6d 4ebd 40aa 6f3e
000003d0: cd51 9dbe 75c5 8e3e 2b36 4cbe cbd0 f4bd
000003e0: 6e5d 1abe b085 52be 142b c5bd f6ea f73d
000003f0: 8024 acbe a950 3b3d 94c7 45be ee3d 07be
-0.3207125 -0.35428718 -0.28803277 -0.28040722 0.32181647 -0.019150157 0.19294718 0.24807723
0.2954194 0.0050032437 -0.21103786 -0.25971547 -0.19944537 0.26901913 -0.138474 -0.061459348
-0.098852664 0.34233764 0.006467518 -0.03830626 -0.32239896 -0.2566719 0.3291518 0.03996395
-0.31939238 0.18503445 -0.097207464 -0.038215984 -0.24531884 -0.07345251 0.080836065 0.061048463
-0.13116887 0.20702289 -0.35086432 0.2908436 0.33965477 -0.27742466 0.15838133 0.049640875
-0.18850867 -0.014368785 -0.049952194 -0.3656138 0.12699705 -0.17859626 0.34451038 0.25426653
0.20217231 -0.1026334 -0.22389334 0.28107038 -0.08546883 -0.012976494 0.09006065 -0.07982612
-0.028572991 -0.17967933 0.08638635 0.09838476 -0.13134106 -0.18178052 0.3155597 -0.1886227
-0.11201195 0.25525978 0.29318777 0.047852717 -0.21069665 0.15082507 0.2682848 0.11076662
0.17295115 0.14304869 0.35603228 0.16767855 0.1794663 0.19968206 -0.14169553 -0.29960328
0.13240989 0.033758916 0.029317396 0.17206289 0.36117887 -0.274334 -0.20555648 0.35159677
-0.102453366 -0.34751993 0.1390348 0.28156173 -0.13884927 -0.07910941 -0.30287567 -0.18596725
-0.3165557 0.06676348 -0.22854923 -0.017740013 0.19701238 0.3459324 -0.14892302 0.1911065
0.12574522 0.1528559 0.1611714 -0.14281064 0.36213797 0.22974141 0.19819874 0.30386302
0.18036287 -0.03410356 -0.32906312 0.08507006 0.31221113 0.29113612 -0.18686752 0.28633904
0.018382572 0.23220676 0.027463838 -0.3580863 0.04335111 -0.26227573 0.049351197 0.22306953
0.16019353 0.35716194 0.21598105 0.24867496 0.3252324 -0.16739507 0.3327981 0.21034864
0.30664834 0.09351225 -0.2826353 0.12318938 -0.27939335 -0.12386496 0.29125264 0.18366832
-0.18739279 -0.28594622 0.2525206 -0.053918935 -0.100360565 0.048891135 -0.21433613 -0.20714468
0.22312003 -0.32505596 -0.3583917 0.0022985816 0.043943617 -0.14342487 -0.10137766 -0.2806389
0.2725682 0.20997848 -0.04311139 0.10711807 -0.2860021 -0.23223856 0.27760303 0.05995713
-0.012851137 0.07763461 -0.13439496 0.2877455 -0.17025809 -0.051213484 -0.17603487 0.1773787
-0.1256753 -0.061809115 0.12396175 -0.09599075 -0.09216067 0.07229269 -0.30153057 -0.15637644
-0.044199485 -0.11128997 0.09887268 -0.22896363 0.19905712 -0.25714087 0.16295727 -0.13200277
0.2999779 0.20797117 -0.2844791 -0.29698834 0.29350328 -0.173905 0.33787927 -0.15985839
-0.27408823 -0.13836205 -0.20614156 -0.069639094 -0.13133149 -0.10338913 -0.17326829 0.025181415
-0.3073033 0.1739238 -0.032065663 -0.16942689 0.046429995 0.15486743 0.050004616 0.17421152
0.022565316 0.22301494 -0.25870687 -0.28151643 -0.19918188 -0.17463082 -0.3488006 0.3338624
0.30714306 0.08968415 0.09442193 -0.36632892 -0.32784614 -0.3707946 0.024483088 0.2885899
0.18733206 0.045287862 -0.121862024 0.18941638 -0.22756414 -0.35220775 0.0022765363 -0.26499018
0.16323596 0.2351735 -0.05039786 0.23404789 -0.30726472 0.27885023 -0.19942538 -0.119538866
-0.15074703 -0.2055881 -0.09627357 0.12105362 -0.33621597 0.04573122 -0.19314414 -0.13207218

bias f4 [400]
00000000: e587 edbd e312 be3e 3619 8dbe fbd8 393c
00000010: 2279 72be 1b64 a83c 4b88 e33d f608 b33e
00000020: b519 d1bd 6090 1bbd 4ff7 163e be02 0e3e
00000030: 2f4d 473e 81dd 583e 5b1b 57be 139c 723e
00000040: 7580 6abb 7694 c4bd 5f71 65be 7d52 503e
00000050: 38a8 11bd 43d5 ecbd c7b0 6dbe e44f 0fbe
00000060: cb5c a73e 3d0c 2bbb 5168 88be 839b c83d
00000070: 25a4 50be 7315 91be ce48 593e cdcf 84bd
00000080: 3d1c a5be bd24 96be e9e6 603d b6a2 083e
00000090: db54 923e dca7 5dbe e661 993d 4b91 aebd
000000a0: d0cf 5f3e 8d63 073e cc10 df3d 2550 01be
000000b0: 548b 323e 4f16 4a3e f50e 823e ca07 8f3e
000000c0: 9403 8f3e f4d3 80bd 9276 3ebe 7476 c73d
000000d0: e667 e03d fee4 593e 528d 593e 03c9 0abe
000000e0: 8617 babd 36ae 883d 4a4d b33e 5656 203e
000000f0: 0502 36be fb62 373e d588 153e 84a1 0c3e
00000100: 0a7e 3e3e be8e 963e 6b00 63be ca2a 61bb
00000110: 3378 8a3b 8f3c c0bd 58ef 82bd 5024 dabd
00000120: 3335 693e 6546 afbd e1f0 0abe d952 d43d
00000130: e37a a2be 48eb 63bc a894 b53e 73b6 9bbe
00000140: 0959 4ebe ba10 3b3e d254 293e 8229 3a3d
00000150: 77c6 afbe 72cb 7dbe 3b83 c0bd f71b 933e
00000160: 668f d03d fbeb 783e 3243 5abd 89d1 763c
00000170: 64de 0f3c b5ba 4a3e 2754 83be 9134 9a3e
00000180: c590 47bd d9f4 603c f234 57bd 6b72 913e
00000190: 1039 2c3d 3043 75be c1e0 ad3e 172b 773e
000001a0: d1d0 8ebe 27f0 983e 148e 033e 4f60 29be
000001b0: ebe3 513d a074 3d3d b39f 6ebe c9d2 d63d
000001c0: c9c6 b8bd 18a1 5e3d 61e4 57be 7d51 a63e
000001d0: 88ea e03d 3b5f a5bd 102b 5e3e ff91 17be
000001e0: 9bbf 663e db3e 7fbe 8bc7 a73e 0fc5 49be
000001f0: 9a59 2dbe 7ed4 833e e7eb 463e 8164 7d3d
00000200: 2a13 033e a534 d73d eec5 8a3e c074 adbe
00000210: 1cb2 8b3d 8a3c 103d dc20 803e 254c e7bd
00000220: b9cc 15be a945 5fbe 84f8 13be d92e 29bd
00000230: ebd7 d6bd cf88 83be f9e7 8a3e f2c0 723e
00000240: d22d 093e 920c b43e e77e 41be 797c ebbc
00000250: 897d bb3e 6f57 96be 8a5b b43e a8e7 0e3d
00000260: b7a8 c43d 1cb8 6fbe 1823 a2be 6776 6e3d
00000270: 45e6 a63e b621 ba3e b833 ad3c c27b 8a3e
00000280: 7b13 343e 1b7a 893d f606 a939 1ddf b2ba
00000290: 1ca2 8c3e 2268 26be a6b5 39be af9d c3bd
000002a0: 41cb 14be 1558 a8be 30bb febd 96e7 043e
000002b0: 77fb a13e 1c9b 503e 8df7 79bd 1cce 8cbe
000002c0: dfd9 6d3e 724e 3e3e c557 77bd e5c8 a43e
000002d0: 6dc9 fc3b 6f51 3ebe 889f 54be 8129 cebd
000002e0: d801 8dbe b218 e63d 1d00 743e 6fa8 27be
000002f0: d1fd 2a3d ab6e 30be 38cc 253e acd4 de3d
00000300: 5fcf b6be 2ece 463d bc0b e8bd 475f 143e
00000310: 8229 6ebe 630d 123e a248 92be 18ba 1ebe
00000320: 7b83 3f3e 6f07 b03e 30d0 0e3e 2ed7 83be
00000330: 160d 113e 4237 3f3e d16d 603e 8163 263e
00000340: ecf3 e43d 7ffa a5be 7824 9bbe f4f2 153d
00000350: f07c 4a3d 12f1 9abe 3986 abbe 34ad 6b3e
00000360: 0f9c a4bd 67f9 6ebd 5ecb 75be d234 513e
00000370: c48a 8b3d e607 06be 6ca1 163e 9a90 903e
00000380: e50d 95bd 9a6f 8b3d e0eb 51be 03ab 273c
00000390: 7142 143e 3f69 10be 9ae8 a33e 3f3f 8abd
000003a0: 4262 e13c 706b a3be 9e83 0c3d 2c75 87be
000003b0: deec ab3e 020d 4bbd c255 acbe b12c 873e
000003c0: 08ba a7be eb20 6bbe 4936 903d c033 933e
000003d0: ab95 263e 4c22 23be 8327 bc3e 6bbf a03e
000003e0: a6b7 70be 3222 8d3e 265c 99be 4bdf 133e
000003f0: c665 153e 89d9 933e 442e 37be 08b5 313d
-0.115981854 0.37123784 -0.27558297 0.011343236 -0.23679021 0.020555547 0.1110998 0.34967774
-0.10209981 -0.037979484 0.14742778 0.13868234 0.19463037 0.21178247 -0.21006529 0.2369235
-0.0035782133 -0.09598629 -0.22406529 0.20343967 -0.035560817 -0.11564114 -0.23211966 -0.1399532
0.32687983 -0.0026099824 -0.26642087 0.097952865 -0.20375116 -0.28336677 0.21219179 -0.06484947
-0.32248107 -0.29324904 0.054907713 0.1334332 0.28580365 -0.21646065 0.07489376 -0.08523806
0.21856618 0.1322157 0.108918756 -0.12628229 0.17435962 0.19735073 0.25402036 0.2793563
0.27932417 -0.06290427 -0.18599918 0.0973939 0.10957317 0.2127876 0.21245316 -0.13553242
-0.09086518 0.06673853 0.35019904 0.15657935 -0.17774208 0.17908852 0.14602979 0.13733488
0.18602768 0.2940578 -0.22168128 -0.003435778 0.0042257546 -0.09386551 -0.063933074 -0.10651457
0.227742 -0.085583486 -0.1356845 0.103673644 -0.3173438 -0.013911076 0.35464978 -0.30412635
-0.20151152 0.182681 0.16536263 0.04544974 -0.34331104 -0.2478464 -0.0940003 0.28732273
0.10183601 0.2430877 -0.05328674 0.0150646055 0.008781049 0.19797786 -0.2565014 0.3011823
-0.048722047 0.013730251 -0.052540727 0.28407606 0.042046607 -0.23951411 0.33960536 0.24137531
-0.2789369 0.29870722 0.12847167 -0.16540645 0.05124275 0.0462538 -0.23303108 0.10489423
-0.0902229 0.05435285 -0.21083213 0.32484046 0.10982233 -0.080748044 0.21696115 -0.14801787
0.22534029 -0.24926321 0.32769427 -0.19704078 -0.16928712 0.25748056 0.19425927 0.061863426
0.1280028 0.10508088 0.27104133 -0.33878136 0.06821081 0.035213985 0.2502507 -0.1129382
-0.14628877 -0.21803917 -0.1445027 -0.041304443 -0.10490402 -0.25690314 0.27130106 0.23706415
0.13396385 0.3516584 -0.18896066 -0.028745877 0.36619213 -0.29363582 0.3522609 0.034888893
0.09602492 -0.23410076 -0.316674 0.058218386 0.32597557 0.36353844 0.021142825 0.27047545
0.17585556 0.06712743 0.00032239378 -0.0013646815 0.2746743 -0.16250661 -0.181357 -0.0955156
-0.1453066 -0.328797 -0.12438047 0.12978968 0.31637165 0.2037167 -0.0610271 -0.27501
0.23227642 0.18584612 -0.060386438 0.3218452 0.0077144415 -0.18585752 -0.20763981 -0.1006651
-0.2754047 0.11235179 0.23828168 -0.16372846 0.041745964 -0.17229716 0.16191185 0.10880408
-0.35705087 0.048536472 -0.11330363 0.1448947 -0.23258021 0.14262919 -0.2857104 -0.15500677
0.187025 0.3438067 0.13946605 -0.25750107 0.14165148 0.18673423 0.21916892 0.16248895
0.11179337 -0.32417676 -0.3030126 0.03660865 0.049435556 -0.30262047 -0.3350084 0.2301529
-0.08037578 -0.058343317 -0.2400336 0.20430306 0.06813577 -0.1308895 0.14710015 0.28235322
-0.07278041 0.06808396 -0.20500135 0.010233643 0.1447847 -0.14102648 0.32013398 -0.067503445
0.027512673 -0.31917906 0.034305207 -0.26456583 0.33579153 -0.049572952 -0.33659178 0.26401284
-0.32759118 -0.22961776 0.07041604 0.2875042 0.16268031 -0.15931052 0.36748895 0.3139604
-0.23507556 0.2756515 -0.29953116 0.14440648 0.14589605 0.28876904 -0.17888743 0.043385535

weight f4 [200, 400]
00000000: 0b65 1d3c d015 a3bc 02c8 babc 32bb 5c3d
00000010: 7d2a 63bd 6ff4 5e3b 5d38 953c 16fe b2bc
00000020: 131b 3dbc 004a 99bc ed91 f0bb 4e7d 14bb
00000030: 0059 1b3b e066 8abc 1c70 403c 27f9 a3ba
00000040: 9ead 053d 3020 7fbc 4963 febb 4809 be3c
00000050: d376 41bc 6d60 bfbc 7a3a 18bd 749b 213b
00000060: 687e 973c f47c 753d 945e a8bc 8a92 313d
00000070: 3f4e dcbc 43ab 91bc 8758 393c 810b 42bd
00000080: 1fb8 f53c 956f 5fbc 42b2 8a3c 0108 ed3b
00000090: 4424 8c3c bc04 42bd a3ec e3bc 08a8 04bc
000000a0: 7907 083d 09af 5a3d 92b6 f2bc 5759 d9ba
000000b0: a3f0 35bd 688e 33bd 2915 2b3a 35ae d93c
000000c0: 12c6 f6bc a1a3 39bd 8809 de3c 9668 093d
000000d0: eb2b 0b3d 8da5 df3c e46a 4cbc 0b33 3c3d
000000e0: 1c80 5d3d e441 953d ce68 97bc 16e5 a03b
000000f0: 53f8 42bc 3c3a 95bd 9b11 093d 5cf9 183d
00000100: a236 1f3d 31d1 193d b337 f2bc 9487 243b
00000110: 30b5 9e3b aff8 243c 07bb a13c 489e 61bd
00000120: dff6 e0bc 4160 963b 3ed8 88bc 6325 0f3d
00000130: e077 813c 7f46 6f3d 7e63 61bb 80e5 f0bc
00000140: 6f80 533d 874b cc3c d405 6b3d 4dc6 0e3d
00000150: 9e16 023b 6b38 07bd c09a 8bbc aa26 b93c
00000160: 260d e8bb 8d3b 0ebd d01c 52bd fd99 a4bc
00000170: 58d7 323d 99a0 a5bc c43e 563d 9c93 26bd
00000180: cd0e a0bc d349 703d f97c d4bc da5e 293d
00000190: bfb9 b13c 6e24 b33c 4eab 38bd f8f9 873d
000001a0: 5b47 033c e7ca f53c 7971 3b3c 8314 07bd
000001b0: 56ed 463d 827c c73c 016a 37bc fc58 17bc
000001c0: b322 debb e85c 19bc daa5 7c3c fa9a b43c
000001d0: 6b2b fc3b ee2f 353d c466 5e3d 96df 7dbd
000001e0: ac12 39bd 07f3 43bd 4988 ea3c 6bd7 f73c
000001f0: 4965 1c3d 8e9b c7bc 4837 ebbc 8132 c13b
00000200: b248 21bd 1973 4ebd e489 053c 5b5d 32bd
00000210: cf0f 3c3d e633 153d db63 30bd 029b acbb
00000220: 135c 2fbd 86de 623d 34f7 1a3d ce28 733d
00000230: 591e fcbb 9a38 2dbd ff9b 4dbc 7392 e53c
00000240: 3223 d5bc 1833 e1bc 39dd cc3c b0fd 26bd
00000250: 8965 0b3c f9ea 603d 4280 0f3d a2d3 e2bb
00000260: 5b1d 8ebd f8ff 4dbd ffa5 4fbd 3451 123d
00000270: 8459 173d 5b16 9ebc 3643 4c3c 2b4f 82bc
00000280: dfd6 893c 2858 393b 70cb 42bc 27b9 c43c
00000290: bf83 083d 5f60 053d 4fd1 173c c670 b8bc
000002a0: 6753 edbc 8846 413d c639 eab8 3ec7 10bd
000002b0: 44f7 043d 3c43 9d3c d32c edbc 7225 1fbd
000002c0: fddf 033c 5088 dcbc 624d 1d3d 3d58 443d
000002d0: f6c3 263d 902e 383d 9d97 1cbd a691 dfbc
000002e0: 7ae8 20bd 2694 fd3c d2a2 90bb d1b5 c53c
000002f0: 2aaf 7c3c 16a7 1cbc 62d3 81bc a75d e2ba
00000300: e0a5 2cbd 70d6 f53c e14d 89bc cde5 9c3b
00000310: 1096 25bd a605 6a3b 4dd6 3f3c c80e 17bd
00000320: 5d32 113d d892 2a3d fe82 4e3b 3335 a83b
00000330: 2881 3a3c 2d03 f0bc 441d 6a3d 402e 33bc
00000340: 464a 1cbd 5237 833a db05 703d 8f9b 1c3c
00000350: 703e 3c3d 8350 8e3c 451f 2cbc 6b96 433d
00000360: bfcf 9dbc 542e 143d ee71 52bd 4e83 a2bc
00000370: a519 113c e0c2 b23c eada 53bd 1cb4 98b9
00000380: dd44 403c 1069 2fbd 23dc 6c3b d650 a6bc
00000390: 948f 0e3d d53a 8e3c bf42 b5bc 7b08 593c
000003a0: e84c 4e3c c924 46bc bda2 533d 41c0 d3bc
000003b0: 994d ccbc 412a 77bd 052e 0a3d bf47 583d
000003c0: 1f8d 2abd 37aa 23bc 0878 d239 e10b 8dbc
000003d0: eb6b 4dbd 13f5 32bd b551 18bd 8941 243d
000003e0: ad7f e2bb 56db 383c 4ea4 3ebc 7a8e 0c3d
000003f0: 02e5 5a3a 96b1 64bc 6273 29bd f02f 923c
0.00960661 -0.019907862 -0.02280045 0.05388946 -0.05546044 0.0034020205 0.018215353 -0.021849673
-0.0115420995 -0.018712044 -0.0073416145 -0.0022657695 0.0023704171 -0.016894758 0.011745479 -0.0012510166
0.032636277 -0.015571639 -0.0077633006 0.023197785 -0.011808115 -0.02336141 -0.037165143 0.0024659308
0.018492892 0.059933618 -0.02055291 0.04335264 -0.02689278 -0.01778186 0.0113126105 -0.047374252
0.029995022 -0.013637443 0.016930703 0.00723362 0.017107137 -0.047367796 -0.027822798 -0.008096702
0.03321025 0.053389583 -0.029628072 -0.0016582411 -0.044418942 -0.04383698 0.00065262854 0.026572326
-0.030123744 -0.045322064 0.027104154 0.033547007 0.03397743 0.02730062 -0.012476657 0.045947116
0.054077253 0.07287958 -0.018482592 0.0049101217 -0.011900025 -0.07286498 0.033464056 0.037347183
0.03887046 0.037553016 -0.029567575 0.0025105225 0.0048433766 0.010069056 0.019742502 -0.05508259
-0.027461467 0.004589111 -0.016704675 0.034947764 0.015804231 0.05841684 -0.0034391577 -0.02940631
0.051636156 0.024938358 0.057378605 0.034857083 0.0019849907 -0.03301279 -0.017041564 0.022601444
-0.0070816455 -0.03472476 -0.05129701 -0.020092959 0.0436624 -0.02021818 0.05230595 -0.040668115
-0.019538308 0.058664154 -0.025938498 0.041350223 0.021695016 0.021867957 -0.045085244 0.06639475
0.008012618 0.030003978 0.011440628 -0.032978546 0.048566185 0.024351362 -0.011194707 -0.009237524
-0.006779039 -0.0093605295 0.0154204015 0.022046555 0.0076956055 0.044235162 0.054297224 -0.061980806
-0.045183823 -0.04783919 0.028629439 0.030254086 0.03818253 -0.024366166 -0.028712884 0.005895913
-0.03937597 -0.050402734 0.0081505515 -0.043546062 0.045913514 0.036426447 -0.04306398 -0.005267502
-0.04281242 0.055387996 0.037833408 0.059365086 -0.0076940474 -0.042290308 -0.012549399 0.028023934
-0.026017759 -0.027490184 0.025007831 -0.04076928 0.008508095 0.054911587 0.035034426 -0.0069222013
-0.06939193 -0.05029294 -0.050695416 0.035721973 0.036950603 -0.01929777 0.012467196 -0.01590689
0.016826091 0.0028281305 -0.011889324 0.024014069 0.033328768 0.03256261 0.009266212 -0.022514712
-0.028970433 0.047186404 -0.00011168751 -0.035346262 0.032462373 0.019197099 -0.028952038 -0.03885407
0.008049008 -0.026920468 0.038403876 0.047935713 0.040714227 0.04496628 -0.038230527 -0.02729113
-0.039284207 0.030954432 -0.004413941 0.024134548 0.015422622 -0.009561321 -0.015847865 -0.0017270342
-0.04215038 0.030009478 -0.016760768 0.0047881366 -0.040426314 0.0035708933 0.011708808 -0.03687933
0.03544842 0.041643947 0.0031511183 0.005133295 0.011383332 -0.02929839 0.057156816 -0.01093632
-0.03815677 0.0010010994 0.058599334 0.009558572 0.045957983 0.017372375 -0.010505502 0.04775087
-0.0192641 0.036176994 -0.051378183 -0.019838002 0.008856212 0.02182144 -0.051722445 -0.0002912589
0.011735168 -0.042824805 0.0036141954 -0.020302217 0.034804896 0.017362038 -0.022126554 0.013246651
0.012591578 -0.012093731 0.05166887 -0.02584851 -0.024939345 -0.06034303 0.033735294 0.052802797
-0.04163849 -0.009989313 0.00040143752 -0.017217578 -0.050151747 -0.043690752 -0.037187297 0.04010156
-0.006912193 0.0112827625 -0.011635853 0.034315564 0.0008350165 -0.013958355 -0.041369803 0.017845124

bias f4 [200]
00000000: 8f04 33bc 9e03 c63b f2c0 893c fe18 82bc
00000010: 22cd b1bc c7bf 5ebc 2737 163d cf6b 923c
00000020: d911 5a3c 851b 72bc 59f1 d03c 60b5 f2bb
00000030: 59ff 463d 4380 b93c 4e26 c6bc 833c 163b
00000040: 17fb 423c c015 343d 87de ae3b c10f fdbc
00000050: 42f3 ce3c 39be fe3c 4e12 37bd c8ad d33a
00000060: 6734 063d adbf 5a3d 73d7 323d d9fd a6bc
00000070: 95b3 fe3c f3cd fabc 0304 e2bc 8f4c 87bc
00000080: dc20 02bc bf88 b5bc 987d aabb 38b3 2f3d
00000090: 089e b93c 78e2 323d 22ff 28bd 9420 f83b
000000a0: 5956 b3bc 26b7 e5bb bff4 42bd b880 833a
000000b0: 3e1f b4bc bd7d 583b bcc3 123d 730d b43b
000000c0: 93db 03bd e7d4 673a 00f1 4e3d 30d5 10ba
000000d0: 08b7 ae3b 0917 f8bc 6fba 5e3d b089 d0bb
000000e0: fc4c 353d 40b1 303d 3dc1 b7bb 3a12 22bd
000000f0: 86bb 5f3d 342e 0ebd 88fd 363d ae72 ab3c
00000100: dd0d 77bc c882 943b ee7a 90bc 2ea7 ca3c
00000110: 83ca 993b 5a71 00bb f697 0f3d 98cf 83bc
00000120: 1b51 5dbc c0df 20bd 40dc 483d 6b21 633c
00000130: 69e6 ccba e157 32bc cfb5 093d 6882 363d
00000140: e78d 483d 2513 99bc 9029 e33c 8e94 303d
00000150: 1a54 d4bc 464f 373d 0ff1 99bb 2b90 d53c
00000160: b6fe fcbc 0c4e ea3c 0fb0 963c 7e77 7b3b
00000170: b5ea dbbc a57d 15bd 8b67 73bc 5b1a 55bc
00000180: 80d5 5ebc 30f1 3dbd 77ad b03b e2cd e33a
00000190: 52bd b2bc 5715 c7bc 71b6 a93c 5e26 8e3c
000001a0: a5ec 553d c81a 2ebc 69cf 0fbd e7c1 6f3c
000001b0: ffce 3b3b 19f6 2fbd 0e77 bdbc 035e 133c
000001c0: ef29 b3bc 3b47 573d 71c6 e9bb a574 0abd
000001d0: ec0e 0bbc 6c48 af3b c313 32bd f830 10bb
000001e0: c834 0cbc 6b9e ea3c fabb 473c 5fa4 323d
000001f0: 2437 54bd 5efb a23c 9549 ef38 4f78 11bd
00000200: 77cf 9f3c 171a e33c dfcb a53b c473 7fba
00000210: 4d99 78bc 3fb4 febc 97e7 f83c 979a 303d
00000220: 9408 5cbd 0e01 3e3d fb41 2f3d b624 48bb
00000230: b1c5 41bc dcfa 1b3d 9791 1dbd bb1a 42bc
00000240: 776d 563c ad1f 37bd d780 1f3d f385 cc3c
00000250: b9ca 0dbc d28c 183d 258e 1a3b 9157 183d
00000260: 415e d4ba 709a f8bc 0adb 34bd 567d 573d
00000270: cf72 4c3c b2a7 59bc 9ac1 9fbc b546 ea3c
00000280: 674f 393d e3b8 ee3b 9114 81bb b89f a4bb
00000290: 5988 ef3c 9e62 cf3c 5306 3a3c b646 6a3a
000002a0: 0ed9 66bc 8164 31bc 43de e639 1139 2a3d
000002b0: 0010 c6ba b9c8 bc3c 6dc6 343d 41d0 523d
000002c0: 82cf fb3a f713 b1bc 1897 313d 4024 17bd
000002d0: fa8b 41bd d9e5 173d 80e9 2abc 3029 cf3c
000002e0: a3ad 9fbc 93d0 b43b 8f62 593c da85 89bc
000002f0: 2728 e63c 69cb 26bd fb75 2b3c 4bb8 8d3c
00000300: 4771 893c c185 cc3c 7356 783c 79a3 363d
00000310: 7b2a 6cbb b125 e5bc bcab 26bc 4c44 b5bc
-0.01092638 0.0060429117 0.016815636 -0.015881058 -0.02170426 -0.013595528 0.03667369 0.017873673
0.013309919 -0.014777069 0.025505709 -0.0074068755 0.048583362 0.022644168 -0.024188187 0.0022924251
0.011900685 0.043966055 0.005336586 -0.030891301 0.025262479 0.031096565 -0.04469519 0.0016149813
0.03276482 0.053405453 0.0436625 -0.020384716 0.03109149 -0.030615782 -0.027589804 -0.016515998
-0.007942405 -0.022159932 -0.00520296 0.042895526 0.022658363 0.04367301 -0.04125894 0.007572243
-0.02189176 -0.0070103584 -0.04759669 0.0010032868 -0.021987554 0.003303393 0.035831198 0.0054947673
-0.032191824 0.00088436756 0.050522804 -0.00055249315 0.0053318776 -0.030284422 0.054377016 -0.00636407
0.04426287 0.04313779 -0.0056077526 -0.039568163 0.054622196 -0.03471203 0.04467538 0.020928707
-0.015078989 0.004532192 -0.017636742 0.02473792 0.0046933307 -0.0019598813 0.03505703 -0.0160902
-0.013508107 -0.039275885 0.04903817 0.013862948 -0.0015632632 -0.01088521 0.03362065 0.04455796
0.048963454 -0.018685887 0.02772978 0.043110423 -0.025919009 0.044753335 -0.004697926 0.026069721
-0.030883174 0.028601669 0.018394498 0.0038370783 -0.026845315 -0.036496777 -0.01485623 -0.013006772
-0.013600707 -0.046372592 0.0053917724 0.0017380083 -0.02181879 -0.024302168 0.020716878 0.01735228
0.052227635 -0.010626502 -0.03510991 0.014633632 0.0028657315 -0.042959306 -0.023128059 0.008994582
-0.021870581 0.052558165 -0.0071342518 -0.033802647 -0.008487444 0.0053492095 -0.043475877 -0.0022001844
-0.008557506 0.028639993 0.012190813 0.043613788 -0.0518104 0.019895252 0.00011410114 -0.035515126
0.019508107 0.027722402 0.0050597037 -0.00097447284 -0.0151732685 -0.031091807 0.030383868 0.04311618
-0.05371912 0.046387725 0.042787533 -0.003053946 -0.011826918 0.038081035 -0.038468923 -0.011847193
0.013087622 -0.044707943 0.03894123 0.024966216 -0.00865429 0.03724367 0.002358326 0.037192885
-0.0016202406 -0.030347079 -0.044154204 0.052609764 0.012478544 -0.013284611 -0.019501496 0.028598169
0.04524174 0.007285224 -0.0039392193 -0.005023923 0.02923982 0.025315579 0.011354047 0.00089369284
-0.014089836 -0.010827185 0.00044034616 0.04155833 -0.001511097 0.02304493 0.044134546 0.051468138
0.0019211622 -0.021615965 0.043356985 -0.036899805 -0.047252633 0.037084434 -0.010431647 0.025288194
-0.019491976 0.005518028 0.013268127 -0.016787458 0.028095318 -0.04072133 0.01046514 0.017299792
0.016777648 0.024966123 0.01515733 0.044589493 -0.0036036063 -0.027972074 -0.010172781 -0.022127293

weight f4 [2, 200]
00000000: e8f3 843d 153c 0c3d caf0 8f3d 3f18 ee3c
00000010: d696 453d 62b2 5fbd 753c afbd b48b 7bbd
00000020: a9ac 6b3d ba19 0c3d ac30 a8bd 78b6 bbbd
00000030: c9b8 55bd ed0c 2d3d f83b 903d c7d1 f8ba
00000040: 2baa c43b b89c f4bb a63f 3f3d f296 d43c
00000050: fa8f a9bd bf10 acbc ae58 84bd 2399 c23b
00000060: 7573 83bd 8d4a 433d c43d 903d e1d7 76bd
00000070: fd8a 823d ea48 4f3d 67b4 42bc 54f2 103d
00000080: 18df 53bd d8e8 013d 3f8c 2cbd 3426 023c
00000090: 6184 22bd 2a93 71bb b6c3 0abd 83cd 81bd
000000a0: 2a4b 6ebd 441b 86bd c342 6cbd 1653 963d
000000b0: b8b3 d43c 9b67 6bbd 7251 903c f690 9d3c
000000c0: f7bb 8a3c ff10 4cbd b62b 393d a4d9 81bc
000000d0: d4b9 21bc 2724 e5bc 604d bb3d 3e39 cdbc
000000e0: 136a 863d cb63 c73c e4b4 f1bc 1c0a c43b
000000f0: a1b1 6f3d f791 903c 2799 833b 5b84 ad3d
00000100: 5de0 f4bc ccd8 3a3d 551f a43d 4581 2c3c
00000110: a933 a33d e02e 73bd f3b6 56bd 0f5f 13bd
00000120: 13c5 3dbd 2c2f 043d c841 06bd f284 14bd
00000130: 1264 74bd 34e4 a53d fedf dd3c 7b8a d7bc
00000140: 3773 a6bd 83a2 adbd f558 6bbd a7f3 1fbc
00000150: d7f6 f63c 4338 b3bd abc5 4ebd accc 913d
00000160: e88c ecbc 00e8 e8b9 750a 8cbc 1ab5 013b
00000170: 9371 823d 0e52 c6bc 9b92 87bd 886d 943d
00000180: 2b8b 953c 1860 f03c e57d 6d3d cd23 503d
00000190: 6ad1 6c3c 82e4 69bd b4c7 96bd cb42 11bb
000001a0: 9ba6 273d 7088 c4bc 0890 9ebb 46a2 41bd
000001b0: b2ce 72bd b95c 8cbd 586b 863d 0f71 47bd
000001c0: 49cc ab3c d744 a03d 04c1 793d fdb5 913b
000001d0: a8af adbd 0d10 a93d 6b62 023d b8a8 0bbd
000001e0: 4b1a a43d 5d38 3e3d bed5 77bd db78 33bd
000001f0: c473 1c3c 8dbc f13c 7fb2 23bc 1e04 85bc
00000200: d87b 40bc d71b e73c cd86 593d 3a29 4ebd
00000210: c6ae d03c 2b9f 333d 4b35 e43c b200 4a3c
00000220: f8a5 c1bc 09f9 9c3d ded9 90bd 09bf 093c
00000230: ab17 08bb 30db 7ebc a8a0 8b3d 657a 5abd
00000240: 93c6 a33d 5adb 3c3b eb03 623d 655a 20bd
00000250: 7459 a2ba 339d b5bd 6a21 763d d896 debc
00000260: 3424 f93c c3c6 c5bc 0dfe 29bd a429 343d
00000270: 3812 89bd 8cce 363b a4b6 9ebd f523 053a
00000280: f74d cebd 74a8 803b 1dcf bcbb 1b04 643a
00000290: 7457 6cbd 56df ee3c ecdd 94bd 1d00 86bd
000002a0: 8c35 e7b9 4625 8ebd 0ce0 8c3d 4ec2 8ebd
000002b0: 5e74 6b3c 747e 0bbd 57cf cdb9 208a 36bc
000002c0: a4f5 64bd 3f14 56bd e0df 4e3c 718f 493d
000002d0: f0de a7bc 1285 f2bc 8463 66bd 102f bbbc
000002e0: ee9d 6f3c c857 4cbb a9f8 363d 897a 1f3d
000002f0: 15b0 4b3d 404e 953d 138e 463d 5efc 643d
00000300: de66 9f3c 2bc3 f0bb a04c 88bd 11b7 4fbd
00000310: daa7 92bd 06be 5b3d 0c6e 1cbd bce7 a83c
00000320: 8600 73bd 9252 663b 3bf9 1f3d 3524 4fbc
00000330: a8eb 3d3c bba1 a9bc c6eb 0dbd 8025 a7bd
00000340: 2593 18bd 3a5e 4bbd 53b7 19bd bfdc 9abc
00000350: 4d66 b73d 24be e73c d685 8bbd f2b7 22bd
00000360: c0de 61bd c2cd cf3c 314f e7bc 9158 853c
00000370: d1dc 763d 7d35 65bd acf5 83bc 738f 943d
00000380: b94a d83a 3b6d 803c 6131 e0bc 081d 473b
00000390: 3769 dcbc cc4b 61bd 0825 f13c d35c e7bc
000003a0: 71f6 ddbc 1eb9 5abd 51b8 20bd 497c 3d3d
000003b0: aec7 bbbd 706c 63bc 52d6 93bd f9e8 a73c
000003c0: 0350 8abd 8684 a8bd 8ad1 1fbd feb5 8aba
000003d0: 6ec1 2f3c f262 103d f8fa 723c a217 bbbc
000003e0: 44a6 323d 2bd9 653d f467 0a3d 5832 9b3d
000003f0: fe2a 1ebc bb0e 9d3d f8d6 91bd dce5 a6bd
0.06491834 0.034236986 0.07028349 0.029064296 0.04823955 -0.05461348 -0.08556453 -0.06141253
0.05753771 0.034204222 -0.082124084 -0.091656625 -0.052178178 0.042248655 0.07042688 -0.0018983417
0.006001731 -0.0074649714 0.04669156 0.025950883 -0.082794145 -0.021004079 -0.06462227 0.0059386655
-0.06418506 0.04767852 0.07043031 -0.060264472 0.06374166 0.050606646 -0.011883832 0.035387352
-0.05172643 0.031716198 -0.042125937 0.007943679 -0.039677028 -0.0036861398 -0.03387805 -0.063380264
-0.05817715 -0.06548169 -0.057680856 0.07340066 0.025964603 -0.057471853 0.017616961 0.019234162
0.016935332 -0.049820896 0.0452077 -0.01585085 -0.009870965 -0.02797134 0.091456175 -0.02505171
0.06563201 0.024339577 -0.0295052 0.0059826504 0.05851901 0.017647726 0.00401606 0.084725104
-0.029892141 0.04561691 0.080137886 0.010528867 0.07968838 -0.059370875 -0.052420568 -0.035979327
-0.046330523 0.03227155 -0.032777578 -0.0362596 -0.059665747 0.08100167 0.027084347 -0.02631115
-0.08127444 -0.08478262 -0.057457883 -0.009762681 0.030147 -0.087509654 -0.05048148 0.07119116
-0.028875783 -0.00044423342 -0.01709483 0.0019791783 0.06369319 -0.024209049 -0.0661976 0.07247454
0.018254837 0.029342696 0.05798139 0.050815392 0.014454225 -0.057102688 -0.07362309 -0.0022165056
0.04093037 -0.02399084 -0.004838947 -0.047273897 -0.05927915 -0.06853623 0.06563443 -0.048691805
0.020971434 0.0782563 0.06097509 0.0044467435 -0.084807694 0.082550146 0.03183214 -0.03409645
0.080128275 0.04644047 -0.060506575 -0.04381643 0.009549085 0.029508853 -0.009991287 -0.016237315
-0.011748277 0.028211517 0.05310707 -0.050332285 0.025473963 0.043852966 0.027857443 0.012329267
-0.02363871 0.07664687 -0.07072805 0.008407363 -0.002076606 -0.015555188 0.06817752 -0.05333938
0.079968594 0.0028817267 0.055179518 -0.039148707 -0.0012386278 -0.08867874 0.06009046 -0.027171537
0.03041277 -0.024142629 -0.041502047 0.043985024 -0.06692928 0.0027894108 -0.0774968 0.00050789054
-0.10073464 0.003926331 -0.0057619945 0.00086981215 -0.05770059 0.02915923 -0.07268891 -0.0654299
-0.0004409965 -0.06940703 0.06878671 -0.069706544 0.014371006 -0.034056142 -0.00039255127 -0.01114133
-0.055898324 -0.052265402 0.012626618 0.049209062 -0.020492047 -0.029604468 -0.05624725 -0.02284959
0.014625056 -0.0031180251 0.044670735 0.038935218 0.04972847 0.07290316 0.048475336 0.05590474
0.01945823 -0.0073474846 -0.0665524 -0.050711695 -0.071609214 0.053648017 -0.038190886 0.020618312
-0.05932667 0.003514443 0.039056044 -0.01264291 0.011591829 -0.020707002 -0.03464868 -0.081614494
-0.037249703 -0.04965041 -0.037528347 -0.018904088 0.08955059 0.028288908 -0.068126366 -0.039726205
-0.05514407 0.025366668 -0.028236004 0.016277583 0.06026918 -0.055959214 -0.016108356 0.07253923
0.0016501761 0.015677085 -0.027367296 0.0030382294 -0.02690564 -0.055003926 0.029436603 -0.028242504
-0.027095051 -0.053399198 -0.039238278 0.046261106 -0.09168945 -0.013880834 -0.07218613 0.020496832
-0.06753542 -0.08228402 -0.03901819 -0.0010582802 0.01072727 0.03525061 0.014830343 -0.022838417
0.043615595 0.05611531 0.033790544 0.07577962 -0.009653805 0.07668825 -0.0712108 -0.08149311

bias f4 [2]
00000000: 4961 31bd 82a2 86bd
-0.04330567 -0.06573965

weight f4 [200, 400]
00000000: 93d3 303d 10d3 37bc 2ca9 8fbc c6bf ddbc
00000010: a252 98bc 59ac 253d 34b1 163d 59bc 1b3d
00000020: bffa e43c cedd 52bd 1270 c5bc ea7a 5a3d
00000030: a20d 4a3c df40 143d bf3b 13bd 1b15 ec3b
00000040: 2fa4 cebc ad12 023d f893 01bd 3ac7 c03c
00000050: 07bb 9c39 4969 30ba ec87 be3c 4af2 4a3d
00000060: ed95 8fbc 73dc 073c 448b 33bd f7a2 87bc
00000070: 2fdc 5e3c 1790 cc3c 6097 13bd c041 093d
00000080: a764 ee3c 4292 8abc 7c37 5e39 489b a43c
00000090: a410 dbbb 90a5 85bc 31c1 6f3b d523 8c3d
000000a0: c1af e0bc db0c 31bc e74b 473d ceb6 6d3c
000000b0: 8d9b 24bc e8f4 37bc b6ec a9bc 716d 6e3d
000000c0: b6e5 173d 7529 e43c db30 eebc 4176 2abd
000000d0: 4ce6 1fbd 8df0 6fbc 11d8 2d3d 95ad fb3c
000000e0: f116 8ebc e4b7 733d ec5e e13c 5918 a3bc
000000f0: 2691 103c 8ede a5bc dd56 8e3c 789c cc3c
00000100: 9c33 f93b b14a 1b3b 0e78 e1bc 7c44 ca3c
00000110: a695 9a3b fa53 10bd 9677 c439 801a 0b3d
00000120: 5d4b 213d f0fd 0a3d 9a49 2f3d 3f17 04bd
00000130: b0d8 23bd 6a30 d6bb 279e 923c 10a1 433b
00000140: f002 febc 47b3 d0ba a49a 1c3b 971c 9a3c
00000150: 9008 a53b 90d3 66bb af50 c5bc 269c 3d3d
00000160: 54b9 453d 8408 0b3d 18e8 5f3c bfe6 27bc
00000170: ba9d 023d a5f1 153d d68b f83c c419 0fbd
00000180: 5bd3 bb3c bc7a 14bd 89c5 fe3c 701a 5e3b
00000190: 2164 8fbc 4b04 8cbc a005 6d3d a049 033d
000001a0: 738d 1b3c 65c0 2a3c 20fd 453c a7ed e83c
000001b0: 7784 1cbd 4f42 40ba c7b3 1a3d d7c9 483d
000001c0: 95f3 1bbd e46d 813b 8783 a9bc a7cd f1bc
000001d0: 21b9 e63c 6ef7 ca3c dcaa a43c 8eac 04bd
000001e0: 59b4 44bc cd34 8b3c fd35 b03c 4916 033d
000001f0: 04bc d7bc 4713 7e3b e170 013c 27c5 04bd
00000200: 51dc 00bd b2f6 393d 6bb2 273d a55d 7b3c
00000210: 7efa 433d 77fa 413d 5cf8 fdbc 8155 0e3c
00000220: 45d4 193d 5beb f63c 3022 a83c 5d8c 173d
00000230: 8cb7 b43c 6277 0c3d 58be ec3c a0dc 2dbd
00000240: 71f0 4b3d 0321 5c3d 9caf 253d f108 323d
00000250: 0910 123d e2ed 793c 03a3 8e3c 5a06 523d
00000260: 5ce3 cb3c 11aa 1cbc f42a a33c 4eb3 2e3d
00000270: c35c 6abc 9e92 243d 38a4 313d 63fb 6eba
00000280: cdc2 893c 3388 3dbb 229a 193d aca3 1cbd
00000290: 3f97 753d eec7 17bd c302 583d 4970 1abd
000002a0: a2d8 08bc f514 8abc 6b74 f03c 14c1 f03c
000002b0: 52ca 38ba 4858 263d af85 61bc 1197 8dbc
000002c0: 21b3 853b 951f 243d c21f 953c b15f 8abc
000002d0: 1a4a 3abd c038 37bd b9f2 083d 32df 46bd
000002e0: 50a1 30bd 1f88 1fbd 46f7 643d 1e59 52bc
000002f0: 7bab 02bd 3604 e3bc ec50 12bd c8e8 a63c
00000300: 0eb4 12bd b461 8e3c 679a d1bc 7a87 49bc
00000310: 9125 04bd 07f9 ee3c c9b9 b9bc 015a 03bd
00000320: 0d1b d13b 0b5b 06bd 7b57 adbc d222 d23c
00000330: c81e 883c f896 693d d0a9 a23c 430a 05bd
00000340: 562e 123d 3452 94bc f951 cfbb 7030 30bd
00000350: c6a4 423d a2c3 c8bb c51e 8cbc bf7b 853d
00000360: 5169 87bc bea9 cbbc c67d 16bd 3176 b4bc
00000370: 88cb 183d 9000 b4bc 2b4d cfbc d77c 5c3d
00000380: 7586 f93c 8c5a 203d 7f1b 203c 5ea4 e03c
00000390: 1bba 90bb 540a 183c f22c 8d3c 7f7d ee3c
000003a0: 45f1 abbc 6866 a23c ae26 303d 024b ffba
000003b0: bcb1 2e3d 57f3 6ebc 80a4 97bc 3d31 b6bc
000003c0: bf9d 013d 0b20 26bd 1e11 a7bc 79e7 89bc
000003d0: 4a02 07bc 7418 d63c f268 17bd df10 993c
000003e0: dd78 2bbd d3a7 06bd ebc6 c83c 2169 843c
000003f0: 8b49 b73c aba5 76bc 30a1 503d cc43 36bd
0.043170523 -0.011219755 -0.017536722 -0.027068984 -0.01859409 0.040447567 0.036790088 0.03802142
0.027951596 -0.05148106 -0.02410129 0.053339876 0.012332352 0.03619468 -0.03594565 0.0072046644
-0.025224773 0.031756092 -0.031635255 0.023532499 0.00029893985 -0.0006729556 0.023258172 0.04954747
-0.017527545 0.008292305 -0.043833986 -0.0165572 0.013602301 0.024971051 -0.036033034 0.03350997
0.02910073 -0.016915444 0.0002119224 0.020093575 -0.0066853333 -0.016314298 0.0036583657 0.06842772
-0.027427556 -0.010806288 0.04865637 0.014508916 -0.010046852 -0.011227824 -0.020742755 0.05820984
0.037084304 0.0278518 -0.02907603 -0.041616682 -0.039037988 -0.014644754 0.042442385 0.030722419
-0.017344924 0.059501544 0.027511083 -0.01990907 0.008823669 -0.020247724 0.017375404 0.024976954
0.0076050293 0.0023695643 -0.027523067 0.024690859 0.0047175465 -0.035236336 0.00037473132 0.03396082
0.039378513 0.03393358 0.0427948 -0.03224873 -0.04000157 -0.006536533 0.017897679 0.002985064
-0.03100726 -0.001592257 0.0023895884 0.01881246 0.005036421 -0.0035221316 -0.024086324 0.046291493
0.048272446 0.033943668 0.013666175 -0.010247885 0.0318887 0.036607403 0.030340116 -0.03493668
0.02292793 -0.03624986 0.031100051 0.003389027 -0.0175038 -0.01709189 0.057866693 0.032052636
0.009494173 0.010421847 0.0120842755 0.028433634 -0.038212266 -0.00073340995 0.037769105 0.049020614
-0.038074095 0.0039498676 -0.0206926 -0.029517008 0.028164448 0.024776187 0.020101003 -0.032391123
-0.012005889 0.01699295 0.021510119 0.032003675 -0.02633477 0.0038768814 0.007900448 -0.03241458
-0.03146011 0.045401283 0.040941637 0.015342151 0.04784631 0.047358003 -0.031002216 0.008687378
0.03755595 0.030141523 0.020524114 0.036999095 0.022060178 0.03429354 0.028899357 -0.042446733
0.04978985 0.05374242 0.040450677 0.04346556 0.035659824 0.01525447 0.017411714 0.05127559
0.024888687 -0.009562031 0.019917943 0.042651467 -0.014304343 0.040178888 0.0433695 -0.0009116439
0.016816521 -0.0028920292 0.037500508 -0.038242027 0.059958693 -0.037055902 0.05273701 -0.03770474
-0.008352431 -0.016855696 0.029352387 0.029388942 -0.0007049191 0.040611535 -0.013764783 -0.017283948
0.0040801917 0.04006918 0.01820362 -0.016891332 -0.045480825 -0.044731855 0.033434603 -0.0485527
-0.04312259 -0.038948175 0.05589988 -0.01283863 -0.031901818 -0.027711969 -0.035721704 0.02037467
-0.035816245 0.017380573 -0.02558632 -0.012300367 -0.03226239 0.02917148 -0.022671597 -0.032068256
0.0063813985 -0.03280167 -0.021159878 0.02565137 0.01661624 0.05702874 0.019856364 -0.03248049
0.03568872 -0.018105604 -0.0063269106 -0.043014944 0.04752042 -0.006126837 -0.017104516 0.06517743
-0.016529711 -0.024861213 -0.03674104 -0.022029014 0.037303478 -0.021972924 -0.025305351 0.053829994
0.030459622 0.039148852 0.009772181 0.027422126 -0.0044167168 0.009279806 0.017233346 0.029112576
-0.02098907 0.019824222 0.043005638 -0.001947731 0.04264997 -0.014584384 -0.018511057 -0.022240276
0.03164458 -0.040557902 -0.020393904 -0.016834008 -0.008240292 0.026134707 -0.036965318 0.018684803
-0.04186331 -0.032874893 0.024508914 0.01616341 0.022373935 -0.015054147 0.05093497 -0.04449825

bias f4 [200]
00000000: 28e8 5c3d 0a58 4bbd d702 1c3d f87b 8c3c
00000010: 65a0 8a3c cdde 973c 7c28 293d e8b0 ddbc
00000020: 575d f1bc e68b fd3c 9d67 52bb 1f0b 45bc
00000030: d7da 943d 4f40 34bd fb8b 0c3c a57f f9b9
00000040: 9b06 97bb 0fea 123c 3476 493c cca8 fb3c
00000050: 2045 a6bc 7704 4bbc 3507 3dbd 635d 8f3c
00000060: 5553 8dbc faec 15bc e638 12bd 3145 613d
00000070: c5dd 803d 8e99 5d3d 56cb 0d3d da76 23bd
00000080: 416b 9d3c baaa 393c 7ace 47bc 4651 38bd
00000090: b34d 5e3d e3eb 2b3d 0daa bbbb cf73 44bc
000000a0: 6e5c 923d d324 583c 0cb9 9b3c 3392 c33c
000000b0: fc8d 133c 741f 643b 903c cdbc 3db3 993d
000000c0: 6ab3 983d ba37 42bd 734b fd3c efd3 45bd
000000d0: 3c0e 803c c209 a63d 469c ab3b ae09 db3c
000000e0: a8b6 063c 82ab e3bb 727c 0c3b c3bc dd3c
000000f0: 9936 1f3c 1e3c 1b3d e722 c33c 5698 c93c
00000100: 6381 043d f3ae 54bc 4548 123d 040e 9a3d
00000110: d32f 8b3c 8216 0a3d a8ac 29bd 85ce a2bc
00000120: dd97 4a3c f89f 043d 7d22 5f3d 536c 883d
00000130: d72e c93c 2dd6 93bc 3292 b9bc 907c 983c
00000140: 625b 48bd cc7e 223c 52cd c53a 4a8f 073d
00000150: 3349 3f3d 5730 a83c cc12 723d cf3f 623c
00000160: acce 4a3c b0a2 813c e9a4 413c bbac 42bd
00000170: 3eb0 c53b 75f3 99bc 9f75 7c3c 8864 0b3d
00000180: 8426 d83b 5619 d53c 90b1 803d 1539 903d
00000190: 3874 2c3b 71ac e33c 4887 7c3d 31d0 63bd
000001a0: fd95 783d 0a58 403d 0e6f 123d 5d04 423d
000001b0: a36a f0bc 25fd 743d 43fe 0fbd 22b5 28bd
000001c0: 264d 463c d35b c93c 9542 63bc 5268 c5bc
000001d0: 64cf 553d fda3 463d 46a5 35bd 29e7 0b3d
000001e0: 0013 0ebd a0f4 403d f552 82bc 0f39 8abc
000001f0: 9371 273b a021 113d 5f5d 71bb 9484 1cbd
00000200: 5a82 033c a035 0f3d 5a27 5d3d 4b23 c33c
00000210: fb06 82bc 5266 d13b b861 bd3c a149 eebb
00000220: 3cea acbc 1d6f 233d a6dd 603d 09a3 c9bc
00000230: 2f4e b03d b111 2b3d e5f1 c53b 8e9a fe3b
00000240: 05fb fb3c 62f7 ae3c 2750 8fbc 64e2 313d
00000250: ea41 fc3c 9ded 683b 82d1 dabb 3db8 b6bb
00000260: 86ac 393c 2f1f 443d f580 c83c 6f20 4c3d
00000270: 47af bdbc 20a8 123c 85cb 27ba 48c6 173c
00000280: 11de 29bd 5a73 c83c 57f3 e9bc b07e 693c
00000290: 54d9 193d ac3b 063c 020a ad3d d198 cd3b
000002a0: 0c47 c23c b8f8 ce3c 3f94 263c 27ed 9d3d
000002b0: 1984 3fbd 8ad6 38bd b05a c43c b579 eb3a
000002c0: a792 9f3d fce5 a33d 5d32 09bd 7c07 11bd
000002d0: 0fd9 18bd 9241 2abd 829d 123d 7e75 2bbd
000002e0: 75c4 2d3d 566b 423d 1bd6 363d b609 2dbd
000002f0: 69cf 3bbd bb99 44bc a550 f03c 639e 6e3c
00000300: fbca 483d bff8 06bd 2dd7 da3c 3bad 82bb
00000310: d59a dabb 84e4 bcb9 152c 5d3d a51f bcbc
0.05393234 -0.049644507 0.038088646 0.017148957 0.016922185 0.018538857 0.041298375 -0.027061895
-0.029463453 0.030950498 -0.0032105215 -0.012026577 0.07268303 -0.044006642 0.008578296 -0.00047588084
-0.0046089417 0.008966937 0.012296248 0.030720137 -0.020296633 -0.012391201 -0.04614945 0.017500585
-0.01725165 -0.009150738 -0.035698794 0.054997627 0.06292299 0.05410152 0.034617744 -0.039908268
0.019216182 0.011332208 -0.012195224 -0.044999383 0.05427332 0.041973006 -0.0057270587 -0.011990502
0.07146536 0.013192373 0.019009136 0.023873424 0.00900602 0.0034808787 -0.025053293 0.0750489
0.074560955 -0.047416426 0.030919766 -0.04829782 0.015631787 0.0810733 0.005237135 0.026738014
0.00822226 -0.0069479356 0.002143648 0.027067548 0.009717607 0.03789913 0.023820354 0.024608772
0.032349955 -0.012981164 0.035713453 0.075222045 0.016990578 0.03371287 -0.041424423 -0.019873867
0.012365309 0.03237912 0.05447625 0.06661286 0.024558468 -0.018046463 -0.02265272 0.018614084
-0.048915274 0.009917926 0.0015091097 0.033095635 0.046700668 0.020530863 0.059099957 0.0138091585
0.012378376 0.015824646 0.011819103 -0.04752801 0.0060329726 -0.018792847 0.015408902 0.03403142
0.0065963883 0.026013058 0.06283867 0.070421375 0.002631439 0.027792187 0.06165245 -0.05561847
0.060689915 0.04695896 0.03575044 0.047367442 -0.029347723 0.05981173 -0.035154592 -0.041188367
0.012103355 0.024579918 -0.013870855 -0.024097595 0.052199736 0.048496235 -0.04434707 0.034156
-0.03468609 0.047108293 -0.015908698 -0.01687291 0.0025549873 0.035432458 -0.0036829335 -0.038212374
0.008026684 0.03496325 0.053992607 0.02382054 -0.01587247 0.0063903714 0.023117885 -0.007271961
-0.021107785 0.039900888 0.05489888 -0.024613874 0.08608662 0.04176492 0.006040799 0.007769889
0.030759344 0.021358196 -0.017494274 0.043428794 0.030793149 0.003554202 -0.0066778073 -0.005576162
0.011332637 0.0478813 0.024475554 0.04983562 -0.023154868 0.008951217 -0.0006400871 0.0092635825
-0.041471545 0.024469066 -0.028558416 0.014251396 0.037560776 0.008192938 0.084491745 0.0062743207
0.023715518 0.025265083 0.010167181 0.07711249 -0.046756838 -0.045126475 0.023969024 0.0017965349
0.077916436 0.080028504 -0.033495296 -0.03540753 -0.03731638 -0.04156644 0.035794742 -0.041860096
0.042423684 0.047465645 0.04463778 -0.04224559 -0.0458521 -0.011999543 0.02933533 0.0145641295
0.049021702 -0.032952067 0.026713932 -0.003987936 -0.0066712894 -0.00036028412 0.053997118 -0.022964308

weight f4 [2, 200]
00000000: 8343 2d3d 4dfa 0d3d fc97 413d 3ef6 abbd
00000010: 7a86 09bc e6cc a8bd 370b 8b3d 4a4e 65bd
00000020: bcf3 4ebd 0881 20bd de62 54bd bf4e a83c
00000030: 1efa b4bd 77bb 543d c3bf bd3c 9d36 933d
00000040: 26a0 b4bb 8dae 6a3d 4443 ac3c 3179 583b
00000050: f823 53bd a866 9dbd 8cda 883c 5889 88bd
00000060: e901 373d 6911 3abd b85e fa3b b40d f2bc
00000070: d1f3 acbd 9ed7 c5bd d6b9 6fbd c3f5 143d
00000080: e4d0 80bd 3187 a93c d8d4 4e3c 43a8 4cbc
00000090: f146 f3bb b09a 87bd 82b0 4e3d 204b 6cbd
000000a0: 10da 58bd 6f79 a13c a9d8 30bd 9a0e b5bd
000000b0: 9c83 c33c b337 4b3d f278 b8bd 5a37 3cbd
000000c0: bbcb 96bd fb94 df3c 7b2f 8f3c 462f b23c
000000d0: e52c 743a 5cb0 10bd 4710 4e3c 8a96 723d
000000e0: da3a 2bbd b4a6 013c d015 e7bc 192b c9bd
000000f0: f992 2e3d ab2d 583d 8f3a b4bc 36c2 293d
00000100: 9aea cfbd 53d5 99bc 3ecc 17bd df9e 9cbd
00000110: 7679 153d c157 b1bd e24e 683d 8956 6e3d
00000120: d01b 863c e04f 1a3d 8a7f 7a3c 6cc4 4cbd
00000130: 11d8 85bd bd77 d43c 4433 323d 9e9a 4b3d
00000140: b508 513d 083b bebd fc65 2ebd 8beb 5cbc
00000150: 65bf 953d 7958 afbd 044b 9fbd 75fe 693d
00000160: 98f3 163c 5028 d23c d180 b7bc 74ba 5d3d
00000170: 214f b7bb 7ccb b8bd 2729 723d 48d5 6fbc
00000180: 632a b7bd 7e21 d33c 7457 05bd 5880 acbd
00000190: 90eb e53c 9a40 493c b705 1fbd b682 113c
000001a0: eb8f 05bd 133c 8b3c bd1f b2bd 876e 423d
000001b0: 1734 9f3d 3027 043d 98aa b33c 9292 8d3d
000001c0: e728 5cbd ddf2 7b3d 984c 6e3d 9b56 a1bd
000001d0: 6ae1 80bd 06ed 2b3d a022 f83b a980 bfbc
000001e0: ca6a 5ebc 3939 e83c 62cf a5bc fc57 98bd
000001f0: b9d7 083d 0d1a d8bd b8c0 3f3d ec3d 9ebd
00000200: d723 5bbd 7c54 d7bd cd80 69bd ce8f 44bc
00000210: 0705 04bd cd25 133c 87b1 ccbd 906b 7ebd
00000220: efe8 873d fe73 30bd b8e1 9ebd 89de 8dbd
00000230: bf4e 80bd 5a28 dcbc 8efa 623d 104d 813b
00000240: 3349 963c 0c35 953d 2581 0b3c d1eb dbbc
00000250: 9804 a1bd bb5f 56bd dfa0 1d3d 809b 88bd
00000260: afc6 8dbd 3aaf b9bd 2cbd f1bc 14a1 6cbd
00000270: 3c47 6e3c 156f 73bd b235 253d 3b3d 4ebd
00000280: 8ce4 f3bc ffca 85bd 5d00 993d a14e 5c3d
00000290: 2c9b 723c a9f7 d1bc 301f adbd c62a fa3c
000002a0: b50d 75b9 ddb5 a9bd d43b 523c fa94 d3bc
000002b0: 328f 953c fbc6 323c 4374 d33c 6240 2dbd
000002c0: 1035 9fbd e07c 89bd 08ee bcbd 37b6 1ebc
000002d0: a7a4 37bd 51ef 773d af97 58bd 1cff cd3c
000002e0: 8f9b 743c 6583 1e3d 0d52 4a3d 8d82 c93c
000002f0: cda1 4a3d 05f1 ffbc da1b 7fbd 085b 5f3d
00000300: 6102 afbd fe1d 94bd d171 31bb 8d61 0bbd
00000310: b105 8b3d cfc0 8b3c d30a a7bd 1dc6 b33c
00000320: b6fe a2bd 8061 03bd 8b23 dc3c d75b 61bd
00000330: f8c2 aabd 60fe 54bc 8f92 073d b2e3 af3b
00000340: 5874 f6b9 fc79 3a3d 2a8e 25bd f0a7 183c
00000350: 2759 61bd 2e25 313d 79dd ccbd 4728 41bd
00000360: 0a31 13bd af05 cb3c 0ce7 afbd 7d88 27bb
00000370: 3760 55bc 41f3 82bd e227 a63d 83dd 02bc
00000380: a64f 083d 049e 2dbc 2bc3 e0bc c548 b0bd
00000390: f37e fbbc facf 84bd 8a2d 4a3d 4a4f 62bd
000003a0: 305f 353d 0c9c a63d 62d2 433d bf9b e63c
000003b0: c5e0 c3bd 3b8a 49bc c1f2 f53b 34fd 7e3d
000003c0: b478 e4bc 6887 273c 7e30 143d 1007 68bd
000003d0: a433 103d 2098 0cbd cd4b b8b9 a011 17bd
000003e0: fb3a a6bc 161e 29bd 7a96 bdbd be36 f2bb
000003f0: 7552 1dbd ea7b c1bd 3f0e 613d e34c de3c
0.042300712 0.034662534 0.047264084 -0.08396576 -0.008393878 -0.08242206 0.067892484 -0.055982865
-0.050525412 -0.039185554 -0.0518521 0.020545362 -0.088367686 0.051936593 0.023162728 0.07188151
-0.0055122552 0.05729537 0.021028168 0.003303122 -0.051547974 -0.07685596 0.016705774 -0.06666821
0.044679556 -0.04542676 0.007640686 -0.02954755 -0.08444942 -0.09660266 -0.058526836 0.03636719
-0.06289843 0.020694347 0.012623988 -0.012491289 -0.0074242284 -0.06621301 0.0504613 -0.057688832
-0.052942336 0.019711224 -0.043175373 -0.08840676 0.023866467 0.049613666 -0.090074435 -0.045951225
-0.07363077 0.02729272 0.017478695 0.021751057 0.0009314551 -0.03532444 0.012577123 0.059225596
-0.041804172 0.00791328 -0.028208643 -0.09822673 0.042620633 0.052777927 -0.02200058 0.04144498
-0.101521686 -0.018778479 -0.037060015 -0.0764749 0.036492787 -0.08659316 0.056715854 0.058187995
0.016370684 0.03767383 0.015289197 -0.04999201 -0.06535352 0.025936002 0.043505922 0.049708
0.051033694 -0.09288603 -0.04257773 -0.013483892 0.07311896 -0.08561797 -0.0777798 0.057127435
0.009213351 0.025653988 -0.022400292 0.054132894 -0.0055941497 -0.090231866 0.059121277 -0.014638253
-0.089436315 0.025772806 -0.032554105 -0.08422917 0.028066427 0.012283469 -0.03882381 0.008881262
-0.032607954 0.016996419 -0.0869746 0.04746869 0.07773607 0.032263935 0.021931931 0.06912722
-0.053749945 0.06151091 0.058178514 -0.07877847 -0.06292994 0.04197409 0.007572487 -0.02337678
-0.013575265 0.028347598 -0.02024049 -0.07438657 0.033408854 -0.10551844 0.04681465 -0.077266544
-0.053500976 -0.10514161 -0.0570076 -0.011997176 -0.032231357 0.00898118 -0.09994798 -0.0621143
0.066362254 -0.04307937 -0.07757896 -0.06927211 -0.062650196 -0.02687471 0.05541473 0.003945954
0.018345451 0.072855085 0.008514677 -0.026845844 -0.07862204 -0.05233739 0.038483497 -0.06670284
-0.069226615 -0.09066625 -0.02950915 -0.057770804 0.014543351 -0.059432108 0.04033441 -0.050351363
-0.029772066 -0.06532859 0.074707724 0.053785924 0.014807504 -0.025630789 -0.08453214 0.030537974
-0.00023370127 -0.08286641 0.012831647 -0.025827873 0.018256757 0.010911698 0.025812274 -0.04229773
-0.07773793 -0.06713271 -0.09225088 -0.009686998 -0.04483476 0.060530964 -0.05287903 0.02514606
0.014929666 0.038699526 0.049394656 0.024598384 0.04947071 -0.031242857 -0.06228242 0.054530174
-0.085453756 -0.07232283 -0.0027075897 -0.03402858 0.06788195 0.017059712 -0.081563614 0.021945054
-0.079587385 -0.032075405 0.026872417 -0.055019226 -0.083379686 -0.013000101 0.033098754 0.0053677196
-0.0004700746 0.04552649 -0.04041878 0.009317383 -0.055016663 0.043248348 -0.1000318 -0.047157552
-0.03593544 0.024782984 -0.085889906 -0.002556353 -0.013023428 -0.06394053 0.08113076 -0.007987383
0.033279084 -0.010596756 -0.027436813 -0.0860763 -0.030700183 -0.06484981 0.049359836 -0.055251397
0.04428023 0.08135232 0.04780806 0.028150437 -0.09564356 -0.012301023 0.007505745 0.062253192
-0.027889587 0.010225154 0.03617906 -0.05664736 0.0352055 -0.034324765 -0.0003515169 -0.036882043
-0.020291796 -0.041288458 -0.09257217 -0.0073917797 -0.038408715 -0.09447463 0.054945227 0.027136272

bias f4 [2]
00000000: ff57 0f3d 4f22 9f3b
0.03499603 0.004856385
