lab2/problem3/neural-network-3-actor-gamma-0_01.pth (torch, 664397 bytes, 10 tensors)

weight f4 [400, 8]
0.3131375 0.08105373 -0.014817992 -0.10503355 0.3500626 -0.15843599 0.060702804 0.15810317
0.09940209 0.23198023 0.1690798 -0.20895961 0.26674098 -0.21110144 -0.18044673 0.33813244
0.022297597 0.26309538 0.02213309 -0.20619856 0.12674743 0.22325605 0.18136784 0.31006837
-0.114377834 -0.29131663 0.27718872 -0.1925585 0.2834835 -0.2668777 -0.11485582 0.09861874
-0.016633125 -0.002247074 0.20261063 -0.2029076 0.2189584 -0.28402993 0.2707052 0.1613933
0.13274854 -0.2644344 -0.20758586 0.06796048 -0.31273916 0.23842904 -0.2832585 -0.10970087
0.09236328 0.20969866 0.3864059 -0.14215894 0.15266149 -0.07669939 -0.33670345 -0.22467116
0.075925276 -0.35191292 0.04167772 -0.011500484 0.020823268 0.2005256 0.29049733 0.013414369
-0.23588185 -0.3164227 0.2680824 0.15659998 -0.24087386 -0.14152047 0.30168766 -0.2975416
-0.1384061 0.24826144 -0.16109405 -0.20553349 0.0003078303 0.2603399 0.32279164 -0.09970819
-0.18490513 -0.11752132 0.025193313 0.23293348 0.15558316 -0.29374725 -0.10903751 0.10905762
0.27829105 -0.08905986 -0.09426546 -0.0066702873 0.29500154 -0.069832444 0.22422299 -0.20549662
0.10846276 -0.058628872 -0.23434435 -0.2853042 0.02106386 0.24049132 0.093082085 -0.3318755
0.08889249 0.19857655 -0.31873503 0.09898579 -0.06536992 -0.34260654 -0.1859203 0.070135154
-0.043173783 0.32925636 -0.050678056 0.19477502 -0.10071834 0.2738818 -0.22467639 -0.07148409
-0.07831107 -0.19140603 0.07026911 -0.25557753 0.17395684 -0.24057315 -0.20870055 -0.31094947
0.24228778 0.16152017 -0.3571134 -0.26577303 -0.14341441 -0.07254306 -0.23669155 -0.16911691
0.12201077 -0.26745912 0.09512973 0.13128729 0.36001202 0.029514106 -0.11008938 0.051530752
0.008794587 0.30780342 0.20868751 0.055890646 -0.1866019 0.3405898 -0.024535093 -0.15152173
0.066670045 -0.09591479 0.09817086 -0.2629791 -0.09719848 -0.23335353 -0.2245252 -0.22151516
0.06669206 0.1703466 0.16372381 -0.07835643 0.1273177 -0.2923147 -0.19306153 0.29005817
-0.06503979 0.29914093 -0.3815701 -0.35554153 0.08723506 -0.02860404 0.24674678 -0.026216704
-0.13768221 0.26078025 -0.22187138 -0.35672683 -0.28560635 0.02365848 -0.30857405 0.33885753
-0.36730763 0.06721699 -0.29485568 0.05413555 -0.17872931 -0.014327427 0.008059411 0.14176194
-0.28103694 -0.25753814 -0.29249462 -0.07628035 0.068361506 0.004033488 0.13722251 -0.25013217
-0.17288299 0.30568162 -0.14704818 0.16052113 0.2941429 -0.24166113 0.20874631 0.28327158
-0.3198849 0.33166012 0.14301042 -0.24228716 -0.07169963 0.21549608 0.10937686 -0.11618741
-0.19903234 0.26789916 0.012511581 0.31546566 -0.029545445 -0.083418965 -0.024309771 -0.24636623
-0.10942393 0.050138574 -0.36042908 -0.24314575 -0.16615689 0.03549747 0.02074656 0.16785236
0.06210497 0.06623053 -0.3858362 -0.34676027 -0.16863625 -0.12324706 -0.067398414 -0.25172785
0.2527857 -0.021804359 -0.3353177 -0.16845815 -0.046657264 0.15228608 -0.24221961 0.23701204
-0.3380868 0.15279327 -0.34478226 0.26644835 0.20679487 0.34231004 -0.20549272 -0.24076676
00000000: 8f53 a03e 7fff a53d 2ac7 72bc d41b d7bd
00000010: 683b b33e 0b3d 22be 81a3 783d cce5 213e
00000020: 5393 cb3d 3a8c 6d3e 4123 2d3e 82f9 55be
00000030: 4692 883e fa2a 58be 07c7 38be b21f ad3e
00000040: 73a9 b63c 70b4 863e 7450 b53c b725 53be
00000050: 14ca 013e 3c9d 643e 7eb8 393e 48c1 9e3e
00000060: ed3e eabd 7427 95be aeeb 8d3e 0e2e 45be
00000070: c024 913e 32a4 88be 8739 ebbd 9ff8 c93d
00000080: 3142 88bc a543 13bb 2979 4f3e 03c7 4fbe
00000090: a136 603e 5f6c 91be df99 8a3e 4944 253e
000000a0: 3cef 073e f263 87be 6391 54be dd2e 8b3d
000000b0: 591f a0be be26 743e 4207 91be daaa e0bd
000000c0: f628 bd3d 3fbb 563e fed6 c53e 1d92 11be
000000d0: 4b53 1c3e 9214 9dbd 6564 acbe 3210 66be
000000e0: b67e 9b3d ee2d b4be 42b6 2a3d 876c 3cbc
000000f0: 8f95 aa3c 9556 4d3e 11bc 943e f1c7 5b3c
00000100: 038b 71be 2802 a2be 1942 893e bf5b 203e
00000110: a3a7 76be beea 10be ce76 9a3e 5f57 98be
00000120: 54ba 0dbe 3f38 7e3e d7f5 24be 5f77 52be
00000130: 4964 a139 454b 853e f244 a53e cf33 ccbd
00000140: c557 3dbe 05af f0bd 3562 ce3c 1d86 6e3e
00000150: 3151 1f3e 0a66 96be 0f4f dfbd 9a59 df3d
00000160: 2a7c 8e3e 0465 b6bd 400e c1bd 6d92 dabb
00000170: 710a 973e 5004 8fbd b69a 653e b56d 52be
00000180: b921 de3d d424 70bd f7f7 6fbe 6413 92be
00000190: 1e8e ac3c 5b43 763e d2a1 be3d 96eb a9be
000001a0: 440d b63d a757 4b3e 3d31 a3be 10b9 ca3d
000001b0: aae0 85bd 206a afbe e461 3ebe 05a3 8f3d
000001c0: fed6 30bd 4a94 a83e cb93 4fbd 1a73 473e
000001d0: 6b45 cebd 3c3a 8c3e 9111 66be 4066 92bd
000001e0: 8e61 a0bd f1ff 43be 40e9 8f3d 0fdb 82be
000001f0: be21 323e cf58 76be 99b5 55be c534 9fbe
00000200: 4a1a 783e 8b65 253e 91d7 b6be 6713 88be
00000210: 3adb 12be 7591 94bd 455f 72be fc2c 2dbe
00000220: c8e0 f93d 67f0 88be 60d3 c23d 2d70 063e
00000230: 7f53 b83e 91c7 f13c 8a76 e1bd e911 533d
00000240: 2c17 103c 6998 9d3e 2eb2 553e 97ed 643d
00000250: 9214 3fbe c961 ae3e d2fd c8bc 8328 1bbe
00000260: 4e8a 883d f96e c4bd ce0d c93d 32a5 86be
00000270: ff0f c7bd 3af4 6ebe efe9 65be dfd4 62be
00000280: d995 883d 576f 2e3e 37a7 273e 5679 a0bd
00000290: 925f 023e 46aa 95be ecb1 45be 8182 943e
000002a0: 9533 85bd 0029 993e 285d c3be 8a09 b6be
000002b0: 4ca8 b23d 0553 eabc 30ab 7c3e 6ac4 d6bc
000002c0: 91fc 0cbe fd84 853e 4032 63be e6a4 b6be
000002d0: ff3a 92be 6ecf c13c 6bfd 9dbe bc7e ad3e
000002e0: bf0f bcbe 10a9 893d 53f7 96be 3dbd 5d3d
000002f0: d104 37be 96bd 6abc 9f0b 043c 0b2a 113e
00000300: 13e4 8fbe 0adc 83be dbc1 95be df38 9cbd
00000310: 1e01 8c3d 5a2b 843b 0f84 0c3e 5311 80be
00000320: 3d08 31be 4d82 9c3e cc93 16be a75f 243e
00000330: e699 963e 0476 77be 98c1 553e f908 913e
00000340: f4c7 a3be 5bcf a93e 5371 123e 201a 78be
00000350: 41d7 92bd 01ab 5c3e fa00 e03d aaf3 edbd
00000360: 22cf 4bbe 142a 893e 60fd 4c3c b784 a13e
00000370: 4a09 f2bc 90d7 aabd 4925 c7bc 6e47 7cbe
00000380: a719 e0bd 1b5e 4d3d 298a b8be 33fb 78be
00000390: 0825 2abe cc65 113d b1f4 a93c 7de1 2b3e
000003a0: c861 7e3d dfa3 873d 538c c5be 908a b1be
000003b0: fbae 2cbe f468 fcbd 2e08 8abd 79e2 80be
000003c0: 216d 813e 0e9f b2bc c3ae abbe 4b80 2cbe
000003d0: b01b 3fbd e2f0 1b3e 6b08 78be 49b3 723e
000003e0: b719 adbe d775 1c3e 4d87 b0be eb6b 883e
000003f0: 09c2 533e 4343 af3e af6c 52be 908b 76be

bias f4 [400]
-0.16045082 0.020991784 0.037884124 0.35587484 0.27201384 0.17397058 -0.0032285717 -0.06254401
0.050025374 0.1374054 -0.16814038 0.016664121 -0.19482405 -0.13140532 -0.3231889 -0.18161896
0.2295329 0.16271582 0.20914283 -0.067970246 0.19539268 -0.0908545 0.09960695 -0.23618545
-0.035639893 0.19919892 0.33794472 -0.22639486 -0.053193234 0.07287404 0.1378349 0.25350735
-0.0028787875 -0.25253555 -0.17589001 0.29004288 -0.15342218 -0.13475169 0.31711093 0.0028987834
-0.12644629 0.058656447 -0.18887047 -0.17846048 0.21220523 -0.024906902 -0.2763114 -0.20366214
-0.09474978 -0.19695999 0.2989304 0.28305197 -0.08497721 -0.2331573 -0.17402732 0.016229672
0.037409723 -0.33846334 0.32511988 0.07601298 0.34962055 0.22330256 0.23403955 -0.07220934
0.37044337 -0.30603647 -0.19144168 -0.039135434 -0.08331003 -0.010736244 -0.26315436 0.029940011
-0.10021101 0.13087778 0.060460377 -0.23052987 0.047646854 -0.21383446 -0.06086108 0.16021721
-0.14956035 0.21320398 -0.2163256 -0.31445226 0.1416001 0.018995892 0.0973751 0.13179836
-0.19549027 0.31218928 -0.24530989 -0.15080957 0.1001832 -0.21572568 -0.27993545 -0.21763577
-0.3032603 -0.11848811 0.1347147 0.108663596 0.14862232 -0.0055249026 0.1220364 -0.30327594
-0.32063472 0.16371298 0.28281352 0.18066876 -0.021026807 -0.28452516 -0.34667358 0.095011584
-0.07097107 0.10556738 0.02473719 0.13049522 -0.1999432 0.2921798 -0.32490036 -0.08363382
0.3144828 -0.31130785 0.20066409 -0.12562822 0.26529858 0.15674622 0.11182409 0.24868985
-0.13308102 -0.22548942 -0.30163202 0.17694394 -0.05224363 -0.0732758 -0.19744325 0.33544174
-0.063538715 0.078176804 0.20350267 0.18100266 -0.33773965 -0.098213695 -0.1464384 0.29290858
-0.2163966 -0.062949665 0.10399804 -0.2769854 0.12652758 0.11857915 -0.12599406 0.0842046
0.17169583 -0.079159796 -0.09412008 0.17831898 0.0019395812 0.046781454 -0.1713192 0.07841753
-0.03455231 -0.069892704 -0.1612784 -0.2496875 0.07998213 -0.26152936 -0.15801257 -0.07792952
0.122437745 0.13324647 -0.33371553 0.2223462 -0.2106908 0.14748317 -0.032757316 0.12368784
0.12724517 0.12771085 0.24672812 0.04071052 0.023147842 -0.27440444 0.06476148 0.22291824
-0.16842403 -0.016820597 0.2140911 0.3471206 0.13771369 -0.23990159 -0.13938233 -0.11797661
0.02385315 0.18953314 0.0776335 0.22400518 0.18377662 -0.054711398 0.24268451 -0.005350674
-0.24887036 0.33958074 0.035013385 0.05053427 -0.028429369 0.18536036 -0.3173837 0.18968642
0.17839585 -0.115049474 -0.31073442 0.22096397 0.2697118 -0.0053458177 -0.26548362 0.17835055
0.12214696 -0.13187106 0.08576522 0.08891724 0.07796993 -0.22258677 0.19356647 0.13622513
0.28274602 0.34440333 -0.03903052 0.0829502 0.26744696 -0.20470567 -0.30309013 -0.13986255
-0.19389373 0.2730535 -0.17948249 -0.3143011 0.09135901 -0.13686214 -0.018628413 -0.18861103
0.30471712 0.16996416 0.06819981 -0.035215713 0.35395446 0.32275817 0.24370173 -0.026224
-0.20832868 -0.2734407 0.12194692 0.05826439 0.36355817 0.3204615 -0.08825721 -0.27470362
00000000: 384d 24be f6f6 ab3c 622c 1b3d 3a35 b63e
00000010: 6645 8b3e 5825 323e 7296 53bb 1317 80bd
00000020: 68e7 4c3d 00b4 0c3e fe2c 2cbe 3283 883c
00000030: f57f 47be 1e8f 06be 0479 a5be 52fa 39be
00000040: ac0a 6b3e fa9e 263e 8a29 563e fc33 8bbd
00000050: 0515 483e ed11 babd bbfe cb3d 99da 71be
00000060: 23fb 11bd cdfa 4b3e 1707 ad3e 0ed4 67be
00000070: 26e1 59bd fc3e 953d 9824 0d3e b7cb 813e
00000080: 0aaa 3cbb 574c 81be 831c 34be 8080 943e
00000090: b41a 1dbe 59fc 09be 5d5c a23e 84f9 3d3b
000000a0: 237b 01be be41 703d 4367 41be 58be 36be
000000b0: 544c 593e 8f09 ccbc b078 8dbe cf8c 50be
000000c0: 2c0c c2bd e1af 49be 680d 993e 30ec 903e
000000d0: 8808 aebd cac0 6ebe 3834 32be 17f4 843c
000000e0: f03a 193d 114b adbe 1d76 a63e b1ac 9b3d
000000f0: 7701 b33e 6da9 643e 10a8 6f3e 7ee2 93bd
00000100: c1aa bd3e d0b0 9cbe 4a09 44be 7a4c 20bd
00000110: 739e aabd 12e7 2fbc 2bbc 86be c144 f53c
00000120: 6e3b cdbd d304 063e 4da5 773d 0610 6cbe
00000130: 5929 433d 6cf7 5abe 7849 79bd fb0f 243e
00000140: 5926 19be 2552 5a3e 7584 5dbe e3ff a0be
00000150: 9eff 103e 469d 9b3c 996c c73d 26f6 063e
00000160: 9a2e 48be 46d7 9f3e 8432 7bbe d36d 1abe
00000170: d92c cd3d 31e7 5cbe b353 8fbe e9db 5ebe
00000180: ef44 9bbe e5a9 f2bd a6f2 093e 058b de3d
00000190: 7330 183e 3e0a b5bb 38ee f93d fc46 9bbe
000001a0: 3c2a a4be 60a4 273e efcc 903e 3b01 393e
000001b0: 6940 acbc 48ad 91be 337f b1be 6f95 c23d
000001c0: 4859 91bd b633 d83d a6a5 ca3c 8aa0 053e
000001d0: e9bd 4cbe 9798 953e 5759 a6be 3548 abbd
000001e0: e403 a13e be63 9fbe e37a 4d3e afa4 00be
000001f0: 37d5 873e 1582 203e 0704 e53d 8da8 7e3e
00000200: 6446 08be b3e6 66be 836f 9abe cb30 353e
00000210: 6bfd 55bd 9f11 96bd 902e 4abe 05bf ab3e
00000220: 9620 82bd 291b a03d 0163 503e c358 393e
00000230: 36ec acbe 4324 c9bd f3f3 15be 1df8 953e
00000240: 1297 5dbe c1eb 80bd edfc d43d 08d1 8dbe
00000250: 7290 013e a0d9 f23d 9604 01be 7673 ac3d
00000260: 08d1 2f3e 881e a2bd 07c2 c0bd 4099 363e
00000270: 8c39 fe3a e99d 3f3d 4d6e 2fbe 5f99 a03d
00000280: b986 0dbd e823 8fbd 2a26 25be 14ae 7fbe
00000290: accd a33d 2de7 85be 0cce 21be 8399 9fbd
000002a0: a4c0 fa3d c371 083e c3dc aabe b9ae 633e
000002b0: 54bf 57be d405 173e 892c 06bd 0d50 fd3d
000002c0: 8f4c 023e a2c6 023e 4ca6 7c3e 13c0 263d
000002d0: 8ba0 bd3c bd7e 8cbe aba1 843d ae44 643e
000002e0: 5977 2cbe 59cb 89bc b33a 5b3e cbb9 b13e
000002f0: d104 0d3e c3a8 75be 3eba 0ebe b99d f1bd
00000300: ae67 c33c fa14 423e 50fe 9e3d 9d61 653e
00000310: f02f 3c3e 0f19 60bd 4a82 783e b554 afbb
00000320: dfd7 7ebe 87dd ad3e 326a 0f3d 06fd 4e3d
00000330: b5e4 e8bc 1bcf 3d3e 1e80 a2be 283d 423e
00000340: 67ad 363e 0f9f ebbd 9518 9fbe 6144 623e
00000350: aa17 8a3e f82b afbb 78ed 87be 87a1 363e
00000360: 2f28 fa3d 3509 07be ada5 af3d 3e1a b63d
00000370: b3ae 9f3d c9ed 63be 4a36 463e 9a7e 0b3e
00000380: 16c4 903e a255 b03e 77de 1fbd cbe1 a93d
00000390: cfee 883e 5d9e 51be a12e 9bbe 2138 0fbe
000003a0: 148c 46be abcd 8b3e 42ca 37be 13ec a0be
000003b0: 6f1a bb3d 9725 0cbe 9d9a 98bc 4023 41be
000003c0: e203 9c3e 160b 2e3e 58ac 8b3d 5a3e 10bd
000003d0: 8539 b53e 8f40 a53e f28c 793e b7d3 d6bc
000003e0: 1d54 55be 6b00 8cbe 4fbf f93d a4a6 6e3d
000003f0: 4c24 ba3e 8813 a43e 32c0 b4bd f4a5 8cbe

weight f4 [200, 400]
-0.020676672 -0.020475049 0.05780778 0.05365204 0.041484866 -0.005692434 0.020075858 0.030826332
-0.033375952 -0.002057757 0.02200536 0.014300266 -0.038191777 0.017365022 0.042010654 0.01162462
-0.00030746523 -0.0071279956 0.036189254 0.016850673 0.014825672 0.024846436 -0.034532756 -0.015347058
0.031936787 -0.01666423 0.03378062 0.013550966 0.0067899236 0.035659377 0.009053437 0.032770153
0.037116773 -0.04603729 0.0058483155 -0.019638373 -0.040456172 0.04718741 0.026280964 -0.0065562837
-0.028676055 0.036727075 0.028056674 0.022846755 0.012702613 0.014007918 -0.04270767 0.027068857
-0.01987511 0.013874558 0.028027406 0.032561272 0.0347875 -0.0056940047 0.044868015 0.0308743
-0.042621758 -0.038451314 0.01828371 0.03811935 0.014705176 0.02088942 0.01485824 0.005801072
-0.030148255 -0.015815267 -0.044592157 0.020163024 -0.035683643 0.04643048 -0.004793591 0.012025626
0.035943955 -0.0029927494 -0.03593939 -0.030763421 -0.0051319897 -0.020311937 -0.03830353 0.02724433
-0.072691575 -0.005063538 -0.033550948 -0.040922143 -0.0046861265 -0.017193563 -0.03445519 0.0007050373
-0.06880029 0.04058961 -0.025527608 -0.015266416 0.019294525 0.043807834 -0.037998643 -0.04160418
-0.0375603 -0.0027325472 0.011550856 0.03789021 -0.015772175 0.02433066 -0.0067411694 -0.016582103
-0.0068413536 0.00077761774 0.023173233 0.044446737 -0.032961298 0.0010877195 0.050453134 -0.0064036367
0.0005052716 -0.03631112 -0.012391578 -0.016596759 0.023160376 0.03323667 0.019480664 -0.007242274
0.03269343 0.053962372 0.027383648 -0.013908614 0.014627876 -0.032586515 -0.022944165 0.03390364
0.0012111986 -0.0037295069 -0.031395324 0.053355314 0.023616275 0.010743298 0.001629904 0.039847575
-0.050819505 -0.030823745 -0.016065942 0.007609193 -0.034276526 0.04046152 0.0012413491 0.0016210946
-0.0019868477 -0.06394121 0.05901499 -0.01853596 0.012241481 0.02444778 0.025737694 0.036477905
-0.04442257 0.017888747 0.044404037 0.034872465 -0.014835382 0.001995296 -0.050094336 0.011555822
0.051850867 -0.041485876 0.018492745 -0.008619433 0.04322987 -0.02807138 -0.043081652 0.03337999
-0.027646434 0.036212165 -0.024841944 -0.018211596 -0.08126749 0.038811136 0.015226407 -0.054179873
0.058098733 0.023544012 -0.0033334678 -0.026684545 -0.023903392 -0.03903484 -0.035518806 -0.05214657
0.055634253 -0.052533623 0.01973449 -0.0049140006 0.04341734 0.0024209719 -0.024769623 0.010957504
0.034687586 -0.009826739 -0.041054927 0.022731023 0.0065232697 0.0047152992 0.04203023 0.051940907
-0.041621823 0.022319958 -0.04870625 0.022290817 0.00941437 0.050353996 0.023634026 -0.012577314
0.009365122 -0.014000968 -0.0024464324 0.019552099 0.05174048 0.009447585 -0.0035995496 0.021127656
-0.04555309 0.04112332 0.053840782 0.017301567 0.0006811615 0.022276396 -0.012199647 -0.03542601
-0.008505427 0.015089204 0.021869367 0.040522277 0.011195261 -0.017731829 0.034840323 -0.030093351
0.025453728 0.055577677 0.034071885 -0.006543209 0.05991054 0.011191455 0.022965651 0.011958145
0.009586996 0.01102294 0.010863446 0.03916044 -0.012761396 -0.0009826807 -0.029299546 0.06318149
-0.012134297 -0.026502287 -0.023860654 -0.007940678 -0.016795563 -0.0014725238 -0.043627746 0.0056790956
00000000: 2062 a9bc 4abb a7bc dac7 6c3d 3ec2 5b3d
00000010: 09ec 293d 9987 babb 2076 a43c 8187 fc3c
00000020: 39b5 08bd 6fdb 06bb 9644 b43c aa4b 6a3c
00000030: fb6e 1cbd 1741 8e3c 5d13 2c3d 3175 3e3c
00000040: 4933 a1b9 f691 e9bb 2f3b 143d 6c0a 8a3c
00000050: 60e7 723c c18a cb3c 3872 0dbd 3a72 7bbc
00000060: 26d0 023d 6c83 88bc 8c5d 0a3d df04 5e3c
00000070: 027e de3b 910f 123d de54 143c ff39 063d
00000080: c207 183d 9991 3cbd 3aa3 bf3b a7e0 a0bc
00000090: 5fb5 25bd 9647 413d 2d4b d73c 18d6 d6bb
000000a0: 0cea eabc 216f 163d 1cd7 e53c 1e29 bb3c
000000b0: 9f1e 503c 7781 653c 3dee 2ebd 82bf dd3c
000000c0: 20d1 a2bc 1d52 633c bb99 e53c f85e 053d
000000d0: 567d 0e3d c694 babb 86c7 373d 1aec fc3c
000000e0: 2794 2ebd 207f 1dbd b8c7 953c 0923 1c3d
000000f0: fbed 703c 4a20 ab3c fa6f 733c eb16 be3b
00000100: 79f9 f6bc 058f 81bc 44a6 36bd ed2c a53c
00000110: 0329 12bd e32d 3e3d 8e13 9dbb 2207 453c
00000120: f839 133d 0122 44bb 2f35 13bd 9203 fcbc
00000130: 402a a8bb 3865 a6bc 2ae4 1cbd 802f df3c
00000140: 52df 94bd 09ec a5bb b86c 09bd fa9d 27bd
00000150: 148e 99bb 84d9 8cbc e320 0dbd 41d2 383a
00000160: 2be7 8cbd 4a41 263d 461f d1bc fd1f 7abc
00000170: 8d0f 9e3c d86f 333d 77a4 1bbd 2569 2abd
00000180: d4d8 19bd 8914 33bb cd3f 3d3c c432 1b3d
00000190: a634 81bc 1851 c73c 07e5 dcbb 31d7 87bc
000001a0: 6f2d e0bb 0bd9 4b3a cbd5 bd3c c80d 363d
000001b0: 6d02 07bd cf91 8e3a f2a7 4e3d 99d5 d1bb
000001c0: 3474 043a f8ba 14bd 0c06 4bbc edf5 87bc
000001d0: d4ba bd3c 2d23 083d ea95 9f3c 9950 edbb
000001e0: 8ce9 053d a607 5d3d ac53 e03c f5e0 63bc
000001f0: c2a9 6f3c 7079 05bd 67f5 bbbc 8bde 0a3d
00000200: 15c1 9e3a be6a 74bb 6298 00bd 1a8b 5a3d
00000210: eb76 c13c a804 303c 81a2 d53a 3637 233d
00000220: 1d28 50bd 1482 fcbc b99c 83bc 8a56 f93b
00000230: 8b65 0cbd fbba 253d c4b4 a23a e97a d43a
00000240: c635 02bb 9cf3 82bd b4b9 713d bad8 97bc
00000250: 7e90 483c b646 c83c dbd7 d23c db69 153d
00000260: 71f4 35bd 6c8b 923c 02e1 353d 6ed6 0e3d
00000270: 1a10 73bc 83c3 023b b82f 4dbd a154 3d3c
00000280: 9361 543d 18ed 29bd 197e 973c 8638 0dbc
00000290: ce11 313d f3f5 e5bc 6376 30bd 75b9 083d
000002a0: c67a e2bc 3553 143d 5581 cbbc 7c30 95bc
000002b0: 926f a6bd 6df8 1e3d 2e78 793c b7eb 5dbd
000002c0: f0f8 6d3d 5fdf c03c 4f76 5abb 8c99 dabc
000002d0: 0cd1 c3bc ffe2 1fbd 2b7c 11bd a497 55bd
000002e0: bee0 633d 7f2d 57bd 3aaa a13c a005 a1bb
000002f0: 61d6 313d 2ba9 1e3b aae9 cabc 1a87 333c
00000300: 9214 0e3d 5500 21bc 3629 28bd 6936 ba3c
00000310: 27c1 d53b cc82 9a3b e427 2c3d fdbf 543d
00000320: a57b 2abd 58d8 b63c 3480 47bd 3b9b b63c
00000330: bb3e 1a3c fe3f 4e3d 259c c13c 1411 4ebc
00000340: 2b70 193c 5164 65bc 5354 20bb b92b a03c
00000350: d3ed 533d 0bca 1a3c 6ce6 6bbb e813 ad3c
00000360: e095 3abd ed70 283d 2788 5c3d 04bc 8d3c
00000370: f98f 323a fd7c b63c 07e1 47bc dd1a 11bd
00000380: 595a 0bbc b538 773c 6327 b33c b0fa 253d
00000390: 546c 373c 5742 91bc bab4 0e3d 5586 f6bc
000003a0: 5684 d03c 6ba5 633d f68e 0b3d 6a68 d6bb
000003b0: c164 753d 5d5c 373c 7622 bc3c 18ec 433c
000003c0: c712 1d3c 9099 343c 98fc 313c b366 203d
000003d0: 2d15 51bc 4bcd 80ba 9a05 f0bc 4c65 813d
000003e0: eece 46bc 531b d9bc 6b77 c3bc 9e19 02bc
000003f0: d996 89bc b301 c1ba 02b3 32bd b517 ba3b

bias f4 [200]
0.03238343 -0.03229237 -0.008740163 -0.022332862 0.008210514 0.007824481 -0.024177378 0.011164002
0.01713328 0.02178002 0.016123237 -0.029887442 -0.038744222 0.010266377 0.0151776 -0.031654857
0.038373936 0.0029279029 -0.019898122 0.022864792 0.03792494 0.0010889772 -0.034494154 -0.001600876
0.031958327 -0.011220485 0.0028279969 0.020333009 0.047972675 -0.029754214 -0.034614746 -0.0114135705
0.0449749 0.04687399 0.04555238 -0.041895546 0.025866957 -0.001612556 -0.034282096 0.027341966
-0.042878874 -0.041058596 0.040870987 0.0118443 0.020022485 0.01919707 -0.022996865 -0.031614657
0.014309222 -0.010469181 0.018097682 0.0012352993 0.017348468 -0.010396677 0.041152444 -0.038345356
0.019666625 0.034279875 0.042956978 0.030689763 -0.01993068 -0.045396075 -0.011213248 0.055132926
-0.00026242048 0.02143719 0.028250355 0.054285124 0.0112536065 0.05249701 0.045555692 -0.0041263374
0.01602915 0.012881658 -0.01231418 -0.028720886 0.028861288 -0.005465875 0.022346377 0.011613396
0.038127605 0.037570875 0.048719976 -0.011515384 0.0020992456 0.009361896 0.038569864 0.034194976
-0.032272343 -0.02812135 0.03708481 -0.0173467 -0.01269664 -0.0240094 0.054998793 0.030776536
0.037287988 0.007356406 -0.008145641 0.016091522 0.027633881 0.04188073 -0.009683219 0.011716972
-0.013643859 0.0070564696 0.053191055 0.051722202 -0.032757536 0.037175365 -0.014761605 -0.035043348
0.038972456 0.04869241 -0.010345664 -0.051746797 -0.03386042 0.032840062 0.007984195 -0.008549739
0.0020856715 -0.022284474 -0.0104385475 0.0059143025 -0.007055741 -0.011491974 0.043653164 -0.014952885
-0.0068535204 -0.030667847 -0.009809462 -0.025860546 -0.014105066 -0.021662148 -0.004631265 -0.009985512
0.018352399 -0.042247195 -0.013903914 0.054924045 -0.024336 -0.038000915 -0.024250971 0.03910256
0.027110327 0.014731218 -0.0037237552 -0.029008923 -0.011550822 0.046008598 -0.03194213 0.014819957
0.00025513495 0.032226562 0.018216778 -0.0015936209 -0.013782348 0.024929795 0.04744205 0.016229069
0.05100314 0.009115192 0.0024955657 -0.018322762 -0.0016765476 -0.0422181 0.035111208 -0.0294272
-0.0119108055 -0.04951965 0.037610356 0.028043415 0.0037447908 0.050759885 0.013801133 0.009659934
0.009080308 -0.037720043 0.021273572 -0.016231487 0.03427014 -0.00739046 0.024510125 -0.006511585
-0.018422073 0.044355426 -0.008150631 0.047684554 -0.022795545 0.04639363 -0.011214317 0.04893255
-0.008470647 0.03605703 -0.022337157 -0.008344924 0.052226216 -0.027393289 -0.02481601 0.010978494
00000000: 7da4 043d 0145 04bd e732 0fbc 68f3 b6bc
00000010: 6485 063c 4132 003c a30f c6bc 38e9 363c
00000020: 185b 8c3c 036c b23c e114 843c 82d6 f4bc
00000030: 43b2 1ebd 4e34 283c 78ab 783c 86a8 01bd
00000040: fd2d 1d3d 0fe2 3f3b 6301 a3bc f24e bb3c
00000050: 2f57 1b3d 03bc 8e3a be49 0dbd 7cd4 d1ba
00000060: bce6 023d 20d6 37bc ea55 393b 6991 a63c
00000070: ff7e 443d 1cbf f3bc 31c8 0dbd fcff 3abc
00000080: 9a37 383d f1fe 3f3d 2295 3a3d aa9a 2bbd
00000090: f1e6 d33c 675c d3ba 626b 0cbd 42fc df3c
000000a0: c2a1 2fbd 0f2d 28bd 5668 273d 980e 423c
000000b0: 3206 a43c 2c43 9d3c ec63 bcbc 5f7e 01bd
000000c0: 3a71 6a3c ee86 2bbc 9741 943c c4e9 a13a
000000d0: 601e 8e3c d356 2abc 778f 283d 0510 1dbd
000000e0: e71b a13c 0e69 0c3d a8f3 2f3d 1969 fb3c
000000f0: aa45 a3bc 3cf1 39bd c5b7 37bc 10d3 613d
00000100: 7b95 89b9 0c9d af3c 4a6d e73c 145a 5e3d
00000110: 0c61 383c 1b07 573d 9b98 3a3d 3a36 87bb
00000120: 904f 833c 970d 533c 6ac1 49bc 1048 ebbc
00000130: 826e ec3c 151b b3bb c00f b73c 1d46 3e3c
00000140: b12b 1c3d ebe3 193d 998e 473d 05ab 3cbc
00000150: 7f93 093b a362 193c 6ffb 1d3d 0810 0c3d
00000160: 0130 04bd bf5e e6bc 3ee6 173d ab1a 8ebc
00000170: 9105 50bc 5caf c4bc 6a46 613d 131f fc3c
00000180: 4abb 183d 020e f13b 4b75 05bc 5ed2 833c
00000190: 7360 e23c 218b 2b3d 5da6 1ebc 8bf8 3f3c
000001a0: 7e8a 5fbc f539 e73b ddde 593d a9da 533d
000001b0: c42c 06bd 3245 183d a9da 71bc 9d89 0fbd
000001c0: 95a1 1f3d b171 473d dc80 29bc 73f4 53bd
000001d0: 39b1 0abd 4d83 063d 24d0 023c 3414 0cbc
000001e0: c3af 083b ee8d b6bc 7106 2bbc c4cc c13b
000001f0: d833 e7bb d548 3cbc a9cd 323d f2fc 74bc
00000200: 7f93 e0bb 233b fbbc deb7 20bc 7fd9 d3bc
00000210: ef18 67bc d174 b1bc dec1 97bb 469a 23bc
00000220: c557 963c 650b 2dbd 3ecd 63bc 09f8 603d
00000230: 4b5c c7bc d9a6 1bbd f9a9 c6bc 022a 203d
00000240: 7a16 de3c 355b 713c 3f0a 74bb 1fa4 edbc
00000250: a93f 3dbc 8373 3c3d c0d5 02bd 68cf 723c
00000260: a2c3 8539 0000 043d 5a3b 953c 0be1 d0ba
00000270: 5bcf 61bc 9239 cc3c 9852 423d d3f2 843c
00000280: abe8 503d e357 153c a58c 233b 9e19 96bc
00000290: 9abf dbba e3ec 2cbd c5d0 0f3d 5011 f1bc
000002a0: 8a25 43bc 1ed5 4abd 510d 1a3d 4ebb e53c
000002b0: 2a6b 753b 99e9 4f3d 261e 623c b344 1e3c
000002c0: 92c5 143c 5580 1abd ea45 ae3c e5f7 84bc
000002d0: d95e 0c3d ac2b f2bb 75c9 c83c 225f d5bb
000002e0: e3e9 96bc 09ae 353d 398a 05bc e150 433d
000002f0: b9bd babc 3f07 3e3d 41bc 37bc 7f6d 483d
00000300: 78c8 0abc 89b0 133d 6afc b6bc 26b9 08bc
00000310: 28eb 553d e467 e0bc f24a cbbc 24df 333c

weight f4 [2, 200]
0.01992374 -0.07087417 -0.026634874 0.01602756 0.07074199 0.013699307 -0.004773942 -0.052860744
0.069870606 0.050738398 -0.05953089 0.06999817 0.060168017 0.06003688 -0.06527354 -0.047810346
-0.05554675 -0.054720916 -0.012951965 0.08720463 0.02234506 -0.08556259 -0.047095843 0.029131526
0.033916462 -0.049271725 0.08969041 -0.0094092 0.023520177 -0.073260754 0.060677696 -0.06034178
-0.068427764 -0.008639128 -0.07600262 0.054708656 -0.062713146 0.053818587 -0.065732665 0.0665659
-0.0039513097 0.020341912 0.065091915 -0.073143154 0.06336781 0.024746437 -0.069934726 -0.035313874
0.070552625 -0.04941667 0.016216101 0.052124552 -0.029188134 -0.036700368 0.10020328 0.058488406
0.095216215 0.011302981 -0.025265886 0.0900639 -0.05856505 0.03414705 0.0064065093 0.01982073
-0.07427459 -0.02256454 0.07356839 -0.02608078 -0.04710533 0.05736342 0.0032463751 0.016903898
0.044993393 -0.04274601 0.0061250892 -0.06813199 0.031160504 -0.051349316 -0.049154717 -0.06520814
0.053397793 -0.005540552 -0.0373625 -0.045148347 -0.063560404 -0.05852426 0.018944995 -0.031039657
-0.0019593984 0.028208867 0.017349912 -0.050345354 0.069024116 -0.079368025 0.06993857 -0.009863168
0.067498825 -0.07089906 0.050599456 0.086908944 0.06226509 -0.062304236 -0.004539711 -0.06820328
-0.008714981 -0.021949979 0.018043594 0.09063626 -0.05450022 0.054103628 -0.008943572 -0.06335897
0.0013522985 0.055595823 -0.0400961 -0.0034662937 -0.00229298 -0.09183803 -0.05617151 -0.029994573
0.009879987 -0.017398091 -0.0006787656 0.0029210749 -0.04994085 0.08633472 0.066216305 -0.017704323
-0.07977169 0.009334189 0.017727409 -0.06795352 -0.03181854 -0.071227804 -0.002783848 0.0032815083
0.025312532 -0.086466976 -0.04763989 0.027440576 -0.063877486 -0.07329922 -0.033248097 -0.086018
-0.06833928 -0.043284003 0.06408842 0.048833273 0.0541653 0.08340515 -0.050261732 0.048343442
-0.07670582 0.07052935 0.010956514 -0.08060239 0.0361499 -0.06015436 0.046504013 -0.049789254
0.08519702 0.08857082 -0.060671657 -0.06420919 0.037136175 -0.038082108 -0.05660881 -0.025865661
-0.09509406 -0.031253427 0.08299501 -0.04079153 -0.040086664 0.10014146 -0.05413589 0.064230874
-0.05382435 0.025250686 0.032636132 -0.037621163 -0.007851449 -0.05363371 -0.03527464 -0.037810043
-0.013667219 -0.025150562 0.047797173 -0.00077330734 -0.011490749 -0.08076382 0.07777157 -0.10014628
-0.057192285 0.060208034 0.047955114 -0.043611594 -0.044021808 -0.0665092 -0.026274549 0.066701084
-0.04922176 0.0813558 -0.07949873 0.059241984 -0.032380275 -0.07023303 -0.05361841 0.11072546
-0.072453566 -0.06564107 0.008131604 -0.05807532 0.021551223 -0.07337918 0.05902688 0.05787638
0.0010781876 0.04051918 -0.10839119 -0.004526179 0.05354274 0.033221424 -0.080052495 0.056501817
0.05432921 -0.014362622 -0.0072027557 0.054133464 0.086019665 0.013159398 -0.0705738 -0.018896496
0.083452694 -0.0925142 0.0384332 0.028986618 -0.083821304 0.019225636 0.007774836 -0.051377084
-0.043709885 0.090413325 0.01015941 0.051108796 -0.027488045 0.002504881 0.019484386 0.01636916
0.078064166 -0.08585108 0.032986276 -0.058492094 -0.051685285 -0.062315606 0.013150542 -0.06996023
00000000: 1c37 a33c 7a26 91bd 6131 dabc 3b4c 833c
00000010: 2de1 903d 0f73 603c ba6e 9cbb 8284 58bd
00000020: 5218 8f3d 11d3 4f3d aad6 73bd 335b 8f3d
00000030: bd72 763d 3be9 753d 22ae 85bd c8d4 43bd
00000040: fd84 63bd 0a23 60bd 7b34 54bc 5798 b23d
00000050: fd0c b73c 703b afbd 92e7 40bd 3da5 ee3c
00000060: fdeb 0a3d 26d1 49bd 9baf b73d 0c29 1abc
00000070: 63ad c03c bc09 96bd 2d89 783d f128 77bd
00000080: db23 8cbd 218b 0dbc 43a7 9bbd 2f16 603d
00000090: c06f 80bd e170 5c3d d99e 86bd b453 883d
000000a0: fd79 81bb 15a4 a63c e94e 853d 14cc 95bd
000000b0: fbc6 813d 0ab9 ca3c f039 8fbd 48a5 10bd
000000c0: e57d 903d 2269 4abd a1d7 843c 8e80 553d
000000d0: f41b efbc 2053 16bd 6137 cd3d 8a91 6f3d
000000e0: b800 c33d 2330 393c 67fa cebc 6c73 b83d
000000f0: e8e1 6fbd c7dd 0b3d b2ed d13b 155f a23c
00000100: 471d 98bd 45d9 b8bc 06ab 963d 5ca7 d5bc
00000110: 85f1 40bd e8f5 6a3d 23c1 543b 0b7a 8a3c
00000120: fe4a 383d 7116 2fbd f9b4 c83b c988 8bbd
00000130: 5044 ff3c a953 52bd 7556 49bd d88b 85bd
00000140: a5b7 5a3d 858d b5bb 6c09 19bd 79ed 38bd
00000150: f52b 82bd 22b7 6fbd 8932 9b3c e146 febc
00000160: 4069 00bb 4816 e73c 6721 8e3c ee36 4ebd
00000170: 845c 8d3d b48b a2bd f43b 8f3d 2099 21bc
00000180: d33c 8a3d 8733 91bd 6041 4f3d 51fd b13d
00000190: ae09 7f3d ba32 7fbd dbc1 94bb 29ae 8bbd
000001a0: 48c9 0ebc 71d0 b3bc 29d0 933c 819f b93d
000001b0: 9f3b 5fbd c49b 5d3d 0f88 12bc 59c2 81bd
000001c0: 9c3f b13a 72b8 633d cf3b 24bd c22a 63bb
000001d0: d245 16bb 9415 bcbd 1914 66bd 2eb7 f5bc
000001e0: abdf 213c 7186 8ebc 30ef 31ba 816f 3f3b
000001f0: c78e 4cbd 42d0 b03d 6a9c 873d a808 91bc
00000200: 575f a3bd 6dee 183c 1239 913c 372b 8bbd
00000210: 2854 02bd e2df 91bd 3871 36bb 930e 573b
00000220: 3a5c cf3c 9915 b1bd 0c22 43bd 0fcb e03c
00000230: 33d2 82bd e71d 96bd 282f 08bd 352a b0bd
00000240: 77f5 8bbd 914a 31bd ca40 833d 6605 483d
00000250: 6fdc 5d3d 52d0 aa3d 3fdf 4dbd c603 463d
00000260: f117 9dbd b171 903d f382 333c de12 a5bd
00000270: eb11 143d 6b64 76bd fe7a 3e3d d1ef 4bbd
00000280: c67b ae3d 9e64 b53d d882 78bd 1c80 83bd
00000290: 1a1c 183d fcfb 1bbd a4de 67bd 39e4 d3bc
000002a0: adc0 c2bd 9803 00bd 4af9 a93d 0515 27bd
000002b0: ea31 24bd f716 cd3d 98bd 5dbd 7a8b 833d
000002c0: ec76 5cbd 87da ce3c 77ad 053d a618 1abd
000002d0: 5da3 00bc 05af 5bbd 247c 10bd b4de 1abd
000002e0: 79ec 5fbc 8d08 cebc f8c6 433d c7b7 4aba
000002f0: b243 3cbc 8067 a5bd b346 9f3d 7e19 cdbd
00000300: 7542 6abd b39c 763d 956c 443d 12a2 32bd
00000310: 3650 34bd fa35 88bd b93d d7bc 949a 883d
00000320: c29c 49bd df9d a63d 3bd0 a2bd b9a7 723d
00000330: 2ea1 04bd 56d6 8fbd fa9e 5bbd 08c4 e23d
00000340: 8962 94bd d36e 86bd 6b3a 053c 63e0 6dbd
00000350: 318c b03c d347 96bd 2bc6 713d c80f 6d3d
00000360: f951 8d3a 71f7 253d 33fc ddbd 5750 94bb
00000370: a24f 5b3d 3013 083d 90f2 a3bd 736e 673d
00000380: 4e88 5e3d 3451 6bbc 1805 ecbb 0dbb 5d3d
00000390: 142b b03d 849a 573c ff88 90bd d3cc 9abc
000003a0: 3fe9 aa3d 1678 bdbd 226c 1d3d 5875 ed3c
000003b0: 81aa abbd 157f 9d3c 0dc4 fe3b c770 52bd
000003c0: 2309 33bd 9f2a b93d a773 263c 7557 513d
000003d0: 9c2e e1bc ee28 243b b89d 9f3c 9e18 863c
000003e0: 1be0 9f3d b1d2 afbd 9e1c 073d 6895 6fbd
000003f0: f3b3 53bd a63e 7fbd 5f75 573c 4f47 8fbd

bias f4 [2]
0.07529871 -0.002729853
00000000: 3636 9a3d 55e7 32bb

weight f4 [200, 400]
-0.04347584 0.0304532 0.003500431 0.017412111 0.021733312 -0.020829987 0.010635353 0.018072898
0.002462876 0.044227242 0.05466048 -0.011231991 -0.007858567 0.034547225 0.0012435889 0.04925595
-0.028188245 0.04780557 -0.009580198 -0.00027438093 0.032209646 -0.036078144 0.0032486112 0.043121316
-0.045345496 0.023720846 -0.0310551 0.061431874 0.011766357 0.0109020425 -0.02529374 0.05310886
-0.024131251 0.044870667 -0.031363238 -0.034641676 -0.039138924 -0.020920983 -0.039664496 -0.000997541
0.055240203 0.040920492 -0.040510673 -0.010514831 0.019730033 0.041668754 0.029636815 0.019773083
0.036723167 0.02536327 -0.0059309737 0.0025487845 0.060834862 0.012448437 -0.012835224 -0.026952231
0.028329058 0.023745447 0.006644089 0.04423162 0.028568929 0.044854436 0.01580831 -0.0070574367
0.0046046316 -0.009515464 -0.011569468 -0.036307916 -0.025781086 0.008288151 0.0048539178 0.061070003
0.026010513 0.034510415 0.04220213 0.039026517 -0.031027712 0.058468364 0.050596453 0.06115127
0.019757247 -0.033761088 0.047728483 0.04338956 0.034977674 -0.024894418 -0.011388238 0.009368138
-0.014204446 0.013551756 0.010951431 -0.010932758 -0.023248576 0.028054375 0.016360018 0.0405788
0.029412506 0.017535774 -0.022208465 -0.018109119 -0.02464108 0.019155517 -0.009952383 0.03735716
-0.004909837 -0.005622877 0.01968484 0.018425923 0.037673905 0.027069788 -0.020298997 -0.011615021
0.003759076 0.025723677 0.056476966 0.060393244 -0.002536802 -0.003910295 -0.0048392536 0.048387486
0.03020758 -0.032747485 0.05692136 0.035449293 -0.003057153 0.0362443 -0.016701778 0.06307985
0.05311264 0.047268465 7.206771e-05 -0.02649806 -0.009179924 -0.007629576 -0.02731533 0.004104315
0.010909899 -0.025302032 -0.002922041 0.030813297 -0.009643267 0.037460215 0.009221413 0.032456793
0.018135399 0.010359223 -0.012894414 -0.040846266 -0.029737804 -0.011536869 0.0013433201 0.016690403
-0.015133621 -0.0022520218 0.008435014 -0.034145273 0.03651481 -0.026461769 0.053137947 -0.0036794904
0.043884344 0.012317469 0.046180543 0.02381007 -0.017415684 -0.002642598 0.0060375016 -0.018580796
-0.0068182168 -0.0057439106 0.040076334 0.014051037 0.032294527 0.040930144 0.006011351 -0.031922843
-0.028919071 -0.023124594 -0.024326209 0.013986319 -0.018943114 -0.042631146 0.038374424 -0.027196085
0.045946606 -0.006254717 -0.031641714 -0.010689883 0.05903835 -0.03639484 -0.029841207 0.021036664
0.025204496 0.017340844 -0.034165516 0.020559125 0.021832054 0.042031694 -0.028767092 0.045922898
0.004974468 0.05295293 0.048678905 0.0065423627 0.023137433 0.019168133 0.018786734 0.010005617
-0.0059616743 -0.017552244 -0.01917692 -0.0116352225 0.042605996 -0.03544177 -0.005931935 0.006030144
0.0016746667 0.03848953 0.010305103 -0.03479682 0.007561258 0.00027425087 -0.024792902 -0.02776905
-0.040977333 -0.0010129049 -0.019665532 -0.04362218 0.007380769 0.0199977 0.041459765 0.032439746
-0.014257626 0.0370213 -0.0031248296 0.016163189 -0.006908835 -0.001346289 -0.006236648 0.050729286
0.046539035 0.042968206 0.044653084 0.022641435 -0.025880922 0.05232403 0.012541989 -0.024958525
-0.0328962 0.022137895 0.029710755 0.045993418 0.01416278 0.063185014 0.03293274 0.014477263
00000000: b913 32bd fd78 f93c 7d67 653b d8a3 8e3c
00000010: 0f0a b23c a6a3 aabc e73f 2e3c 9d0d 943c
00000020: 3468 213b a027 353d abe3 5f3d 6306 38bc
00000030: 38c1 00bc 6481 0d3d ebff a23a 9bc0 493d
00000040: 09eb e6bc c6cf 433d 43f6 1cbc c9da 8fb9
00000050: 43ee 033d adc6 13bd a7e6 543b fa9f 303d
00000060: 33bc 39bd 3852 c23c 4467 febc fd9f 7b3d
00000070: aec7 403c 7b9e 323c d134 cfbc ad88 593d
00000080: e7ae c5bc 4eca 373d bd76 00bd 6ee4 0dbd
00000090: 2350 20bd 7b62 abbc 3d77 22bd ecbf 82ba
000000a0: 8d43 623d 3f9c 273d 85ee 25bd 6646 2cbc
000000b0: e1a0 a13c dbac 2a3d e8c8 f23c 29fb a13c
000000c0: 086b 163d a2c6 cf3c 9d58 c2bb 8209 273b
000000d0: fa2d 793d 87f4 4b3c d54a 52bc edca dcbc
000000e0: 5712 e83c d085 c23c a8b6 d93b 372c 353d
000000f0: 6309 ea3c 49b9 373d 6e80 813c 1242 e7bb
00000100: 73e2 963b c0e6 1bbc de8d 3dbc 9cb7 14bd
00000110: db32 d3bc 06cb 073c 9d0d 9f3b 8a24 7a3d
00000120: 0014 d53c cb5a 0d3d 24dc 2c3d 45da 1f3d
00000130: d42d febc 867c 6f3d 3a3e 4f3d c179 7a3d
00000140: f3d9 a13c 1149 0abd f17e 433d 40b9 313d
00000150: c044 0f3d 61ef cbbc bb95 3abc d27c 193c
00000160: c4b9 68bc 2f08 5e3c a16d 333c 501f 33bc
00000170: cc73 bebc 4ad2 e53c 7205 863c f535 263d
00000180: 7ff2 f03c 2fa7 8f3c 87ee b5bc 9359 94bc
00000190: 17dc c9bc 08ec 9c3c 520f 23bc d203 193d
000001a0: b3e2 a0bb 1c40 b8bb 1a42 a13c f6f1 963c
000001b0: f44f 1a3d 76c1 dd3c 154a a6bc ee4c 3ebc
000001c0: d45a 763b 76ba d23c 6454 673d e85e 773d
000001d0: 7a40 26bb ef21 80bb 9a92 9ebb f531 463d
000001e0: e375 f73c 3a22 06bd 5f26 693d 4733 113d
000001f0: 845a 48bb e774 143d 2bd2 88bc 0230 813d
00000200: a48c 593d 949c 413d 0f23 9738 7612 d9bc
00000210: 6467 16bc 8601 fabb 66c4 dfbc 7d7d 863b
00000220: 6fbf 323c 3546 cfbc b77f 3fbb 2b6c fc3c
00000230: cbfe 1dbc e26f 193d 6915 173c 6af1 043d
00000240: b090 943c bbb9 293c 1843 53bc 6a4e 27bd
00000250: b29c f3bc 2305 3dbc 5812 b03a 50ba 883c
00000260: 02f3 77bc a896 13bb 0333 0a3c eadb 0bbd
00000270: 8e90 153d 5ac6 d8bc 2da7 593d 9b23 71bb
00000280: 12c0 333d 36cf 493c cf27 3d3d 560d c33c
00000290: 56ab 8ebc 702f 2dbb 3cd6 c53b c136 98bc
000002a0: 596b dfbb 6a37 bcbb 1527 243d 5236 663c
000002b0: 4447 043d 5ea6 273d defa c43b 87c1 02bd
000002c0: b0e7 ecbc ca6f bdbc c247 c7bc e026 653c
000002d0: 972e 9bbc ff9d 2ebd 802e 1d3d 53ca debc
000002e0: 8232 3c3d 5ef4 ccbb be9a 01bd 9e24 2fbc
000002f0: 32d2 713d c112 15bd 8c75 f4bc 1555 ac3c
00000300: a979 ce3c 630e 8e3c 24f1 0bbd 9c6b a83c
00000310: 23d9 b23c 6d29 2c3d f7a8 ebbc a619 3c3d
00000320: dd00 a33b 2ce5 583d 8863 473d 5161 d63b
00000330: b78a bd3c 7d06 9d3c a3e6 993c 99ee 233c
00000340: 265a c3bb b9c9 8fbc eb18 9dbc a9a1 3ebc
00000350: a083 2e3d 642b 11bd ad60 c2bb 8498 c53b
00000360: 7d80 db3a 33a7 1d3d bcd6 283c 1c87 0ebd
00000370: 6ec4 f73b 54c9 8f39 7c1a cbbc eb7b e3bc
00000380: d9d7 27bd 73c3 84ba 9c19 a1bc 2cad 32bd
00000390: 61da f13b 37d2 a33c b7d1 293d 8adf 043d
000003a0: d198 69bc a6a3 173d f1c9 4cbb aa68 843c
000003b0: 8263 e2bb f675 b0ba cc5c ccbb 83c9 4f3d
000003c0: b79f 3e3d 6eff 2f3d 27e6 363d 887a b93c
000003d0: 3a04 d4bc b951 563d ea7c 4d3c d275 ccbc
000003e0: 2abe 06bd 885a b53c f863 f33c 9863 3c3d
000003f0: 010b 683c 2567 813d 7be4 063d 0b32 6d3c

bias f4 [200]
-0.011576905 0.0136838015 0.009492249 0.05638298 0.024762392 -0.015809568 0.026720926 0.014990231
-0.0070919446 0.010784859 0.015987292 0.027728815 -0.006572076 0.02741949 0.043520376 -0.024208631
0.036914468 0.008271919 -0.011042604 0.038571045 0.07251204 0.06779932 -0.027247438 0.025092393
-0.0046605677 0.016731875 -0.026527273 -0.034037158 -0.012481487 0.032338455 -0.0027403056 0.037887923
-0.017458359 0.031764932 -0.016081775 0.0073231985 0.023961166 -0.008735447 0.038055677 0.03807768
0.03367672 0.074702196 -0.0020452773 0.01242528 0.0058548953 0.0109071825 -0.0013185592 0.01709892
0.008710499 0.014142405 0.013439949 0.06386854 0.043823697 0.013930291 0.048728038 0.031387676
0.037157618 0.04918047 0.019431978 0.029742463 -0.028724195 -0.034507535 0.05304068 0.018611336
0.026655091 -0.00047760052 -0.0098291105 0.018880367 0.005934848 0.044672962 -0.013775334 -0.008627539
0.014901538 -0.019431362 -0.03869819 0.05889013 0.01488989 -0.01865543 0.014374212 0.033228308
-0.037264273 0.040595233 0.054889724 0.0322913 0.008849821 -0.011752096 -0.017907301 0.058667712
0.0038864394 0.011046355 -0.037456777 0.034790147 -0.014761047 -0.04636113 0.01885038 0.029862667
0.002366097 -0.0072645075 0.06455562 0.034548268 0.065850504 0.049481947 0.017924935 0.019102387
0.03689015 0.011856224 0.0065955967 -0.018158978 -0.039086264 0.042615086 0.030836746 -0.015010102
-0.04743243 0.011090773 0.040255927 0.03183875 -0.006850545 0.043219958 0.020453345 0.01112728
0.039223503 0.04620781 0.03736152 0.05994752 -0.032899797 -0.019536976 -0.045796506 -0.020732326
0.040032297 0.009078435 -0.023842726 0.040490393 -0.005582972 0.0027852806 -0.019443436 -0.008287284
0.04992333 0.028639778 0.010550593 -0.03296407 0.0041895583 -0.017018097 0.02872653 -0.03681683
-0.04220394 0.054015227 -0.028647568 0.040226586 -0.04370543 -0.009225906 0.010208115 0.0376044
-0.0021302223 0.04680335 -0.013315216 0.004287434 0.0092550395 -0.0071005328 -0.014968907 0.051814437
-0.014997576 0.023507575 -0.01422228 -0.017157042 0.016406033 0.00074487 0.011221826 -0.0023217613
0.0233605 0.04043401 -0.04027803 0.049925316 0.040269483 -0.051944926 -0.041459855 0.006719771
0.008775669 -0.010883968 -0.04783544 0.06928589 0.00034282575 -0.017858898 0.056593753 0.033115085
0.027591133 -0.038093857 -0.036357053 -0.01370577 0.009688801 0.014411368 0.018788226 -0.0065859477
0.00774756 -0.0015550666 -0.046903223 -0.016693234 0.02379108 0.00058011455 -0.015270853 0.042301714
00000000: 0fad 3dbc 0632 603c 6185 1b3c d7f1 663d
00000010: 80da ca3c 1183 81bc d8e5 da3c 9699 753c
00000020: 8b63 e8bb fab2 303c c8f7 823c 8a27 e33c
00000030: 925a d7bb d79e e03c 6c42 323d 2e51 c6bc
00000040: a033 173d f186 073c 0aec 34bc acfc 1d3d
00000050: 3181 943d 5fda 8a3d 0536 dfbc 908e cd3c
00000060: adb7 98bb 4911 893c b94f d9bc 8c6a 0bbd
00000070: 277f 4cbc 5475 043d b396 33bb 5e30 1b3d
00000080: d504 8fbc f21b 023d edbd 83bc 71f7 ef3b
00000090: 354a c43c 1f1f 0fbc 45e0 1b3d 57f7 1b3d
000000a0: 9af0 093d 77fd 983d 0f0a 06bb 6793 4b3c
000000b0: 6cda bf3b 0ab4 323c 81d3 acba 0913 8c3c
000000c0: 7bb6 0e3c 8cb5 673c 3b33 5c3c 82cd 823d
000000d0: 7a80 333d e03b 643c 0d97 473d 5d90 003d
000000e0: 9632 183d 7671 493d d02f 9f3c 77a6 f33c
000000f0: 014f ebbc c657 0dbd 2f41 593d cd76 983c
00000100: c75b da3c 7566 fab9 470a 21bc 00ab 9a3c
00000110: 1d79 c23b fffa 363d f0b1 61bc 855a 0dbc
00000120: 9525 743c 852e 9fbc fe81 1ebd c736 713d
00000130: baf4 733c 46d3 98bc d181 6b3c 681a 083d
00000140: 6ca2 18bd 3047 263d 0cd4 603d e243 043d
00000150: d7fe 103c dd8b 40bc 55b2 92bc 8e4d 703d
00000160: a2b3 7e3b c5fb 343c 476c 19bd 1d80 0e3d
00000170: 52d8 71bc 2be5 3dbd 1d6c 9a3c 8da2 f43c
00000180: 8510 1b3b 1b0b eebb bd35 843d 7c82 0d3d
00000190: a1dc 863d 95ad 4a3d 50d7 923c 9c7c 9c3c
000001a0: 201a 173d 9c40 423c e01f d83b 23c2 94bc
000001b0: eb18 20bd 288d 2e3d 589d fc3c eeec 75bc
000001c0: 8248 42bd 13b6 353c 66e3 243d 5969 023d
000001d0: 897a e0bb 6907 313d c68d a73c 324f 363c
000001e0: d3a8 203d 6744 3d3d 6508 193d 888b 753d
000001f0: f0c1 06bd 020c a0bc 1e95 3bbd d7d6 a9bc
00000200: e8f8 233d b7bd 143c d251 c3bc 41d9 253d
00000210: 5df1 b6bb 4189 363b d747 9fbc 63c7 07bc
00000220: 687c 4c3d f89d ea3c 65dc 2c3c 5505 07bd
00000230: 9048 893b 8969 8bbc e653 eb3c 3fcd 16bd
00000240: 0ade 2cbd 123f 5d3d 4eae eabc a2c4 243d
00000250: 7704 33bd 4128 17bc f03f 273c 1207 1a3d
00000260: 339b 0bbb dfb4 3f3d 1028 5abc 9a7d 8c3b
00000270: 73a2 173c 96ab e8bb 2640 75bc 603b 543d
00000280: 65b8 75bc f592 c03c 9104 69bc ed8c 8cbc
00000290: f265 863c 6143 433a c0db 373c b128 18bb
000002a0: 855e bf3c 229e 253d 93fa 24bd 7d7e 4c3d
000002b0: 9df1 243d 34c4 54bd cfd1 29bd 8631 dc3b
000002c0: d3c7 0f3c ac52 32bc 18ef 43bd c3e5 8d3d
000002d0: 4bbd b339 d34c 92bc dace 673d afa3 073d
000002e0: cd06 e23c 4e08 1cbd 22eb 14bd 2a8e 60bc
000002f0: c7bd 1e3c a91d 6c3c c4e9 993c efce d7bb
00000300: 3edf fd3b 60d3 cbba 981d 40bd 40c0 88bc
00000310: 83e5 c23c d412 183a 9a32 7abc 9044 2d3d

weight f4 [2, 200]
-0.059168104 0.037657164 -0.081357636 -0.051948547 -0.0585974 -0.06028613 0.060262896 0.020927813
-0.024375485 0.04378123 -0.0043335133 -0.079777025 0.030535772 -0.09081997 -0.028208612 -0.019865857
-0.053598724 0.015675966 -0.073566206 0.06631206 -0.061960448 -0.046921134 -0.026428074 -0.036352117
0.051864523 0.061071068 0.048140567 -0.06609062 -0.09301909 -0.059402533 -0.033869866 -0.003394021
-0.067611255 0.012333098 -0.05382367 -0.04317895 0.0367943 0.033957995 0.008194989 -0.01605628
-0.00911631 -0.02821579 -0.07471008 0.054741886 -0.06322115 -0.07003564 -0.037094105 -0.07532732
-0.04684388 -0.003972481 -0.08478613 -0.05609421 -0.0736442 -0.07431024 -0.08453235 0.010730171
-0.028426299 -0.053523295 0.030242268 0.019708827 0.028386405 0.025091218 0.060718272 -0.06099872
0.057499763 0.014729777 -0.009697447 0.061230917 -0.061725732 0.026506126 -0.07812805 -0.023626322
0.051113266 -0.027651785 -0.06858728 -0.068358034 0.04067626 -0.029042372 -0.05256181 -0.063844025
-0.06723417 -0.08420605 -0.04729745 0.055889886 -0.013061921 0.02150386 0.021624517 -0.066792905
-0.011698289 -0.041502714 0.0024762927 -0.091053076 -0.032556668 -0.017310776 -0.07074128 0.053179745
-0.019662036 -0.035756078 -0.08752014 -0.0059294202 -0.05411812 0.011119826 -0.057601195 -0.035338506
-0.00842468 0.024722869 0.006534564 -0.025899485 -0.03664291 -0.029390862 -0.009304086 -0.04274927
0.06708979 -0.0068912273 -0.06848451 -0.06434162 -0.071469955 -0.05865613 0.014595026 -0.00042727456
-0.03921832 0.013496639 -0.043459304 -0.0569042 0.034479905 0.026202265 0.0064827735 -0.057818178
-0.012371318 0.009774646 0.030532412 0.046445817 -0.077012956 -0.05424205 0.06718624 -0.07550195
-0.0001256115 0.011890834 -0.006010861 -0.0031060795 -0.030913344 -0.046742115 -0.03183851 -0.000383835
0.056393653 -0.08652076 0.06659849 0.006334783 0.009341393 0.0075435196 -0.04274536 0.06678182
-0.061016645 -0.012196241 -0.05430831 0.01238335 -0.087368146 -0.056226112 0.012936004 -0.045359027
-0.016951105 -0.0041524176 0.04980359 -0.07874891 0.013750291 0.009866999 0.053628407 -0.09173752
0.048790842 -0.06898543 0.03339542 -0.059726387 0.013174985 0.05364148 0.05980732 0.0067734304
-0.08387503 0.02885956 0.008006047 -0.06836489 0.009592684 -0.07287384 -0.03441684 -0.026464505
-0.06040111 0.01477885 0.02746546 -0.047100253 0.05416936 0.0073875035 -0.022361174 -0.07560207
-0.06488944 -0.045514043 -0.0033500385 -0.05136359 0.0018551311 -0.08953524 -0.085013 -0.053945474
0.0164406 -0.0028776266 -0.06835413 -0.07303941 0.006723242 -0.026801456 -0.06615605 -0.07983643
0.04780614 -1.2139916e-05 -0.061054405 0.036920168 -0.028769532 -0.0074644424 0.013620522 0.03224395
-0.0059140907 -0.069895625 -0.06905834 0.005070214 -0.095362134 -0.037424106 -0.0023581004 0.011701102
-0.06490815 -0.032515094 -0.020430844 0.014556835 -0.072796814 0.020631595 -0.046843812 0.04798429
0.026612965 0.066117525 -0.07372253 -0.024231276 0.06789425 0.01187757 0.020358596 -0.08853125
-0.0345866 -0.034982115 -0.023263175 0.06604968 -0.036371306 -0.015616497 -0.029374829 -0.06712211
-0.08217544 0.046484727 0.024078732 -0.022368666 0.04986003 -0.029501751 -0.018601565 -0.0024959333
00000000: 415a 72bd 663e 1a3d d59e a6bd 00c8 54bd
00000010: d403 70bd 97ee 76bd 3ad6 763d ce70 ab3c
00000020: 19af c7bc f253 333d 2500 8ebb 2362 a3bd
00000030: 2826 fa3c d2ff b9bd bf15 e7bc b9bd a2bc
00000040: 568a 5bbd e26a 803c e1a9 96bd 9ece 873d
00000050: 3dca 7dbd 6030 40bd b07f d8bc f5e5 14bd
00000060: e56f 543d a825 7a3d 0b2f 453d 855a 87bd
00000070: cb80 bebd 1250 73bd 21bb 0abd 396e 5ebb
00000080: c577 8abd c310 4a3c 3576 5cbd 69dc 30bd
00000090: 9fb5 163d 8a17 0b3d 4644 063c 7688 83bc
000000a0: 935c 15bc cd24 e7bc 9901 99bd 0739 603d
000000b0: 177a 81bd d86e 8fbd fdef 17bd 3645 9abd
000000c0: 5edf 3fbd 962b 82bb 5aa4 adbd 0bc3 65bd
000000d0: c5d2 96bd f82f 98bd 4c1f adbd 99cd 2f3c
000000e0: 45de e8bc 3e3b 5bbd a2be f73c 6874 a13c
000000f0: 9b8a e83c 198c cd3c b9b3 783d cbd9 79bd
00000100: df84 6b3d 2a55 713c 0ae2 1ebc 45cd 7a3d
00000110: 1fd4 7cbd 6023 d93c 9901 a0bd fd8b c1bc
00000120: 255c 513d ff85 e2bc 7d77 8cbd 4cff 8bbd
00000130: 269c 263d 45ea edbc 0d4b 57bd a8c0 82bd
00000140: 12b2 89bd 3974 acbd f9ba 41bd cbec 643d
00000150: ab01 56bc dd28 b03c e625 b13c b8ca 88bd
00000160: 2eaa 3fbc c0fe 29bd 4c49 223b 097a babd
00000170: 245a 05bd 54cf 8dbc cee0 90bd 01d3 593d
00000180: 4712 a1bc f774 12bd c23d b3bd 954b c2bb
00000190: f6aa 5dbd ee2f 363c 3bef 6bbd 1cbf 10bd
000001a0: ab07 0abc 9d87 ca3c e51f d63b 282b d4bc
000001b0: e016 16bd 1bc5 f0bc 2a70 18bc dc19 2fbd
000001c0: 5f66 893d cecf e1bb 9b41 8cbd 8ac5 83bd
000001d0: d75e 92bd 6941 70bd fa1f 6f3c d203 e0b9
000001e0: 64a3 20bd 0221 5d3c 6202 32bd 6114 69bd
000001f0: cd3a 0d3d 22a6 d63c 726d d43b c1d2 6cbd
00000200: 12b1 4abc d625 203c 1c1f fa3c f83d 3e3d
00000210: f8b8 9dbd e92c 5ebd f098 893d c4a0 9abd
00000220: 95b6 03b9 c6d1 423c c2f6 c4bb 5e8f 4bbb
00000230: fb3d fdbc a974 3fbd 1969 02bd 763d c9b9
00000240: 08fd 663d cc31 b1bd ca64 883d 0394 cf3b
00000250: a40c 193c a12f f73b c215 2fbd e8c4 883d
00000260: 97ec 79bd bed2 47bc 6472 5ebd 89e3 4a3c
00000270: 12ee b2bd 5a4d 66bd 89f1 533c 63ca 39bd
00000280: 0bdd 8abc 0111 88bb d9fe 4b3d 1c47 a1bd
00000290: e748 613c 32a9 213c 76a9 5b3d e2e0 bbbd
000002a0: e8d8 473d 3c48 8dbd a3c9 083d a8a3 74bd
000002b0: e4db 573c 2bb7 5b3d 85f8 743d a7f3 dd3b
000002c0: acc6 abbd e26a ec3c cc2b 033c e402 8cbd
000002d0: a22a 1d3c e13e 95bd acf8 0cbd 17cc d8bc
000002e0: 2867 77bd fd22 723c 3fff e03c 32ec 40bd
000002f0: b1e0 5d3d df12 f23b c82e b7bc 42d5 9abd
00000300: c1e4 84bd ef6c 3abd 528c 5bbb a162 52bd
00000310: df27 f33a 405e b7bd 4c1b aebd eef5 5cbd
00000320: 70ae 863c 9096 3cbb 40fd 8bbd b095 95bd
00000330: a44e dc3b ba8e dbbc d37c 87bd 4881 a3bd
00000340: 5fd0 433d 8bac 4bb7 2f14 7abd 9a39 173d
00000350: 15ae ebbc 4898 f4bb 9c28 5f3c 3b12 043d
00000360: fdca c1bb 7025 8fbd 756e 8dbd 0a24 a63b
00000370: 394d c3bd 054a 19bd 5c8a 1abb fbb5 3f3c
00000380: 90ee 84bd 8c2e 05bd 965e a7bc cb7f 6e3c
00000390: 7f16 95bd 9703 a93c 4cdf 3fbd 2d8b 443d
000003a0: 6f03 da3c a068 873d d6fb 96bd ab80 c6bc
000003b0: 240c 8b3d 249a 423c 12c7 a63c df4f b5bd
000003c0: aeaa 0dbd 6849 0fbd 6a92 bebc 0e45 873d
000003d0: 14fa 14bd 56dc 7fbc 7ba3 f0bc 5177 89bd
000003e0: 994b a8bd c566 3e3d c340 c53c 7e3e b7bc
000003f0: 083a 4c3d a8ad f1bc 4f62 98bc d092 23bb

bias f4 [2]
-0.04969159 0.017401153
00000000: 6989 4bbd dd8c 8e3c
