lab2/problem3/neural-network-3-actor_5times_critic.pth (torch, 664397 bytes, 10 tensors)

weight f4 [400, 8]
000000 1c e3 3d be b3 a4 93 be 5f 92 9b 3e df ed 8a bd
       -0.18543667 -0.28836593 0.3038511 -0.067836516
000010 71 39 19 be c7 2c af be 2c bb 2c bd 67 8d 0b 3c
       -0.14963318 -0.3421385 -0.04217069 0.0085176
000020 b7 b6 38 3c 4f 0e 4a 3d dc 60 b2 be 80 1f 85 3e
       0.011274031 0.049330052 -0.34839523 0.26000595
000030 0a 26 bd 3e 9a 29 24 be 17 ae 08 3e 0c 7b 11 be
       0.36943084 -0.16031495 0.1334766 -0.14207095
000040 94 1d 95 3e 7d 68 51 be 36 8b 97 be 52 21 d3 3c
       0.2912413 -0.20450015 -0.29598397 0.025772724
000050 f4 c4 95 be cb cf 04 be a6 cd aa 3e 4f 1d b3 3e
       -0.29251826 -0.12969892 0.33360022 0.34983298
000060 da ac e0 3d 6e 2d 87 3e f7 d0 ad be ab 75 c6 bd
       0.10970469 0.26401848 -0.3394849 -0.09690412
000070 7b 27 a8 3d 15 e9 4d be c3 58 41 be ff f8 a0 3e
       0.08210655 -0.20108445 -0.18881516 0.3143997
000080 a0 03 3d 3e bb 3d a9 3e 94 24 7f 3d 0b a5 a5 3e
       0.18458414 0.3305491 0.062290743 0.3235248
000090 f5 a0 21 3e 23 07 8c 3d 6a 5d bd 3a 4b e2 87 bd
       0.15784056 0.06837299 0.0014447395 -0.06634959
0000a0 09 9a b0 3d fa d2 40 3e af 39 59 be 2d e1 15 3e
       0.0862313 0.18830481 -0.21213411 0.14636679
0000b0 3f e6 aa be 86 6a cb bd 2e 53 8a be 6e 28 15 be
       -0.3337879 -0.09932427 -0.27016586 -0.14566204
0000c0 d0 59 17 3d f4 08 37 3e a2 34 07 3e 79 7a 9d 3d
       0.036950886 0.17874509 0.13203672 0.076893754
0000d0 1d 4e 30 bd 2b b8 56 3d e6 a7 b5 3a 54 d5 b6 3e
       -0.043043245 0.05242173 0.0013859242 0.3570963
0000e0 34 66 a1 bd e6 bc 9b 3e 7b f2 d9 3d 32 c1 b9 3e
       -0.07880822 0.30417556 0.106419526 0.3628021
0000f0 43 9c 14 3d f7 cd b5 be 48 98 a5 3e 52 48 b7 3e
       0.036281835 -0.355087 0.32342744 0.35797364
000100 a0 46 b1 be c3 3e 35 3e 56 53 42 bd 2d 37 29 be
       -0.34624195 0.17699723 -0.047442757 -0.16524954
000110 27 41 04 be 0f 80 2a be cb d0 68 be d7 b8 50 be
       -0.12915479 -0.16650413 -0.22735898 -0.20383011
000120 67 d7 a4 3e 03 c1 ba 3d 32 6f 86 bd 4e b5 cc 3d
       0.3219559 0.09118845 -0.065641776 0.099955186
000130 aa 99 7c bd c2 17 df 3b ed 0e 2b 3e 17 fa 71 3d
       -0.061669983 0.006808252 0.16704912 0.059076395
000140 96 d2 9f be 42 54 2c 3e 99 38 61 3e 01 da a3 be
       -0.31215352 0.16829017 0.21994247 -0.3200226
000150 58 e8 81 be ce aa 02 3e 2b ad a0 3e 50 9e 83 bd
       -0.25372577 0.1276047 0.31382117 -0.0642668
000160 5b fc 68 be 7f 46 58 be 69 58 a2 3e 0c 5c c8 bd
       -0.22752516 -0.21120642 0.31708077 -0.097831815
000170 80 54 bd bb ec 67 7a bd 4c 4a 9c 3e 2c 99 8e 3e
       -0.0057778955 -0.061134264 0.30525434 0.27851236
000180 2c 44 80 3e 78 7a 16 3d 14 e0 dc 3d 41 3b b4 be
       0.2505201 0.03673789 0.10784927 -0.35201457
000190 8c 31 26 be f8 1a 9d be 9e ae a6 be 4b 23 8b bd
       -0.16229838 -0.30684638 -0.32555097 -0.06793841
0001a0 45 a3 9d be f9 59 b6 be f0 07 99 be 60 5e 45 3b
       -0.30788627 -0.3561552 -0.29888868 0.0030116066
0001b0 65 6e 38 3e fe 33 f2 3d 5b 6c 85 be 82 78 aa 3d
       0.18010862 0.11826323 -0.2605923 0.08323766
0001c0 15 b5 c8 3d c7 f7 72 3e bf 1d 53 3e 5f 1e 87 3e
       0.09800164 0.23727332 0.20616816 0.2639036
0001d0 94 11 a2 be c3 38 73 3e 10 b4 41 be 29 d1 ea bd
       -0.31654036 0.23752122 -0.18916345 -0.114656754
0001e0 b6 12 7f be 19 0d 0f be 4b 0c 06 be b1 2d a4 be
       -0.24909481 -0.1396984 -0.13090627 -0.3206611
0001f0 07 56 ea 3c c0 78 93 bc 8d 88 ac 3d 59 8f af 3d
       0.028605474 -0.018001914 0.084244825 0.08572263
000200 01 e0 05 3c a2 d2 03 3e af 23 61 3e f2 12 9f be
       0.0081710825 0.12873319 0.21986268 -0.31069142
000210 e1 6c 4b 3e 56 5b ac be ca 19 76 3e 97 36 9d bd
       0.19865753 -0.33663434 0.24033275 -0.07676428
000220 cc 82 7a be 7c 4b 78 be d5 44 8d 3e ec ee 3b 3d
       -0.24463958 -0.24247545 0.27591577 0.04588215
000230 f1 2e 96 be f7 79 8c 3d aa ff 23 bd e1 0d 7e 3e
       -0.29332688 0.068592004 -0.040038742 0.24809982
000240 22 03 c7 3d 1a 34 15 3e 50 7f 45 3e b5 ad ae be
       0.097173944 0.14570656 0.19286847 -0.34116903
000250 66 2f cc bd 7e f0 51 be e6 f4 80 3c 98 35 8c 3e
       -0.09969978 -0.20501897 0.015741777 0.2738464
000260 7c eb 51 bb e5 2b e3 3d 14 ab 46 be 3a 47 b1 be
       -0.0032031229 0.110923566 -0.19401199 -0.34624654
000270 8e 8a 18 be 27 9a 2b be 09 a7 5d 3d 35 aa 83 3d
       -0.14896604 -0.16758023 0.054114375 0.06428949
000280 7a 06 2f 3e 17 cf 1f bd 0f 3a 56 3e 53 60 14 be
       0.17092314 -0.039015856 0.20920585 -0.1448987
000290 38 b6 aa be 2e bd 8a be 56 7a 78 be fb c8 ab bd
       -0.33342147 -0.27097458 -0.24265417 -0.08387943
0002a0 f4 75 0e 3d da 32 e5 3d d9 fd 85 3e ed d9 8e 3e
       0.034780458 0.1119134 0.26170233 0.2790064
0002b0 2a 67 16 be c6 7e 7a be 2d 8f ca 3d 96 64 94 3e
       -0.14687791 -0.24462423 0.0989059 0.2898299
0002c0 4e 70 9e bc 22 28 a2 bc 83 41 28 be 35 3f 0a be
       -0.01934066 -0.019794527 -0.1643124 -0.13500674
0002d0 9c 6e 6a be a1 22 8f be 4d c5 3d be 72 83 76 be
       -0.22893757 -0.27956107 -0.18532296 -0.2407358
0002e0 18 be 10 3e 83 0b 33 be d1 bd eb bd 69 b4 5e bd
       0.14135015 -0.1748486 -0.11510814 -0.05437127
0002f0 ed 58 86 be 9c e4 05 bd 5b 11 04 be cd ac 22 be
       -0.2623972 -0.032688722 -0.12897246 -0.15886231
000300 14 3a 8f 3d bd 41 a9 be 55 12 85 be 7f 6a a6 3e
       0.069934994 -0.33057967 -0.2599055 0.32503125
000310 02 29 0b be 5d 47 18 3e 78 5d ad 3e 6d 53 7e 3e
       -0.13589862 0.14870973 0.33860373 0.24836512
000320 49 b5 a3 be 0a d9 09 3e 8c 3b a3 3e ec 98 65 3e
       -0.31974247 0.134617 0.31881368 0.22421616
000330 ff 74 a6 3e 10 4b 24 3e 2e cf 34 3e 21 35 cd 3d
       0.32511136 0.16044259 0.17657158 0.10019899
000340 29 87 3a 3e 1e d9 df bd 0d eb b5 3d 63 ae c0 3d
       0.18215622 -0.10930084 0.08882723 0.094082616
000350 b5 4e 8f be dc 58 3d 3d 8f 8c b6 3c 03 9a 28 be
       -0.27989736 0.04622732 0.02228382 -0.16465001
000360 37 31 2a be d1 eb ac 3e 64 a0 51 be 55 b0 6e bd
       -0.16620336 0.33773664 -0.2047134 -0.058273632
000370 bc 5c 6c be 90 52 a8 3e be 2b a1 be b1 e1 ed 3d
       -0.2308225 0.3287549 -0.31478685 0.11615313
000380 c3 66 90 3e 0c 47 d1 3c da 6c 86 3e d9 37 e8 bb
       0.282034 0.025546573 0.26254922 -0.0070867357
000390 89 36 41 be aa c3 85 be cf 03 d5 3b 19 60 99 be
       -0.1886846 -0.26125842 0.006500698 -0.2995613
0003a0 4b 47 7d bd 28 a0 90 3d cf c9 e7 3d 58 c5 bf bd
       -0.06183557 0.070617974 0.11317789 -0.09363812
0003b0 52 d2 8d be 5b de 93 be f5 06 ed bc 41 ae 4d be
       -0.27699524 -0.2888058 -0.028933981 -0.20086004
0003c0 86 c7 4d 3e 58 b8 3a be f7 bd a1 be f6 a5 34 be
       0.20095643 -0.18234384 -0.31590244 -0.17641434
0003d0 02 6c ce bd 38 34 62 be d4 3f a8 be 59 e3 28 bd
       -0.100791946 -0.22090232 -0.32861197 -0.04123244
0003e0 97 dd 3a 3e 0f 02 b5 be 9a df 77 be 7d 46 78 3e
       0.18248592 -0.35353133 -0.24206391 0.24245639
0003f0 50 71 8f 3d b9 1e 9e be 67 8d bd 3d 9b 05 8a 3d
       0.070040345 -0.30882815 0.09255486 0.067393504

bias f4 [400]
000000 67 44 e1 bd f0 8a 11 bd 5b 7b 31 be 87 bd 64 be
       -0.10999375 -0.03553289 -0.17332213 -0.22337924
000010 2c 0e a0 3c df d5 f1 3d 16 57 90 3c 32 5a 24 3e
       0.019538008 0.11808371 0.01761965 0.16050032
000020 e8 05 a3 be 67 fd 56 be c4 6f 95 bd a4 f4 a9 bd
       -0.31840444 -0.20995103 -0.07296708 -0.082986146
000030 96 9f 45 be 56 8f 33 3d bb 27 14 bc c6 2e fc 3c
       -0.19299158 0.043837868 -0.009042676 0.030784022
000040 76 c2 a2 be d4 90 f2 bc a5 df 87 3e e8 e6 33 be
       -0.31788987 -0.029610075 0.26537815 -0.17568552
000050 da 1d a6 bd 43 83 11 3e 09 5b 9c be e4 01 13 be
       -0.081111625 0.14210229 -0.30538204 -0.1435619
000060 e0 e6 7a 3e ce a6 9b 3e 08 fe 65 3e e4 5b b9 3e
       0.24502134 0.304007 0.22460186 0.3620292
000070 c8 8c c9 bb 96 5e c9 3d b2 29 29 bd 39 87 4b 3b
       -0.0061508156 0.09832494 -0.04129953 0.003105594
000080 ce 09 f7 3d 5a b2 5d be f2 46 89 be 7d 60 d0 3b
       0.12062417 -0.21650067 -0.2681194 0.0063591585
000090 ef ad e1 3c 08 20 6a 3e cf 58 1e 3e 98 f3 9d be
       0.027548758 0.22863781 0.15463565 -0.3084991
0000a0 e8 1e 9c 3e 7b 13 af 3e 56 c0 a3 bd e2 59 92 be
       0.3049233 0.3419455 -0.079956695 -0.285842
0000b0 84 29 79 be 86 e6 ae be 5c 04 f3 bd 87 e6 99 be
       -0.24332243 -0.3416025 -0.11866066 -0.3005869
0000c0 4b 59 9a bc eb 81 61 be 05 ca da bd dc a5 3c bb
       -0.018841406 -0.22022216 -0.106830634 -0.0028785383
0000d0 a3 91 ea 3d 52 f7 24 be 66 d8 6d be 54 ca 3b be
       0.11453559 -0.1610997 -0.2322708 -0.18338901
0000e0 73 50 91 3e b1 50 36 3c d9 a0 d6 bd a5 6a 78 3e
       0.2838169 0.011127637 -0.10479898 0.24259432
0000f0 3d a5 da bb 80 e9 ac be 60 a1 68 be 74 f1 06 be
       -0.00667253 -0.33771896 -0.2271781 -0.13178045
000100 56 a1 52 3e 1a 30 97 3e 65 37 ad 3e 70 5d 52 3e
       0.20569357 0.29528886 0.33831325 0.20543456
000110 00 d0 2c 3e 89 ae 9b 3d e9 7f 4d 3e ba 18 a9 3e
       0.1687622 0.07601649 0.20068325 0.33026677
000120 db 0b 40 3e 88 3c 3f 3e 22 97 8c be 3c 48 5b be
       0.18754523 0.18675435 -0.27459055 -0.21414274
000130 49 63 86 3e 19 80 99 bd 3d d2 76 3e 5f eb 6e 3e
       0.26247624 -0.07495136 0.24103637 0.23331974
000140 c9 4c f0 3d 7d 7f 17 3e fc 59 7b 3d c3 c2 6e bd
       0.117333956 0.14794727 0.061365113 -0.058291208
000150 3a 02 9b 3e 83 fa 1e bc 98 18 59 3e 06 12 93 3e
       0.30275136 -0.009703281 0.21200788 0.28724688
000160 c6 b9 11 3d 58 49 2a 3e 40 8b 86 be fe 8e 09 bd
       0.035577558 0.16629541 -0.26278114 -0.033583634
000170 a5 57 8b be b0 6e 90 3d d7 1e 9d be e9 c7 81 be
       -0.27215305 0.07052362 -0.3068759 -0.25347832
000180 03 88 e4 bd 39 2a 64 3e fe 5e 63 3e ae 13 7b bd
       -0.11158755 0.22281732 0.22204205 -0.061298065
000190 c3 21 63 3d 09 09 b3 3e 3c 17 65 3d 2b 0b 9b 3e
       0.05545212 0.3496783 0.05593036 0.30281958
0001a0 19 38 8b be 43 51 6d bd ac 6e 4c 3e ae e7 3c be
       -0.27191237 -0.057938825 0.19964093 -0.18447754
0001b0 e3 14 a6 be d0 3e f3 bd 7d 6d 86 3e 48 6f 40 bd
       -0.3243781 -0.11877215 0.26255408 -0.046981126
0001c0 1d 60 f7 bd d6 84 26 be aa 21 60 3e f2 2b 64 3d
       -0.12078879 -0.1626161 0.21887842 0.055705972
0001d0 ee 50 ce b8 85 73 e4 bc 85 80 90 be b5 a2 63 bb
       -9.83792e-05 -0.027887115 -0.28223053 -0.0034734432
0001e0 3f cf 6b 3d b7 19 9b be 02 2a 50 3d 30 91 a8 3e
       0.057570692 -0.30293056 0.05082131 0.3292327
0001f0 09 6b af be bf 19 fb bd 07 d2 06 3c f0 b5 6c be
       -0.3426135 -0.1226077 0.008228785 -0.23116279
000200 0b 39 6f 3e 6c d8 1e bc d2 4f a0 3e 9b 3e 34 bc
       0.23361604 -0.009695154 0.31310898 -0.011001254
000210 7e 9d 07 be 45 8e a1 3e e5 5a a6 be 60 28 a6 3d
       -0.13243672 0.31553856 -0.32491222 0.0811317
000220 92 25 07 be c1 77 73 bd 7b 30 62 3e 2f 05 31 3d
       -0.13197926 -0.059440378 0.22088806 0.043217834
000230 d9 41 96 3e 23 c9 ec bd 88 68 3f 3e 4a 35 d8 3d
       0.29347113 -0.11561801 0.1869222 0.10557039
000240 a9 04 ac be 92 6f 24 3e 55 3f a3 be f7 55 3d 3e
       -0.33597305 0.16058186 -0.31884256 0.18489824
000250 58 0b 9a be 47 5d 68 3d c3 7d 9c be 24 66 a4 be
       -0.3008678 0.05672958 -0.305647 -0.32109177
000260 f6 4d 6c bd d9 7f 46 be fc fd 01 be df 8f 1d be
       -0.057691537 -0.19384708 -0.12694544 -0.15386914
000270 13 66 8e 3e ca 4b 80 3e d6 81 a8 be 59 e3 4c 3e
       0.2781225 0.25057822 -0.32911557 0.20008601
000280 a5 7c 8e bd bb ea b7 3c d2 ca a2 bc a7 ca 48 3d
       -0.06957368 0.022450795 -0.019872103 0.04902139
000290 87 67 a1 be c3 64 16 be 17 ed 70 bd 82 ec 86 3e
       -0.31524298 -0.14686875 -0.058819856 0.26352316
0002a0 7b 59 7f bc 77 d3 89 be be 27 ee 3d 55 eb 48 be
       -0.015585299 -0.26919147 0.11628674 -0.19621022
0002b0 34 e3 39 bc 88 1c 6a be 9a ba 6e be d8 44 a8 be
       -0.011345673 -0.22862446 -0.2331337 -0.32865024
0002c0 75 38 77 be 77 3f 39 be 6e 40 60 3e d4 e5 a7 3e
       -0.2414263 -0.18090616 0.21899578 0.32792532
0002d0 d6 06 f6 bd 9a ce 20 3c 02 6d 3c be 58 5f 27 3e
       -0.120130226 0.009814883 -0.18400958 0.16344965
0002e0 ee 55 0b bd bf ec 72 3e e3 43 a3 bd 80 85 96 3c
       -0.034017496 0.23723124 -0.07971933 0.018374205
0002f0 74 f1 1b 3e b1 d5 08 3e 3d 7c a1 3d 3b 35 4b bd
       0.15228826 0.13362767 0.07885025 -0.04961131
000300 31 96 c2 3d e5 55 81 3e aa b4 c0 bd f5 18 48 3d
       0.09501303 0.25260845 -0.09409459 0.048851926
000310 e8 ff bc 3e f4 2a 65 bd ff be 59 bc ea 55 b4 3e
       0.3691399 -0.055949166 -0.013290166 0.35221797
000320 b4 0c aa 3d 91 29 ba 3d 02 51 05 be 66 02 87 be
       0.08303204 0.090899594 -0.13019183 -0.26369017
000330 27 fa c4 3d cc 98 09 3e ce c7 d5 3d 11 9e 94 3e
       0.09618025 0.13437194 0.104385 0.29026845
000340 cb 6b 8b 3e ba 68 0f 3e 9e bb 7b 3e c6 a2 bd 3e
       0.27230677 0.14004794 0.24583289 0.3703825
000350 ca f5 62 bc 23 ba 61 3e a7 98 0d be 36 cb 6f be
       -0.013852546 0.22043662 -0.13827763 -0.23417363
000360 f2 48 8a be 0c 47 61 3d 32 b3 4d be 1b 15 ab 3c
       -0.27008778 0.054999396 -0.20087889 0.020884087
000370 0d 91 0e 3e d7 3d 24 3e b2 85 08 be f1 38 59 be
       0.1392252 0.16039215 -0.1333225 -0.21213128
000380 71 a2 fb bd c2 97 47 3e 79 8d 65 be 07 e5 d2 bd
       -0.122868426 0.19491485 -0.22417249 -0.1029759
000390 8e a6 61 be 93 01 35 bc 4a e7 32 3e 39 1a 64 3e
       -0.22036192 -0.011047739 0.17471042 0.22275628
0003a0 fb b7 a5 be 24 8d 87 be 8d ef eb bc 19 77 b6 3e
       -0.32366928 -0.2647487 -0.02880075 0.3563774
0003b0 44 bc d7 bd 4e a1 94 3e 17 2c 67 3e 02 02 69 3c
       -0.10533956 0.29029316 0.22575413 0.01422167
0003c0 73 2b 32 be 68 d9 11 be 11 36 ae bd e9 86 11 be
       -0.17399387 -0.1424309 -0.08506406 -0.1421162
0003d0 a3 25 52 3e a2 c8 c0 3d ed e6 85 be c5 dc ab 3d
       0.2052217 0.09413268 -0.26152745 0.08391718
0003e0 0a f4 55 bd b1 c1 a0 be a5 c6 2d be ad a1 10 3e
       -0.052234687 -0.31397775 -0.16970308 0.14124174
0003f0 53 22 81 be a8 b2 a7 3e 0a 2d a9 be f0 83 a9 be
       -0.252215 0.3275349 -0.33042175 -0.33108473

weight f4 [200, 400]
000000 6a 30 0d bc 72 f9 dc bc ee 59 01 3d 82 9b d5 bc
       -0.0086175 -0.026974414 0.031579904 -0.026075128
000010 ae 31 46 3d 26 69 76 bc a1 0b e9 bc b0 0c 88 bc
       0.048387222 -0.015039718 -0.028447928 -0.016607612
000020 ef 4a f3 bc 14 e2 37 bd 7f e4 4d bd 23 46 e5 bc
       -0.029698817 -0.04489334 -0.05026674 -0.027987545
000030 f0 d7 42 3b 88 14 5c 3d 07 a3 3e bd 1d 8d 22 3d
       0.002973076 0.053730518 -0.046542194 0.039685357
000040 98 db 4d 3d 78 72 64 bd 84 95 2a bc 42 af 3d bd
       0.05025825 -0.05577323 -0.010411624 -0.046309717
000050 9f c0 05 3d 4e 08 2b 3d 3e 1a b5 3c 1c c8 0d 3d
       0.0326544 0.041755967 0.02210724 0.034614667
000060 ed 71 68 3b 4a 04 00 bd b2 58 c9 bb 26 da ff 3c
       0.0035468296 -0.03125409 -0.0061446065 0.031231951
000070 f9 fa 1c bd 13 50 1d 3c 69 a7 32 3d 8c b1 f5 3a
       -0.038325284 0.009601611 0.043616686 0.001874493
000080 d6 4e 83 ba 6b e0 02 bc ab e6 2c bd ef 17 05 bd
       -0.0010018002 -0.007988076 -0.04221217 -0.032493528
000090 0a 62 37 bd 53 80 44 bd 90 c8 06 bd ea 92 0c 3d
       -0.04477123 -0.047973942 -0.032906115 0.034319796
0000a0 04 04 0a bd ee 76 84 3c fd 0b 70 bb 6a 85 9c bb
       -0.033695236 0.016169991 -0.003662824 -0.0047766464
0000b0 1e 9f 7c ba 9c 28 94 bc 1b de 3e 3d 87 8b a3 3b
       -0.00096367474 -0.01808577 0.046598535 0.004990998
0000c0 6d e6 20 3d ba 94 43 3d 00 34 bf bc 5d 01 d8 3b
       0.03928225 0.04774926 -0.023340225 0.0065919594
0000d0 50 78 c5 3c bf ec 3e bc 35 c8 3a bd 3b 0b 94 bc
       0.024105221 -0.011653124 -0.04560109 -0.018071761
0000e0 75 d0 44 3d e1 4b 83 3c 5f e0 8f 3c 1d 93 f9 bc
       0.048050363 0.016027393 0.017563043 -0.030465657
0000f0 4d a1 84 bc 04 6b 65 bb 2c f5 67 3c aa 43 c8 bb
       -0.016190195 -0.0035006413 0.014157575 -0.006111582
000100 f4 74 c4 3c 7d 2f 1b bd 5e 8f 05 3d 48 e3 d5 3b
       0.023981549 -0.037887085 0.03260743 0.006527338
000110 d2 67 32 bd a3 a2 cc 3b 90 ce 01 3d 18 0b aa bc
       -0.043556042 0.0062449737 0.031691134 -0.020757243
000120 c4 f8 61 bc 80 63 a7 ba 52 11 b4 bc 21 45 bc 3c
       -0.0137922205 -0.0012770742 -0.021980915 0.022982182
000130 8c b9 7d bc 64 7d 4e 3c b4 15 c1 3c 68 ab a0 bc
       -0.015486132 0.012603138 0.02356992 -0.019612983
000140 7c cb 44 3b 1c a8 38 bd 64 05 70 bc 7e f4 b3 bb
       0.0030028513 -0.045082197 -0.014649723 -0.005491792
000150 40 ee 51 bd 48 ff 09 bd 2c f4 c9 bc eb 73 36 bd
       -0.051252604 -0.03369072 -0.024652563 -0.04454414
000160 5f dc 0e 3d 4c 8a fb 3a c8 59 17 3d 38 c5 74 bc
       0.03487813 0.0019190996 0.036950856 -0.014939599
000170 66 28 73 3c 82 39 0b bd 03 a9 0e bd 19 f6 c9 3c
       0.014841175 -0.03399039 -0.03482915 0.024653481
000180 f1 b5 7b 3c 20 1d ac 3c b1 f9 d9 3c 44 4a b9 bc
       0.015363202 0.021009982 0.02660832 -0.02261842
000190 e1 d4 7b bc 66 98 17 3d b0 23 12 3d 04 21 06 ba
       -0.0153705785 0.037010573 0.035678566 -0.0005116614
0001a0 b4 59 01 bd f9 20 15 bc 7c ff 87 bc 47 8f a4 bc
       -0.03157969 -0.0091021 -0.016601317 -0.020087851
0001b0 21 db 39 bc 76 9a c5 3b da a5 6c 3d c9 b7 8f 3b
       -0.011343748 0.006030376 0.057775356 0.0043859226
0001c0 b7 51 ff bc 56 45 0e 3d a4 60 db bc 78 fc 3a 3c
       -0.031166894 0.034734093 -0.02677948 0.011412732
0001d0 f2 5c 3d 3d 83 d3 a4 3c a4 d9 e6 3c 59 ed 44 bd
       0.046231218 0.020120388 0.028179951 -0.048077915
0001e0 f3 56 b6 3c 2b c7 4e bc 35 06 04 bd 96 3b 38 bc
       0.022258257 -0.0126207275 -0.032232482 -0.011244675
0001f0 fb 5e 40 3c 61 39 9d bc ef c9 f3 3c a2 98 07 3d
       0.011741395 -0.0191924 0.029759375 0.033104546
000200 b4 b0 34 bd f2 ab da bc 1b 80 dc 3c f8 fd 81 3c
       -0.04411383 -0.026693318 0.026916554 0.015868172
000210 b9 f4 35 bd a9 80 5d bb 6a 4a 1c bc 52 71 05 bd
       -0.04442284 -0.0033798611 -0.009539226 -0.032578774
000220 12 92 fe bc e0 c5 81 bc 0b bc 29 bd 1a aa af bc
       -0.031075511 -0.015841424 -0.041439097 -0.021443415
000230 9b d5 8b 3c 7a 9a 70 3c ef ab 24 3d 01 4d 3c bb
       0.017069628 0.014685268 0.04020303 -0.0028732421
000240 d3 a9 6c bb c4 22 14 3d ba ef b0 3b 5e da a9 bc
       -0.0036111965 0.036165968 0.0053996714 -0.020734008
000250 82 b4 c1 bc 59 9a 1b bd fd e3 ad 3b 0e 4f 90 bc
       -0.023645643 -0.037988994 0.0053067193 -0.017615821
000260 34 d5 e9 bc e8 c0 69 3c 3d b4 13 3d 2e ec 01 3d
       -0.028544046 0.014267184 0.03606056 0.03171938
000270 48 9f 91 bc 1c b7 01 3c bc 94 4a 3c a7 c5 ff 3c
       -0.017776147 0.007917192 0.012364563 0.031222178
000280 a8 e9 4d 3d 2a f4 89 bc c2 07 3a bd 52 11 a1 3c
       0.05027166 -0.01684006 -0.045417555 0.01966158
000290 b7 3e 06 3d 71 33 2c 3d 18 86 e4 bc 06 7c 3f 3d
       0.032774653 0.042041246 -0.027895972 0.046749137
0002a0 5f 1e 93 bc 20 b4 a4 bb 05 e1 0a 3d c8 b1 0e 3d
       -0.017958818 -0.0050263554 0.033906 0.034837514
0002b0 05 d2 d2 3c d9 d8 c3 3c cd b4 ad 3c ad 00 f3 bc
       0.02573491 0.023907112 0.021204377 -0.029663408
0002c0 df 19 ca 3c 4f fc 20 bd 1e 90 67 3c 8d e8 38 bd
       0.02467054 -0.03930312 0.014133481 -0.045143653
0002d0 33 d0 4b bc 12 96 8f 3c 94 a2 16 bd fa b2 ed 3c
       -0.012439775 0.017527614 -0.03677614 0.029016007
0002e0 ac ca b7 3c 89 3a 05 3d 89 66 89 bb f4 c7 b2 ba
       0.022435509 0.032526527 -0.0041931313 -0.0013639913
0002f0 d7 b7 e8 bc f1 90 11 3d 8b 48 2a 3d 75 38 ff bc
       -0.028407974 0.035538618 0.04157309 -0.03115485
000300 fe 04 33 bd e7 4a 87 3c 58 41 da 3c ab 02 5a 3d
       -0.043705933 0.016515208 0.026642486 0.0532252
000310 e9 96 e5 bc 98 d1 aa 3c bc 63 59 bd 83 21 20 bd
       -0.028026061 0.020851895 -0.05307363 -0.03909446
000320 0e 62 20 3d 62 30 d0 bb da 18 39 3d e6 72 17 3d
       0.039156012 -0.006353424 0.045189716 0.03697481
000330 b2 5a da ba 7c 66 e1 bb 4a a0 c0 3c 1f 47 26 3d
       -0.0016659109 -0.006878672 0.023513932 0.04059517
000340 04 a4 4e bc 87 d0 f3 3c 93 99 df 3c 86 89 1e 3d
       -0.012612347 0.02976252 0.02729491 0.03870537
000350 3c f0 8d bc 99 04 a6 bc 0a 7c 3d ba 3b cf b5 3c
       -0.017326467 -0.020265864 -0.0007228261 0.022193542
000360 9f 47 8a 3b ae 80 a7 bc 45 cb fe bc 9a ec 2d bd
       0.0042199637 -0.020447101 -0.031102786 -0.04246197
000370 30 39 36 bd a1 df ed bc 39 73 62 bc 3e c4 fe 3c
       -0.044488132 -0.029037299 -0.013821417 0.031099435
000380 6c 1e 5c bd 0c 8e 90 bc db 3e 73 3d 73 a7 0d 3d
       -0.05373995 -0.017645858 0.059386116 0.03458352
000390 ce 41 2b bd a5 48 ac 3c 3a b9 0e 3d 16 25 36 3d
       -0.041810803 0.021030733 0.034844615 0.04446896
0003a0 53 c4 05 3d fe 1f 74 bd df f0 3d bd 0d 15 36 ba
       0.032657932 -0.059600823 -0.04637229 -0.0006945886
0003b0 d5 5c 55 3b bb 3c 30 bd f2 8d 2f bc 4d ee c6 bc
       0.0032556553 -0.043026667 -0.010714995 -0.024283553
0003c0 b2 5c 38 bc e3 99 fc 3c 52 8f 1b 3a e7 64 5b 3d
       -0.011252569 0.030835098 0.0005934137 0.053563025
0003d0 82 d6 fa bc 61 94 ba bc 8a 05 4b 3d db 14 58 bd
       -0.030619863 -0.02277583 0.04956583 -0.052754264
0003e0 5b 50 00 bd 5f 30 8a bc 6c 0e 5f bc b1 57 19 3d
       -0.031326633 -0.016868768 -0.013614278 0.037437145
0003f0 04 f1 1c 3c 6f 32 fb 3c f1 f2 0c 3b 64 f6 ab bc
       0.009578947 0.030663697 0.002150711 -0.020991512

bias f4 [200]
000000 50 e1 9a 3b 0e 2b 2e bd 9a 56 38 bd 82 8b 1d bc
       0.0047265664 -0.04252153 -0.045004465 -0.009615781
000010 0f 94 3d bd 7a 1d de bc 21 29 40 3d 20 02 00 3d
       -0.046283778 -0.027113665 0.046914224 0.031252027
000020 85 b6 e8 bc 85 3a 1e 3d 85 1f fc 3c ab 94 5a bc
       -0.028407345 0.038630027 0.030776748 -0.013341109
000030 b9 39 85 3b 8d 5d 8c bc 53 8d e3 bc 7c d7 25 3d
       0.004065719 -0.017134452 -0.02777735 0.040488705
000040 72 dd 11 bd d0 b9 e6 3a 27 5b a1 3c 38 04 a4 3c
       -0.035611577 0.0017602984 0.019696785 0.020021543
000050 50 f7 7f 3c b7 03 0e bc b3 2c b1 3c de 55 7c 3c
       0.015622929 -0.008667878 0.02162776 0.015401332
000060 98 14 0c 3d f2 a3 17 3d ea 52 8f 3a 29 73 06 ba
       0.034199327 0.037021585 0.0010934744 -0.00051288545
000070 0b f6 0d bd d6 cd ee bc ab 0a 1f bd f8 71 3f bd
       -0.034658473 -0.029150885 -0.038828533 -0.04673955
000080 d2 23 f7 bb 7e aa 0a 3c 89 28 10 3d 64 29 eb 3b
       -0.007542112 0.0084635 0.035194907 0.007176565
000090 32 5f 8c 3c d4 cb ab 3c 84 4d 02 3c e7 7f 45 bd
       0.017135236 0.020971216 0.0079530515 -0.04821768
0000a0 e2 9b fb 3c 0c 57 20 bb 02 cf 6c bc e4 23 14 bd
       0.03071398 -0.0024465946 -0.014453651 -0.03616704
0000b0 9c 69 ac 3c 3e 54 18 39 c2 b6 fe bc 4b e6 40 3d
       0.021046452 0.00014527232 -0.031093005 0.047094624
0000c0 28 f4 ce bc bc 06 d3 bc a3 4a 10 3d e7 c5 17 bd
       -0.025262907 -0.025760047 0.03522743 -0.03705397
0000d0 87 e5 56 bb 89 dd ac 3c 81 80 36 3d 89 d8 e7 bc
       -0.0032790618 0.02110173 0.044556145 -0.028301494
0000e0 e2 84 ff bc c6 42 c4 3c a1 08 a2 bc f5 d4 05 bd
       -0.031191293 0.023957621 -0.019779505 -0.032673795
0000f0 c5 fb 33 bd ae a1 23 3c 08 d6 a2 3c 3c 98 64 3d
       -0.043941278 0.009987278 0.019877449 0.055809245
000100 05 93 e9 3c a2 18 b7 3c 26 db 0c bd e8 0e 0e 3a
       0.028512487 0.022350613 -0.034388684 0.00054190913
000110 56 09 07 3c 5d 9a 39 3d 13 af aa 3b 04 05 39 3d
       0.008241972 0.045313228 0.0052088588 0.0451708
000120 c9 8a 33 3c 1a fd 4a bd a8 ee 02 3d 1f e1 ac 3c
       0.010958382 -0.049557783 0.03196588 0.02110344
000130 8c a5 74 3b 1c d8 32 3d a4 bd fe bc 95 05 ce bb
       0.003733012 0.04366313 -0.031096287 -0.0062872865
000140 c8 15 1e 3c e3 83 21 bd 36 ed 88 3b 5f c0 07 3d
       0.009648748 -0.039432418 0.0041786684 0.033142444
000150 7a 30 b4 bc f0 b7 45 ba b2 4a 8c 3c 7e 58 9c bc
       -0.021995772 -0.00075423624 0.017125461 -0.019085165
000160 4f 65 39 3b 40 ee c9 bc a3 31 59 3d d6 c4 af 3b
       0.0028289144 -0.02464974 0.053025853 0.005364041
000170 f1 6f 57 3c 8d 9b dd 3b 82 6f 0c bc 50 95 5a 3d
       0.0131492475 0.006762928 -0.008571507 0.05336505
000180 d7 ea a3 3b 47 94 1d bb 22 c0 2b 3d fd 36 7a 3b
       0.0050023603 -0.002404468 0.04193128 0.0038179748
000190 2d 99 05 bd 9a ac f9 bc a6 55 cb bc df 8d 9e bc
       -0.032616783 -0.03047781 -0.024821114 -0.019354759
0001a0 d8 42 01 bd 8a df d0 3b 2c d1 c3 3b 05 9e 38 bc
       -0.031557888 0.006374304 0.005975863 -0.011268144
0001b0 a4 35 98 bc ff 0b 32 3d 23 be e3 3b a0 42 3f 3b
       -0.018580265 0.04346847 0.0069501563 0.0029183999
0001c0 8e 7c 14 bd 1f 99 f4 bb ea 2d 1e 3d 72 6e b7 3c
       -0.036251597 -0.0074645425 0.038618006 0.022391532
0001d0 2b 72 eb 3c 89 f2 43 3d 0a c8 92 3c 15 83 17 3d
       0.028740963 0.04783872 0.017917652 0.036990244
0001e0 8f 95 08 3d a9 a0 a8 3c ce 27 d6 bc 69 d2 4a 3d
       0.033345755 0.020584421 -0.026142027 0.04951707
0001f0 b2 16 1b bd ca 87 1a bd e9 35 01 3d 96 4b 4b 3d
       -0.03786344 -0.037727155 0.031545553 0.04963263
000200 52 94 d1 3b 5d 97 d7 3c 68 fb 5d bc e9 ec 93 bc
       0.006395855 0.026317293 -0.013548709 -0.018057304
000210 16 bf 25 3d 1c bd 4e 3d 7e 15 18 bd a3 0c 03 3d
       0.040465437 0.050473318 -0.03712987 0.031994473
000220 f2 b6 f8 3b 91 c5 cf 3c eb 73 b6 bc c1 ce 98 bc
       0.007590168 0.025362762 -0.02227207 -0.018653275
000230 47 7d 3a 3c bd 97 0f 3d fe 20 19 bd fa 71 27 bd
       0.0113824075 0.03505682 -0.03738498 -0.04088018
000240 05 f2 44 bb 0c 1a 06 bd 5a 93 2f bd 88 22 01 3c
       -0.0030051481 -0.032739684 -0.042865135 0.007881768
000250 0d 68 e4 bc cd ee 88 bc 4a 79 79 3c 27 5e 25 3d
       -0.027881647 -0.016715432 0.0152266715 0.040372994
000260 18 e8 3a 3c f9 ed 14 3d 45 17 20 3d 1f d1 30 3d
       0.0114078745 0.03635976 0.03908469 0.043168183
000270 6a a2 a3 3c 65 15 28 3d 32 2a 3d bc f4 a0 91 3c
       0.019974906 0.04103603 -0.011545705 0.017776944
000280 f7 fe f7 bb 00 53 e2 3b 74 62 1e bd 05 db d0 bb
       -0.007568236 0.006906867 -0.03866811 -0.0063737654
000290 5b 18 1f 3d d2 25 f1 bb b8 71 d1 3c db d1 ea 3a
       0.038841587 -0.007359245 0.02556692 0.0017915325
0002a0 39 1a 36 3d 7a 45 50 3c 69 a6 02 ba 86 aa 65 bc
       0.0444586 0.012711877 -0.00049839035 -0.014017707
0002b0 e6 3d 5f bb 19 5c 24 3d 6d ce 50 bd 47 28 a6 3c
       -0.0034063994 0.040126894 -0.050978113 0.020282878
0002c0 f2 43 f9 ba 66 89 c8 3c a2 54 c3 bc 5d a5 06 3c
       -0.0019017442 0.02447958 -0.023844067 0.008218137
0002d0 9f 18 41 bd fc 26 15 3c 36 6e b5 3c 77 db cf bc
       -0.04714262 0.009103533 0.02214728 -0.025373204
0002e0 7a ae 0c bd dc 28 1f 3d 51 7d 0f bd ed c8 e8 3c
       -0.03434608 0.038857326 -0.03503162 0.028416121
0002f0 bf 89 19 bd 47 10 26 bd 5c a2 41 3c f7 4c 28 3d
       -0.03748488 -0.040542867 0.011818495 0.041089024
000300 aa 80 e6 bc ba 07 0b 3d dd 59 3f bc 2c ca 9c 3b
       -0.028137524 0.033942915 -0.01167914 0.004784843
000310 72 09 51 3d 50 73 d1 bc 35 ba 20 bd 02 d4 47 3d
       0.0510344 -0.02556768 -0.03924008 0.04878617

weight f4 [2, 200]
000000 1c cc 4d bc 74 30 80 bc 61 54 89 3d c7 85 6f 3d
       -0.0125608705 -0.015648104 0.06705547 0.05847719
000010 6b 6e 94 bd 8c 4b bb 3c d8 0d 36 3d b3 1e 91 bd
       -0.07247623 0.022863172 0.044446796 -0.070859335
000020 e6 96 2a 3d ce 52 2f bd 8d b7 70 3d 4c 24 04 bc
       0.041647814 -0.042803578 0.058768798 -0.0080652945
000030 ad 81 a2 bd 9e 5f 79 bd 4d 55 a9 3d f0 80 6b 3c
       -0.0793489 -0.060882203 0.08268223 0.014374003
000040 5e 8f b1 bd c4 39 76 3c 76 88 4e bd 6c 8c c0 3c
       -0.08669923 0.015028421 -0.050423108 0.023504458
000050 e2 b0 cb bd 65 5f 6a bd 4a 61 84 3d 31 1f 2c 3d
       -0.09945847 -0.05721988 0.06463869 0.042021934
000060 bf 21 71 bd 47 3f 15 3d 33 16 38 3c 44 8e 62 bd
       -0.058870073 0.0364373 0.011235761 -0.055311456
000070 4f 96 e0 3c 69 da 33 bd 13 14 68 bd a1 d8 61 3d
       0.027415423 -0.043909464 -0.05665977 0.055138234
000080 6e 64 12 b9 29 19 57 3d 57 19 ce 3c d2 56 5b 3d
       -0.00013961058 0.05251423 0.025158567 0.053549595
000090 66 ef b1 bd 72 90 04 3d dd 42 18 bd 69 5f b8 ba
       -0.0868824 0.032364316 -0.03717314 -0.001406652
0000a0 22 4d 9b 3d ef 44 b0 bd ad 8d 95 bd 8d bf 9f bd
       0.07583071 -0.08606898 -0.07302413 -0.07800207
0000b0 1d e6 86 3d 31 82 52 bd 59 c0 90 3c c1 45 3f bd
       0.065868594 -0.05139369 0.017669844 -0.046697382
0000c0 9e 1d 1c 3d ea 9c a1 bd b0 27 3d 3d 56 52 8e bd
       0.038114183 -0.07891257 0.046180427 -0.06949298
0000d0 5c 19 6c bd bf d0 8b bd 77 99 0a 3d d0 67 5b bd
       -0.057641372 -0.068269245 0.03383776 -0.0535658
0000e0 3a 81 59 bc af 34 74 bc ed ca 8f bd b2 7c 56 3d
       -0.013275439 -0.014905139 -0.07021127 0.052365012
0000f0 a7 d7 97 3c df 50 5d bd 6b 15 7d bb f5 9b bd 3c
       0.018535448 -0.054032203 -0.0038617502 0.023145655
000100 db 2b 08 3d 75 f0 e9 bb 02 36 b0 3d 2d 4a 93 bd
       0.03324495 -0.0071392604 0.08604051 -0.07191882
000110 b5 dc 8d 3d 79 b7 1a bd cb 95 05 3d 3f 7f ba 3d
       0.06926862 -0.03777263 0.032613557 0.091063015
000120 36 45 01 3d d7 4b 15 3d 2e 54 07 bb 13 96 01 3d
       0.031560145 0.03644928 -0.002064954 0.031637263
000130 e9 99 b8 3c e9 c7 2a 3d 97 e7 52 bc f5 b8 46 bd
       0.022534328 0.041694555 -0.012872598 -0.048516233
000140 8e 95 d6 bc 3f d6 76 3d 07 55 9f 3d 37 aa 09 3d
       -0.02619436 0.060262915 0.077798896 0.033609595
000150 58 b0 9b bd 56 56 c3 bb af d7 8c bd e0 61 6b 3d
       -0.07601994 -0.00596122 -0.06877076 0.057466388
000160 1e a5 0f 3d cb e4 57 bd 32 a1 8f 3d b2 d2 a5 39
       0.035069577 -0.05270843 0.070131674 0.00031628233
000170 3d b9 35 bd a8 e8 35 3d 3a f3 a4 3c 6c a1 e7 3c
       -0.04436611 0.04441133 0.02013551 0.028275214
000180 d4 c3 1f 3d a2 38 bc bd b3 72 2e bd 58 6e 92 3d
       0.039005116 -0.09190489 -0.042589854 0.07149953
000190 ec 0c c4 3c d7 c7 20 bd a1 6c 03 bc 67 32 78 bd
       0.023931943 -0.039253082 -0.008021505 -0.060594942
0001a0 8b f3 9f 3c 1e cd 23 bd 88 32 98 bd 1c 22 84 3d
       0.01952531 -0.039990537 -0.07431513 0.06451818
0001b0 f1 5b 7a bc 10 7c 07 3d bc 0f 6f bc 12 23 5d 3d
       -0.01528071 0.0330773 -0.014591154 0.053988524
0001c0 ea ec bd 3b fd c0 a5 3c f4 76 1e 3c 90 d5 98 bc
       0.0057960646 0.020233626 0.009671915 -0.018656522
0001d0 b2 7d d7 bc 6f f4 b9 bd 01 42 83 3d ee 46 4d bd
       -0.026305053 -0.09079825 0.064090736 -0.050116472
0001e0 57 5b 94 bd 8d 2f 21 bd ec cb 21 3d 59 1c 3c 3d
       -0.07243984 -0.03935199 0.039501116 0.045925472
0001f0 2d 0e 5f bb e8 55 ac bd 31 92 3b bd 9c 4e 69 3d
       -0.003403555 -0.08414823 -0.045793716 0.056959733
000200 0c cc 12 bd 77 99 8a bd ea 3f 93 bd f7 ef 9a bc
       -0.035839126 -0.06767552 -0.07189925 -0.018913252
000210 67 e5 25 bd 44 2c 82 ba d3 64 1f bd 7f 96 8c ba
       -0.04050198 -0.0009931405 -0.038914513 -0.0010726004
000220 19 f0 78 3d 50 f1 9f bd 86 67 87 3c 70 4f 12 bd
       0.06077585 -0.078096986 0.016528856 -0.03572029
000230 c6 c5 48 3d 80 04 8d 3d 96 eb 3b bd 0a c2 89 bd
       0.049016736 0.06885624 -0.04587897 -0.06726463
000240 d5 4a 86 bd f0 ce a8 3d 3b 23 89 bd 10 e2 69 bd
       -0.06557242 0.08242595 -0.06696173 -0.057100356
000250 47 d7 6e bd 91 1a bb 3b e1 77 12 3d 5c 1e d2 39
       -0.058310773 0.005709954 0.035758857 0.0004007694
000260 18 47 37 3d e0 14 74 bd 87 65 f8 3c 1b 26 6e 3d
       0.044745535 -0.05959022 0.03032185 0.05814181
000270 df 1f a2 bd e9 b8 ed bc 55 d6 73 bd f3 6c eb 3c
       -0.07916235 -0.029018836 -0.059530575 0.028738474
000280 f1 39 19 bd fb 7d 16 bc 66 ff 2a 3d cf dc a7 bc
       -0.037408773 -0.0091853095 0.041747473 -0.020491032
000290 1c bb 61 bd 95 f1 18 bc 13 7b f0 3a 47 6d 8a 3d
       -0.055110082 -0.009334941 0.0018347226 0.06759124
0002a0 f7 9a 24 bd 4e ef 9d 3d c1 53 b3 ba 42 a2 25 3d
       -0.04018685 0.07711659 -0.0013681577 0.040437944
0002b0 64 dc aa 3d a4 a5 54 3c 87 65 40 3d d1 03 2d 3d
       0.083428174 0.012978945 0.046971824 0.042239968
0002c0 4b 69 a0 bd 19 cb 36 3d 18 01 1b bd 6a f8 9f bd
       -0.07832583 0.044627283 -0.03784284 -0.07811053
0002d0 3a 67 1f bd 10 78 3f 3d 7a 84 a8 bc 49 c0 ac bd
       -0.038916804 0.04674536 -0.020570982 -0.08435113
0002e0 50 29 50 bd ac 16 f7 bc 91 3c 0c 3b 79 6c 75 bd
       -0.05082065 -0.030162178 0.0021398405 -0.0599179
0002f0 20 b2 19 3d 75 52 e4 bc 17 16 35 bd f8 31 7e 3c
       0.03752339 -0.02787135 -0.04421052 0.015514843
000300 12 e9 31 bd 3c 82 cd bc 43 66 88 3d b2 d7 8a bd
       -0.043435164 -0.025086515 0.0666013 -0.06779422
000310 9a 06 02 3d 36 e5 41 3d 26 73 a7 bc 58 d6 e7 3c
       0.031744577 0.047337733 -0.02044065 0.02830045
000320 96 e4 de 3c 70 41 24 bd 0e 49 6c 3d 64 20 95 3d
       0.027208608 -0.04010147 0.057686858 0.07281569
000330 86 33 59 3d 3c 0b bf bd 33 2f 07 3c 55 3e a4 bd
       0.053027652 -0.09328315 0.008250999 -0.080197014
000340 bf bd 45 3d ef 9c 96 bd 6d 0f 84 3d 94 18 ab 3d
       0.04827666 -0.073541515 0.06448255 0.08354297
000350 be 8e ee 3c f6 b6 19 bd 8c 36 47 bb 64 4b bd bd
       0.0291208 -0.037528 -0.0030397503 -0.09242895
000360 5d f3 c1 bc 32 1d ed bc ea 62 52 3d fe 1f ac bd
       -0.023675615 -0.028944585 0.051363863 -0.084045395
000370 d0 8c d4 bc 8f 24 2f 3d 82 92 0e bd bd fa b0 3d
       -0.02594605 0.042759474 -0.03480769 0.086415745
000380 a6 68 1d bd 5e b2 a7 bd a6 a8 51 3d 3b b0 82 bd
       -0.03842988 -0.08188318 0.051186226 -0.063812695
000390 82 86 1d 3d 78 23 64 bd 71 85 89 3d c2 5e 37 3c
       0.038458355 -0.055697888 0.06714905 0.011192026
0003a0 e6 e5 8b bd 19 8b 7a bc 96 56 ea 3b 3c 77 78 bd
       -0.06830959 -0.0152919525 0.007151435 -0.060660586
0003b0 61 fa 73 bd 17 61 ce 3c b0 bd 85 3d 75 83 bc 3d
       -0.05956495 0.02519278 0.06530321 0.09204761
0003c0 e2 7a 6a 3d 0d c8 0e 3d 3a ec 67 3d 21 80 0f bb
       0.057246096 0.034858752 0.056621768 -0.002189644
0003d0 f9 13 38 bd 50 55 a5 3d 33 76 2d bd 07 34 42 bd
       -0.044940922 0.08072913 -0.04234905 -0.0474129
0003e0 81 2f 25 bd dc d9 9b 3c 79 07 b0 bd 35 38 6f bd
       -0.040328506 0.019024782 -0.08595175 -0.058403213
0003f0 24 3b 89 bc 1e 70 92 bd 46 d7 97 3d ad 57 4e bd
       -0.016751833 -0.07150291 0.07414107 -0.050376583

bias f4 [2]
000000 f3 fe ba bc 4b f0 2d bd
       -0.022826647 -0.04246549

weight f4 [200, 400]
000000 73 42 b7 3c 69 76 12 bd eb 16 7b 3c 39 14 be 3b
       0.022370553 -0.035757456 0.015325288 0.0058007506
000010 90 ac d1 bc 10 c8 f9 3c f7 d6 f7 bc 15 fb 4f bd
       -0.02559498 0.030490905 -0.03025387 -0.05077656
000020 2e 9c e6 bc f2 6f 18 bc e8 7f 16 bd 64 09 c1 bc
       -0.028150644 -0.009304034 -0.036743075 -0.023564048
000030 74 07 0e 3d cb 2e 41 3c 8a 4e 91 bc f6 1b 0c 3d
       0.034675077 0.0117909415 -0.017737646 0.034206353
000040 dc 4b 38 3d 32 47 41 bd 10 9c 42 bc 16 e3 2b bd
       0.04499422 -0.047187038 -0.0118780285 -0.041964613
000050 f3 bb 90 bc 53 f9 95 3c 94 7a 06 3c 4d a4 d9 3b
       -0.017667746 0.018307364 0.008207936 0.0066419006
000060 ce f6 46 3d ac d1 cc 3c 6b ee 04 3d 2f 77 0e bd
       0.048575215 0.025002323 0.032453936 -0.03478163
000070 80 4b 5e 3c fe e8 ff 3c 3b 1a cd b8 89 19 ac bc
       0.013567805 0.031239029 -9.7800475e-05 -0.02100827
000080 0b 0a 4c 3b 66 bd 97 3c 5d c4 1a 3d e7 d6 c3 3c
       0.0031133916 0.01852293 0.037784923 0.023906184
000090 53 c4 41 3d 82 a9 71 bc 9f 84 10 bd 1f 27 cf 3a
       0.04730637 -0.0147498865 -0.035282727 0.0015804506
0000a0 d1 11 13 3d 76 6f 06 bd 0f 6e 75 3c f8 61 23 3d
       0.035905663 -0.03282114 0.014979853 0.039888352
0000b0 8a 64 39 bd e3 40 15 3d 38 c3 21 bd d7 8f b2 bc
       -0.045261897 0.036438834 -0.039492816 -0.021797104
0000c0 bd 56 32 bb bb 83 33 3d 3b f5 8e ba 6e 47 28 3d
       -0.0027212345 0.0438268 -0.0010906825 0.041083746
0000d0 3f 7b fe bc a7 f8 df bc 75 c2 11 bd 5a 84 1e 3d
       -0.031064628 -0.027340246 -0.03558584 0.03870044
0000e0 28 f0 12 bd 4f e0 67 3c aa 1d 6e bc ae e9 95 3c
       -0.035873562 0.0141526 -0.01453344 0.018299904
0000f0 e2 5e 2d bc 92 2a 5a 3b b3 9b cf 3b de e2 94 bc
       -0.010581704 0.0033289534 0.0063356995 -0.018174585
000100 23 78 33 bd c1 d4 25 3d c6 75 42 bd 03 0d d9 3a
       -0.043815743 0.0404861 -0.0474756 0.0016559664
000110 ad 08 52 bd 60 d2 21 bd d6 38 40 3b a5 43 17 3d
       -0.051277805 -0.03950727 0.0029330752 0.036929745
000120 03 94 86 bb da c9 32 bd 84 06 05 3c 2d aa 0a bc
       -0.004107 -0.043649532 0.008119229 -0.008463425
000130 05 e4 35 3d cb 8a 5d 3c 3c 41 21 bd 40 62 67 bc
       0.04440691 0.01352186 -0.039368853 -0.014122546
000140 5b a7 42 ba b2 b9 32 bd 02 d4 48 3c 94 2e 25 3d
       -0.00074254506 -0.043634124 0.012257578 0.040327623
000150 cb 19 8f 3b 96 6a f1 bc 9f 3c 38 3b d9 61 69 3c
       0.0043670884 -0.02946977 0.0028112305 0.01424452
000160 3b e4 22 3d 1d 4c 58 3d 4d 0f e8 bb cf fa 7d 3c
       0.03976844 0.052806962 -0.007081902 0.015501692
000170 68 16 39 bd 23 43 60 bc 2b f7 33 bd 27 2b b0 bc
       -0.045187384 -0.013687882 -0.04393689 -0.021504952
000180 8f f3 2f 3d 2c 90 a0 bc c6 da 28 3d 90 8d 52 bd
       0.042956885 -0.019599997 0.041224264 -0.051404536
000190 de cf 26 bd 29 95 30 bd bd 5e 38 bd a7 fe 09 3d
       -0.04072558 -0.043111 -0.045012224 0.03369012
0001a0 03 c5 93 3c 49 30 f3 bc f6 7d 0b bd ca 25 25 3d
       0.018038278 -0.02968611 -0.034055673 0.04031924
0001b0 9d c6 32 3d 34 c6 83 3c 89 df e0 3c d5 07 88 bc
       0.043646444 0.016085722 0.02745034 -0.016605297
0001c0 ec c7 14 3d ab 36 27 bc ea e7 5c bc 09 b6 9c 3c
       0.036323473 -0.010205905 -0.013483027 0.01912977
0001d0 31 30 ce 3c da 7e ed 3c b3 ed e3 3c bb 31 24 3d
       0.025169464 0.028991152 0.027823305 0.04008649
0001e0 8f 86 eb bb 36 43 ef bc c0 35 86 bc 7b 86 0d 3d
       -0.0071876715 -0.029206853 -0.016383052 0.03455208
0001f0 16 31 28 bd 88 f7 b6 bc f2 31 f9 3c ce 3a 1e bc
       -0.041062437 -0.022334829 0.030419324 -0.009657575
000200 5a 35 bf bc a2 f5 80 bc a8 ec 42 3d ba 81 12 bd
       -0.02334087 -0.015742127 0.047588974 -0.03576825
000210 a7 56 32 bd 8e c2 9e 3c ed 28 2e 3c ec 4e 25 bb
       -0.04353967 0.01937988 0.010629875 -0.0025224043
000220 8f 42 fc 3c a7 97 8b 3c 56 d7 31 3d b7 99 33 3d
       0.030793456 0.017040087 0.04341825 0.043847766
000230 8d f5 0d 3d 9e 1a aa 3c 07 4e 1c bd 0c 87 cf bc
       0.034658004 0.020764645 -0.03816035 -0.02533295
000240 61 c1 4a bc 62 3e 8f ba 00 8c e9 39 b2 b0 e3 3c
       -0.012375207 -0.0010928626 0.0004454553 0.027794216
000250 20 00 14 bd 8f 1e 23 3a 27 73 dc bc 2b 2c 1e 3c
       -0.03613293 0.000622251 -0.026910378 0.009654085
000260 60 cf 00 bd ba 02 2c 3c 7c 34 31 bd 9c 55 d9 bc
       -0.03144777 0.010498697 -0.043262944 -0.02653008
000270 c9 12 da 3c fe 01 58 bc df 77 23 bd 6a e5 84 bb
       0.026620286 -0.013184069 -0.03990924 -0.0040556686
000280 ae 67 c0 3c 89 99 e4 b6 c9 11 14 bd da 94 b9 3b
       0.023486938 -6.8128033e-06 -0.036149774 0.0056634964
000290 22 65 57 bd 0c 92 79 3c 70 6c e6 bc c9 1a 14 3d
       -0.052586682 0.015232574 -0.028127879 0.036158357
0002a0 d9 17 96 3b f5 56 11 bd 47 cc 05 3d 5e 0f 2b bd
       0.0045804796 -0.03548332 0.032665517 -0.041762702
0002b0 9f 7d 2d 3d 29 d6 99 3c 53 fb a5 3c 9d 19 c2 3c
       0.04235613 0.018778877 0.020261442 0.023693854
0002c0 00 ed 0d bd 77 d3 0e 3c c2 0f 28 bd 89 bd 85 bc
       -0.03464985 0.008717409 -0.041030653 -0.016325729
0002d0 f0 44 20 bd 24 51 44 bc ae 13 03 3c 29 1d 2f bd
       -0.039128244 -0.011982236 0.0080002975 -0.04275242
0002e0 c7 bc cf 3a f6 dc b8 3c 40 53 bc 3c 51 c6 b5 bc
       0.0015849107 0.0225663 0.022988915 -0.022189291
0002f0 44 ac 2e bd 63 21 f5 bc 07 cb a3 3c 47 4d 73 bb
       -0.042644754 -0.029923147 0.019994272 -0.0037124918
000300 ca f2 0b bd 09 02 64 3c d5 1b e5 bc e8 fa 93 3c
       -0.03416709 0.013916501 -0.027967373 0.018063977
000310 4b c3 4f bd 4b a2 70 3c 1c 21 6d 3c a2 88 b9 bc
       -0.050723355 0.014687131 0.014473226 -0.02264816
000320 57 08 16 3d 35 89 11 3d c0 eb 43 3d 26 89 96 bb
       0.036629047 0.03553124 0.04783225 -0.004593986
000330 08 4a 9c bc 58 f4 12 bd a4 ec 23 bd 7d b3 4b 3c
       -0.01907827 -0.035877556 -0.0400206 0.01243293
000340 6f 85 4f bd f7 03 f2 bc e1 70 44 3d d5 1a e6 bc
       -0.05066436 -0.029542906 0.047959212 -0.028088966
000350 ff f8 f0 3c 79 88 32 3d 60 6e 35 bc f8 25 19 3d
       0.029415606 0.04358718 -0.011073679 0.037389725
000360 b0 24 f4 3c 9a 26 d4 bb 33 a4 b2 bc 3a a8 be bc
       0.02980265 -0.006474328 -0.021806812 -0.023273576
000370 5b 1b 2f bb 48 da 1b 3d 96 39 48 3c e2 bd 1b bd
       -0.0026719186 0.038049966 0.012220761 -0.038022883
000380 a6 e5 fc 3c d9 0f 94 bc 7b a1 7e 3c ae e9 42 bd
       0.030871224 -0.018073963 0.01554143 -0.047586136
000390 05 d9 18 bd 66 2d 14 3c a5 e8 35 3b f6 4a c7 bb
       -0.03731634 0.009044027 0.0027757075 -0.006081934
0003a0 9a ed 9d 3a 7e 58 35 3d 22 dd 02 3d 36 9a d1 bc
       0.001204896 0.044273846 0.03194917 -0.025586229
0003b0 65 ce c0 3b 00 3e ec 3b c3 e1 13 bd 76 fa b1 3c
       0.005883979 0.0072095394 -0.036103975 0.021725874
0003c0 f0 f1 3b 3d 6a 51 40 bd 5b 8f 99 bc 61 3c 17 bd
       0.045885026 -0.046952643 -0.018745115 -0.036922816
0003d0 92 05 ed 3b d2 55 bb bb 08 18 0e bd ef 5c f3 3c
       0.00723333 -0.0057170177 -0.034690887 0.0297074
0003e0 3b ea 05 3d dd f8 9e 3c 56 3e f0 bc fc 1e 48 bd
       0.032694083 0.019405777 -0.0293266 -0.048857674
0003f0 f5 71 3d 3d 9a a3 16 bd 80 62 95 3c 92 1d 6a bc
       0.046251256 -0.036777116 0.018235445 -0.014289277

bias f4 [200]
000000 22 ae 19 bd b2 2c ca 3c 7c f3 61 bc 24 a0 a9 3c
       -0.03751958 0.024679516 -0.013790961 0.020706244
000010 c7 bf 48 bd d0 ad 8f bc 7f 7e 04 3d e5 f5 19 3d
       -0.049011018 -0.017538935 0.0323472 0.03758802
000020 8f 4d 75 3b 4d 33 ed 3b a9 44 27 3d 01 96 d1 bc
       0.0037430262 0.0072387815 0.040836964 -0.025584223
000030 52 11 32 3d 98 de 36 3c fd 3b 2e 3d ab ec 73 3d
       0.04347355 0.011161469 0.042537678 0.059551876
000040 3e c3 46 bb ac 87 0e 3c fa 6a f3 ba 33 ff 55 bd
       -0.0030328776 0.008699339 -0.001857131 -0.05224533
000050 ce f8 10 3d d2 6e a7 bc 22 52 94 bc c0 71 f8 bc
       0.03539353 -0.020438585 -0.01810557 -0.030327678
000060 35 8d b5 bc d5 c4 b3 bc 87 b6 07 bd 84 62 84 bc
       -0.02216206 -0.021944443 -0.033133056 -0.016160257
000070 a0 f7 35 bb 2a e9 d6 bc 39 ee 51 bd cf 68 1e bd
       -0.0027766004 -0.026234228 -0.051252577 -0.038674172
000080 db b3 c0 bc 3c 90 01 3d fb 22 4c bc 12 da 55 3d
       -0.023523262 0.031631693 -0.012459512 0.05220992
000090 04 df c3 bc 44 8c 1d bb 1e 00 cf ba df f9 be 3c
       -0.023910053 -0.0024039904 -0.0015792882 0.023312507
0000a0 27 f3 84 3d bc 84 09 3d a1 6c 99 3b 14 09 af 3c
       0.0649169 0.03357385 0.004682139 0.021366633
0000b0 03 49 58 bc 2f 0d 43 bc ca f1 4a 3d 55 7e 3c bd
       -0.013201001 -0.011904999 0.049546994 -0.046018917
0000c0 92 21 09 bd 34 a2 75 3c c7 d4 11 3d 82 9e ed 3b
       -0.03347928 0.0149922855 0.03560331 0.0072515616
0000d0 10 1d 44 3d 65 ab e6 bc 53 7c 8c bc c4 3d 09 3d
       0.04787928 -0.0281579 -0.017149126 0.03350617
0000e0 22 45 3f 3d 82 e2 b2 39 0e 37 2a bd da 31 c0 ba
       0.04669679 0.00034119567 -0.04155641 -0.0014663294
0000f0 16 61 75 bc 8e aa 10 bc 0f 24 ea bc f3 30 9d bc
       -0.01497676 -0.008829726 -0.028581647 -0.01918838
000100 41 1d 03 bd 4e cc f3 3c a1 b3 16 3d b2 8c 4d 3d
       -0.03201032 0.029760506 0.0367924 0.050183006
000110 3d 42 7a 3d c8 dc 2b 3a 0a bb 0c 3c ab d0 2e 3b
       0.061098326 0.00065560313 0.008589515 0.0026674669
000120 c0 cb b9 3c a0 56 ae bb 7c 72 f2 bc 2b 15 c0 bc
       0.022680163 -0.005320385 -0.029595606 -0.023447594
000130 68 ed 29 3d 7e b1 d2 3c 18 6d 17 bd 3c fb c4 bc
       0.041486174 0.0257194 -0.036969274 -0.02404558
000140 ac bd fe 3c a6 50 7b 3d ee de ab bb 0b 77 c9 3a
       0.031096302 0.06135621 -0.005245081 0.001537056
000150 07 db 77 3c 33 42 9d bc bb 07 b4 bc ee be 84 3c
       0.015127904 -0.019196605 -0.021976342 0.016204324
000160 a4 49 a5 3c 00 8e 02 bd 0c 05 0a 3d b4 3e dd 3c
       0.020176716 -0.031873703 0.03369622 0.027007438
000170 8d b9 ca bc ba 11 92 bb b8 be 4e 3c ce f7 70 3c
       -0.02474668 -0.0044576796 0.012618713 0.014707519
000180 ed fa 64 bc 3b b5 58 3d a9 fd 74 3c 88 8e 42 bb
       -0.013975841 0.05290721 0.014953055 -0.0029687006
000190 9b 45 35 bc d4 25 c7 bc 0a 25 98 bc 46 1d 40 3d
       -0.0110639585 -0.02431003 -0.01857235 0.046902917
0001a0 94 4b cc 3b 10 e2 1d 3c 2f 56 e0 bc ff 51 e1 3c
       0.0062345956 0.009636417 -0.027384846 0.02750492
0001b0 37 cc 77 3c 76 30 c6 bc 09 17 21 3d 28 78 19 3d
       0.015124372 -0.02419303 0.03932861 0.037468106
0001c0 62 c5 fb bc 6e 87 70 3d 26 f7 25 3d 6f 6a 9b bc
       -0.030733768 0.058722906 0.040518902 -0.01897165
0001d0 ce 8d 2e 3c a4 ef 6d 3c d5 e0 6d 3c 6a 0f 5b 3b
       0.010653926 0.014522467 0.014518936 0.0033425936
0001e0 76 28 1d bc 3f 7b c5 bb 41 20 de 3b 4e c5 4b 3d
       -0.009592166 -0.006026655 0.0067787473 0.04974871
0001f0 00 ee 9a bb f6 9b 18 3d 0b e7 12 3c 92 6d bb bc
       -0.004728079 0.03725811 0.008966218 -0.022879396
000200 aa ab a2 bc fa 5a fc bc f4 be 22 3c 26 66 ee ba
       -0.019857246 -0.0308051 0.009933222 -0.0018188402
000210 03 8a 98 bc 96 0a e7 bc bc c6 33 bd 7d 5d a8 bc
       -0.018620497 -0.02820329 -0.0438907 -0.020552391
000220 ea a2 cf bc 73 ee 11 3d 2a 7a 66 3b 2c bd 81 3d
       -0.025346238 0.035627794 0.003516803 0.0633491
000230 56 68 e2 bc 6b 3f 0a bd 53 bf b5 bc 2a 8e 80 3a
       -0.027637642 -0.033751886 -0.022185957 0.0009807993
000240 bc ba 2a 3d 11 ef 48 bc 37 de 12 3d fd 01 31 3d
       0.04168199 -0.012264029 0.03585645 0.043214787
000250 d3 b7 89 3d c0 4b 2f 3d 93 26 59 bd d8 73 0f 3d
       0.06724515 0.04279685 -0.053015303 0.035022587
000260 5c 3e 8b 3d c8 20 bc 3a a0 d7 bf bc d5 9b 31 bd
       0.067990035 0.0014353031 -0.023418248 -0.043361504
000270 25 9e 05 3c ac 02 75 bc be 2b 39 bd 9c f9 3e 3d
       0.00815538 -0.01495425 -0.04520773 0.046624765
000280 a2 37 4f 3c 56 18 a6 3c 26 93 90 bc 2f a6 13 3c
       0.012647541 0.020275276 -0.01764829 0.009011789
000290 2f be c5 bc 1c 45 81 3d 38 7c d0 bb 2e b2 78 3c
       -0.024138538 0.0631201 -0.0063624643 0.0151792
0002a0 ea d5 36 3c 0a c7 03 bd 80 72 d6 3c e2 17 6e 3d
       0.0111593995 -0.03217224 0.026177645 0.058128245
0002b0 1d 65 d4 bb 6e 25 1c bc b9 5b 83 3d 62 af ab bc
       -0.00648178 -0.009530408 0.06413979 -0.020957652
0002c0 e5 18 8f 3c 9e 2e b2 bc c4 b6 24 3d 9c ca 33 3d
       0.017467925 -0.021750744 0.04021336 0.043894395
0002d0 c2 84 1c 3d de 6c da 3c b2 ee 18 3c c4 c3 3e 3b
       0.038212545 0.02666324 0.009334253 0.0029108385
0002e0 b1 6c 32 bd 63 77 e2 3b ec 68 24 3d 1a 1a 52 3d
       -0.043560687 0.0069112047 0.040139124 0.051294424
0002f0 27 02 32 3d 3a a5 25 3d 78 34 6c 3d 51 c2 c9 bc
       0.043459084 0.040440775 0.057667226 -0.02462879
000300 a4 98 07 3d 33 c6 53 3d cc 4b 60 3d d9 70 8f bb
       0.033104554 0.05170269 0.054759786 -0.004377466
000310 92 c3 09 3d 6a ab e2 3c 45 da 01 3c f2 78 37 bd
       0.033633776 0.027669627 0.007925575 -0.044793077
