lab2/problem3/neural-network-3-actor-gamma-1.pth (torch, 664397 bytes, 10 tensors)

weight f4 [400, 8]
0.17357108 0.31497386 0.1696643 -0.10525387 -0.33227274 0.30511364 -0.31961286 0.3310113
0.11553976 0.1342088 0.12233157 0.120527886 -0.20229697 0.21145509 0.20445684 -0.09436404
0.09855492 -0.28508133 0.10604134 -0.22921853 -0.16923314 -0.35393703 0.12489084 0.09478578
-0.30986166 0.31095046 -0.11300752 -0.32455924 0.00873353 0.23080513 0.29985282 0.16116308
-0.013606026 -0.1827641 -0.2538393 -0.15048915 -0.26980287 -0.16020752 0.24767725 0.030626666
0.19552952 0.16704133 -0.038064666 -0.0048388457 0.11403826 -0.23677033 0.21909139 0.15396579
-0.123681866 0.13088559 0.042764198 0.040650416 -0.21648458 0.18480362 0.24266644 0.011995962
-0.054157298 0.19613749 -0.22884056 -0.30973506 -0.34381786 0.022313198 0.10099848 0.2017297
0.16996144 0.20168309 0.29258588 -0.2233553 0.009905606 0.06908888 0.04197031 0.13354185
0.31136912 -0.12332146 -0.183488 0.0075567644 -0.118022814 0.11594962 0.025314307 0.17364846
0.1394808 -0.16721821 -0.14370425 0.22272412 -0.0423438 0.023151547 -0.18223652 -0.1315703
0.18369891 -0.25873902 0.270335 0.062101834 0.120219834 -0.269258 0.054141533 -0.15775035
-0.08876016 -0.12637886 -0.27489847 0.2599014 0.053727314 0.3606355 -0.096963495 -0.25689235
-0.06764373 0.30766463 0.3269442 -0.084639914 -0.24036382 -0.35587224 -0.13924143 -0.10883186
0.057839364 0.1765302 -0.27061924 0.15269728 0.21436933 -0.2503614 -0.336829 -0.3162202
0.1615504 -0.27712983 -0.21003424 -0.18477298 0.15293439 -0.06588034 -0.10617268 0.24027595
0.22928193 0.2418662 0.039092816 0.17947318 0.273906 -0.092973985 0.055808 -0.20781758
-0.0032421993 -0.17483568 -0.03759572 -0.3430198 0.18004926 -0.28628203 0.067617744 0.10166044
0.20692861 0.050725356 0.07602919 0.042516265 4.382697e-05 -0.13979353 0.11829905 0.20182154
0.30997995 0.20310576 0.09199364 0.31199113 -0.18581478 -0.043903675 0.23260118 0.2428116
-0.018965837 0.21138792 -0.03731363 0.017958898 0.35851824 -0.22907767 0.162388 -0.29537773
0.06342763 0.14485553 0.30506033 0.007046846 -0.13686457 -0.28598073 0.29855043 0.13011526
0.073062815 -0.10141899 -0.32134992 -0.13814712 0.029552858 -0.30851966 -0.24612726 0.18956774
-0.0030869914 -0.32016873 -0.0561413 0.21660033 -0.005352522 -0.2795898 -0.057031542 -0.09812094
0.027076833 0.3423313 -0.26995873 -0.18312012 0.07499911 -0.008418624 -0.33263457 -0.13795628
-0.23407193 0.19366655 -0.037612617 0.17464095 0.037401248 -0.28013155 0.23851858 -0.20125268
-0.32582822 0.043574974 0.013821721 -0.3303166 -0.24846086 0.07580268 -0.12890248 0.18615994
-0.0006846287 -0.010959048 -0.25342038 -0.12532751 0.33392158 -0.052756142 -0.2836261 0.28497502
-0.08637006 0.323957 0.13685162 0.2346095 -0.21200699 0.06783265 0.3059017 0.18104875
0.2435732 0.04817384 -0.2569958 0.24602503 -0.22053905 0.31580845 0.055401657 0.14367658
-0.2163803 0.2870445 0.2709979 0.054212287 0.024414739 -0.22472015 -0.2888911 0.08743618
0.31337488 -0.1734974 -0.16619465 -0.1454123 -0.23874293 0.2584742 0.2212377 -0.15605216
00000000: 9ebc 313e 4144 a13e 7abc 2d3e 578f d7bd
00000010: a71f aabe db37 9c3e 4ca4 a3be 507a a93e
00000020: 1ca0 ec3d 086e 093e f988 fa3d 53d7 f63d
00000030: f026 4fbe af87 583e 225d 513e ef41 c1bd
00000040: 29d7 c93d 2ef6 91be 342c d93d 43b8 6abe
00000050: 744b 2dbe 3c37 b5be c5c6 ff3d 0c1f c23d
00000060: 30a6 9ebe e634 9f3e 7d70 e7bd a12c a6be
00000070: 1417 0f3c 2e58 6c3e 4f86 993e ef07 253e
00000080: cfeb 5ebc 8326 3bbe 3af7 81be d419 1abe
00000090: 9a23 8abe 710d 24be 1b9f 7d3e c6e4 fa3c
000000a0: e438 483e e20c 2b3e b2e9 1bbd 2e8f 9ebb
000000b0: e48c e93d ec73 72be 7e59 603e 35a9 1d3e
000000c0: eb4c fdbd df06 063e 8329 2f3d 0d81 263d
000000d0: 22ae 5dbe 293d 3d3e 8d7d 783e b68a 443c
000000e0: 0bd4 5dbd 44d8 483e 2e55 6abe 9895 9ebe
000000f0: e508 b0be 2bca b63c 4bd8 ce3d 3b92 4e3e
00000100: 5f0a 2e3e 0386 4e3e d1cd 953e 40b7 64be
00000110: 1f4b 223c 797e 8d3d 0fe9 2b3d 32bf 083e
00000120: c66b 9f3e f68f fcbd 47e4 3bbe bc9e f73b
00000130: f2b5 f1bd ff76 ed3d f35f cf3c e7d0 313e
00000140: 0ed4 0e3e 403b 2bbe 3527 13be cb11 643e
00000150: b170 2dbd 50a8 bd3c 369c 3abe 5dba 06be
00000160: 911b 3c3e 7179 84be 5969 8a3e 7e5e 7e3d
00000170: d135 f63d 2fdc 89be 83c3 5d3d 4f89 21be
00000180: e3c7 b5bd 7669 01be 7ebf 8cbe cc11 853e
00000190: 2c11 5c3d 37a5 b83e cc94 c6bd 6587 83be
000001a0: cc88 8abd 3886 9d3e 3b65 a73e b157 adbd
000001b0: ef21 76be e334 b6be 4e95 0ebe 3de3 debd
000001c0: f8e8 6c3d 55c4 343e 9b8e 8abe ad5c 1c3e
000001d0: a283 5b3e 5f2f 80be da74 acbe 9de7 a1be
000001e0: 786d 253e f6e3 8dbe 3713 57be 2135 3dbe
000001f0: d59a 1c3e 46ec 86bd 1071 d9bd e60a 763e
00000200: e2c8 6a3e c6ab 773e ca1f 203d d1c7 373e
00000210: 683d 8c3e 2569 bebd ee96 643d 22ce 54be
00000220: 147b 54bb 2008 33be f8fd 19bd 4ba0 afbe
00000230: d55e 383e 8f93 92be 2c7b 8a3d 5933 d03d
00000240: 18e5 533e 64c5 4f3d 31b5 9b3d 8925 2e3d
00000250: dad2 3738 0926 0fbe c646 f23d 4eaa 4e3e
00000260: b1b5 9e3e f5fa 4f3e 2967 bc3d 4dbd 9f3e
00000270: 3b46 3ebe 57d4 33bd 012f 6e3e 9ba3 783e
00000280: 3e5e 9bbc 1376 583e 2dd6 18bd 8a1e 933c
00000290: b48f b73e 5693 6abe 0a49 263e c03b 97be
000002a0: 58e6 813d 0255 143e de30 9c3e 3be9 e63b
000002b0: 3a26 0cbe 116c 92be 9adb 983e ef3c 053e
000002c0: f5a1 953d c2b4 cfbd fa87 a4be 7076 0dbe
000002d0: d618 f23c 4af6 9dbe c908 7cbe 0c1e 423e
000002e0: 1f4f 4abb 28ed a3be 6bf4 65bd 7acc 5d3e
000002f0: 3564 afbb 6526 8fbe e899 69bd a2f3 c8bd
00000300: 3cd0 dd3c 0c46 af3e 0838 8abe d783 3bbe
00000310: 2299 993d 45ee 09bc 144f aabe 6944 0dbe
00000320: 8db0 6fbe 8650 463e b00f 1abd 14d5 323e
00000330: 0d32 193d 676d 8fbe 373e 743e 2f15 4ebe
00000340: f5d2 a6be ac7b 323d 8074 623c 421f a9be
00000350: 866c 7ebe 6f3e 9b3d 03ff 03be b6a0 3e3e
00000360: a878 33ba 948d 33bc 51c0 81be db55 00be
00000370: c5f7 aa3e d316 58bd 7137 91be 3fe8 913e
00000380: c9e2 b0bd b1dd a53e d522 0c3e 793d 703e
00000390: 5c18 59be d8eb 8a3d 269f 9c3e d864 393e
000003a0: 416b 793e ef51 453d f494 83be fced 7b3e
000003b0: fdd4 61be a5b1 a13e d9ec 623d f41f 133e
000003c0: cc92 5dbe 7ff7 923e 3dc0 8a3e b40d 5e3d
000003d0: 6b01 c83c 0a1d 66be 89e9 93be bd11 b33d
000003e0: ac72 a03e 4da9 31be ee2e 2abe f6e6 14be
000003f0: 0779 74be bb56 843e 238c 623e 23cc 1fbe

bias f4 [400]
0.118242905 -0.047300205 0.0021596358 -0.26391813 -0.19375566 0.289408 0.17299698 -0.012125832
-0.01976507 0.11402975 0.073244885 -0.04373469 0.35921952 0.030591855 -0.16814466 -0.021658912
-0.27699435 0.074967876 -0.33949274 0.12601583 0.15386584 0.2972269 0.18974973 -0.27023017
-0.3472347 -0.3315213 0.30758843 -0.20390049 -0.21262096 -0.25319487 -0.07538572 -0.029389538
-0.16697574 0.02956986 0.12762254 0.04592168 0.24668944 0.34332392 0.29691428 -0.08893461
-0.047514897 -0.058069605 0.13287236 0.012145709 -0.016014736 0.21859133 -0.16558261 0.18554643
0.08616702 0.29223788 -0.20194188 0.18132964 0.09923774 -0.14997396 0.3403391 0.35898036
-0.25009146 -0.3093381 0.053821042 0.137027 -0.04327956 -0.27190432 0.037171476 0.20664978
-0.30606207 0.29966822 0.032673962 -0.26525322 0.023631342 -0.054393444 -0.31758928 0.11794485
0.25258332 0.05317126 -0.26467365 -0.2796394 0.1663605 -0.3152525 0.16072087 -0.32919973
0.08131928 0.23616698 -0.26540107 -0.02998477 0.1404995 -0.23781721 -0.249766 -0.0059411055
0.2145542 0.08193801 0.22355862 0.06502538 -0.16922083 0.034241956 -0.27059236 -0.31797612
-0.24562238 -0.05226406 -0.31449485 0.14130862 -0.3282665 0.23587877 -0.119890414 0.3436698
0.3382625 0.10437374 0.33493686 0.090991564 -0.24818078 -0.043937728 -0.20135023 -0.061917037
0.134265 0.34880948 -0.0029247662 0.02906627 -0.33788756 0.26927212 -0.044824775 -0.1656469
-0.08649859 -0.09327732 0.013507348 0.24721625 -0.025697835 -0.019671567 0.2120096 0.13045138
0.18159714 -0.049488317 -0.06943452 0.13497415 -0.30913603 0.248797 0.0927849 -0.2218673
0.29286605 -0.24579033 0.04841221 -0.06019523 0.30232 0.0084219435 -0.034324076 -0.04146865
-0.1341392 0.086542636 0.02414155 -0.19375199 0.02647048 0.073327586 0.3410418 -0.017316561
-0.17903493 0.17323656 0.2095939 -0.12798193 0.22342922 0.023198707 0.094246484 -0.33767083
-0.054951686 0.18936464 0.27714035 0.26296294 0.19805267 -0.052384946 -0.16107729 0.18308316
-0.11050187 0.22245136 0.27520108 -0.025544072 0.14406927 0.34728366 -0.32310134 -0.21680532
0.10329771 -0.045167185 -0.11022169 -0.061309736 -0.022044668 0.1602488 -0.17614794 -0.3135016
-0.08349177 0.34381005 -0.14122 0.33537623 -0.076556526 -0.2690035 -0.18600155 0.029925343
-0.08694758 -0.21251671 -0.2339351 0.16373572 0.025799317 0.09682213 -0.3439666 -0.25805965
-0.29982242 0.0050160973 -0.082540005 -0.27297887 0.20156275 0.29516676 -0.19978063 0.322366
0.22438203 -0.09131855 -0.12931757 0.17142643 0.20739344 0.060851384 0.24788368 0.26255038
0.058527734 0.27970803 -0.032213185 0.0057244874 0.04372308 0.114430204 0.19362737 -0.11382468
-0.15844522 0.21717398 -0.016580457 -0.3357451 0.11463611 -0.349902 0.0008628571 0.14729048
0.0934648 0.3477781 0.18079613 -0.18745258 -0.30179572 -0.1462319 0.29213375 0.34136468
0.11038958 0.041034427 -0.07633193 0.016899852 0.029212145 0.36622855 -0.15276387 0.13954175
-0.07704709 0.15629038 0.06907315 0.30576983 -0.13934498 0.18101452 0.3048053 -0.32553092
00000000: 5629 f23d dcbd 41bd ad88 0d3b 4720 87be
00000010: e267 46be 492d 943e 1f26 313e 6dab 46bc
00000020: 5bea a1bc 6e88 e93d 6a01 963d 2523 33bd
00000030: 9feb b73e c59b fa3c 1d2e 2cbe 086e b1bc
00000040: 34d2 8dbe c288 993d fed1 adbe 4b0a 013e
00000050: 028f 1d3e 202e 983e c14d 423e 9c5b 8abe
00000060: bfc8 b1be 29bd a9be 3b7c 9d3e 4acb 50be
00000070: 4fb9 59be c2a2 81be d463 9abd 54c2 f0bc
00000080: b0fb 2abe 7e3c f23c 7caf 023e 5f18 3c3d
00000090: 289c 7c3e 27c8 af3e 2605 983e 5923 b6bd
000000a0: fb9e 42bd 65da 6dbd b10f 083e ccfe 463c
000000b0: 5631 83bc 68d6 5f3e 7d8e 29be e2ff 3d3e
000000c0: 5678 b03d 34a0 953e dac9 4ebe 7aae 393e
000000d0: 283d cb3d c692 19be ed40 ae3e 46cc b73e
000000e0: fd0b 80be 9061 9ebe 7473 5c3d ce50 0c3e
000000f0: e845 31bd 0b37 8bbe 1e41 183d 009c 533e
00000100: 2bb4 9cbe 1d6e 993e 22d5 053d 45cf 87be
00000110: 8496 c13c a9cb 5ebd 109b a2be 128d f13d
00000120: 9a52 813e 1bca 593d 4e83 87be e52c 8fbe
00000130: 685a 2a3e c768 a1be 0394 243e de8c a8be
00000140: b98a a63d c2d5 713e a6e2 87be 9fa2 f5bc
00000150: 1adf 0f3e 5b86 73be a9c2 7fbe 9bad c2bb
00000160: 19b4 5b3e 1ecf a73d 8dec 643e 072c 853d
00000170: 3a48 2dbe 4b41 0c3d 158b 8abe c4cd a2be
00000180: 6f84 7bbe d712 56bd 7805 a1be 35b3 103e
00000190: 8c12 a8be 348a 713e 1b89 f5bd 7df5 af3e
000001a0: be30 ad3e e6c1 d53d d87c ab3e c959 ba3d
000001b0: 1a23 7ebe 0cf8 33bd c12e 4ebe b89c 7dbd
000001c0: c47c 093e 2897 b23e 6fad 3fbb 631c ee3c
000001d0: 99ff acbe 09de 893e 2f9a 37bd 579f 29be
000001e0: 2c26 b1bd 2e08 bfbd ec4d 5d3c 4226 7d3e
000001f0: 4484 d2bc 4426 a1bc 0b19 593e 0c95 053e
00000200: 9af4 393e 43b4 4abd b033 8ebd aa36 0a3e
00000210: 1447 9ebe a4c4 7e3e 0206 be3d 2e31 63be
00000220: 8af2 953e 76b0 7bbe e24b 463d 468f 76bd
00000230: b0c9 9a3e 31fc 093c 6797 0cbd 08db 29bd
00000240: c95b 09be 443d b13d 80c4 c53c ec66 46be
00000250: 9fd8 d83c c62c 963d 089d ae3e 76db 8dbc
00000260: ef54 37be ed64 313e c99f 563e b20d 03be
00000270: a1ca 643e 370b be3c 4d04 c13d 31e3 acbe
00000280: 0515 61bd cee8 413e 57e5 8d3e 14a3 863e
00000290: 52ce 4a3e 9991 56bd 72f1 24be 277a 3b3e
000002a0: ce4e e2bd 4aca 633e 28e7 8c3e cd41 d1bc
000002b0: e586 133e 2acf b13e 8a6d a5be 3702 5ebe
000002c0: c08d d33d 3a01 39bd e9bb e1bd eb1f 7bbd
000002d0: 0597 b4bc 4318 243e 2060 34be 4883 a0be
000002e0: bcfd aabd df07 b03e fa9b 10be 6fb6 ab3e
000002f0: abc9 9cbd d4ba 89be 3177 3ebe fe25 f53c
00000300: 9311 b2bd fb9d 59be af8c 6fbe 56aa 273e
00000310: 1759 d33c ae4a c63d 641c b0be 6520 84be
00000320: 5382 99be 135e a43b bc0a a9bd e3c3 8bbe
00000330: 7766 4e3e 1920 973e 4b93 4cbe 280d a53e
00000340: 67c4 653e 3805 bbbd d36b 04be 698a 2f3e
00000350: f25e 543e 4d3f 793d 38d5 7d3e 016d 863e
00000360: c7ba 6f3d e435 8f3e f9f1 03bd 7b94 bb3b
00000370: f916 333d 625a ea3d 4146 463e ea1c e9bd
00000380: 773f 22be db62 5e3e bdd3 87bc c8e6 abbe
00000390: 56c6 ea3d 5b26 b3be 5c31 623a 51d3 163e
000003a0: 796a bf3d f90f b23e 9f22 393e 92f3 3fbe
000003b0: f884 9abe d1bd 15be 8e92 953e 5ac7 ae3e
000003c0: ef13 e23d b713 283d ea53 9cbd 8f71 8a3c
000003d0: 4f4e ef3c 4f82 bb3e 226e 1cbe 08e4 0e3e
000003e0: ddca 9dbd 960a 203e 3976 8d3d dd8d 9c3e
000003f0: 73b0 0ebe df5b 393e 710f 9c3e fdab a6be

weight f4 [200, 400]
0.04901122 0.030316 0.0054581035 -0.033560917 -0.037821956 -0.023172628 0.04154713 -0.0435654
-0.03546667 0.031425167 0.016287278 -0.026416602 -0.01993215 -0.012102636 0.008039905 -0.034387846
-0.030315164 0.048507918 0.042645693 -0.044572435 0.006637951 -0.0075599863 -0.045743205 -0.0067206146
0.04564571 -0.025351029 -0.029260742 0.014747997 -0.03045918 0.010602391 0.023573278 0.027349824
0.028048126 -0.0031880974 -0.0315743 0.03673478 0.022272304 -0.043540336 -0.029346755 -0.04073891
0.0208959 -0.0065993546 -0.040250227 0.03728889 0.0043544183 -0.021113921 -0.021353291 0.0045487247
-0.035584375 -0.014253736 -0.017145311 0.025540572 0.022476422 0.025202777 -0.04314746 0.056330964
0.0072775614 -0.04211033 -0.04766018 0.015910713 -0.0020794163 -0.0028376835 -0.040438984 0.008748583
0.013163425 -0.033705987 0.022047237 0.011121331 0.04422999 0.010540604 0.031194257 0.05360951
-0.00064111844 0.010469079 -0.03234346 -0.0073200474 -0.032238476 0.0058652707 -0.0041942657 -0.0040397826
0.041816197 -0.031930223 0.021057004 0.03040162 0.010539209 -0.024637178 0.018731399 -0.023557084
-0.028946856 0.031671803 -0.001368453 -0.027163554 -0.035428755 0.04130048 -0.01352989 -0.008034105
0.01349937 0.022569276 -0.012881344 -0.029459205 -0.019436702 0.045903232 0.0390081 -0.037020624
0.020485858 0.02242718 -0.0010796743 -0.036672365 -0.033386923 0.049224183 -0.0102500105 0.0069058216
0.05133525 0.026626794 -0.016673783 -0.010712795 -0.015795486 -0.038948614 0.04465499 0.005475749
0.020179326 -0.023478072 -0.033626225 0.053773116 -0.03483608 -0.017918412 0.009889293 -0.027485613
0.04145452 -0.034156084 -0.032880973 -0.023997879 0.012443502 -0.03988984 0.046106398 -0.040110707
-0.014052361 0.032581583 0.007527531 -0.045622163 -0.018400254 -0.0056286966 -0.010876061 0.03981017
-0.026959974 -0.0019316926 0.0067151203 0.034531303 -0.02899591 0.02198657 -0.019733462 -0.029820321
-0.029490521 -0.006591822 0.020983519 0.036357768 -0.011713979 0.054212146 0.008025692 0.023079574
0.005972779 0.028163606 -0.0021299515 -0.017787436 -0.006403167 0.026584191 -0.020271996 0.0048394348
0.05254754 -0.011725217 0.017719973 0.0026248323 -0.00063994166 -0.041977894 -0.044924825 0.036858864
0.015735913 0.039556637 0.054480597 0.00825973 -0.0049420353 0.00157021 0.008625089 0.0006756206
-0.051866785 0.018922951 0.042238176 -0.010178742 0.040375765 -0.039026666 -0.03795652 0.015764637
0.005204807 0.002433341 0.039419275 0.039890632 0.04715553 0.034283005 0.033489782 -0.040950306
-0.030710794 0.017536536 -0.029038148 0.032689955 -3.3490218e-05 0.026794525 -0.021574186 0.005133231
0.016418848 -0.035033554 0.01435528 -0.03195791 0.0006705822 -0.04093889 0.010042763 0.047868628
0.054561034 -0.044216048 -0.0154502345 -0.03786287 -0.02244185 0.048506044 0.042153485 0.0052910815
-0.046466615 0.033997066 -0.013487891 0.015060927 0.0227399 0.019823162 0.013524927 0.01971032
-0.032677896 -0.025662584 0.020215686 0.00859183 0.027607862 0.016923295 -0.03831429 -0.0035402086
-0.013363084 0.013535245 -0.033329986 -0.051432084 0.027624242 -0.0018889224 -0.039340165 0.050246693
0.008106168 -0.015210193 0.055372752 -0.043065034 -0.01020796 -0.023706255 0.0482681 0.017484711
00000000: fdbf 483d 4359 f83c e4d9 b23b 2c77 09bd
00000010: 32eb 1abd 86d4 bdbc 532d 2a3d a271 32bd
00000020: 8045 11bd adb7 003d e66c 853c a167 d8bc
00000030: c048 a3bc 224a 46bc ceb9 033c 45da 0cbd
00000040: 8257 f8bc 3db0 463d 40ad 2e3d 9691 36bd
00000050: 2b83 d93b c3b9 f7bb 3a5d 3bbd 9a38 dcbb
00000060: fff6 3a3d f6ac cfbc 39b4 efbc 95a1 713c
00000070: 8885 f9bc a7b5 2d3c bf1c c13c bd0c e03c
00000080: 2fc5 e53c 66ef 50bb 0e54 01bd 3577 163d
00000090: 6874 b63c 5a57 32bd 9b68 f0bc d8dd 26bd
000000a0: e12d ab3c 663f d8bb 6cdd 24bd 3cbc 183d
000000b0: 82af 8e3b 1af7 acbc 19ed aebc 780d 953b
000000c0: ecc0 11bd 8088 69bc 5374 8cbc 763a d13c
000000d0: 7920 b83c 0e76 ce3c 64bb 30bd 4cbb 663d
000000e0: 9c78 ee3b e27b 2cbd 5237 43bd 2f57 823c
000000f0: d146 08bb 6ef8 39bb 59a3 25bd 3756 0f3c
00000100: 68ab 573c 4a0f 0abd 689c b43c 3e36 363c
00000110: 822a 353d 7fb2 2c3c 198b ff3c a595 5b3d
00000120: bb10 28ba 8086 2b3c 937a 04bd 02dd efbb
00000130: 7e0c 04bd 7531 c03b 0d70 89bb 2760 84bb
00000140: 7647 2b3d 44c9 02bd bd7f ac3c d10c f93c
00000150: a5ac 2c3c e8d3 c9bc 9772 993c c9fa c0bc
00000160: f521 edbc 4bba 013d aa5d b3ba 1a86 debc
00000170: be1d 11bd b12a 293d 79ac 5dbc 7ba1 03bc
00000180: 762c 5d3c 34e3 b83c 460c 53bc 6e54 f1bc
00000190: b839 9fbc 0705 3c3d f5c6 1f3d f0a2 17bd
000001a0: f5d1 a73c 35b9 b73c dc83 8dba c335 16bd
000001b0: bac0 08bd 4c9f 493d a9ef 27bc 3b4a e23b
000001c0: e944 523d 6f20 da3c 7597 88bc b884 2fbc
000001d0: 8965 81bc 9588 1fbd 27e8 363d e96d b33b
000001e0: 1d4f a53c 1655 c0bc a7bb 09bd 3341 5c3d
000001f0: 47b0 0ebd a2c9 92bc b406 223c 8229 e1bc
00000200: 37cc 293d 40e7 0bbd 33ae 06bd 3397 c4bc
00000210: d5df 4b3c 8763 23bd 10da 3c3d 204b 24bd
00000220: e03b 66bc 4474 053d 82a9 f63b 4ede 3abd
00000230: 21bc 96bc ee70 b8bb 8231 32bc fd0f 233d
00000240: 2adb dcbc d930 fdba 830a dc3b b270 0d3d
00000250: d588 edbc 2e1d b43c 12a8 a1bc bf49 f4bc
00000260: 1b96 f1bc 3600 d8bb a1e5 ab3c e2eb 143d
00000270: fdeb 3fbc 8e0d 5e3d 317e 033c 6011 bd3c
00000280: 4db7 c33b 5db7 e63c a896 0bbb f5b6 91bc
00000290: a8d1 d1bb 17c7 d93c 7511 a6bc 1f94 9e3b
000002a0: 173c 573d 201b 40bc 7a29 913c 6105 2c3b
000002b0: c2c1 27ba 03f1 2bbd 1803 38bd 52f9 163d
000002c0: 9ae8 803c 2406 223d 0c27 5f3d d253 073c
000002d0: ccf0 a1bb 81cf cd3a 3f50 0d3c 221c 313a
000002e0: 4472 54bd 4e04 9b3c f001 2d3d bdc4 26bc
000002f0: 0f61 253d 6dda 1fbd 4c78 1bbd d724 813c
00000300: 168d aa3b b078 1f3b 1b76 213d 5c64 233d
00000310: 2826 413d 566c 0c3d 952c 093d 82bb 27bd
00000320: 3495 fbbc c8a8 8f3c 69e1 edbc e7e5 053d
00000330: d977 0cb8 3180 db3c 59bc b0bc aa34 a83b
00000340: d280 863c 587f 0fbd 6932 6b3c 4ce6 02bd
00000350: 02ca 2f3a 8aaf 27bd 678a 243c e511 443d
00000360: 647b 5f3d e31b 35bd fb22 7dbc 1916 1bbd
00000370: f8d7 b7bc 46ae 463d 22a9 2c3d cf60 ad3b
00000380: c753 3ebd 8240 0b3d 51fc 5cbc 1bc2 763c
00000390: 0749 ba3c 2f64 a23c a897 5d3c 8977 a13c
000003a0: 42d9 05bd 573a d2bc 5e9b a53c bfc4 0c3c
000003b0: e229 e23c b9a2 8a3c 72ef 1cbd d802 68bb
000003c0: d6f0 5abc efc2 5d3c 0685 08bd 73aa 52bd
000003d0: 3c4c e23c b895 f7ba 2723 21bd 7acf 4d3d
000003e0: bccf 043c 2c34 79bc 8ace 623d f664 30bd
000003f0: 4a3f 27bc 9f33 c2bc c5b4 453d 193c 8f3c

bias f4 [200]
-0.012648338 0.020547193 0.0045030513 -0.021825993 -0.019774199 -0.0194508 0.049563278 -0.025686555
0.014124439 -0.0115372585 -0.03806555 0.03708292 -0.0049630622 -0.0018069145 -0.04494983 0.040802136
-0.022916095 0.039696533 -0.019831153 0.008178596 -0.015116284 0.025810208 0.0047774836 0.007820771
-0.031015834 -0.023033539 -0.009856431 -0.030812358 -0.013613707 0.012043215 -0.0074366103 0.04027189
-0.044475287 -0.050586354 -0.027706623 -0.015734341 0.007094128 -0.023228414 -0.011852914 0.039323945
0.038886175 0.05170032 -0.009898997 -0.032483075 -0.03871167 0.0077558085 -0.017175592 -0.037710987
-0.014298565 0.037187807 -0.03738583 0.032076914 0.05098547 0.0237985 0.039846055 0.04490105
-0.024929235 0.040317364 0.0552772 -0.005623466 -0.039606504 0.020287685 0.0058209556 -0.003125934
-0.028783768 0.031542674 0.027414963 0.03545915 -0.004199057 0.04154151 -0.036958054 0.037621487
0.044827912 0.022771554 0.00034457908 -0.029769612 -0.027359745 0.047094204 0.03403782 -0.015894309
0.023759592 -0.04842908 -0.035025746 -0.0076448354 0.014658695 0.03656032 -0.025665231 0.021500284
-0.0041934876 -0.006143166 0.03412345 -0.040522117 -0.011808364 -0.03639738 -0.014212112 0.039433908
0.035585534 0.024602482 -0.004795315 0.042908713 -0.018171405 0.043616455 0.05063078 -0.012661486
-0.015601753 0.034525227 -0.020408247 -0.03291184 -0.014716127 0.004466438 -0.020452382 -0.052623186
0.004158649 0.0479976 0.030565742 0.009448145 -0.009252898 0.000293476 0.010028627 0.002852906
-0.017858436 -0.0010662556 -0.054690015 -0.0025635709 0.043497644 0.0462155 0.04755641 0.014074707
-0.0018820317 -0.023239268 -0.000203284 0.021007074 0.04045288 0.0460667 0.024118673 -0.014397464
-0.033602823 -0.0019489016 -0.021649322 -0.039057873 0.028034417 0.043073688 -0.036335446 -0.026115295
-0.036106244 -0.037893623 -0.006445327 -0.023661016 0.025020083 0.05139668 0.035696436 -0.014139707
-0.038207278 0.01152406 0.042615455 -0.03304362 0.0118197985 -0.045703016 -0.017448552 -0.027937165
-0.016031709 0.020729667 -0.009117457 0.04808597 0.048386626 -0.007973799 0.0059881806 0.027434325
-0.026459217 0.008193055 -0.013399129 -0.043586977 0.0164663 0.04119584 0.008601707 0.009953306
0.044408962 -0.029161192 0.007647155 -0.033729713 0.037899323 -0.04465875 -0.01663079 -0.035813693
0.046106983 -0.0018403877 0.02389936 0.0041133976 0.0040923017 -0.00049132283 0.0453933 -0.024965147
0.047187384 0.04292266 0.006656572 0.042522732 -0.016998442 0.045141544 -0.041338135 0.006388696
00000000: fa3a 4fbc 9652 a83c 558e 933b 6dcc b2bc
00000010: 80fd a1bc 4957 9fbc dd02 4b3d 9c6c d2bc
00000020: 316a 673c c506 3dbc 9fea 1bbd 43e4 173d
00000030: 2fa1 a2bb fdd5 ecba 501d 38bd 2420 273d
00000040: 89ba bbbc d598 223d f174 a2bc 85ff 053c
00000050: 4aaa 77bc ee6f d33c 708c 9c3b b122 003c
00000060: eb14 febc d5b0 bcbc de7c 21bc 336a fcbc
00000070: 070c 5fbc e850 453c cfae f3bb 23f4 243d
00000080: b82b 36bd a333 4fbd 00f9 e2bc 4ee5 80bc
00000090: dc75 e83b 8449 bebc b932 42bc 2512 213d
000000a0: 1c47 1f3d b7c3 533d 672f 22bc f90c 05bd
000000b0: 2190 1ebd 7024 fe3b d4b3 8cbc d676 1abd
000000c0: 8744 6abc 3e52 183d e221 19bd 1563 033d
000000d0: 24d6 503d 12f5 c23c 9e35 233d 2aea 373d
000000e0: 6538 ccbc d223 253d 586a 623d 0d45 b8bb
000000f0: 6e3a 22bd 5c32 a63c b7bd be3b 78dc 4cbb
00000100: f0cb ebbc e432 013d 5895 e03c 9d3d 113d
00000110: 3e98 89bb 6e27 2a3d 5461 17bd fd18 1a3d
00000120: 799d 373d 698b ba3c 9fa8 b439 67df f3bc
00000130: 8b21 e0bc dae5 403d 3e6b 0b3d c834 82bc
00000140: 7aa3 c23c 925d 46bd 2877 0fbd 8781 fabb
00000150: 062b 703c 46c0 153d e43f d2bc 5d21 b03c
00000160: 8669 89bb 9d4c c9bb 08c5 0b3d 85fa 25bd
00000170: de77 41bc 6b15 15bd ebd9 68bc 7385 213d
00000180: 23c2 113d 258b c93c 0522 9dbb 0cc1 2f3d
00000190: 33dc 94bc 2ba7 323d 3962 4f3d 1f72 4fbc
000001a0: 7f9e 7fbc 536a 0d3d 322f a7bc 91ce 06bd
000001b0: e91b 71bc 335b 923b c18b a7bc 698b 57bd
000001c0: 4745 883b 2299 443d 0265 fa3c 64cc 1a3c
000001d0: 7899 17bc afdd 9939 1c4f 243c d2f7 3a3b
000001e0: db4b 92bc 9ac1 8bba a302 60bd 9501 28bb
000001f0: 962a 323d 774c 3d3d 83ca 423d 9a99 663c
00000200: 81ae f6ba 4760 bebc a228 55b9 0717 ac3c
00000210: ebb1 253d 70b0 3c3d 8694 c53c 57e3 6bbc
00000220: 1da3 09bd 4972 ffba eb59 b1bc 26fb 1fbd
00000230: 6fa8 e53c 096e 303d 7ad4 14bd beef d5bc
00000240: 24e4 13bd 5836 1bbd 5233 d3bb bfd4 c1bc
00000250: ebf6 cc3c 5385 523d 6d36 123d 3baa 67bc
00000260: 3c7f 1cbd 69cf 3c3c 8b8d 2e3d bf58 07bd
00000270: d4a7 413c 1633 3bbd 44f0 8ebc 7bdc e4bc
00000280: ee54 83bc 43d1 a93c 6361 15bc cbf5 443d
00000290: 0e31 463d 89a4 02bc 8038 c43b f3bd e03c
000002a0: 00c1 d8bc 2a3c 063c 0588 5bbc 4288 32bd
000002b0: 55e4 863c f8bc 283d 2dee 0c3c 3113 233c
000002c0: 2ce6 353d 74e3 eebc fc94 fa3b 2b28 0abd
000002d0: 523c 1b3d 18ec 36bd 4b3d 88bc 61b1 12bd
000002e0: adda 3c3d 2a39 f1ba 97c8 c33c aec9 863b
000002f0: b718 863b 1ecc 00ba 53ee 393d b583 ccbc
00000300: 8f47 413d accf 2f3d 601f da3b 512c 2e3d
00000310: 5140 8bbc 57e6 383d 2d52 29bd 4458 d13b

weight f4 [2, 200]
-0.024145044 -0.07172318 -0.05082597 0.0733529 0.051092148 -0.00334669 -0.019304123 0.019551
-0.060789563 0.046108972 -0.057435002 -0.07552145 0.05175813 -0.06607807 -0.022064164 0.038759213
-0.024267871 0.03555347 0.025015725 0.029172353 0.05356548 0.06390901 0.00022391853 0.03961297
-0.07010301 -0.058263402 0.077727936 -0.010220824 0.04677594 -0.045137525 -0.075143605 -0.008031563
0.007865587 -0.0501701 0.020079326 -0.0285428 -0.023724481 0.03849496 -0.007936117 -0.023869537
0.077019386 0.05559084 -0.054212578 -0.03169536 -0.07220914 0.06447698 0.013622768 0.07110628
-0.008160665 -0.051955648 0.052700046 -0.05018449 0.06447297 -0.03126081 -0.027855087 0.044529457
-0.012855248 -0.021217993 0.006390755 -0.076736085 0.0058774725 -0.05177337 -0.05741182 -0.01784252
-0.05325729 -0.024936767 0.017875025 0.012962738 0.01986979 0.0056778933 0.040306035 -0.0693933
-0.03798696 -0.05376131 0.07582397 0.070191294 -0.08016153 0.076272376 -0.021396374 0.01060173
0.058076486 -0.0730748 0.06259588 -0.07526281 -0.07161053 -0.06444714 0.00047504655 0.053451385
0.06920711 -0.0706794 0.0036512215 0.027328203 -0.06628528 -0.07114538 -0.030060543 -0.04778636
0.03730152 0.050433837 -0.023073122 0.0110444315 0.059677657 0.04593096 0.0653607 -0.0021902407
-0.0278208 0.045839377 -0.03371659 -0.033941116 0.022617891 0.052460793 0.053322826 0.06512909
0.06735542 -0.011489252 0.049506824 -0.003423614 -0.045845747 -0.0545625 0.028359493 -0.066140704
-0.012711047 -0.06843065 0.06499269 -0.07046325 0.035516307 -0.079312585 -0.0017739859 -0.027269801
-0.007844881 0.06511212 0.03368166 -0.00012551348 -0.025811296 -0.07149207 0.07510066 0.01042763
0.02447973 0.027534641 -0.0044666557 0.06785983 0.022681544 -0.052969303 -0.03769843 -0.053610425
-0.051594175 -0.062455107 0.025533022 -0.0071217646 0.025318358 0.04716213 -0.018580174 -0.06027723
-0.01794672 0.07619756 0.038642995 -0.04738389 0.033170953 0.064599335 0.023977147 0.048620917
0.061571445 -0.061159603 -0.05591468 -0.030941568 0.08350836 -0.057111055 -0.021124609 -0.0710428
0.022908293 -0.014140978 0.036354966 -0.030619482 0.054101247 -0.008177954 0.020151865 0.007401846
0.02750735 0.0644179 -0.04377791 -0.024461592 0.02283797 0.024716185 0.01117089 -0.045836233
0.00081842206 -0.06826798 -0.0050935443 0.036436986 0.06619963 0.06365403 0.069483034 0.076425806
-0.07407579 0.04043746 0.059810836 -0.009375978 -0.050594326 -0.066570364 -0.057332456 -0.07303244
5.160894e-05 0.054516487 -0.011672082 -0.041174095 0.041971587 -0.06773245 0.0030228028 -0.032881904
-0.048059706 0.0637582 0.06043935 -0.05301198 0.042676635 -0.054234456 0.06739166 0.026317848
-0.024733324 -0.016582398 0.0046102023 -0.0066854917 -0.07813906 0.0043577696 -0.047442365 -0.005077801
0.0088957595 0.062540986 -0.012382007 0.08514063 0.040460665 -0.019683799 0.049928635 -0.046513863
-0.056785226 0.06479406 -0.05910074 0.06922124 0.05054094 -0.04647875 0.063788906 -0.0005051897
0.0015121686 -0.024340129 -0.07392627 0.0655892 0.07231473 0.032205373 0.009426393 -0.0027365333
-0.020706497 0.036723208 0.033454902 0.081323326 0.07800426 -6.4256624e-06 -0.023052419 0.015304867
00000000: d4cb c5bc 9ae3 92bd e42e 50bd 0c3a 963d
00000010: 0046 513d 2454 5bbb ae23 9ebc 6b29 a03c
00000020: 7afe 78bd c3dc 3c3d f740 6bbd fdaa 9abd
00000030: 5500 543d f053 87bd e8bf b4bc fbc1 1e3d
00000040: 6acd c6bc 84a0 113d c7ed cc3c dcfa ee3c
00000050: 7a67 5b3d bae2 823d accb 6a39 3641 223d
00000060: 2b92 8fbd 9ba5 6ebd d32f 9f3d 3e75 27bc
00000070: 2198 3f3d 20e2 38bd e4e4 99bd d196 03bc
00000080: aade 003c 2a7f 4dbd 667d a43c 97d2 e9bc
00000090: d859 c2bc e4ac 1d3d 7d06 02bc 0c8a c3bc
000000a0: 57bc 9d3d 38b3 633d 020e 5ebd fed2 01bd
000000b0: 63e2 93bd 820c 843d 0832 5f3c 2ba0 913d
000000c0: 4fb4 05bc 72cf 54bd 01dc 573d 408e 4dbd
000000d0: 680a 843d 560b 00bd 5a30 e4bc 8564 363d
000000e0: d19e 52bc 5bd1 adbc 8a69 d13b cf27 9dbd
000000f0: d097 c03b 5010 54bd a828 6bbd 7a2a 92bc
00000100: 5124 5abd 3148 ccbc a56e 923c aa61 543c
00000110: f8c5 a23c 9f0d ba3b f117 253d 131e 8ebd
00000120: 3798 1bbd d234 5cbd 9949 9b3d 74c0 8f3d
00000130: ba2b a4bd b134 9c3d 7347 afbc e1b2 2d3c
00000140: 9ce1 6d3d 3ea8 95bd 4532 803d 6323 9abd
00000150: 8ba8 92bd ddfc 83bd ab0f f939 d7ef 5a3d
00000160: 75bc 8d3d 5cc0 90bd 5549 6f3b 65df df3c
00000170: 94c0 87bd abb4 91bd 8741 f6bc a1bb 43bd
00000180: 7bc9 183d b693 4e3d d803 bdbc b4f3 343c
00000190: 8f70 743d 1a22 3c3d d5db 853d 248a 0fbb
000001a0: 72e8 e3bc 12c2 3b3d 681a 0abd d705 0bbd
000001b0: 2849 b93c 21e1 563d 0969 5a3d 6662 853d
000001c0: a3f1 893d 6a3d 3cbc abc7 4a3d b65e 60bb
000001d0: c0c8 3bbd ee7c 5fbd 2b52 e83c c774 87bd
000001e0: ff41 50bc 5e25 8cbd e31a 853d 094f 90bd
000001f0: 8c79 113d a36e a2bd 1785 e8ba eb64 dfbc
00000200: d187 00bc 8159 853d c8f5 093d 459c 03b9
00000210: 3672 d3bc 6f6a 92bd 60ce 993d a6d8 2a3c
00000220: b789 c83c 5490 e13c 065d 92bb 18fa 8a3d
00000230: a5ce b93c 57f6 58bd ab69 1abd 9b96 5bbd
00000240: 6a54 53bd edd0 7fbd a12a d13c b15d e9bb
00000250: 7268 cf3c 142d 413d 7335 98bc 42e5 76bd
00000260: 0005 93bc 770d 9c3d 1e48 1e3d 9c15 42bd
00000270: 44de 073d a84c 843d b96b c43c ba26 473d
00000280: 5732 7c3d 7e82 7abd cb06 65bd 2c79 fdbc
00000290: 6e06 ab3d 48ed 69bd 840d adbc e37e 91bd
000002a0: 2caa bb3c 90af 67bc f2e8 143d b5d5 fabc
000002b0: 4599 5d3d d3fc 05bc 8615 a53c 2f8b f23b
000002c0: 1857 e13c 88ed 833d 7750 33bd ad63 c8bc
000002d0: b216 bb3c 9979 ca3c 1c06 373c c6be 3bbd
000002e0: 608b 563a 15d0 8bbd bfe7 a6bb f33e 153d
000002f0: ac93 873d 0b5d 823d 1f4d 8e3d 2285 9c3d
00000300: 0cb5 97bd c0a1 253d 35fc 743d b49d 19bc
00000310: ff3b 4fbd 0b56 88bd 70d5 6abd 0892 95bd
00000320: ad76 5838 ae4c 5f3d 433c 3fbc 2ba6 28bd
00000330: 66ea 2b3d 50b7 8abd 371a 463b 2daf 06bd
00000340: 41da 44bd a993 823d 408f 773d 1723 59bd
00000350: b2cd 2e3d f324 5ebd a304 8a3d 8798 d73c
00000360: 8a9d cabc cfd7 87bc 2e11 973b f811 dbbb
00000370: 5f07 a0bd 9fcb 8e3b ed52 42bd af63 a6bb
00000380: 85bf 113c 7d15 803d e7dd 4abc 365e ae3d
00000390: 15ba 253d eb3f a1bc f881 4c3d 5285 3ebd
000003a0: a097 68bd c0b2 843d 9e13 72bd dec3 8d3d
000003b0: 0404 4f3d 8060 3ebd c2a3 823d b56e 04ba
000003c0: f533 c63a f364 c7bc a866 97bd a153 863d
000003d0: bf19 943d c8e9 033d 2871 1a3c 6957 33bb
000003e0: aca0 a9bc 136b 163d 0208 093d d88c a63d
000003f0: b3c0 9f3d 059c d7b6 6dd8 bcbc 44c1 7a3c

bias f4 [2]
0.060544185 0.005483195
00000000: 2efd 773d 60ac b33b

weight f4 [200, 400]
-0.031240964 -0.010339016 0.0435936 0.031084066 0.01796216 0.03292272 0.010137386 -0.038594473
-0.048016503 0.047640838 -0.038793437 -0.0063783885 -0.029339073 -0.044924114 0.027976435 -0.029549608
0.01712705 0.008247751 0.0035355438 0.01758848 0.004085414 -0.0194541 0.041986234 0.026723783
-0.0040520616 -0.03110098 0.00041987118 0.04340414 0.01680934 -0.029378958 0.046640396 0.02557064
-0.021094307 -0.0052636606 -0.009254732 -0.01731385 -0.003608439 -0.034071915 -0.03154625 -0.03721058
0.007546664 0.024363106 -0.04343999 0.025529679 0.018103404 -0.018188735 0.0061838045 -0.0259071
0.047993936 0.019578736 -0.0019560654 -0.0035054353 -0.025289208 0.03543744 -0.017012712 -0.027954625
0.02514539 -0.020707933 0.0036718308 0.049840216 0.04772487 0.01560697 0.040352557 0.043772068
0.041187964 0.00018325889 -0.026772536 -0.023913229 -0.0030944573 -0.0013113698 0.036709122 0.018315362
0.028336667 0.013558099 -0.033392616 0.026230505 -0.007991598 0.014375778 0.03618065 0.05579673
-0.029025048 -0.004602217 0.025122073 0.014610966 0.014219809 -0.015621641 -0.017768208 0.02962796
0.02681878 -0.00089268637 -0.019454071 0.0136667 0.023863727 0.032194752 0.033854477 0.025300957
-0.051671848 0.034675818 0.029043762 -0.04831389 -0.03619892 -0.0003580785 0.013289794 -0.027254602
-0.023298495 -0.011773546 0.04819718 -0.032803155 -0.025615528 0.053686716 0.040558115 0.006115859
-0.049834482 0.03354006 0.0045881574 -0.010739383 0.04515219 -0.044417143 0.031195717 0.03635171
-0.038786087 0.030458415 0.024329277 0.013013693 -0.022473594 -0.023755176 0.012130194 0.024048021
0.0048692757 0.0031214799 -0.03143575 0.02365276 0.013899267 -0.036059488 0.034195814 0.019011943
0.040157054 0.048415914 -0.033079304 -0.009659327 0.023537008 0.011812197 0.014779646 -0.030063355
0.03316739 -0.025849616 -0.015917625 -0.012644559 -0.026056437 0.019083813 -0.047520608 0.038394917
-0.025312081 0.046043202 -0.026901457 0.006511416 -0.015921917 -0.043445498 0.01264875 -0.019352295
0.03899803 0.045789883 -0.00029352505 0.049188863 -0.018750677 0.014173345 0.014771807 -0.04752365
-0.027313836 0.017797561 -0.036298953 0.030584743 -0.010605412 -0.014219692 -0.035450324 -0.036525045
0.033828188 -0.003352251 -0.056835648 0.025080727 0.051887214 0.027078863 -0.020863052 0.0045067556
-0.037296947 0.0106278565 0.04744795 -0.002561667 -0.009579883 0.024570802 0.0096353525 -0.032070026
0.018095536 0.028522808 -0.031263087 0.010715282 -0.017680563 0.020598983 -0.037182525 -0.03993591
-0.012707083 -0.00017026375 0.024353396 0.022090847 -0.02688409 0.04777653 -0.037195135 0.024862383
0.050186954 0.048334155 -0.039408673 -0.01861932 -0.0100725815 0.018637668 -0.016174719 9.123855e-05
-0.020250876 -0.030489378 -0.013834274 -0.03897322 -0.030367065 -0.033842027 -0.0445204 -0.018918635
-0.0011726598 0.03868536 0.013396669 -0.03369633 -0.010167515 -0.046301242 0.01408757 0.0312374
-0.032741494 -0.04849308 -0.039711766 0.028928274 -0.012245207 0.026442694 0.046794802 -0.0015226873
-0.0096431505 0.01629013 0.008887812 -0.012962711 0.034667265 0.030191798 0.012474849 -0.03435095
0.043017175 -0.0047012125 -0.007778852 0.011149657 0.00025481783 -0.025697246 0.0042831153 0.005431531
00000000: 0ded ffbc fa64 29bc 348f 323d 03a4 fe3c
00000010: 6125 933c f9d9 063d 4717 263c 3d15 1ebd
00000020: f4ac 44bd 0a23 433d dee5 1ebd cd01 d1bb
00000030: 7f58 f0bc 5902 38bd d62e e53c 0512 f2bc
00000040: 074e 8c3c 9321 073c 95b4 673b b715 903c
00000050: f0de 853b 345e 9fbc c2f9 2b3d d6eb da3c
00000060: 28c7 84bb 7bc7 febc 2822 dc39 8ac8 313d
00000070: beb3 893c 24ac f0bc 000a 3f3d 8579 d13c
00000080: f8cd acbc c97a acbb 29a1 17bc c6d5 8dbc
00000090: 8f7b 6cbb fe8e 0bbd a436 01bd 1f6a 18bd
000000a0: 024a f73b 2395 c73c 22ee 31bd 9e23 d13c
000000b0: 974d 943c 8b00 95bc 83a1 ca3b 203b d4bc
000000c0: 4a95 443d 9663 a03c 5531 00bb 72bb 65bb
000000d0: 502b cfbc d926 113d 3e5e 8bbc 1901 e5bc
000000e0: b4fd cd3c afa3 a9bc 19a3 703b 4125 4c3d
000000f0: 277b 433d 60b4 7f3c b948 253d 574a 333d
00000100: b6b4 283d 2f29 4039 1452 dbbc ade5 c3bc
00000110: 61cc 4abb 45e2 abba 4e5c 163d 190a 963c
00000120: 4c22 e83c ca22 5e3c b2c6 08bd 5be1 d63c
00000130: 31ef 02bc 6288 6b3c 2932 143d 1d8b 643d
00000140: f0c5 edbc 32ce 96bb cecc cd3c d562 6f3c
00000150: 34fa 683c e9f1 7fbc a28e 91bc 56b6 f23c
00000160: 0fb3 db3c 2b03 6aba 255e 9fbc 4bea 5f3c
00000170: dd7d c33c a5de 033d feaa 0a3d f443 cf3c
00000180: dca5 53bd 3b08 0e3d 2fed ed3c c9e4 45bd
00000190: 5245 14bd 7cbc bbb9 70bd 593c 0b45 dfbc
000001a0: 7cdc bebc d5e5 40bc 686a 453d 9a5c 06bd
000001b0: a8d7 d1bc 9ae6 5b3d 4420 263d 8b67 c83b
000001c0: 3e1f 4cbd 4d61 093d 4158 963b 3df4 2fbc
000001d0: 81f1 383d c0ee 35bd 298e ff3c 88e5 143d
000001e0: 29de 1ebd ed83 f93c 314e c73c 6237 553c
000001f0: 8b1a b8bc 379a c2bc b9bd 463c 5b00 c53c
00000200: 728e 9f3b be91 4c3b c6c2 00bd 6fc3 c13c
00000210: c0b9 633c 1db3 13bd e910 0c3d efbe 9b3c
00000220: b97b 243d c44f 463d 2a7e 07bd 2742 1ebc
00000230: afd0 c03c f287 413c 5426 723c 6d47 f6bc
00000240: 87da 073d 93c2 d3bc ae65 82bc 202b 4fbc
00000250: 4f74 d5bc a855 9c3c f8a4 42bd fd43 1d3d
00000260: 485b cfbc cc97 3c3d 7260 dcbc b75d d53b
00000270: ae6e 82bc e8f3 31bd b43c 4f3c b488 9ebc
00000280: 66bc 1f3d 2c8e 3b3d 44e4 99b9 437a 493d
00000290: 059b 99bc 5137 683c 7305 723c 29a8 42bd
000002a0: 44c1 dfbc 31cc 913c 36ae 14bd db8c fa3c
000002b0: 52c2 2dbc b6f9 68bc 5c34 11bd 499b 15bd
000002c0: 6d8f 0a3d 70b1 5bbb 7fcc 68bd 1976 cd3c
000002d0: b087 543d 7ed4 dd3c fee8 aabc 68ad 933b
000002e0: afc4 18bd 7620 2e3c c858 423d a4e1 27bb
000002f0: f1f4 1cbc b548 c93c 99dd 1d3c dc5b 03bd
00000300: 173d 943c aaa8 e93c b90d 00bd 268f 2f3c
00000310: d4d6 90bc 33bf a83c b44c 18bd d693 23bd
00000320: 5e31 50bc d488 32b9 c680 c73c ddf7 b43c
00000330: 063c dcbc 53b1 433d ed59 18bd 32ac cb3c
00000340: d690 4d3d 09fa 453d fd6a 21bd 8b87 98bc
00000350: 7807 25bc 06ae 983c d880 84bc 5357 bf38
00000360: 2ae5 a5bc dcc4 f9bc 27a9 62bc 62a2 1fbd
00000370: 5ac4 f8bc f09d 0abd 065b 36bd 41fb 9abc
00000380: efb3 99ba 8a74 1e3d b47d 5b3c 2a05 0abd
00000390: a695 26bc 5fa6 3dbd 8dcf 663c 93e5 ff3c
000003a0: f21b 06bd aea0 46bd cea8 22bd fdfa ec3c
000003b0: 1fa0 48bc 599e d83c e8ab 3f3d e894 c7ba
000003c0: 4efe 1dbc e172 853c 2f9e 113c 8d61 54bc
000003d0: 43ff 0d3d ca54 f73c 4f63 4c3c 95b3 0cbd
000003e0: c732 303d a10c 9abb bde5 febb 0dad 363c
000003f0: 1299 8539 0883 d2bc 6059 8c3b fcfa b13b

bias f4 [200]
0.041648794 -0.036891546 -0.00851655 0.00042985144 0.0021402168 -0.019346558 0.014376742 -0.004950901
-0.0038807872 0.04435858 0.0030669244 -0.0041908496 -0.04615754 -0.04030535 0.022480689 -0.019810095
-0.010235545 0.009698668 -0.037300076 0.02278454 0.02178576 -0.049019024 0.015759703 0.02930841
0.03416196 0.013391208 0.019293599 0.021872343 0.017587135 0.041657846 -0.018715242 -0.02255956
0.051224172 0.00020219487 -0.042388175 0.0048713055 -0.037029006 -0.009792767 0.044562567 -0.04954266
0.03165776 -0.04199256 0.021544933 -0.026761834 0.019589208 -0.035652492 0.037320677 0.041229684
0.016691355 -0.0055766725 0.016447322 0.009750346 -0.008620384 -0.020225147 -0.04854465 -0.026940573
0.043806087 0.04003399 -0.030751806 -0.013162957 -0.025817726 -0.032352187 0.017964885 -0.036731627
-0.02318353 0.036101997 0.018156454 0.03562028 0.01666403 -0.039859805 0.0022876475 -0.017245032
-0.03991801 -0.029523376 0.050554454 0.023865284 0.048627585 -0.034456566 0.03633348 -0.045985427
0.04444536 0.039264813 -0.01813176 -0.043528836 -0.013986925 -0.04762703 0.017118115 -0.008634908
0.012273367 -0.008515513 0.03688206 -0.01107552 -0.035680845 0.041785367 0.03300254 0.023083318
0.04480589 -0.030493766 0.04466112 -0.047295664 0.044380184 0.03314431 -0.053086028 -0.038949244
0.03227588 -0.0010724765 0.01470277 0.03394778 -0.04240626 0.025501283 0.043174352 0.041288264
0.038360313 -0.014605035 -0.01579933 0.029091386 0.03778588 -0.015500133 0.014665163 0.025819996
-0.041132417 0.054394107 0.00021413638 -0.021898033 -0.030365577 -0.0271424 0.045325782 -0.022581482
-0.04225965 0.038715743 -0.044009585 0.00266724 -0.0018219752 0.004377173 -0.017304821 -0.047116134
0.01819257 0.0029952528 0.022544332 -0.0012204202 0.0071491837 0.0035902676 0.031069279 -0.038425952
0.008366516 -0.03223894 0.041637193 0.0065864557 0.0053780125 0.012248812 -0.028862882 0.027285166
-0.030932108 0.016080843 -0.034974847 0.021028653 0.004992746 0.010728353 0.04870055 0.0010319697
0.013035195 -0.041428562 0.029343542 0.011370768 -0.016459128 -0.015722394 -0.0070103523 0.03306045
0.003694252 -0.04940447 -0.015039367 0.025182147 0.050780334 -0.032577023 -0.022882776 -0.012974932
-0.04950431 0.010778082 0.024182698 -0.009641716 -0.03775717 0.037313204 -0.038934097 0.0015902335
-0.0055926386 -0.009307144 0.03157217 0.032284 -0.029458405 -0.0063426737 -0.016776687 0.0072393334
-0.038490668 0.0071436744 0.002063748 -0.015863879 -0.019550487 -0.018166386 0.03802894 0.023617769
00000000: ed97 2a3d 971b 17bd 0089 0bbc af5d e139
00000010: e142 0c3b ac7c 9ebc 6d8c 6b3c 2b3b a2bb
00000020: ce54 7ebb 58b1 353d 74fe 483b 6553 89bb
00000030: b00f 3dbd 3917 25bd 6c29 b83c c848 a2bc
00000040: fdb2 27bc 29e7 1e3c f7c7 18bd a5a6 ba3c
00000050: 0d78 b23c 2cc8 48bd 7e1a 813c 3118 f03c
00000060: 69ed 0b3d cc66 5b3c 9c0d 9e3c a12d b33c
00000070: e512 903c 6ba1 2a3d b550 99bc d4ce b8bc
00000080: 70d0 513d 4604 5439 399f 2dbd 799f 9f3b
00000090: baab 17bd d871 20bc 3d87 363d 3fed 4abd
000000a0: 91ab 013d 6400 2cbd 007f b03c a23b dbbc
000000b0: 8c79 a03c 5908 12bd 91dd 183d 75e0 283d
000000c0: 4fbc 883c 85bc b6bb 89bc 863c eabf 1f3c
000000d0: 833c 0dbc 35af a5bc c1d6 46bd 7ab2 dcbc
000000e0: 036e 333d aefa 233d 36eb fbbc 71a9 57bc
000000f0: b27f d3bc ba83 04bd 182b 933c e773 16bd
00000100: 63eb bdbc b0df 133d d8bc 943c 92e6 113d
00000110: 0183 883c 0944 23bd 5bec 153b 7445 8dbc
00000120: 1181 23bd 02db f1bc 3012 4f3d 2181 c33c
00000130: b82d 473d 5422 0dbd 6ad2 143d 375b 3cbd
00000140: 560c 363d 24d4 203d 0f89 94bc 4b4b 32bd
00000150: 6a29 65bc 9014 43bd 4a3b 8c3c 6e79 0dbc
00000160: 3b16 493c a684 0bbc a511 173d 1976 35bc
00000170: 1426 12bd 2227 2b3d ac2d 073d 3a19 bd3c
00000180: 6286 373d 10ce f9bc 94ee 363d 19b9 41bd
00000190: ffc7 353d 54c2 073d bc70 59bd 3e89 1fbd
000001a0: b733 043d 5792 8cba e3e3 703c d40c 0b3d
000001b0: 30b2 2dbd 11e8 d03c 97d7 303d e21d 293d
000001c0: b41f 1d3d f549 6fbc 996d 81bc 0f51 ee3c
000001d0: 5ec5 1a3d 45f4 7dbc 2746 703c 7584 d33c
000001e0: 777a 28bd 5bcc 5e3d cc89 6039 8163 b3bc
000001f0: 3bc1 f8bc bd59 debc 87a7 393d cdfc b8bc
00000200: 7418 2dbd 6694 1e3d 6543 34bd ddcc 2e3b
00000210: 58cf eeba 636e 8f3b d7c2 8dbc d9fc 40bd
00000220: 9608 953c 014c 443b e4ae b83c 82f6 9fba
00000230: b343 ea3b b24a 6b3b 0085 fe3c 8864 1dbd
00000240: b613 093c fb0c 04bd c38b 2a3d 32d3 d73b
00000250: 0a3a b03b 3eaf 483c da71 ecbc 2485 df3c
00000260: 5565 fdbc f9bb 833c c941 0fbd 4844 ac3c
00000270: 309a a33b f9c5 2f3c 3a7a 473d 2843 873a
00000280: 9291 553c ffb0 29bd de61 f03c 754c 3a3c
00000290: 4bd5 86bc 40cc 80bc 19b7 e5bb 656a 073d
000002a0: 441b 723b 575c 4abd ad67 76bc ca4a ce3c
000002b0: 0aff 4f3d 7c6f 05bd a974 bbbc cf94 54bc
000002c0: 08c5 4abd 8d96 303c cb1a c63c 4af8 1dbc
000002d0: 43a7 1abd bbd5 183d 5c79 1fbd 626f d03a
000002e0: 7442 b7bb fe7c 18bc d251 013d 3a3c 043d
000002f0: c152 f1bc 34d6 cfbb 436f 89bc ee37 ed3b
00000300: 64a8 1dbd 7c15 ea3b f23f 073b f7f4 81bc
00000310: 5828 a0bc acd1 94bc 3cc4 1b3d 0d7a c13c

weight f4 [2, 200]
0.06484872 0.06171742 -0.016827144 -0.038695835 0.024439346 -0.0047451304 0.027413184 -0.010209819
0.030094432 0.0066222134 0.03114465 0.033139683 0.016283656 0.04495461 -0.029324377 -0.050656658
0.05490984 -0.04287473 -0.029948324 -0.024546755 -0.03470391 -0.035199873 0.025687197 0.018972488
-0.054999623 0.0027570531 0.01960565 0.009385204 0.043153897 0.05984181 -0.031364143 -0.015611839
-0.054143425 -0.036222916 0.012231594 -0.002824921 -0.01679867 0.033141 0.016545547 0.049857453
-0.062516026 -0.0574632 -0.01122172 0.06354399 0.013444076 0.017285626 0.057422765 -0.0025752876
0.004659707 0.05973913 -0.0041865213 -0.056154348 -0.045744095 0.055608608 -0.051645525 0.010725495
0.021307727 0.07128548 0.04402236 -0.07097333 -0.03224791 0.06357776 0.0074766967 0.0401887
0.009651389 0.026441455 0.00022753033 0.03948984 -0.06114735 0.017113382 0.04453635 0.024703203
-0.01824179 0.027756464 0.03763493 0.0370234 0.012592017 -0.05329983 0.016638163 0.039292164
0.015391612 -0.03949166 -0.04230591 0.04348759 0.03879103 -0.055529807 0.0057092817 -0.0060543003
-0.044558365 0.0143598495 0.013429057 0.030422231 -0.044507466 0.008960466 0.010510711 0.04769755
-0.015683018 0.042295024 -0.048728585 -0.042639382 -0.06369894 0.041205835 0.0042831097 0.042072985
-0.054472793 0.054887787 -0.061094217 0.029799286 0.011432967 -0.06842197 -0.02293352 0.03180619
-0.08344548 -0.028956898 -0.0650619 -0.0010632679 -0.060861766 -0.0007165101 -0.035909526 0.058478888
0.055125598 0.055954475 -0.012434116 0.03486803 0.038642373 -0.007122374 0.016443983 0.057113368
0.029350283 0.046205666 -0.067032546 0.010808096 0.031030864 0.0069131525 8.399555e-05 -0.06997759
-0.0047958293 0.031566832 0.018007398 0.0005183819 0.06187355 0.025490306 -0.0025320023 -0.018348794
-0.01622182 0.045420177 0.07022734 0.008596887 -0.020953426 -0.011682639 0.044552557 0.069119625
-0.008471735 -0.011547138 -0.064978376 -0.02468829 -0.017385598 -0.03087413 0.06588704 0.04266605
-0.027232079 -0.011373735 0.022347232 0.02188568 0.017682822 0.03829832 0.027606573 -0.06496428
-0.057468966 0.028056031 0.06278815 -0.05154363 -0.03182168 0.061799053 0.06809573 -0.0075437613
-0.044763878 0.03826271 0.007452685 -0.015249015 -0.0066822045 0.0659398 -0.04368715 0.011440989
-0.045785386 0.05230665 -0.07040472 -0.0051535605 0.011101228 -0.052173525 0.010228537 -0.0030041372
-0.046849746 0.023819525 -0.008154632 0.025184903 0.020350838 0.04132964 -0.063417435 -0.025997423
-0.018405292 -0.07003531 -0.017424904 0.013468164 0.0058954307 0.05509185 -0.07482314 -0.06326445
-0.075072855 -0.047576323 0.02154246 -0.0051531135 -0.02593771 0.037228093 -0.0022358822 0.04570988
0.025057856 -0.009490355 -0.024688702 -0.041478753 0.043768596 -0.0026529527 0.06296144 -0.027136069
0.021445313 0.014866318 -0.0030479128 0.059652302 0.047738463 -0.055698883 0.0002177891 -0.028483106
-0.06167564 0.047498807 0.010833433 0.040518202 -0.07608013 -0.028764732 0.054478716 0.044256624
-0.03054988 -0.067199245 0.06355614 0.035701156 0.01678081 0.038798578 -0.022631401 -0.07011139
-0.027651174 -0.00053764833 0.043568667 -0.07272754 -0.08343909 0.06604829 -0.023276366 0.040968943
00000000: 68cf 843d 68cb 7c3d 14d9 89bc 867f 1ebd
00000010: 0635 c83c 0a7d 9bbb 9d91 e03c 1647 27bc
00000020: 9988 f63c 27ff d83b 1123 ff3c 7abd 073d
00000030: 4d65 853c 5322 383d ad39 f0bc 5b7d 4fbd
00000040: 24e9 603d 6a9d 2fbd 3056 f5bc 4716 c9bc
00000050: b025 0ebd be2d 10bd f56d d23c 316c 9b3c
00000060: 4947 61bd adaf 343b 079c a03c 66c4 193c
00000070: 24c2 303d b01c 753d b077 00bd ccc8 7fbc
00000080: 7fc5 5dbd 7b5e 14bd 0667 483c 4f22 39bb
00000090: 5d9d 89bc dbbe 073d 878a 873c 5437 4c3d
000000a0: 6708 80bd 885e 6bbd 4edb 37bc 5a23 823d
000000b0: 8b44 5c3c 969a 8d3c 2234 6b3d 28c6 28bb
000000c0: 75b0 983b 05b1 743d 162f 89bb 1a02 66bd
000000d0: 295e 3bbd dac5 633d 428a 53bd fdb9 2f3c
000000e0: 8b8d ae3c 1ffe 913d ca50 343d 775a 91bd
000000f0: 6216 04bd 0e35 823d 14ff f43b e89c 243d
00000100: dc20 1e3c c09b d83c 3595 6e39 19c0 213d
00000110: a575 7abd 5d31 8c3c bf6b 363d 5f5e ca3c
00000120: ce6f 95bc 8661 e33c 1627 1a3d d9a5 173d
00000130: bf4e 4e3c ec50 5abd c24c 883c d2f0 203d
00000140: 1a2d 7c3c 02c2 21bd f648 2dbd 0b20 323d
00000150: 58e3 1e3d 3973 63bd ed14 bb3b 2763 c6bb
00000160: d582 36bd 9345 6b3c 8c05 5c3c 0b38 f93c
00000170: 764d 36bd ebce 123c 1e35 2c3c 825e 433d
00000180: ac79 80bc 8c3d 2d3d a097 47bd a2a6 2ebd
00000190: 9774 82bd 73c7 283d 5459 8c3b b954 2c3d
000001a0: dd1e 5fbd 04d2 603d ee3d 7abd a21d f43c
000001b0: 5751 3b3c d120 8cbd 14df bbbc 3547 023d
000001c0: 77e5 aabd 0437 edbc 2c3f 85bd 5a5d 8bba
000001d0: 304a 79bd 2ed4 3bba de15 13bd 8f87 6f3d
000001e0: 61cb 613d 8530 653d 76b8 4bbc c8d1 0e3d
000001f0: 7747 1e3d ce62 e9bb 88b5 863c b5ef 693d
00000200: 0170 f03c 2742 3d3d 5c48 89bd 7114 313c
00000210: 7034 fe3c ba87 e23b c426 b038 6950 8fbd
00000220: 5526 9dbb 394c 013d 4084 933c 05e4 073a
00000230: 1f6f 7d3d 0cd1 d03c f3ef 25bb 3650 96bc
00000240: 9fe3 84bc 820a 3a3d 5ad3 8f3d f5d9 0c3c
00000250: 85a6 abbc 8a68 3fbc be7c 363d 978e 8d3d
00000260: 08cd 0abc 3530 3dbc 6213 85bd 193f cabc
00000270: 3e6c 8ebc beeb fcbc c9ef 863d 99c2 2e3d
00000280: cf15 dfbc e758 3abc 8b11 b73c 9949 b33c
00000290: 91db 903c b3de 1c3d 2e27 e23c fe0b 85bd
000002a0: 9464 6bbd c3d5 e53c 1397 803d 6a1f 53bd
000002b0: 7357 02bd 0121 7d3d c675 8b3d a831 f7bb
000002c0: 545a 37bd 5cb9 1c3d a735 f43b 01d7 79bc
000002d0: 65f6 dabb 720b 873d 4cf1 32bd fc72 3b3c
000002e0: 7589 3bbd 7f3f 563d 5a30 90bd 33df a8bb
000002f0: ede1 353c e8b3 55bd 9895 273c 0fe1 44bb
00000300: 85e5 3fbd 2a21 c33c 019b 05bc 9250 ce3c
00000310: cdb6 a63c 4549 293d 00e1 81bd 8cf8 d4bc
00000320: b2c6 96bc ac6e 8fbd acbe 8ebc 93a9 5c3c
00000330: 752e c13b fea7 613d e03c 99bd cb90 81bd
00000340: ccbf 99bd 64df 42bd d079 b03c 73db a8bb
00000350: 527b d4bc 7c7c 183d e187 12bb 483a 3b3d
00000360: 2246 cd3c 6f7d 1bbc f63f cabc a0e5 29bd
00000370: b346 333d 29dd 2dbb edf1 803d 764c debc
00000380: 15ae af3c db91 733c 7ebf 47bb f955 743d
00000390: 6889 433d 8324 64bd 515e 6439 6755 e9bc
000003a0: 999f 7cbd 1c8e 423d b67e 313c 6af6 253d
000003b0: e6cf 9bbd 04a4 ebbc 1325 5f3d 6f46 353d
000003c0: be43 fabc c29f 89bd b929 823d 603b 123d
000003d0: e977 893c 42eb 1e3d 7d65 b9bc 8f96 8fbd
000003e0: b784 e2bc f8f0 0cba 0f75 323d 2df2 94bd
000003f0: 1de2 aabd 5344 873d 14ae bebc 0dcf 273d

bias f4 [2]
0.03691371 -0.054396585
00000000: d532 173d f4ce 5ebd
