lab2/problem3/neural-network-3-actor.pth (torch, 664397 bytes, 10 tensors)

weight f4 [400, 8]
0	0xbcd189db	-0.02557843
1	0x3e20f11e	0.15716979
2	0x3ded0df8	0.1157493
3	0xbe6b5b23	-0.22983985
4	0xbe4e3483	-0.20137219
5	0xbce7fb1c	-0.02831798
6	0x3e3cfe04	0.18456274
7	0x3e18c5fa	0.14919272
8	0x3e8205ac	0.25394952
9	0xbe027c83	-0.1274281
10	0xbcf7689b	-0.030201247
11	0x3eaaa41c	0.3332833
12	0x3dc522c9	0.09625775
13	0x3e077885	0.13229568
14	0xbcbaefc7	-0.022819413
15	0xbe013584	-0.12618071
16	0xbeabc18f	-0.3354611
17	0xbd9b8d54	-0.075953156
18	0x3eb4c4ea	0.35306484
19	0x3eaf78fd	0.34271994
20	0x3d6d3cde	0.057919376
21	0x3ea39d7d	0.31956092
22	0x3ebaefb8	0.36511016
23	0xbb800206	-0.003906491
24	0xbd577f59	-0.052611683
25	0x3e952c8c	0.2913555
26	0xbb6927a4	-0.0035576606
27	0xbce43992	-0.027859483
28	0xbe46077f	-0.19338797
29	0x3d00c870	0.031441152
30	0xbdbd73ca	-0.09250601
31	0x3e75218c	0.23938578
32	0x3e12d021	0.14337207
33	0xbe956ae5	-0.29183117
34	0x3e4e86be	0.20168588
35	0xbe2bf49c	-0.1679253
36	0x3e610ec4	0.21978289
37	0x3d45eb97	0.04832038
38	0x3c660a17	0.014040492
39	0x3de1f31e	0.11032699
40	0x3e5ab254	0.2135709
41	0xbe28969e	-0.16463706
42	0xbdadfa4c	-0.08495006
43	0xbe2908e5	-0.16507299
44	0xbe8ac5b5	-0.27103963
45	0x3dcd8f46	0.10037093
46	0xbe3cfb41	-0.18455221
47	0xbdb313eb	-0.087440334
48	0xbe8d22b4	-0.2756554
49	0xbb504349	-0.0031778386
50	0x3e8dc375	0.27688184
51	0x3e72ef0c	0.23724002
52	0x3c9355b9	0.017985212
53	0x3ded4d84	0.115870506
54	0xbe2e8a28	-0.1704489
55	0xbe2a1f3c	-0.16613477
56	0xbe5a4dc0	-0.21318722
57	0xbe3fec38	-0.18742454
58	0x3e8481fa	0.25880414
59	0x3e6c9e1f	0.23107193
60	0x3ea2a433	0.317659
61	0xbcba5ed1	-0.02275029
62	0xbe2d8260	-0.16944265
63	0xbcf03621	-0.029322686
64	0x3e966053	0.29370365
65	0xbe1e3f97	-0.15453945
66	0x3e8607e0	0.26177883
67	0xbd751573	-0.05983491
68	0x3e8fb44a	0.28067237
69	0xbdaefa2e	-0.08543812
70	0xbc973a6b	-0.018460473
71	0xbd3c2c20	-0.04594052
72	0x3d6da2da	0.058016635
73	0xbea2a207	-0.31764242
74	0xbe9a557d	-0.30143347
75	0x3d8b1fb4	0.06793156
76	0x3eb2bc5b	0.3490933
77	0x3e8b98e1	0.27265075
78	0xbd84cbf5	-0.06484214
79	0xbe5eb9ce	-0.21750566
80	0xbeb16767	-0.34649202
81	0xbc3d20ed	-0.011543495
82	0xbe7167a3	-0.2357469
83	0x3ea0c9a6	0.31403846
84	0x3e834349	0.25637272
85	0x3eb47c62	0.35251147
86	0x3ddbcbe3	0.10732248
87	0xbccab9df	-0.024746833
88	0x3c4b647c	0.012414094
89	0x3e3a6b35	0.18204959
90	0xbe638719	-0.22219504
91	0xbe3a02f4	-0.18165189
92	0x3da4e6dd	0.08051846
93	0x3e85e834	0.2615372
94	0xbeaf555c	-0.34244812
95	0x3df79228	0.12088424
96	0xbc130773	-0.008973944
97	0x3b3902d1	0.0028230438
98	0x3eb5e783	0.35528192
99	0xbe90b522	-0.28263193
100	0x3d6ca82a	0.05777756
101	0xbcd8bdf4	-0.026457764
102	0xbe048e94	-0.12945014
103	0xbea65d74	-0.32493174
104	0xbea1af1e	-0.31578916
105	0xbe108731	-0.14114071
106	0x3e666c1f	0.22502182
107	0x3e51a721	0.20473911
108	0x3e43bdea	0.19115415
109	0x3e96f69c	0.29485023
110	0xbe5e5d83	-0.2171536
111	0xba45dd10	-0.00075478945
112	0xbe457208	-0.1928178
113	0xbe3c78c5	-0.18405445
114	0x3e968ebb	0.2940577
115	0xbe2f6bdf	-0.17130993
116	0x3e50f953	0.2040761
117	0xbdeda523	-0.11603763
118	0xbc8cfc31	-0.017210098
119	0x3e50b3ad	0.20381041
120	0xbd42e729	-0.047583733
121	0xbeb3e7d1	-0.351378
122	0x3dfaeed8	0.12252587
123	0x3e9fcd41	0.31211284
124	0xbeb0a05e	-0.3449735
125	0xbd670501	-0.056401256
126	0xbe69f6af	-0.22848009
127	0x3e65d100	0.22443008
128	0xbda4fc15	-0.08055893
129	0xbdb30430	-0.08741033
130	0xbe99c475	-0.30032697
131	0x3ae211bf	0.001724772
132	0xbe2e2d70	-0.1700952
133	0xbe6ddbf7	-0.23228441
134	0xbdd6a2c1	-0.104802616
135	0xbea62af1	-0.32454637
136	0xbda25725	-0.07926778
137	0x3c2b72c7	0.010464377
138	0x3e1e3c99	0.15452804
139	0xbe963bac	-0.293424
140	0xbeb5de8c	-0.35521352
141	0xbea5dac4	-0.32393467
142	0xbe72cda7	-0.23711263
143	0x3cf47585	0.029841194
144	0x3d8f2118	0.06988734
145	0x3c616eea	0.013759354
146	0xbe43053a	-0.19044963
147	0x3e57dffa	0.21081534
148	0xbe69d965	-0.22836836
149	0x3cb87a21	0.022519173
150	0x3e6446c7	0.22292624
151	0xbe389029	-0.18023743
152	0xbe0bb229	-0.13642181
153	0x3e268133	0.16260223
154	0xbe1670c6	-0.14691457
155	0xbe3fb5f6	-0.18721756
156	0x3e137a62	0.14402154
157	0xbe8fffd8	-0.2812488
158	0xbe5af660	-0.21383047
159	0x3e4f8e03	0.20269017
160	0xbdcd92b7	-0.10037749
161	0xbe9bbbb0	-0.30416632
162	0x3d34db15	0.044154245
163	0xbebdc7d6	-0.37066525
164	0x3e9535ee	0.29142708
165	0x3bad7cbd	0.005294411
166	0x3e28e230	0.16492534
167	0x3e8a7417	0.27041695
168	0xbd6f1438	-0.05836889
169	0x3dd1bece	0.10241471
170	0xbea44fc1	-0.32092097
171	0xbdb1b693	-0.086774014
172	0x3ea48135	0.32129827
173	0x3e49d32c	0.19709462
174	0x3e1e624c	0.15467185
175	0x3d089533	0.033345412
176	0xbea4244d	-0.32058945
177	0xbe1b507e	-0.15167424
178	0xbe181566	-0.14851913
179	0xbe6bc5b2	-0.23024634
180	0x3e2059d9	0.15659274
181	0xbcc6b300	-0.024255276
182	0x3ea6ca1f	0.3257608
183	0xbe88bc5b	-0.26706204
184	0xbe98b246	-0.29823512
185	0x3ea0bbb5	0.3139321
186	0x3e871f50	0.26391077
187	0xbe9b75ea	-0.303634
188	0x3b88b6d5	0.004172186
189	0xbe176c61	-0.14787437
190	0x3e840cff	0.25791165
191	0xbe46c424	-0.19410759
192	0x3e2b176f	0.16708158
193	0x3c1ed98a	0.00969542
194	0x3e80d6e1	0.2516394
195	0xbe32c376	-0.17457375
196	0x3c8591a4	0.016304798
197	0x3eb6fd80	0.3574028
198	0xbea90c03	-0.33016977
199	0x3dfcc9ed	0.12343202
200	0x3d9db724	0.07700947
201	0x3db55c73	0.08855524
202	0x3ca878c4	0.020565398
203	0x3e8d97d7	0.27654907
204	0xbd495558	-0.049153656
205	0xbe990b5d	-0.29891482
206	0x3ea01de6	0.3127281
207	0x3e2cb4ca	0.1686584
208	0x3dbf0fba	0.093291715
209	0xbea99fbf	-0.3312969
210	0x3c5f9d51	0.013648347
211	0x3e89cbc4	0.26913273
212	0x3e89843e	0.26858705
213	0xbe8b5341	-0.27211955
214	0xbe9431a0	-0.2894411
215	0xbd89d936	-0.06730883
216	0x3d072fbb	0.033004504
217	0xbc019ee0	-0.007911414
218	0xbe2de1ff	-0.16980742
219	0x3e5aa995	0.21353753
220	0xbe71a9a8	-0.23599875
221	0xbe53e3f4	-0.20692426
222	0x3e9e52ad	0.30922452
223	0x3daa3de3	0.08312585
224	0x3e2cf0b6	0.16888699
225	0xbe42225a	-0.18958417
226	0xbe7ec8f4	-0.24881345
227	0xbd7992c2	-0.060930975
228	0x3cfa56e1	0.030559005
229	0x3e0e5adc	0.13901848
230	0x3da221af	0.07916581
231	0x3d5c119c	0.05372773
232	0xbcc4109f	-0.023933707
233	0x3e69b0d6	0.22821364
234	0xbe00a41d	-0.12562604
235	0xbe7b622a	-0.24549165
236	0x3cd2226b	0.025651177
237	0xbb9430e3	-0.0045224293
238	0xbe7f24e0	-0.2491641
239	0xbe58a168	-0.21155322
240	0xbe688417	-0.22706638
241	0xbc86fe6b	-0.016478738
242	0xbdf69d1d	-0.12041686
243	0xbe8b57ce	-0.27215427
244	0xbeb6e4ab	-0.35721335
245	0x3d9edc32	0.07756843
246	0x3ea05807	0.3131716
247	0x3ca04f9b	0.019569209
248	0x3e97b334	0.2962891
249	0x3e9b7ec0	0.3037014
250	0xbd6de9cf	-0.058084305
251	0x3dbdeebf	0.09274053
252	0x3e984a75	0.29744306
253	0x3e0109d2	0.12601402
254	0x3dfb5d2c	0.122736305
255	0xbe8b0d56	-0.27158612

bias f4 [400]
0	0xbea033f8	-0.3128965
1	0xbe79159c	-0.2432465
2	0x3df58931	0.11989058
3	0x3e791366	0.24323806
4	0xbb0a4227	-0.0021096559
5	0xbde140d4	-0.10998693
6	0xbe9b81bb	-0.30372414
7	0xbd1bbd0c	-0.038022086
8	0x3e7a7adc	0.2446093
9	0xbe38f9d6	-0.18064055
10	0xbe3cf254	-0.18451816
11	0xbe29bea7	-0.16576634
12	0xbcb28d8b	-0.021796009
13	0xbce0cf71	-0.027442666
14	0xbe38e2e8	-0.18055308
15	0xbe0a2533	-0.13490753
16	0x3e8d35f0	0.27580214
17	0x3d25ccef	0.040478643
18	0xbe76d069	-0.2410294
19	0xbe5c9230	-0.21540141
20	0x3e72facc	0.23728484
21	0x3cd0b5a1	0.025477232
22	0xbd3e24d4	-0.04642184
23	0xbca0ce0c	-0.0196295
24	0xbd77feea	-0.06054584
25	0xbe19a593	-0.15004568
26	0xbe015788	-0.12631047
27	0xbe5ea9ac	-0.21744412
28	0xbe2d5074	-0.16925222
29	0x3e4a37c6	0.19747838
30	0x3d0353bc	0.032062277
31	0xbd9e102a	-0.07717927
32	0xbd1d816e	-0.038453512
33	0x3dc6a3cf	0.09699213
34	0x3e94c717	0.29058143
35	0x3e882fbb	0.26598915
36	0x3b050e52	0.0020302725
37	0xbe83a05e	-0.25708288
38	0xbc6bd3dd	-0.014393774
39	0x3e6deb99	0.23234405
40	0x3d7d6920	0.061867833
41	0x3e96bc55	0.2944056
42	0xbe222423	-0.15834098
43	0xbeaf3938	-0.34223342
44	0x3d8703ed	0.06592546
45	0xbe8f3687	-0.2797129
46	0x3dc28308	0.094976485
47	0x3ea8469f	0.3286638
48	0x3db83f92	0.089965
49	0xbe4bccbf	-0.19902323
50	0xbe91c8b1	-0.28473428
51	0x3e623ed8	0.22094285
52	0xbeada0f5	-0.33911863
53	0xbe60ac1c	-0.21940655
54	0xbc612b63	-0.013743254
55	0xbe9960e1	-0.29956725
56	0x3ea7f427	0.3280346
57	0x3dc83bb1	0.0977701
58	0x3e90f26b	0.2830995
59	0xbe89cbbf	-0.26913258
60	0x3b15ced0	0.0022858866
61	0xbd891830	-0.066940665
62	0x3eb05168	0.34437108
63	0x3e7edf33	0.24889831
64	0x3e35fd5e	0.17772433
65	0x3da19ae9	0.07890875
66	0x3e472a24	0.19449669
67	0xbe95f3e2	-0.2928763
68	0xbeb56bf7	-0.35433933
69	0xbe7ce6d9	-0.24697436
70	0x3e34b051	0.17645384
71	0x3ebbe97b	0.3670157
72	0x3e7797bd	0.24178977
73	0xbe93c41e	-0.28860563
74	0xbda5e701	-0.08100701
75	0xbe9dc0ae	-0.30811065
76	0x3e91aecb	0.2845367
77	0xbe6b0afe	-0.22953412
78	0x3e406d91	0.18791796
79	0x3dddd7ca	0.10832174
80	0xbe9d2402	-0.30691534
81	0x3e9bc6d5	0.30425134
82	0xbd8ec5d1	-0.06971324
83	0xbe4a5c06	-0.19761667
84	0xbe4072a3	-0.1879373
85	0x3c8bfc27	0.017088009
86	0x3d236311	0.0398894
87	0xbdb27fdf	-0.08715796
88	0xbdcf887b	-0.101334535
89	0xbce5a094	-0.028030671
90	0xbe51bc4a	-0.20481983
91	0x3de45a41	0.11150027
92	0x3d4af1fa	0.049547173
93	0x3e967d84	0.29392636
94	0xbe0a70b3	-0.13519554
95	0x3e90cb5e	0.28280157
96	0xbea3a0c3	-0.3195859
97	0xbcbe22aa	-0.023209888
98	0x3e80e4a7	0.25174448
99	0xbdb1e4d1	-0.086862214
100	0x3dff36a0	0.12461591
101	0xbd71cbe4	-0.059032336
102	0x3e18c368	0.14918292
103	0x3eb307d5	0.34966913
104	0x3ceb107f	0.02869439
105	0x3c0e27c4	0.008676473
106	0x3d5ee2b1	0.05441541
107	0xbe2a8ffb	-0.16656487
108	0x3e622084	0.22082716
109	0xbe8b3f28	-0.27196622
110	0x3eae7d6f	0.34080073
111	0x3e503f20	0.2033658
112	0x3e315ea1	0.17321254
113	0x3eb1c8bc	0.3472346
114	0xbe36d2fc	-0.17853922
115	0xbde2ec82	-0.110802665
116	0x3da3c102	0.07995798
117	0xbe83e393	-0.25759563
118	0xbbfac8cb	-0.007653331
119	0x3e731d09	0.23741545
120	0x3e9a382a	0.30120975
121	0xbde81fc1	-0.113341816
122	0xbe57daf7	-0.21079622
123	0xbc829027	-0.015937878
124	0xbe23bb57	-0.15989433
125	0x3cf3983f	0.029735683
126	0x3e68e417	0.2274326
127	0x3df81958	0.12114209
128	0x3da4e602	0.08051683
129	0x3e423786	0.18966493
130	0x3d95cc1a	0.0731432
131	0x3dcd6d3c	0.100306004
132	0xbe700b7b	-0.2344188
133	0xbe5f77d1	-0.2182305
134	0xbe416b6b	-0.18888633
135	0x3d0a964a	0.033834733
136	0x3e3d3b65	0.18479688
137	0x3e050a8a	0.12992302
138	0xbe93d795	-0.28875414
139	0x3e9844c9	0.2973998
140	0xbea6d68a	-0.32585555
141	0x3ea64246	0.32472438
142	0x3a8f4892	0.0010931662
143	0x3dea8f44	0.11453107
144	0xbcb1fc58	-0.021726772
145	0xbeacc579	-0.3374441
146	0xbd9a3898	-0.07530326
147	0xbddd1dbb	-0.10796686
148	0x3e2a7486	0.16646013
149	0x3e549a4a	0.20761982
150	0xbe36ec8c	-0.17863673
151	0xbe417692	-0.18892887
152	0x3dfc76fe	0.123273835
153	0x3e230aa4	0.15922028
154	0xbe970844	-0.29498494
155	0xbd47a15a	-0.04873786
156	0xbea860f9	-0.32886484
157	0xbe967150	-0.29383326
158	0x3d44e301	0.04806805
159	0x3df8806d	0.1213387
160	0xbe709448	-0.23494065
161	0xbe58d72c	-0.21175832
162	0xbdce8c52	-0.10085358
163	0xbdecf2c5	-0.11569742
164	0xbe2ce242	-0.16883186
165	0xbe933f66	-0.28759307
166	0x3e9f48a0	0.31110096
167	0xbe93d23d	-0.28871337
168	0xbdfe881c	-0.124283046
169	0x3d031166	0.031999014
170	0xbeb27e02	-0.3486176
171	0xbd2c1ab8	-0.04201767
172	0x3c8855cf	0.01664248
173	0xbd0bf524	-0.03416933
174	0x3eb63144	0.35584462
175	0x3e0783fe	0.13233945
176	0x3e7a56e6	0.24447212
177	0x3e8cd8a7	0.27509043
178	0xbe884323	-0.2661372
179	0x3d0bb2de	0.034106128
180	0xbe6a489c	-0.22879261
181	0x3d07d274	0.033159688
182	0x3ea090a4	0.31360352
183	0x3dbf337b	0.09335991
184	0x3e606793	0.2191451
185	0x3e72502a	0.23663393
186	0xbea23cbe	-0.31686968
187	0x3d994cf7	0.07485383
188	0x3e5a0dc5	0.21294315
189	0x3e8cf602	0.2753144
190	0xbdb92ed1	-0.09042133
191	0x3cbe3a78	0.02322124
192	0x3e39fe86	0.18163499
193	0x3c8abd53	0.01693598
194	0x3dc67454	0.096901566
195	0xbd6d3091	-0.057907645
196	0x3eb2ece2	0.34946352
197	0x3e91afd3	0.28454456
198	0xbe495b5d	-0.19663759
199	0xbe8f3e89	-0.27977398
200	0xbe4a5284	-0.1975804
201	0x3e0a7fe6	0.13525352
202	0x3dd36b7e	0.10323237
203	0x3e517cd3	0.20457773
204	0x3eb6eed5	0.3572909
205	0x3e11ee33	0.14251022
206	0xbe675b4f	-0.22593425
207	0x3e942841	0.2893696
208	0xbe3ad175	-0.18243964
209	0xbe949c53	-0.29025516
210	0x3e4299c5	0.19003971
211	0x3e61740a	0.22016922
212	0xbde39b3c	-0.11113593
213	0xbe782186	-0.24231538
214	0xbd1790fe	-0.03700351
215	0x3e9c7583	0.30558404
216	0x3dd1323f	0.10214662
217	0x3e974567	0.29545137
218	0x3c38ca84	0.011278752
219	0xbe6b2f99	-0.22967376
220	0x3e7c127c	0.24616426
221	0xbd526b13	-0.051371645
222	0xbe16d1a0	-0.14728403
223	0x3eb3736d	0.35049
224	0x3e0b87ae	0.13625976
225	0xbd86a7c6	-0.06574969
226	0x3e70fa49	0.23532976
227	0xbdabe4ab	-0.08393224
228	0xbe346d5d	-0.17619844
229	0xbe94515a	-0.28968316
230	0xbe42d18d	-0.1902525
231	0xbe5dc3fb	-0.21656792
232	0xbe39a2e5	-0.18128546
233	0xbde410be	-0.11136006
234	0x3e52727d	0.20551486
235	0xbe926e2f	-0.28599688
236	0x3e895b2a	0.26827365
237	0x3e76484e	0.2405102
238	0x3ea10fab	0.31457266
239	0x3e1c228a	0.1524755
240	0xbe9b9e13	-0.3039404
241	0xbe6457b8	-0.22299087
242	0xbd970c93	-0.07375445
243	0xbdfc0fc2	-0.12307693
244	0x3eaa5b5c	0.33272827
245	0x3e6f3de8	0.23363459
246	0x3e753f3e	0.23949906
247	0xbe98be5f	-0.29832742
248	0xbe75de0c	-0.24010485
249	0xbe485869	-0.19564976
250	0x3d67be7c	0.056578144
251	0x3e6ef5d4	0.23335963
252	0x3ca3093a	0.01990186
253	0x3e500c8e	0.20317289
254	0xbce010e9	-0.027351813
255	0x3e715c17	0.23570286

weight f4 [200, 400]
0	0x3d00448b	0.031315368
1	0x3d32e408	0.0436745
2	0x3c81c941	0.015843036
3	0xbd0b99c3	-0.034082185
4	0x3cd8985d	0.02643984
5	0xbc43f05e	-0.0119591635
6	0x3d394f72	0.04524178
7	0x3d14cb93	0.036326956
8	0x3c3134ed	0.010815841
9	0x3bac01ff	0.0052492614
10	0x3d451728	0.048117787
11	0xbc87b11c	-0.016563945
12	0xbd3ce948	-0.04612091
13	0xbd3b077c	-0.045661435
14	0xbc4c4a45	-0.012468879
15	0xbca4af93	-0.020103252
16	0xbcea07f4	-0.028568245
17	0x3c008bc2	0.007845821
18	0xbc5b4562	-0.013383241
19	0xbd0c62c5	-0.03427388
20	0xbc0448d7	-0.008074007
21	0xbb54725b	-0.0032416794
22	0xbd1a9568	-0.03774014
23	0x3bfe1da6	0.007754999
24	0x3c5467c2	0.012964191
25	0xba4463ed	-0.0007491697
26	0x3d438645	0.04773547
27	0xbc4440d0	-0.011978343
28	0x3c55792e	0.01302938
29	0xbd2d86e5	-0.042364974
30	0xbcdeccb1	-0.027197214
31	0x3d24813a	0.040162303
32	0x3d20c332	0.039248653
33	0x3d02154e	0.0317586
34	0xbca71f27	-0.020400597
35	0x3d027378	0.0318484
36	0xbc6f7af3	-0.014616716
37	0x3d4a3d61	0.04937494
38	0xbd367a0b	-0.044549983
39	0x3cf73108	0.030174747
40	0x3d0aba38	0.033869
41	0xbcffb853	-0.031215822
42	0x3d27410b	0.040833514
43	0xbd19db8a	-0.037562884
44	0x3cab6c85	0.02092577
45	0xbceaa682	-0.02864385
46	0x3a07c9c5	0.00051799073
47	0xbcc3b002	-0.023887638
48	0x3c96efb1	0.01842484
49	0x3d34c80e	0.0441361
50	0xba9bac91	-0.001187699
51	0x3d133978	0.03594348
52	0x3cb1eb6d	0.021718705
53	0x3b34c014	0.0027580308
54	0xbb7ea7ef	-0.003885742
55	0xbab58706	-0.0013849444
56	0xbcbef55a	-0.023310352
57	0xbd06281a	-0.032753088
58	0x3c2bd430	0.010487601
59	0xbb881f74	-0.00415414
60	0x3b79ea16	0.003813391
61	0xbd4ece4f	-0.05048972
62	0xbd36074a	-0.044440545
63	0x3d4d4f0b	0.05012421
64	0x3c965209	0.018349664
65	0x3d40334b	0.046923917
66	0x3ca28207	0.019837392
67	0xbd4a10c0	-0.04933238
68	0xbc44260e	-0.011971964
69	0xbd2bcb01	-0.041941646
70	0xbc691e04	-0.014228348
71	0xbd113590	-0.03545147
72	0x3bf8f0ed	0.00759708
73	0xbd0523c2	-0.032504804
74	0xbd1dc2ce	-0.03851586
75	0x3c1224da	0.008919919
76	0x3d471d54	0.048611954
77	0xbc616099	-0.013755941
78	0xbd2ff065	-0.042953867
79	0x398f25c5	0.00027303226
80	0x3cde7231	0.02715406
81	0x3c9a2fc8	0.018821612
82	0xbd3a02a1	-0.045412663
83	0xbccf2907	-0.025288118
84	0xbccd68a4	-0.02507431
85	0xbd0da652	-0.034582444
86	0x3d0532ae	0.032519035
87	0xbb954f31	-0.0045565595
88	0x3ce1b16d	0.027550424
89	0x3af109cf	0.0018389764
90	0x3bb864ea	0.0056272643
91	0x3c3fa00d	0.011695874
92	0xbcc87798	-0.02447109
93	0xbd34d4fb	-0.044148427
94	0xbc52f1eb	-0.012875061
95	0xbc7bf221	-0.015377552
96	0xbd001bfb	-0.031276684
97	0x3cf2a968	0.029621795
98	0xbd2a10fe	-0.04152011
99	0x3c665548	0.014058419
100	0xbd1fef2a	-0.039046444
101	0xbcc3d763	-0.023906415
102	0xbade6cee	-0.001696972
103	0xbcede4de	-0.029039796
104	0xba2f6038	-0.0006690058
105	0xba378b7d	-0.00070016814
106	0xbc3d02f8	-0.011536352
107	0xbccbe4d2	-0.024889383
108	0x3d539f8a	0.05166582
109	0xbcf7bb6c	-0.030240737
110	0x3cb19210	0.021676093
111	0x3c9d35aa	0.019190628
112	0xbd10813c	-0.035279498
113	0x3aecef38	0.0018076664
114	0x3a813c9c	0.0009859982
115	0xbcf957bc	-0.030437343
116	0xbd256b8a	-0.04038576
117	0xbc99714e	-0.018730786
118	0x3d0cc382	0.03436614
119	0x3d45400a	0.048156776
120	0xbd4b596b	-0.049645822
121	0xbd39a514	-0.045323446
122	0x3cbd5dec	0.023116075
123	0x3d357270	0.04429859
124	0xbc90ae65	-0.017661283
125	0xbd0cb397	-0.034350958
126	0xbd12521f	-0.035722848
127	0xbc97881d	-0.018497521
128	0xbd427fc7	-0.04748514
129	0xbc757ab3	-0.014982867
130	0xb96ff7b4	-0.00022885093
131	0xbc9c182a	-0.019054491
132	0xbcdb042f	-0.026735393
133	0xbc25243b	-0.010079439
134	0xbccfcb6d	-0.025365556
135	0x3d34c8be	0.044136755
136	0xbc237e37	-0.009978822
137	0x3b07b5e8	0.002070779
138	0xbcfa5d22	-0.030561987
139	0xbd3de61b	-0.046362024
140	0x3c088051	0.008331374
141	0x3b9f579f	0.00486274
142	0xbc991912	-0.018688712
143	0x3cb7b377	0.022424443
144	0x39f7ef29	0.000472897
145	0xbccfa4df	-0.025347171
146	0x3d2fb3d2	0.0428961
147	0xbcb6c01f	-0.022308407
148	0x3d3663f1	0.044528905
149	0xbb39ca61	-0.0028349387
150	0x3b32ef40	0.0027303249
151	0xbd4aa15d	-0.049470294
152	0xbd1fb6e0	-0.038992763
153	0xbd4c0baa	-0.04981581
154	0xbd0439c1	-0.03228164
155	0xbc213217	-0.0098386025
156	0x3ca6adcd	0.020346547
157	0x3cf32f5b	0.029685667
158	0xbc38d630	-0.011281535
159	0x3cf4bf31	0.029876323
160	0x3d452ea2	0.048140176
161	0x3cb4a9bb	0.02205359
162	0x3d130f9a	0.03590355
163	0xbbab9430	-0.005236171
164	0x3d420412	0.047367163
165	0x3cd0ca47	0.025487078
166	0x3ae95ec0	0.0017804727
167	0xbd431d8b	-0.047635596
168	0x3c9c0495	0.019045154
169	0x3cd6e5d5	0.02623264
170	0x3c2882c4	0.010285083
171	0xbd30c5b0	-0.04315728
172	0x3c7a5347	0.015278644
173	0xbc6bfdbb	-0.014403756
174	0xbd142e5c	-0.036177024
175	0x3d444fff	0.047927853
176	0xbcecf32f	-0.028924553
177	0x3ccc8cc8	0.024969473
178	0xbd011dcd	-0.03152256
179	0x3cf81ead	0.030288065
180	0xbcf076a7	-0.029353453
181	0x3b793b71	0.0038029815
182	0xbc006803	-0.007837298
183	0xbd3e7c7c	-0.046505436
184	0xbacd367d	-0.0015656498
185	0xbccb078f	-0.024783878
186	0x3d08ac92	0.0333677
187	0x3d1a146a	0.037617125
188	0xbc9c3de5	-0.019072482
189	0xbc53172e	-0.012883944
190	0xbc80b833	-0.015712833
191	0x3b53fbbd	0.0032346093
192	0xbd3b6d89	-0.045758758
193	0x3cf797a4	0.030223675
194	0x3d35b095	0.044357855
195	0xbca018ff	-0.019543169
196	0xbbbd7bd8	-0.0057825856
197	0xbc02727d	-0.007961866
198	0xbd3cb49a	-0.046070673
199	0x3cfeebd3	0.03111831
200	0xbd0a0629	-0.03369728
201	0x3d2fe53e	0.04294323
202	0xbd39129b	-0.04518376
203	0x3c950f72	0.018195841
204	0x3cee359f	0.029078303
205	0xbce8ee21	-0.028433861
206	0x3d468dff	0.04847526
207	0xbce9d403	-0.028543478
208	0x3c4b7339	0.012417608
209	0x3d0d050b	0.034428637
210	0x3cafb2e9	0.021447616
211	0x3d00ac72	0.031414457
212	0xbd03c3db	-0.032169204
213	0x3b54b233	0.0032454848
214	0xbc044f15	-0.008075495
215	0x3adc9e79	0.0016831897
216	0xbd1f6f21	-0.03892434
217	0x3c3844a6	0.011246836
218	0xbcf16438	-0.029466733
219	0x3d2b5b50	0.04183513
220	0xbcba27dc	-0.022724085
221	0x3d1cd81d	0.03829204
222	0xbc607d46	-0.0137017425
223	0xbc64bfba	-0.013961727
224	0x3b1433d6	0.0022613904
225	0xbc86db16	-0.01646189
226	0x3bcf4fbb	0.0063266433
227	0x3c18af59	0.00931915
228	0xbc8358fe	-0.016033646
229	0xbcba339c	-0.022729687
230	0x3c689572	0.014195787
231	0xbceca3d8	-0.02888672
232	0x3d15d714	0.036582068
233	0xbd20ff22	-0.039305814
234	0xbd193b98	-0.03741035
235	0x3c0f1438	0.008732848
236	0x3c12e1b1	0.008964942
237	0x3cad2408	0.021135345
238	0x3bdb9ea3	0.0067022606
239	0xbc7dc8ae	-0.01548974
240	0x3ae22b40	0.0017255321
241	0x3d291686	0.041281246
242	0xbc6d2cb0	-0.014475986
243	0xbc6d61f1	-0.014488683
244	0x3ca16bd2	0.019704733
245	0x3d1cc54a	0.038274087
246	0x3b280e6c	0.0025643362
247	0x3cd47af2	0.025937531
248	0xbcf6f32d	-0.030145252
249	0xbd041417	-0.03224572
250	0xbcdddb14	-0.027082004
251	0x3d056f89	0.03257707
252	0xbd2cbb0b	-0.042170566
253	0x3d564e50	0.05232078
254	0xbd11b202	-0.035570152
255	0x3cd9aa07	0.026570333

bias f4 [200]
0	0xbd1bc935	-0.038033683
1	0xbcfd4f22	-0.030921523
2	0x3d2e9948	0.04262665
3	0x3ce1b0dd	0.027550155
4	0xbc8d3a8e	-0.017239835
5	0x3c5182f4	0.012787569
6	0x3d00cd1a	0.0314456
7	0xbafb6268	-0.0019179108
8	0xbc9d0e50	-0.019171864
9	0xbd330323	-0.043704163
10	0xbd17addb	-0.037031036
11	0x3bfe5c5e	0.007762476
12	0xbd3b4c0e	-0.04572683
13	0x3c9ddedd	0.019271309
14	0xbc8618b7	-0.016369207
15	0xbc2bd353	-0.010487395
16	0xbd1204d6	-0.035649143
17	0xbd164f4d	-0.03669672
18	0x3c6bb3b0	0.014386103
19	0x38407ca7	4.589246e-05
20	0xbc3e166d	-0.011602026
21	0xbb0eae8f	-0.0021771525
22	0xbd08d827	-0.033409264
23	0x3cfe5cc9	0.031050103
24	0x3d56ebc1	0.052470926
25	0xbd0e44d8	-0.034733623
26	0xbcdc731e	-0.02691036
27	0x3d503cc2	0.050839193
28	0x3d2d5249	0.0423148
29	0x3d03b369	0.03215352
30	0xbbeaa790	-0.0071610883
31	0x3d64070e	0.05567079
32	0x3ca6268a	0.020282049
33	0xbd5c2475	-0.053745706
34	0x3b38cb91	0.0028197507
35	0xbbfb61db	-0.0076715774
36	0xbcd509c9	-0.026005642
37	0xbd0ac572	-0.033879705
38	0x3d15e968	0.036599547
39	0x3cb9b2b8	0.022668228
40	0x3b8434ab	0.004034599
41	0x3bec00d6	0.007202248
42	0x3c9a3a2d	0.018826568
43	0xbce4bc65	-0.027921865
44	0x3beba960	0.007191822
45	0xbd2ea597	-0.042638388
46	0xbb20a290	-0.0024510957
47	0x3c46da79	0.012137049
48	0x3d50cef9	0.050978635
49	0xbd1b3eb0	-0.03790158
50	0x3bc1f4fd	0.0059190975
51	0x3c0ab6a1	0.008466394
52	0x3c047be8	0.008086182
53	0xbcc327e2	-0.023822729
54	0xbc3b3d86	-0.011428243
55	0xbb7b369d	-0.0038332113
56	0x3d134529	0.03595463
57	0x3bb26036	0.005443598
58	0xbca96c4a	-0.020681519
59	0xbd3302bf	-0.04370379
60	0xba87670e	-0.0010330395
61	0x3d3a161a	0.045431234
62	0xbd4c7587	-0.04991677
63	0x3c656cdd	0.014003006
64	0xbc0d7e5a	-0.008636082
65	0xbd2a0064	-0.04150428
66	0xbd2aece0	-0.041729808
67	0xbbe5fbc8	-0.00701854
68	0x3d3307a3	0.043708455
69	0x3d2a2dd6	0.04154762
70	0x3c9db701	0.019252302
71	0xbce3e362	-0.027818386
72	0x3ca31817	0.019908948
73	0x3b54d3fb	0.0032474983
74	0x3d5ac585	0.053411026
75	0x3cc53371	0.02407238
76	0x3cbbc604	0.02292157
77	0x3cb20a34	0.02173338
78	0x3cfb70b8	0.030693397
79	0xba346a57	-0.0006882301
80	0x3b098585	0.0020984125
81	0xbcd2bfc6	-0.02572621
82	0xbcff755b	-0.03118389
83	0x3d239ff3	0.03994746
84	0xbd03d9de	-0.032190196
85	0xbca24072	-0.01980612
86	0x3c2f3263	0.0106931655
87	0xbcdf7898	-0.027279183
88	0x3cc03d97	0.023466868
89	0x3cff906b	0.031196794
90	0xbb5da020	-0.0033817366
91	0x3c9e3ef0	0.01931712
92	0x3a786a49	0.0009476287
93	0x3d250b1b	0.040293794
94	0x3c98b9bb	0.01864325
95	0xbced4d7b	-0.02896761
96	0x3ba7e16f	0.0051233093
97	0x3d4cc83f	0.049995657
98	0x3c2d666b	0.0105835
99	0x3d05925b	0.03261028
100	0x3caac080	0.020843744
101	0x38d86c55	0.00010319861
102	0xbb9326ab	-0.0044906936
103	0xbc0cbe47	-0.0085902875
104	0x3d19ac53	0.037517857
105	0xbc0597b0	-0.008153841
106	0xbd395214	-0.04524429
107	0x3984cffd	0.00025331965
108	0xbd382372	-0.04495568
109	0x3d164816	0.03668984
110	0x3c3ae7d7	0.011407814
111	0x3d665cd9	0.05624089
112	0x3965e309	0.00021923719
113	0xbcb194de	-0.02167743
114	0xbbb948d1	-0.0056544323
115	0x3ca60c5e	0.020269569
116	0xbc1b924e	-0.009495331
117	0x3c6e9976	0.014562955
118	0x3d3cafce	0.046066098
119	0x3bec580a	0.0072126435
120	0x3c770bef	0.015078529
121	0x3b1ffdfb	0.0024412859
122	0xbcd1f498	-0.025629327
123	0x3d46acdb	0.04850469
124	0xbb925241	-0.004465372
125	0x3cf153e5	0.02945895
126	0xbd115f7a	-0.035491444
127	0xbccd9e54	-0.02509991
128	0x3baae642	0.005215437
129	0xbd0d0e3f	-0.034437414
130	0xbd0c7581	-0.034291748
131	0x3d4e77a9	0.050407086
132	0xbd1953f5	-0.037433583
133	0xbd3893e2	-0.045062907
134	0x3c99b0ff	0.018761156
135	0x3d0af207	0.03392222
136	0xbd136e29	-0.03599373
137	0x3cccddf6	0.025008183
138	0x3d20912d	0.03920095
139	0x3d5de552	0.054173775
140	0x3b37678f	0.002798531
141	0x3d206315	0.039156992
142	0xbca603cd	-0.020265484
143	0xbd191d15	-0.03738125
144	0xbd2efd36	-0.04272195
145	0xbd36645a	-0.044529296
146	0x3d3f33a9	0.046680126
147	0xbb20b46c	-0.0024521602
148	0x3cb4a72a	0.022052366
149	0xbb18eb32	-0.0023333547
150	0xbcf2f032	-0.02965555
151	0xbce65e3a	-0.028121103
152	0xbd24d08e	-0.040237956
153	0xbc890c20	-0.016729414
154	0xbba10fb0	-0.0049152
155	0xbd112e58	-0.035444587
156	0x3d12f21d	0.03587543
157	0x3d1cb68a	0.03826002
158	0xbd13d406	-0.036090873
159	0xba0f432f	-0.0005465028
160	0xbcd0a373	-0.025468564
161	0xbb25a610	-0.0025275983
162	0x3d0a3500	0.03374195
163	0xbd29a2dd	-0.041415084
164	0x3c0331ef	0.008007511
165	0x3c83afde	0.016075071
166	0xbc34d5f5	-0.011037339
167	0x3a7c1737	0.00096164964
168	0x3d46095b	0.048348766
169	0xbcf301f2	-0.029664014
170	0xbce5acd9	-0.028036522
171	0xbca49cf6	-0.020094376
172	0xbc82b58d	-0.01595571
173	0x3d23e434	0.040012553
174	0x3cd297dc	0.025707178
175	0x3d37ed64	0.044904128
176	0x3b40189c	0.0029311543
177	0x39d2777d	0.00040143347
178	0x399e4927	0.0003019061
179	0x3cf1e32f	0.029527275
180	0x3aa763a2	0.0012770782
181	0x3c9bd9a5	0.01902468
182	0x3d204527	0.03912845
183	0x3d014e0e	0.03156858
184	0xbb404d3f	-0.0029342917
185	0x3d1fe9ba	0.03904126
186	0x3ca93c3b	0.020658603
187	0x3c986384	0.01860214
188	0xbc8a52e7	-0.016885234
189	0x3d3afd63	0.045651805
190	0xbd2c8fab	-0.0421292
191	0xbc1c37c9	-0.009534785
192	0xbcf04ebe	-0.029334422
193	0xbc6523ab	-0.013985555
194	0x3c9a84ca	0.018862147
195	0x3ce13e45	0.027495513
196	0x3d649fca	0.05581645
197	0x3c59e6e3	0.013299677
198	0x3d4d543b	0.050129157
199	0x3d2c1943	0.04201628

weight f4 [2, 200]
0	0xbc8cb632	-0.017176721
1	0x3d1efdcd	0.038816262
2	0x3da5251f	0.08063721
3	0x3c7a6d59	0.01528486
4	0xbbdc1810	-0.0067167357
5	0x3c463efc	0.012099978
6	0x3c956b07	0.018239511
7	0x3dae944d	0.0852438
8	0xbcfa8caa	-0.030584652
9	0x3d2d28b4	0.042275146
10	0x3d78b41c	0.06071864
11	0xbd7a6f4d	-0.0611413
12	0xbd6e1369	-0.05812398
13	0x3db03c22	0.086052194
14	0x3d4e334b	0.050341886
15	0x3d29df01	0.04147244
16	0xbda0d127	-0.07852393
17	0xbc993af1	-0.018704863
18	0x3b82a76c	0.0039872434
19	0xbbb36e9c	-0.005475832
20	0x3c835763	0.01603288
21	0xbd472654	-0.048620537
22	0x3ce40126	0.027832579
23	0xbd682948	-0.056679994
24	0x3c7e9e4b	0.01554067
25	0xbd5e405a	-0.05426059
26	0xbb03f7b2	-0.0020136652
27	0x3d8c4db1	0.06850756
28	0x3d9cee01	0.07662583
29	0x3d8cdb52	0.068777695
30	0x3d87509d	0.06607173
31	0x3c1c7cac	0.0095512085
32	0xbd35b524	-0.044362202
33	0xba27291f	-0.0006376672
34	0x3d801ebf	0.06255864
35	0x3d891170	0.06692779
36	0xbbe6daaa	-0.0070451098
37	0x3d22bc4a	0.039730348
38	0xbc9f047c	-0.019411318
39	0x3d465b17	0.048426714
40	0xbd8f3609	-0.06992728
41	0xbd750e65	-0.05982818
42	0xbd2550ae	-0.040360145
43	0x3d88dedf	0.06683134
44	0xbd9dd113	-0.07705893
45	0xbd34e4f0	-0.044163644
46	0xbd706583	-0.05869056
47	0x3db96ac4	0.09053567
48	0x3c87f653	0.016596949
49	0xbd9bd5cf	-0.0760914
50	0xbda17753	-0.078840874
51	0xbc749926	-0.014929092
52	0xbd4789bd	-0.04871534
53	0x3cdcba8b	0.02694442
54	0x3d23025b	0.03979717
55	0x3ce8b297	0.02840547
56	0x3c2c1b66	0.010504579
57	0xbc394c18	-0.011309646
58	0x3d1f70a9	0.0389258
59	0xbd91e509	-0.07123763
60	0x3d48170f	0.048850115
61	0x3cb1666a	0.02165528
62	0xbd1e91d6	-0.0387133
63	0x3be5faa8	0.007018406
64	0x3bcd4db6	0.0062653674
65	0x3d689396	0.056781374
66	0xbc97eedb	-0.018546512
67	0xbd41e395	-0.04733618
68	0x3d1f1cdd	0.038845886
69	0xbca34f39	-0.019935237
70	0xbda257fd	-0.07926939
71	0x3d780fe3	0.060562026
72	0xbd57e310	-0.052706778
73	0x3d353119	0.044236276
74	0x3d8a44d0	0.06751406
75	0x3bf27265	0.007398891
76	0xbd50def9	-0.050993893
77	0x3c5afb8d	0.013365638
78	0xbcb11815	-0.021617929
79	0xbd3b81de	-0.045778148
80	0xbd736cff	-0.05943012
81	0xbd99bfd0	-0.075072885
82	0x3dad927b	0.084752046
83	0x3d3e51b8	0.04646465
84	0xbc17681e	-0.009241132
85	0x3d1393da	0.036029674
86	0xbc1021f6	-0.008797159
87	0x3d45661b	0.04819308
88	0xbd0f637f	-0.035006996
89	0x3ceb2c3e	0.02870762
90	0xbcdf24b6	-0.027239185
91	0x3cbf0d74	0.023321845
92	0xbd721db2	-0.05911035
93	0x3ca6aa49	0.02034487
94	0x3ce40e30	0.027838796
95	0xbd505a29	-0.050867233
96	0x3c61bc22	0.0137777645
97	0x3da7748d	0.08176527
98	0x3d8d7aab	0.06908163
99	0x3d8d40fd	0.06897161
100	0xbca81643	-0.020518428
101	0xbd3d0119	-0.046143625
102	0xbd77e9a0	-0.060525537
103	0xb99b018c	-0.00029565056
104	0x3c43559c	0.011922266
105	0x3bc36fc0	0.0059642494
106	0x3d3fa5e7	0.046789076
107	0x3d77d537	0.060506072
108	0xbd31e1d1	-0.043428246
109	0x3d3edf24	0.046599522
110	0x3d1ff9df	0.039056655
111	0x3d46ce6f	0.048536714
112	0xbd7485dd	-0.059697974
113	0xbd1d68cf	-0.03843003
114	0x3d3e5992	0.04647214
115	0xbc705509	-0.014668711
116	0x3c4787e7	0.012178398
117	0xbda4f8ff	-0.08055305
118	0xbcabc0ac	-0.020965897
119	0x3d1263de	0.035739772
120	0x3d2c145b	0.0420116
121	0x3ba8d031	0.0051517715
122	0xbd781976	-0.060571156
123	0x3ccd84ea	0.025087792
124	0xbd7b7945	-0.06139495
125	0xbd12fa67	-0.035883334
126	0x3b8a9189	0.004228775
127	0xbc9be6c9	-0.019030945
128	0xbd4d6bbc	-0.05015157
129	0xbd9222e2	-0.071355596
130	0xbd716815	-0.05893715
131	0x3d0ec66f	0.03485721
132	0xbcb14b32	-0.021642301
133	0xbcd48a5e	-0.025944885
134	0xbd354a23	-0.044260155
135	0x3d6acaf4	0.057322457
136	0xbd97a7ab	-0.07405027
137	0xbd90c8f9	-0.070695825
138	0xbc78e8fd	-0.0151922675
139	0x3d5c09ff	0.05372047
140	0x3d326a8c	0.043558642
141	0x3c925506	0.017862808
142	0xbd681fc9	-0.056670938
143	0xbd58a931	-0.05289573
144	0xbcb379b6	-0.021908622
145	0xbcadcfe4	-0.021217294
146	0xbdac1087	-0.0840159
147	0x3d8b79b6	0.06810324
148	0xbc3d26f8	-0.011544935
149	0xbd4a506b	-0.0493931
150	0xbd903f76	-0.07043354
151	0x3c936127	0.017990662
152	0xbda4bc7b	-0.08043762
153	0x3cc45128	0.02396448
154	0x3d2cef96	0.042220674
155	0xbd61f8eb	-0.055169027
156	0x3db46f74	0.088103205
157	0xbd94ac5e	-0.07259439
158	0xbd5815ae	-0.05275505
159	0x3dada329	0.08478386
160	0x3d4dac2f	0.050213035
161	0xbd6233e6	-0.055225275
162	0xbd38de3c	-0.045133814
163	0x3d7f36a1	0.062307958
164	0x3d16d495	0.036823828
165	0x3c048b00	0.008089781
166	0xbd8ab780	-0.06773281
167	0xbd60d909	-0.05489448
168	0xbcf6e4c5	-0.030138383
169	0x3d900c8e	0.070336446
170	0x3d803cf2	0.062616244
171	0x3cc845c3	0.024447327
172	0x3d3008d1	0.042977158
173	0x3b9bf187	0.004759017
174	0x3d376642	0.044775255
175	0x3d4d51bf	0.050126787
176	0x3cf2cf6b	0.02963992
177	0x3d0ada9f	0.0338999
178	0x3c972786	0.018451463
179	0x3d7c642a	0.06161896
180	0x3d58fece	0.052977376
181	0xbbbead03	-0.0058189644
182	0xbc03dbf0	-0.008048043
183	0x3d768e6c	0.060194418
184	0xbd6fc5f4	-0.058538392
185	0x3dbb350e	0.09140979
186	0x3db3dc00	0.08782196
187	0xbd93e7eb	-0.07221969
188	0x3b85a5b1	0.00407859
189	0xbd9c7eaa	-0.07641347
190	0x3d07346d	0.03300898
191	0xbcd07123	-0.025444573
192	0x3da07ba6	0.07836084
193	0xbd856166	-0.06512718
194	0xbd7ac903	-0.061226856
195	0xbd5c23a7	-0.05374494
196	0x3da9a9b6	0.08284323
197	0xbd06137f	-0.032733437
198	0x3d633313	0.05546863
199	0x3d8ce0dc	0.06878826
200	0xbcbf9a20	-0.023388922
201	0x3d992c78	0.07479185
202	0x3d29f207	0.04149058
203	0x3da36542	0.07978298
204	0xbd849c0e	-0.064750776
205	0xbd4db91c	-0.050225362
206	0x3d4b202b	0.049591225
207	0x3d69595b	0.05696998
208	0xbd5797eb	-0.052635115
209	0x3d98e036	0.0746464
210	0xbd8e92fc	-0.06961629
211	0x3d402002	0.046905525
212	0x3d913b7e	0.07091425
213	0xbd4b5328	-0.04963985
214	0xbc8f4824	-0.017490454
215	0x3d8dbd1f	0.069208376
216	0x3cef52e0	0.029214323
217	0x3d90101c	0.070343226
218	0xbd1d9fbb	-0.03848241
219	0x3ce11e2e	0.027480211
220	0x3d06945a	0.032856323
221	0xbcac4f4b	-0.021033904
222	0x3c85ab6a	0.016317088
223	0x3db33f7f	0.08752345
224	0xbd47fb83	-0.048823845
225	0x3d71d4e2	0.05904091
226	0x3bff385e	0.007788702
227	0x3d3d6243	0.046236288
228	0x3d9df656	0.077130005
229	0xbca1f271	-0.019768925
230	0xbd0f0175	-0.0349135
231	0x3d0472da	0.032336093
232	0x3d13ca5d	0.03608166
233	0xbbcba3ee	-0.0062146103
234	0x3b2820e8	0.002565438
235	0xbcce1879	-0.025158154
236	0xbda79d67	-0.08184319
237	0xbd242887	-0.040077712
238	0x3d5ffdbb	0.054685336
239	0x3cb3c3cd	0.021943951
240	0xbd88249a	-0.06647606
241	0xbda222f3	-0.07916822
242	0xbbfad7a4	-0.007655101
243	0xbd871c5d	-0.06597207
244	0xbd90f575	-0.07078067
245	0xbd62375a	-0.05522857
246	0xbd979641	-0.074017055
247	0xbd8b6628	-0.06806594
248	0x3db59508	0.08866316
249	0xbce7964f	-0.028269915
250	0x3bf6b0e6	0.007528412
251	0x3d1bf969	0.038079653
252	0x3c4027a4	0.011728201
253	0xbd820d69	-0.06350214
254	0x3ccd12c1	0.025033357
255	0x3d95b1b4	0.07309285

bias f4 [2]
0	0xbd36cbd6	-0.044627987
1	0x3d827ff7	0.063720636

weight f4 [200, 400]
0	0xbb20075e	-0.0024418454
1	0x3b97a7d6	0.004628162
2	0xbba01fcc	-0.004886603
3	0xbbc39184	-0.0059682745
4	0xbbc7ce4c	-0.0060975906
5	0xbc92f8c6	-0.01794089
6	0x3bebc27d	0.0071948157
7	0x3d4e0f0b	0.050307315
8	0xbd04ec4d	-0.032451916
9	0x3c4873f9	0.012234681
10	0x3d1cf9eb	0.038324278
11	0x3ca96e29	0.020682411
12	0x3ccca83e	0.024982568
13	0xbcf8d745	-0.030376086
14	0x3d552755	0.052039463
15	0x3b999d48	0.004687939
16	0x3c1bdaaf	0.009512587
17	0x3c693609	0.014234074
18	0xbcbefc9c	-0.023313813
19	0xbd0bf178	-0.03416583
20	0x3c07dd0b	0.008292447
21	0x3d25df87	0.040496375
22	0x3c91303c	0.017723195
23	0x3bf652d4	0.007517198
24	0xbcd567e2	-0.026050512
25	0xbb76203c	-0.0037555834
26	0xbd289b62	-0.04116381
27	0x3a05ffd7	0.00051116705
28	0xbcb7ed31	-0.022451969
29	0x3d165b49	0.03670815
30	0x3ca2f1de	0.019890722
31	0xbcc9aa2b	-0.024617275
32	0x3d0d6b3e	0.034526102
33	0x3d2187c0	0.039436102
34	0xbcbbc258	-0.022919819
35	0x3d2ead20	0.042645574
36	0xbbaddacb	-0.005305623
37	0xbb0289d1	-0.001991857
38	0xbbac4f84	-0.0052585024
39	0x3d517e6f	0.051145967
40	0xbccd9452	-0.025095139
41	0x3c9a1662	0.018809501
42	0x3cde7bda	0.027158666
43	0xba9be106	-0.0011892624
44	0x3d3a7d96	0.045529924
45	0x3b1a1320	0.0023509935
46	0xbca021c3	-0.019547349
47	0xbd259724	-0.040427342
48	0xbc9cd4d1	-0.019144448
49	0xbcdb8280	-0.026795626
50	0xbc62056f	-0.013795241
51	0x3d4cf7af	0.050040897
52	0x3c0fcffe	0.008777617
53	0x3d071abe	0.032984488
54	0x3d56dd90	0.052457392
55	0x3cd5d18b	0.026100894
56	0x3adb192f	0.0016715879
57	0x3bcab491	0.006186076
58	0x3ccd0072	0.025024626
59	0x3d67b9fd	0.056573857
60	0x3bc8d719	0.0061291573
61	0xbce72888	-0.028217569
62	0x3cbab724	0.022792406
63	0x3d4b9ea8	0.049711853
64	0xb9a65ab6	-0.00031729572
65	0x3cd838fd	0.026394362
66	0xba17d8fa	-0.0005792525
67	0x3d045997	0.032312002
68	0xbd20176d	-0.03908484
69	0xbc8e1f49	-0.017348902
70	0x3d5486f0	0.0518865
71	0xbcf06502	-0.02934504
72	0xbc86e016	-0.016464274
73	0xbcb5b7a8	-0.0221823
74	0x3cc8fba7	0.02453406
75	0x3cc71ea5	0.024306605
76	0x3cdd3128	0.027000979
77	0x3bc16aa5	0.0059026056
78	0x3c8ab049	0.016929762
79	0xbcefdc8d	-0.029279971
80	0x3d3eceef	0.046584066
81	0xbc4f744a	-0.012662003
82	0xbcb2ecff	-0.021841524
83	0x3d0aca69	0.03388444
84	0xbcc4150a	-0.023935813
85	0xbc13aa44	-0.009012762
86	0xbd2b736b	-0.041858118
87	0xbc9f1d92	-0.01942328
88	0xbc556185	-0.013023739
89	0x3c9e2569	0.019304948
90	0xbd27ef9f	-0.041000005
91	0x3bbf794e	0.005843318
92	0xbc4ac61d	-0.012376335
93	0x3cab2a16	0.020894092
94	0xbcf392f4	-0.029733159
95	0xbbfcdcbb	-0.007716743
96	0xbc4e2858	-0.012582861
97	0xbd3a2879	-0.045448754
98	0x3cb1138b	0.021615764
99	0xbcfd1099	-0.030891703
100	0x3d225641	0.03963304
101	0x3d4f1e09	0.050565753
102	0xbab25264	-0.0013604877
103	0x3d17c810	0.03705603
104	0xbca183ae	-0.01971611
105	0x3b9ddead	0.004817805
106	0x3d047887	0.032341506
107	0xbd27a626	-0.040929936
108	0xbcdc6bbd	-0.026906842
109	0x3c6b2ff8	0.014354698
110	0x3cf326d5	0.029681602
111	0x3d42fa5d	0.047602046
112	0xbc8f5fc7	-0.017501725
113	0x3a4bbf32	0.0007772326
114	0x3d2671f0	0.040636003
115	0xbcd0f1fe	-0.025506016
116	0x3c324dd7	0.010882816
117	0x3d6718f1	0.05642027
118	0x3d64afc8	0.0558317
119	0x3d48f74b	0.049063962
120	0x3b763060	0.0037565455
121	0x3cdbb1d6	0.026818197
122	0x3cf03076	0.029319983
123	0xbcaea56c	-0.021319114
124	0xbcbd6312	-0.02311853
125	0xbd2df166	-0.042466544
126	0xbc1f0105	-0.009704833
127	0xbcad9c09	-0.021192567
128	0x3beb608c	0.00718314
129	0x3ce3e851	0.027820738
130	0x3c87cd11	0.016577275
131	0x3cd529b5	0.026020864
132	0x3d5016c7	0.050802972
133	0x3d34f72e	0.04418104
134	0xbd261e17	-0.04055604
135	0x3cd003c2	0.025392417
136	0xbc53a2e7	-0.012917257
137	0x3d16ea09	0.036844287
138	0xbc896e17	-0.016776128
139	0xbd149492	-0.0362745
140	0x3d02f2f9	0.031969998
141	0x3d1df287	0.03856137
142	0xbc3624f9	-0.011117213
143	0x3d003bfc	0.031307206
144	0xbbfb60ef	-0.0076714675
145	0xbcf49d5c	-0.029860191
146	0x3cad3424	0.021143027
147	0xbbecba19	-0.007224333
148	0x3ccb4421	0.02481276
149	0xbd18fbbd	-0.03734945
150	0xbbb31fe8	-0.00546645
151	0x3bfbf25b	0.007688803
152	0x3c791c04	0.015204433
153	0xbc85dacd	-0.016339684
154	0x3d53ec40	0.051738977
155	0xbc35bed9	-0.011092865
156	0x3c76810f	0.015045418
157	0x3d2d2be7	0.042278197
158	0x3b7d93a3	0.0038692735
159	0xbd07fa7a	-0.033197857
160	0x3b366efc	0.0027837148
161	0xbd40e89e	-0.04709684
162	0xbd2db8f2	-0.042412706
163	0x3d107666	0.035269164
164	0x3c395ec2	0.011314096
165	0xbd1b7d71	-0.037961427
166	0x3c955242	0.0182277
167	0xbcebea16	-0.028798144
168	0x3d3ad5b1	0.04561395
169	0x3c27a8a4	0.010233078
170	0x3b6524c7	0.0034964548
171	0x3aa44c8b	0.0012535019
172	0xbd033cdc	-0.032040462
173	0xbccfc27b	-0.02536129
174	0xbce5228d	-0.027970577
175	0xbc715dd5	-0.014731844
176	0x3bbd328f	0.0057738493
177	0x3c76ccd2	0.015063481
178	0x3d200f09	0.03907684
179	0x3cee1358	0.029061958
180	0xbd36393b	-0.044488173
181	0xbc0da78b	-0.008645902
182	0xba905cc7	-0.0011013978
183	0x3d558af9	0.052134488
184	0x3cbbeba3	0.022939509
185	0x3a929f05	0.0011186308
186	0x3d5f464d	0.054510403
187	0x3d4568d4	0.048195675
188	0xbcbdd7cb	-0.023174187
189	0x3d6f0f36	0.058364116
190	0xbc8ba23d	-0.017045135
191	0x3bd10717	0.006379019
192	0xbbd8505a	-0.0066013755
193	0xbc997444	-0.018732198
194	0x3d2c885c	0.04212223
195	0x3d388d93	0.04505689
196	0x3ccbdb72	0.024884913
197	0x3cb1b559	0.021692919
198	0xbd1fe914	-0.03904064
199	0xbcb1e152	-0.021713886
200	0xbcd10b56	-0.0255181
201	0x3cbebff6	0.023284893
202	0xbd239e1e	-0.039945714
203	0xbacb5439	-0.0015512771
204	0xba5389d6	-0.00080695504
205	0xbc97fd87	-0.018553508
206	0xbd16bb06	-0.036799453
207	0x3d23c1f8	0.039979905
208	0xbcd80fcc	-0.02637472
209	0x3d05438f	0.032535132
210	0x3d3990b0	0.045304
211	0x3d0c4388	0.03424409
212	0xbc20e6d6	-0.009820661
213	0xbab05ef8	-0.0013456037
214	0xbbc36b55	-0.0059637227
215	0x3d2abe52	0.04168541
216	0x3d1a7b6f	0.03771537
217	0x3d5a5921	0.053307656
218	0x3c862741	0.01637614
219	0x3ce04feb	0.027381858
220	0x3d5ed2f6	0.054400407
221	0x3d51de5c	0.05123745
222	0xbd2ef083	-0.04270984
223	0x3d1a49d5	0.037668068
224	0x3c6dd698	0.014516495
225	0xbd1f427e	-0.03888177
226	0x3caaa789	0.02083184
227	0xbca09773	-0.019603467
228	0xbcfccaa2	-0.030858342
229	0xbbd9327c	-0.0066283327
230	0xbccd0f5e	-0.025031742
231	0x3d16364d	0.03667288
232	0x3bcc1cf0	0.0062290356
233	0xbc421020	-0.011844665
234	0xbceeab43	-0.029134398
235	0xbcb16310	-0.021653682
236	0x3c83d9d3	0.016095078
237	0x3d6ccc4b	0.057812016
238	0x3d449c9a	0.04800091
239	0xbd2af47a	-0.041737057
240	0xbd377b7d	-0.044795502
241	0x3b97790f	0.0046225856
242	0x3cc852ea	0.024453599
243	0xbcd6e472	-0.026231978
244	0x3c3d0247	0.0115361875
245	0x39dfe0ca	0.00042701355
246	0xbcf909fc	-0.030400269
247	0x3ce4774d	0.027888918
248	0x3bbdbeb9	0.005790558
249	0xbc4d9ede	-0.012550084
250	0xbd2d170a	-0.0422583
251	0x3d50721d	0.050890077
252	0x3c7306d2	0.014833169
253	0x3c884e4a	0.016638894
254	0xbce4b8ba	-0.027920116
255	0x3d47df1a	0.04879675

bias f4 [200]
0	0x3c89d96d	0.01682731
1	0xbc3d62b3	-0.011559176
2	0xbd43b398	-0.047778696
3	0x3d3c974d	0.04604273
4	0xba2d3a81	-0.0006608144
5	0xbd4648f2	-0.04840941
6	0x3c16c4ca	0.009202192
7	0x3c9f39fd	0.01943683
8	0x3bf050bd	0.0073338435
9	0x3d42d69b	0.047567945
10	0x3ad6a683	0.0016376529
11	0xbd437973	-0.047723245
12	0xbc39dd5a	-0.011344278
13	0x3d48141f	0.048847314
14	0xbb5558c7	-0.0032554136
15	0xbcc8b710	-0.024501354
16	0xbca7a834	-0.020465948
17	0xbcc47eb5	-0.0239862
18	0x3d366e6b	0.044538897
19	0xbceb9a58	-0.02876012
20	0x3d02c2d1	0.031924073
21	0xbc5eae77	-0.0135914
22	0x3d25b713	0.040457796
23	0xbcf44e9e	-0.029822644
24	0xbb80a4eb	-0.0039259098
25	0xbca972d8	-0.020684645
26	0x3c9345a4	0.017977543
27	0x3c1d4af8	0.0096003935
28	0xbd2f2512	-0.042759962
29	0xbcb42ff2	-0.021995518
30	0x3d617252	0.055040665
31	0x3c529538	0.012852959
32	0xbba04287	-0.004890743
33	0x3d602936	0.0547268
34	0x3c56621c	0.013084915
35	0xbc990e05	-0.018683443
36	0x3cd8ce24	0.026465483
37	0xbcddc29d	-0.027070338
38	0xbbe8feb5	-0.0071104416
39	0xbd471446	-0.04860332
40	0x3bd6edef	0.0065591256
41	0x3cf264d2	0.02958909
42	0xbbbd46e9	-0.0057762754
43	0xbb92ac62	-0.004476116
44	0x3cd086ba	0.025454868
45	0x3a0a2477	0.0005269716
46	0x3bf6e8fc	0.007535098
47	0x3c7af670	0.015317544
48	0xbd5eb3b9	-0.054370616
49	0xbc900047	-0.017578257
50	0x3ce66ad0	0.028127104
51	0x3caecb92	0.021337304
52	0xbcc65026	-0.02420814
53	0x3d708ad4	0.058726147
54	0xbc6d1536	-0.014470389
55	0xbc44d4dc	-0.01201364
56	0x3d3f90dd	0.04676901
57	0x3d09fb53	0.033686947
58	0x3c15dd10	0.009146944
59	0xbcbe0513	-0.023195779
60	0xbd45bcdf	-0.048275825
61	0x3cbff4db	0.023432186
62	0x3c6b73a2	0.014370831
63	0xbc915d72	-0.017744754
64	0x3a9689b1	0.0011485127
65	0x3c37a6fc	0.011209246
66	0x3bb3b5ba	0.00548431
67	0xbc09292a	-0.008371631
68	0xbb01c446	-0.0019800826
69	0x3ce80324	0.02832181
70	0xbc85b567	-0.016321851
71	0x3cd7f16c	0.026360236
72	0x3d2e7311	0.042590205
73	0x3d6bd9d5	0.057580788
74	0x3d1d2d5a	0.03837333
75	0xbaa441fd	-0.0012531873
76	0x3c23397c	0.009962436
77	0x3c8aa96c	0.01692649
78	0x3cecf2c2	0.02892435
79	0x3cdee97e	0.027210947
80	0xbb802d37	-0.00391164
81	0x3cda1548	0.026621476
82	0x3b1dc541	0.0024073871
83	0xbb7cd573	-0.0038579374
84	0xbd45efa2	-0.048324235
85	0xbcf47f16	-0.029845756
86	0x3c6ad2a2	0.014332445
87	0xbd1cfa1d	-0.038324464
88	0x3c017fdd	0.00790402
89	0x3c8b3bf3	0.01699636
90	0xb9d923ce	-0.00041416142
91	0xbd2c406b	-0.04205362
92	0x3d2f4b12	0.042796202
93	0xbcce3272	-0.025170539
94	0x3ca4acd6	0.020101946
95	0x3d0a768d	0.033804465
96	0x3d1cb905	0.038262386
97	0x3cbf7287	0.02337004
98	0x3bcb58e6	0.006205666
99	0xbd508a61	-0.05091322
100	0x3ca68e27	0.020331455
101	0xbc89a99a	-0.016804505
102	0x36b4ecf5	5.3920035e-06
103	0x3c766e22	0.015040906
104	0x3c28dc70	0.010306463
105	0x3d66d2a8	0.05635324
106	0x3d3d41ff	0.046205517
107	0x3d0d3e7d	0.03448342
108	0x3aa52a43	0.0012601096
109	0xbbba4a84	-0.0056851525
110	0x3cfdd179	0.030983673
111	0xbc584494	-0.013199944
112	0xbcd1b65e	-0.025599655
113	0xbc0e4d13	-0.008685368
114	0x3d2a9ebf	0.0416553
115	0x3d394ca4	0.045239106
116	0xbd21e0dd	-0.039521087
117	0xbc2d5ff8	-0.010581963
118	0xbb20e36a	-0.0024549612
119	0xbc3db0c7	-0.011577792
120	0xbc98f388	-0.018670812
121	0xbc0bfc00	-0.008543968
122	0x3c716bcd	0.014735174
123	0x3cfefcb1	0.031126352
124	0xbd200afa	-0.039072968
125	0x3cb73fb7	0.022369249
126	0x3d11279c	0.035438165
127	0x3c576e1d	0.013148812
128	0x3cfa66db	0.030566623
129	0xbc3116db	-0.010808672
130	0x3c6a1400	0.014286995
131	0xbd1d6851	-0.038429562
132	0x3d667302	0.056262024
133	0x3ce416a9	0.027842836
134	0x3bae9cb3	0.0053287386
135	0x3cecc6d9	0.028903412
136	0x3d2c00ad	0.041992832
137	0xbd3e6a59	-0.04648814
138	0x3d5f3ea6	0.054503106
139	0x3d2449fb	0.040109616
140	0x3bd06a88	0.0063603558
141	0xbd2ad114	-0.0417033
142	0x3d449ade	0.047999255
143	0x3cf0e8ee	0.029407945
144	0xbd17eda5	-0.03709187
145	0xbcbcce5b	-0.023047617
146	0xbd1b27e3	-0.037879836
147	0xbd294baf	-0.041331943
148	0x3d396d7c	0.045270428
149	0xbc821944	-0.015881188
150	0xbb9a6442	-0.0047116587
151	0x3d396277	0.04525992
152	0x3d11d72b	0.03560559
153	0x3d49efe9	0.04930106
154	0xbcc56ba3	-0.024099177
155	0xbd20df40	-0.039275408
156	0xbc8d47b9	-0.017246114
157	0x3cef6211	0.029221566
158	0x3c348f0f	0.011020436
159	0xbbcd4048	-0.0062637664
160	0xbbbe4970	-0.0058070943
161	0xbbb8fa64	-0.0056450833
162	0x3c27f209	0.010250577
163	0xbc13b40d	-0.009015095
164	0x3b842535	0.0040327557
165	0xbcb92e75	-0.02260516
166	0xbcbd0b5e	-0.02307671
167	0xbc91b63e	-0.017787095
168	0xbc9039ac	-0.017605625
169	0xbc8e12b6	-0.017342906
170	0xbce128c7	-0.027485264
171	0xbb918875	-0.004441316
172	0x3d343b2c	0.044001743
173	0xbcef8b82	-0.029241327
174	0x3c748035	0.014923145
175	0xbaa84fac	-0.0012841127
176	0x3d156c9e	0.03648054
177	0x3cb6de31	0.022322746
178	0x3d4fdde3	0.050748717
179	0xbcec6451	-0.028856428
180	0x3d7feb2d	0.06248014
181	0xbc388997	-0.011263273
182	0x3d37e498	0.04489574
183	0x3cb8587c	0.02250313
184	0xbc9b3d9f	-0.018950282
185	0x3d1743f1	0.03693003
186	0xbd2de4b3	-0.042454433
187	0xbd21ed25	-0.0395328
188	0x3cc477aa	0.023982842
189	0x3c8ac25e	0.016938385
190	0x3d281761	0.04103792
191	0x3ccc3a24	0.024930067
192	0xbd35cfcf	-0.044387635
193	0x3cd69392	0.026193414
194	0x3d0a0c71	0.03370327
195	0xbc1bbf77	-0.009506098
196	0x3d29456b	0.041325968
197	0xbcd74919	-0.026279973
198	0xbca322d3	-0.019914066
199	0xbd20396b	-0.039117258
