lab2/problem3/neural-network-3-critic-005-epsilon.pth (torch, 339275 bytes, 5 tensors)

weight f4 [400, 8]
0.026654849 -0.5912531 0.14793684 -0.8731951 0.09214948 0.29703546 -0.046180394 -0.05173822
0.09189412 0.27399054 -0.86964625 -0.84691006 -0.83102643 0.21381542 0.13366045 -0.422722
0.19581448 -0.27997786 0.08515875 -0.57502705 -0.03524445 0.37653232 0.0022738804 0.098859176
0.5396677 0.032849167 -0.016574806 0.20562638 -0.4062967 -0.2997499 -0.17164427 -0.11834634
-0.08306564 0.46354443 0.18879205 -0.69233745 -0.089603014 -0.23827058 0.17882404 -0.07366241
-0.13225484 -0.42937407 -0.2186696 -0.15801908 0.103767484 0.7835296 0.1610844 0.28333545
-0.06729218 0.28143016 -0.15954615 -0.51030993 0.10149412 -0.20189919 -0.066359125 -0.7162327
-1.237564 -0.2274596 -0.527993 -0.4251145 0.36257553 0.14040485 -0.13107428 0.116644464
0.5757079 -0.015416617 0.22158678 -0.02418822 -0.50682205 -0.44699618 0.02936602 -0.18638961
0.64227724 -0.52191216 0.22335821 -0.47946963 -0.28744712 -0.41445786 -0.15847066 -0.2526733
0.11387278 -0.75422156 -0.33712 -0.44227624 0.04148797 0.30512667 -0.107129484 -0.07354877
-0.15942855 -0.54119563 -0.081190184 0.36063737 0.14276578 0.34291163 -0.28817356 -0.4194437
-0.2554764 -0.674907 1.3959647 0.57129896 -0.13779563 0.73616785 0.10713548 -0.060271293
-0.034033407 -0.26522902 0.119133756 -0.19033377 -0.025922004 -0.0350272 -0.27530625 -0.2200359
-0.43210712 -0.36847368 0.13557248 0.032064687 -0.1511097 -0.0071241944 -0.1810303 0.29924336
-0.034787 0.018118473 0.18307842 -0.112620875 0.2647429 -0.15000862 -0.26106682 -0.040233597
-0.15658705 -0.6343251 -0.08042556 0.48049378 0.17175724 -0.34418142 -0.3221742 -0.0011341211
-0.3925445 -0.3589112 -0.25513032 -0.35950994 0.15676382 0.11608791 -0.38708445 -0.20048176
-0.1378867 -0.20770498 0.026678761 -0.16260028 0.76296854 -0.1268872 -0.49918687 -0.7800422
0.4018695 -0.439533 -0.49488488 -0.24319923 -0.8981568 -0.41262645 0.15438819 -0.86777467
0.24263515 -0.5336213 0.3096703 -0.5416859 -0.12981646 -0.775444 -0.18571153 -0.24888073
0.064896755 -0.52706814 -0.2945308 0.29478374 0.41089386 0.26788503 -0.46204716 -0.03327873
0.42081735 -0.20623223 -0.099180266 -0.19101608 -0.06664108 0.22004107 -0.06353187 -0.17184377
-0.40286118 -0.5096764 1.1503999 0.20776954 -0.07736757 0.00531771 -0.050235722 0.008569549
0.09698082 -0.2642052 -0.060463604 -0.17079407 0.17083633 -0.049191397 -0.28543007 -0.49583262
0.6787616 -0.04413118 0.15506238 -0.30788714 -0.37589046 -0.4338937 -0.2504562 -0.19137421
0.81817985 0.06500391 0.19162925 -0.20757599 -0.9756458 -0.72549397 0.20752256 -0.05214489
0.0700317 -0.09586371 0.014224525 -0.17282411 2.0383897 -0.090415 -0.019293146 0.053449225
-0.065638535 -0.10867966 -0.042930502 -0.15205023 -1.3762404 0.05286391 -0.25462815 -0.35924092
-0.20172396 -0.27626586 0.4111699 0.1582123 -0.49586788 0.95662415 -0.020069567 0.26449522
-0.08403955 -0.14658934 -0.026236339 -0.092033535 1.2585218 -0.07530649 -0.0972106 -0.8517703
0.17035751 -0.044421412 -0.48892108 -0.19966426 -0.93214613 0.009066544 0.1553695 -0.2857307
00000000: 455b da3c 5d5c 17bf c17c 173e b789 5fbf
00000010: deb8 bc3d 0815 983e a727 3dbd 75eb 53bd
00000020: fc32 bc3d 7d48 8c3e 23a1 5ebf 19cf 58bf
00000030: 26be 54bf 6ef2 5a3e 49de 083e 056f d8be
00000040: 9783 483e 4259 8fbe b667 ae3d f934 13bf
00000050: 7c5c 10bd d8c8 c03e 6205 153b ae76 ca3d
00000060: aa27 0a3f d98c 063d e3c7 87bc b98f 523e
00000070: 1f06 d0be d278 99be 84c3 2fbe 915f f2bd
00000080: 511e aabd b255 ed3e b452 413e 073d 31bf
00000090: c981 b7bd 34fd 73be a61d 373e 51dc 96bd
000000a0: d06d 07be ebd6 dbbe ecea 5fbe c1cf 21be
000000b0: 0c84 d43d 6595 483f 4ff3 243e 5811 913e
000000c0: 7cd0 89bd 9d17 903e 1160 23be aca3 02bf
000000d0: 26dc cf3d a9be 4ebe 4be7 87bd 075b 37bf
000000e0: 7f68 9ebf 2beb 68be 8d2a 07bf 9ca8 d9be
000000f0: 80a3 b93e 4ac6 0f3e 5638 06be 4be3 ee3d
00000100: 9861 133f fa95 7cbc a5e7 623e 6026 c6bc
00000110: 17bf 01bf afdc e4be 0291 f03c ebdc 3ebe
00000120: 486c 243f 099c 05bf 04b8 643e 0b7d f5be
00000130: 452c 93be d233 d4be 2246 22be 655e 81be
00000140: 2236 e93d aa14 41bf fe9a acbe 0872 e2be
00000150: 4aef 293d 9039 9c3e b466 dbbd bda0 96bd
00000160: 3d41 23be cc8b 0abf 0a47 a6bd 76a5 b83e
00000170: 3131 123e 1d92 af3e 7c8b 93be 53c1 d6be
00000180: cdcd 82be b5c6 2cbf f9ae b23f a640 123f
00000190: 4c1a 0dbe 7f75 3c3f d969 db3d 08df 76bd
000001a0: 9d66 0bbd 19cc 87be 66fc f33d dbe6 42be
000001b0: 625a d4bc ae78 0fbd f1f4 8cbe 1751 61be
000001c0: 253d ddbe 95a8 bcbe 83d3 0a3e 4356 033d
000001d0: 80bc 1abe 1372 e9bb 0260 39be 6d36 993e
000001e0: d07c 0ebd 316d 943c e978 3b3e c6a5 e6bd
000001f0: 628c 873e dc9b 19be 8daa 85be fccb 24bd
00000200: 5b58 20be 2163 22bf 28b6 a4bd 4803 f63e
00000210: 21e1 2f3e 8c38 b0be 04f4 a4be caa6 94ba
00000220: 98fb c8be 35c3 b7be 71a0 82be b011 b8be
00000230: b286 203e 80bf ed3d ef2f c6be 174b 4dbe
00000240: 2c32 0dbe 9db0 54be 6b8d da3c b080 26be
00000250: e851 433f b8ee 01be 6c95 ffbe d8b0 47bf
00000260: d7c1 cd3e 780a e1be 8d61 fdbe 3809 79be
00000270: 9bed 65bf c643 d3be f017 1e3e 7b26 5ebf
00000280: 5975 783e 689b 08bf 1b8d 9e3e edab 0abf
00000290: 9bee 04be 7f83 46bf 2a2b 3ebe 97da 7ebe
000002a0: 97e8 843d f0ed 06bf becc 96be e5ed 963e
000002b0: ae60 d23e 3a28 893e 7291 ecbe 474f 08bd
000002c0: 5f75 d73e 8b2e 53be 061f cbbd b899 43be
000002d0: 1e7b 88bd 7252 613e ff1c 82bd d0f7 2fbe
000002e0: d243 cebe 277a 02bf 4e40 933f 8ac1 543e
000002f0: e372 9ebd 2f40 ae3b f9c3 4dbd 4b67 0c3c
00000300: e19d c63d e745 87be afa8 77bd a4e4 2ebe
00000310: b8ef 2e3e eb7c 49bd e423 92be c6dd fdbe
00000320: 52c3 2d3f e5c2 34bd acc8 1e3e 62a3 9dbe
00000330: b774 c0be 5127 debe cc3b 80be 9af7 43be
00000340: 3c74 513f c520 853d 753a 443e cd8e 54be
00000350: ecc3 79bf f9b9 39bf cb80 543e e195 55bd
00000360: c86c 8f3d 3154 c4bd fb0d 693c cef8 30be
00000370: fa74 0240 802b b9bd a90c 9ebc 93ed 5a3d
00000380: 7f6d 86bd 7193 debd e5d7 2fbd 0eb3 1bbe
00000390: a528 b0bf d487 583d 9f5e 82be 6dee b7be
000003a0: ba90 4ebe b872 8dbe dc84 d23e 6802 223e
000003b0: 65e2 fdbe 52e5 743f ef68 a4bc eb6b 873e
000003c0: ed1c acbd 841b 16be 97ed d6bc 147c bcbd
000003d0: 3e17 a13f 4a3a 9abd 5a16 c7bd 9e0d 5abf
000003e0: 3372 2e3e 3af3 35bd dd53 fabe ca74 4cbe
000003f0: 21a1 6ebf d78b 143c 2f19 1f3e 4b4b 92be

bias f4 [400]
-0.22907151 -0.1284141 -0.43949676 -0.27671793 -0.06195247 -0.19351335 0.32434672 -0.117069356
-0.4843608 -0.12776305 0.102115706 0.321918 -0.10940089 -0.12048154 -0.15496525 -0.29943243
0.28670123 -0.16124359 -0.01236172 0.08092844 -0.15737851 -0.48693433 -0.36654806 0.026350249
-0.121222526 -0.5241856 -0.50319713 -0.04321931 0.033089206 -0.30816293 0.025699453 -0.14281872
-0.05824341 -0.39375725 -0.08369234 0.09671833 -0.124310814 0.00955742 0.121259585 0.0014240161
-0.085820735 0.12702699 0.15927933 -0.009854641 -0.2542114 -0.46971592 -0.18545781 -0.39106455
-0.28701633 -0.16110554 -0.06483907 -0.19204909 -0.001625443 -0.15930848 -0.22024056 -0.20522831
-0.12054841 -0.13563688 -0.19004363 0.059644982 -0.12348444 -0.059923656 -0.2778539 -0.011907739
-0.18999723 -0.34608862 -0.122549325 0.23159054 -0.2807053 0.11388766 -0.16501464 -0.22190556
-0.07182984 0.30057132 0.28899083 0.1538652 0.17618725 0.13108711 0.317887 -0.15078914
0.2182542 -0.18166229 -0.3947509 -0.13681053 0.29864684 0.24272922 -0.024225887 -0.1724105
0.055202056 -0.24193266 -0.0614551 -0.19191821 -0.061325658 -0.1037641 0.026906248 -0.42475614
0.012141455 -0.011474486 -0.018737933 0.16908573 -0.064590335 -0.19608098 -0.17921385 -0.0065627587
-0.14349891 -0.11928676 -0.15569682 -0.15873185 -0.08830856 -0.040796038 0.15841974 0.03654027
-0.16126241 0.29834187 0.26640365 -0.14018953 -0.16432977 -0.3041323 -0.265407 -0.11431288
-0.14825965 -0.16578461 -0.13522348 0.032610282 -0.11603572 -0.08474035 0.010823657 -0.0025348254
-0.121815436 0.2001477 -0.03190888 0.015348885 -0.1481988 -0.14807 0.22459383 -0.089258105
0.074027985 0.010940009 -0.15125528 0.065195255 0.16884302 -0.0144418 -0.010279074 -0.048321046
-0.01710933 0.16143781 -0.322893 0.20617975 -0.14396459 0.0075661708 -0.26471576 -0.09384949
0.050387576 -0.032289214 -0.19976836 -0.08475953 -0.08490604 -0.082539134 -0.19236176 -0.18986328
-0.14681718 0.09091989 -0.059196167 -0.13338137 -0.3154005 0.33273122 -0.14392346 -0.008022705
-0.12783402 -0.05650746 -0.066745415 -0.025991866 -0.056558777 -0.2949092 0.12285925 0.13122587
-0.1727058 -0.0025779812 0.36922446 0.12734096 -0.069850005 0.14475165 0.09705284 0.043915253
0.069653265 0.09391285 -0.008382812 -0.056446314 -0.35613766 -0.14902139 -0.20467356 -0.34447002
0.03706165 -0.12667447 0.19463018 0.24886599 -0.12164185 -0.2800976 -0.21871573 0.28029573
-0.015521838 -0.19327943 -0.38832203 -0.11427243 -0.0097046755 -0.15991679 -0.06413999 -0.08868064
-0.1853473 -0.1774483 0.13139403 0.089891516 -0.24943918 0.110098734 -0.15624335 -0.44451705
-0.074451 -0.07784394 -0.080822974 -0.56176174 0.13699809 -0.056008354 -0.2312629 -0.076781176
0.089065164 -0.033846017 0.008315478 -0.20023602 -0.33597344 -0.1790129 0.109777175 0.16297789
-0.049763013 -0.15034136 -0.0637038 -0.09444789 -0.37832856 -0.23464063 -0.23772924 -0.07325633
0.009693874 -0.11103175 0.03535772 0.089435495 -0.18793947 -0.18342742 -0.1093721 -0.33216262
-0.20622627 -0.08755071 0.13441704 0.16046557 -0.013096215 0.0070785377 -0.12938751 -0.044485502
00000000: b991 6abe fc7e 03be b805 e1be f9ad 8dbe
00000010: e0c1 7dbd 5d28 46be c610 a63e 0fc2 efbd
00000020: 24fe f7be 51d4 02be 0a22 d13d 70d2 a43e
00000030: 930d e0bd 07bf f6bd 36af 1ebe 354f 99be
00000040: 81ca 923e 0a1d 25be d088 4abc cfbd a53d
00000050: d527 21be 754f f9be 30ac bbbe 7adc d73c
00000060: 8443 f8bd 0731 06bf 87d1 00bf bb06 31bd
00000070: 8c88 073d 88c7 9dbe a987 d23c 123f 12be
00000080: a490 6ebd 8d9a c9be e466 abbd 4314 c63d
00000090: ab96 febd ba96 1c3c f256 f83d 0da6 ba3a
000000a0: c8c2 afbd 5d13 023e 1f1a 233e 5c75 21bc
000000b0: ff27 82be 9b7e f0be a7e8 3dbe 9d39 c8be
000000c0: cef3 92be daf8 24be 59ca 84bd 84a8 44be
000000d0: d10c d5ba c321 23be be86 61be 5f27 52be
000000e0: 16e2 f6bd 65e4 0abe cc9a 42be 4c4e 743d
000000f0: 69e5 fcbd 8272 75bd de42 8ebe ad18 43bc
00000100: a28e 42be 8732 b1be 24fb fabd 1226 6d3e
00000110: 9bb8 8fbe ef3d e93d 99f9 28be 363b 63be
00000120: 861b 93bd 7ce4 993e 9bf6 933e d78e 1d3e
00000130: 6e6a 343e b33b 063e 16c2 a23e 7868 1abe
00000140: 077e 5f3e ae05 3abe ca1c cabe 0f18 0cbe
00000150: 3de8 983e 028e 783e 5e75 c6bc 618c 30be
00000160: 8d1b 623d 32bd 77be 58b8 7bbd 3586 44be
00000170: 9d30 7bbd 4682 d4bd 7e6a dc3c a379 d9be
00000180: f4ec 463c 7cff 3bbc 4b80 99bc cf24 2d3e
00000190: f047 84bd 74c9 48be d683 37be 690c d7bb
000001a0: 61f1 12be 9e4c f4bd fd6e 1fbe 9a8a 22be
000001b0: 1edb b4bd bf19 27bd c938 223e 40ab 153d
000001c0: f921 25be 44c0 983e 0f66 883e d88d 0fbe
000001d0: 1046 28be 3bb7 9bbe 6de3 87be df1c eabd
000001e0: 61d1 17be 71c3 29be 0678 0abe 5c92 053d
000001f0: 23a4 edbd 598c adbd b555 313c 501f 26bb
00000200: 5f7a f9bd 85f3 4c3e e3b2 02bd e479 7b3c
00000210: 6dc1 17be a99f 17be edfb 653e f4cc b6bd
00000220: fc9b 973d b93d 333c aae2 1abe 1785 853d
00000230: 2fe5 2c3e 4d9d 6cbc 9069 28bc 4aec 45bd
00000240: de28 8cbc f44f 253e 3b52 a5be c920 533e
00000250: 746b 13be a4ed f73b d388 87be 2934 c0bd
00000260: 3463 4e3d b241 04bd 1490 4cbe 6896 adbd
00000270: 38e3 adbd 470a a9bd 7bfa 44be 856b 42be
00000280: 3e57 16be 3534 ba3d ae77 72bd 2095 08be
00000290: 2d7c a1be bf5b aa3e ac60 13be aa71 03bc
000002a0: ece6 02be 5e74 67bd d2b1 88bd e5ec d4bc
000002b0: 2daa 67bd 57fe 96be a19d fb3d 1360 063e
000002c0: cad9 30be 59f3 28bb fd0a bd3e ab65 023e
000002d0: 850d 8fbd c739 143e a4c3 c63d 7be0 333d
000002e0: 5fa6 8e3d 6155 c03d 1058 09bc 4034 67bd
000002f0: ad57 b6be 1099 18be f295 51be 605e b0be
00000300: f5cd 173d f4b6 01be 224d 473e bad6 7e3e
00000310: 5d1f f9bd f468 8fbe 04f7 5fbe ec82 8f3e
00000320: 4f4f 7ebc 0beb 45be 25d2 c6be aa07 eabd
00000330: 5c00 1fbc 3ac1 23be d45b 83bd 329e b5bd
00000340: afcb 3dbe 02b5 35be 288c 063e 0b19 b83d
00000350: fc6c 7fbe 727b e13d 42fe 1fbe bd97 e3be
00000360: c479 98bd a56c 9fbd 8486 a5bd 9ecf 0fbf
00000370: 3a49 0c3e 0469 65bd 2fd0 6cbe 733f 9dbd
00000380: cc67 b63d 1fa2 0abd a53d 083c ac0a 4dbe
00000390: b604 acbe 284f 37be dbd2 e03d ade3 263e
000003a0: 4dd4 4bbd 16f3 19be 2377 82bd e56d c1bd
000003b0: 48b4 c1be a245 70be 4b6f 73be 6a07 96bd
000003c0: 0ed3 1e3c 9d64 e3bd 42d3 103d f529 b73d
000003d0: 3473 40be 66d4 3bbe 7bfe dfbd 3811 aabe
000003e0: fb2c 53be c94d b3bd 9fa4 093e 1651 243e
000003f0: 8291 56bc 14f3 e73b 297e 04be 6e36 36bd

weight f4 [200, 400]
0.386851 -0.31916898 0.092340045 -0.051056646 -0.25585204 0.008840638 -0.010284364 0.16930884
0.047545437 0.047353268 0.07532619 0.00012372529 -0.4714117 0.0802494 -0.044371646 -0.0425928
-0.2275285 0.08989136 -0.07713364 -0.72824615 0.19142821 0.33744714 0.009164274 -0.5173545
0.00035800136 0.25019094 0.254267 -0.38714206 -0.12942459 -0.17655838 -0.18458235 -0.20606789
-0.27561802 -0.026199235 0.2691589 -0.38781565 -0.23799959 -0.12623262 -0.82799417 -0.3851939
0.21076022 -0.30565614 0.14690328 -0.13651867 0.18418917 -0.065969825 -0.36565593 0.37717152
-0.15321559 -0.022301765 -0.07568113 -0.031269815 -0.19208775 0.07827202 -0.36962402 0.1419727
0.015198444 0.12205225 0.16642287 0.017094241 -0.068275586 -0.23297189 -0.3237765 0.098000824
0.028957939 0.15364645 0.17198566 -0.0014221476 -0.05233719 0.024196852 -0.059741285 -0.073442005
0.023090268 -0.32644024 0.09230351 0.016343283 -0.0496551 -0.7274599 -0.41487056 -0.39347753
-0.54234415 0.11492813 0.16217601 0.04772913 -0.05224877 -0.021355288 -0.15750848 -0.29201305
-0.12892401 -0.14643085 -0.13946214 -0.40718335 0.06669764 0.118111566 -0.12323172 0.12238638
-0.33008078 -0.16698925 -0.25183147 -0.15079027 -0.06028563 -0.07980638 -0.064878225 0.0022659677
0.25161052 -0.11538732 -0.027707763 -0.0476648 0.08588539 0.03794225 -0.021208616 -0.4460234
0.13631782 -0.05628677 -0.17072862 0.19985744 -0.42782208 0.21121424 -0.009354646 -0.18548508
0.06527955 0.041231412 -0.13322055 0.18076621 -0.049249016 0.00043308985 -0.1950965 0.102814294
0.24793059 -0.0690713 -0.16309702 -0.5066033 -0.044472538 0.024896426 -0.07638873 0.13558973
0.019643564 -0.3877748 0.0061081327 0.035299107 -0.027085353 0.21316877 0.006375495 -0.14279354
-0.028397137 0.12495792 0.22330783 -0.08138829 0.042297788 0.09603141 -0.0689907 -0.018520854
-0.038689427 -0.06178412 0.07336604 -0.025107775 -0.23869844 -0.16024148 0.10274608 -0.011539823
-0.07775394 -0.22908387 -0.16856101 -0.06529708 -0.09942934 -0.25258836 -0.31151074 -0.31286573
0.25117174 -0.02993074 0.010145626 -0.0038934634 0.08180912 -0.04225898 -0.077880524 -0.15736423
0.08807369 -0.07840685 -0.25587744 -0.17437294 0.08720603 -0.4121792 -0.15512481 -0.48167944
-0.3169819 -0.45289233 0.05754812 -0.15156792 -0.13281293 -0.38363233 0.042976595 0.14610264
-0.029356346 0.0844988 -0.26703697 -0.19573344 0.04354906 -0.30925158 0.04737189 0.008556309
-0.4328026 -0.0018576928 0.035158005 0.019670697 0.16468376 -0.030903298 -0.014033287 0.067829296
0.47243264 0.22031072 0.092448056 0.0012182409 -0.04204536 0.0011589648 -0.035552766 0.07385528
0.10343746 -0.0155576505 -0.027911076 0.21921085 0.017494813 0.06065466 0.03812211 0.1554043
0.03207708 -0.6579862 0.010474305 0.1637144 0.022219166 -0.02964491 0.13106973 -0.05786716
-0.06105408 0.071892604 -0.05288442 -0.0005717831 0.17181598 -0.031737935 -0.086222574 -0.19204445
-0.37700635 -0.03278196 -0.3823505 -0.37692106 -0.06770216 -0.38307908 -0.09891182 -0.36437234
0.055189 -0.05329713 0.14058882 -0.2205935 0.11802616 -0.27130428 -0.22831903 0.072703
00000000: 5611 c63e 1e6a a3be c71c bd3d c620 51bd
00000010: 0aff 82be 53d8 103c c07f 28bc 4c5f 2d3e
00000020: 01bf 423d 80f5 413d 9e44 9a3d 41bc 0139
00000030: e05c f1be cc59 a43d 0bbf 35bd ca75 2ebd
00000040: 3bfd 68be f618 b83d 3ef8 9dbd 576e 3abf
00000050: c205 443e dfc5 ac3e c025 163c 5871 04bf
00000060: 21b2 bb39 0719 803e 492f 823e 7c37 c6be
00000070: e187 04be b8cb 34be 2803 3dbe 7603 53be
00000080: ce1d 8dbe c79f d6bc 32cf 893e c68f c6be
00000090: 2ab6 73be 2043 01be 6df7 53bf 2338 c5be
000000a0: 87d1 573e f67e 9cbe d06d 163e 8dcb 0bbe
000000b0: 169c 3c3e 301b 87bd 4137 bbbe a01c c13e
000000c0: 8ce4 1cbe 31b2 b6bc b5fe 9abd c714 00bd
000000d0: a7b2 44be 154d a03d 5c3f bdbe 4b61 113e
000000e0: e502 793c 88f6 f93d c26a 2a3e 3909 8c3c
000000f0: 12d4 8bbd 2f90 6ebe 09c6 a5be a8b4 c83d
00000100: 3339 ed3c 7f55 1d3e 021d 303e 5b67 baba
00000110: 855f 56bd 7a38 c63c 47b3 74bd c368 96bd
00000120: cd27 bd3c 2d23 a7be 9f09 bd3d 59e2 853c
00000130: 2563 4bbd d03a 3abf ea69 d4be e375 c9be
00000140: 11d7 0abf 705f eb3d 7811 263e 9f7f 433d
00000150: ce02 56bd 49f1 aebc e749 21be bc82 95be
00000160: a804 04be f8f1 15be 2acf 0ebe 567a d0be
00000170: c698 883d 7ae4 f13d e960 fcbd b6a5 fa3d
00000180: 5900 a9be 3bff 2abe 0ef0 80be c468 1abe
00000190: 11ee 76bd 8771 a3bd e0de 84bd a180 143b
000001a0: 18d3 803e 3050 ecbd 64fb e2bc 2a3c 43bd
000001b0: aee4 af3d 5569 1b3d b1bd adbc 2e5d e4be
000001c0: e696 0b3e f58c 66bd 7cd3 2ebe 6ea7 4c3e
000001d0: 7f0b dbbe 8c48 583e 3b44 19bc cdef 3dbe
000001e0: 49b1 853d 45e2 283d f86a 08be c71a 393e
000001f0: 56b9 49bd 5610 e339 60c7 47be 4d90 d23d
00000200: 84e1 7d3e 4175 8dbd e802 27be c1b0 01bf
00000210: d628 36bd 97f3 cb3c b271 9cbd 09d8 0a3e
00000220: 8aeb a03c 6b8a c6be bb26 c83b cc95 103d
00000230: 1ae2 ddbc ea48 5a3e 87e9 d03b 7838 12be
00000240: 1da1 e8bc f0e9 ff3d cfaa 643e e7ae a6bd
00000250: 7240 2d3d 1eac c43d ff4a 8dbd 0cb9 97bc
00000260: ce78 1ebd 5811 7dbd ef40 963d d2ae cdbc
00000270: 5d6d 74be 5816 24be 896c d23d 8711 3dbc
00000280: 753d 9fbd f694 6abe 429b 2cbe 7aba 85bd
00000290: 9ca1 cbbd 4353 81be 567e 9fbe f02f a0be
000002a0: 9599 803e 5031 f5bc d739 263c 7a29 7fbb
000002b0: 8a8b a73d c117 2dbd d37f 9fbd 1724 21be
000002c0: fb5f b43d c593 a0bd 5e02 83be d28e 32be
000002d0: 1399 b23d 2709 d3be 0ad9 1ebe b09e f6be
000002e0: 744b a2be 81e1 e7be 94b7 6b3d 9f34 1bbe
000002f0: 1d00 08be 756b c4be 3a08 303d ee9b 153e
00000300: b87c f0bc b50d ad3d 12b9 88be 596e 48be
00000310: 8060 323d 3956 9ebe 0709 423d c32f 0c3c
00000320: 4d98 ddbe d47d f3ba d701 103d 7124 a13c
00000330: dca2 283e ea28 fdbc dfeb 65bc 16ea 8a3d
00000340: b1e2 f13e 2299 613e 6855 bd3d 62ad 9f3a
00000350: c137 2cbd 68e8 973a c79f 11bd 7041 973d
00000360: 05d7 d33d 84e5 7ebc c5a5 e4bc cf78 603e
00000370: 4851 8f3c 0571 783d ee25 1c3d 4e22 1f3e
00000380: 4263 033d c971 28bf 6b9c 2b3c bfa4 273e
00000390: f804 b63c e2d9 f2bc 2537 063e 1d06 6dbd
000003a0: d813 7abd 6e3c 933d 559d 58bd b7e3 15ba
000003b0: 87f0 2f3e a3ff 01bd 7695 b0bd 4da7 44be
000003c0: fa06 c1be 6046 06bd 72c3 c3be ccfb c0be
000003d0: 6ea7 8abd f122 c4be 4892 cabd 038f babe
000003e0: dc0d 623d 174e 5abd 84f6 0f3e 43e3 61be
000003f0: b3b7 f13d 65e8 8abe 77cc 69be 4fe5 943d

bias f4 [200]
-0.16997533 -0.15426925 0.061659552 -0.0025014624 -0.17403223 -0.19147013 -0.20190874 0.15566309
0.0023142013 -0.033713978 -0.0928701 0.0051014344 -0.23546743 -0.18036065 -0.10052253 0.023285331
-0.16497843 -0.020691758 -0.10056854 -0.04059434 -0.22846246 -0.00013880906 -0.1324947 -0.13532318
-0.014010551 0.017237026 -0.074342616 -0.20373178 -0.1882108 0.44559574 -0.041686427 -0.37976518
0.31556457 -0.14219508 0.0041838307 -0.20300275 -0.025690578 -0.059199188 -0.15464288 0.01579106
0.018509248 -0.17342514 -0.06544119 -0.18610166 -0.23483169 0.11265566 -0.21110463 -0.07560443
0.015773244 -0.18056008 -0.1717011 -0.009938707 -0.121046856 -0.21059781 -0.23579763 0.030337755
-0.0027051931 -0.19271098 -0.027909968 -0.12544873 0.0534724 -0.014460254 -0.18931632 0.45654762
-0.27918255 -0.18207878 -0.06098404 -0.05765837 0.68963397 -0.16585442 -0.025436772 -0.041520577
-0.0013356688 -0.22994743 0.0070812344 -0.16466925 -0.14746298 -0.1191114 0.37877634 -0.03040285
-0.21776478 -0.06415605 -0.2126072 0.3235809 -0.18006437 -0.15245727 -0.18762276 -0.026064057
-0.13563871 0.07163213 -0.18599907 0.26502305 0.17657994 0.03217072 0.021595286 -0.20554468
0.50781244 -0.016695486 0.07776341 0.016701303 -0.031053199 -0.04277485 0.09114186 -0.1713824
-0.20891482 -0.0040458688 0.013049746 -0.06342169 -0.16581066 0.11591584 -0.22757582 -0.15268818
-0.13669415 -0.022314914 -0.22291498 -0.049895905 -0.05534252 -0.18608014 -0.22155319 0.12685959
-0.10552175 -0.1781131 -0.17488803 -0.022929164 -0.19996586 -0.01237936 -0.082688875 -0.17273629
-0.0064241607 -0.1874634 -0.1767772 7.814999e-05 -0.051530458 -0.24830553 -0.07031874 -0.023654379
0.62765294 -0.026372729 -0.17047071 -0.050670657 -0.18006858 -0.06690338 -0.13282102 0.1751735
0.036797486 -0.051663257 -0.20012528 0.029161172 -0.18739106 -0.18309312 0.4385439 -0.15688391
-0.18075942 0.03309826 -0.18519585 -0.0105711045 -0.039360404 -0.2030703 -0.093062826 -0.1256889
0.530784 -0.11739133 -0.08138503 -0.15070185 -0.20548363 -0.14646605 -0.21769089 -0.04446271
0.2707972 0.034911584 -0.1492488 -0.20146069 -0.016937148 0.20042862 0.14764982 -0.07962354
-0.15841079 -0.09317975 0.061609514 -0.17959175 -0.21544825 0.0020202685 0.025102865 -0.047235347
-0.20055115 -0.1970623 -0.09195169 -0.12637733 0.011703874 -0.11096765 -0.17106478 -0.16835783
-0.015393668 -0.22507258 0.005785542 -0.04968601 -0.044474076 -0.19193889 -0.08383611 0.08251013
00000000: 030e 2ebe c2f8 1dbe ba8e 7c3d 93ef 23bb
00000010: 8135 32be bf10 44be 2ac1 4ebe 2566 1f3e
00000020: dba9 173b ab17 0abd ae32 bebd ef29 a73b
00000030: 601e 71be 76b0 38be c2de cdbd e1c0 be3c
00000040: 1bf0 28be c381 a9bc e1f6 cdbd 4046 26bd
00000050: 10f2 69be 468d 11b9 b1ac 07be 2992 0abe
00000060: 838c 65bc aa34 8d3c f140 98bd 109f 50be
00000070: 55ba 40be 2025 e43e 63bf 2abd 9570 c2be
00000080: ae91 a13e 969b 11be 8418 893b f4df 4fbe
00000090: 0c75 d2bc d97a 72bd b45a 1ebe 415c 813c
000000a0: b5a0 973c 5c96 31be 0806 86bd 6f91 3ebe
000000b0: b877 70be 03b8 e63d d02b 58be 7fd6 9abd
000000c0: e436 813c bee4 38be 6ad2 2fbe f5d5 22bc
000000d0: 6ae7 f7bd f4a6 57be ef74 71be e286 f83c
000000e0: 9c49 31bb 0756 45be 72a3 e4bc a275 00be
000000f0: e005 5b3d b4ea 6cbc 23dc 41be 9cc0 e93e
00000100: 04f1 8ebe dc72 3abe 67ca 79bd 2f2b 6cbd
00000110: da8b 303f bed5 29be c760 d0bc 7b11 2abd
00000120: 9c11 afba 5777 6bbe b309 e83b 0e9f 28be
00000130: 8900 17be adf0 f3bd f9ee c13e 660f f9bc
00000140: bbfd 5ebe 3f64 83bd b4b5 59be 65ac a53e
00000150: cb62 38be c21d 1cbe 2e20 40be 4a84 d5bc
00000160: e0e4 0abe deb3 923d 8a76 3ebe 1ab1 873e
00000170: 5fd1 343e 72c5 033d 99e8 b03c 4e7a 52be
00000180: ffff 013f f9c4 88bc 6c42 9f3d 2cd1 883c
00000190: 4763 febc ae34 2fbd 95a8 ba3d de7e 2fbe
000001a0: c4ed 55be 3593 84bb 9ace 553c 3be3 81bd
000001b0: 45ca 29be 4965 ed3d a309 69be 4a5a 1cbe
000001c0: 8df9 0bbe c4cd b6bc d343 64be a65f 4cbd
000001d0: d7ae 62bd cb8b 3ebe d7de 62be 7be7 013e
000001e0: ca1b d8bd 4863 36be d915 33be f1d5 bbbc
000001f0: dac3 4cbe cdd2 4abc c958 a9bd c8e1 30be
00000200: c481 d2bb 68f6 3fbe 1505 35be 75e4 a338
00000210: 9a11 53bd ce43 7ebe 4603 90bd d4c6 c1bc
00000220: ddad 203f 9f0b d8bc e08f 2ebe 098c 4fbd
00000230: e663 38be a404 89bd 3c02 08be af60 333e
00000240: f6b8 163d da9c 53bd a4ed 4cbe 69e3 ee3c
00000250: 71e3 3fbe c37c 3bbe d388 e03e 2da6 20be
00000260: ff18 39be 0b92 073d fba3 3dbe 6d32 2dbc
00000270: 6038 21bd a9f1 4fbe b997 bebd 97b4 00be
00000280: 76e1 073f de6a f0bd 32ad a6bd 9651 1abe
00000290: 4d6a 52be 32fb 15be 5cea 5ebe 881e 36bd
000002a0: eea5 8a3e 73ff 0e3d add4 18be b64b 4ebe
000002b0: c6bf 8abc 293d 4d3e 8431 173e ab11 a3bd
000002c0: 7036 22be 06d5 bebd 425a 7c3d e6e6 37be
000002d0: 779e 5cbe 7b66 043b 86a4 cd3c da79 41bd
000002e0: 485d 4dbe b3ca 49be 2b51 bcbd 0f69 01be
000002f0: 9bc1 3f3c 0243 e3bd 9b2b 2fbe ff65 2cbe
00000300: b935 7cbc 6d79 66be a594 bd3b 8f83 4bbd
00000310: 732a 36bd a18b 44be 44b2 abbd 12fb a83d

weight f4 [1, 200]
-0.0602469 -0.046386633 0.5425255 -0.009558801 -0.046821214 -0.057968553 -0.09244896 0.104232416
0.005815444 0.0025482324 -0.0033168753 0.015339159 -0.06922145 -0.058960874 -0.056088757 -0.06579329
-0.042458024 0.02805075 -0.037407007 0.031987637 -0.05453322 -0.023371357 -0.028311502 -0.04432053
0.0003616931 0.062145103 -0.013756209 -0.047488242 -0.09607729 0.37730566 0.06253526 -0.15731296
0.324 -0.06177656 0.014369401 -0.007810496 0.0348782 -0.002707366 -0.051871426 0.023513006
0.041706372 -0.037195757 0.0623599 -0.05835113 -0.0860375 0.25962505 -0.06506861 -0.050387952
0.31176168 -0.048656195 -0.048416305 0.21210925 -0.047092747 -0.060722314 -0.06596141 0.05459591
-0.045595117 -0.04495075 0.034466982 0.103780866 -0.07324598 0.009181301 -0.085027866 0.54298025
-0.49201682 -0.059783377 -0.016164485 0.031503182 0.57897896 -0.04795474 -0.039121322 0.042106427
-0.028686494 -0.076020785 0.029645042 -0.060693223 -0.045292035 -0.075662054 0.29453713 -0.013998111
-0.07541249 0.003346118 -0.08490969 0.28964394 -0.08788359 -0.10119517 -0.06891551 -0.008045771
-0.0548969 0.21187659 -0.08321579 0.3575467 0.12898529 -0.06605012 -0.016124725 -0.068017274
0.57273686 -0.005019154 0.02991753 -0.005356415 0.04617431 0.053573128 -0.08298414 -0.01524171
-0.04666573 0.037491612 0.05615842 -0.0047371374 -0.07110574 -0.07867879 -0.078579135 -0.013265495
-0.0505277 0.047825407 -0.08810881 0.006019387 -0.008758725 -0.065216996 -0.24093933 0.4172127
-0.059402168 -0.044529617 -0.057659116 0.039941575 -0.071300656 0.04924769 -0.05742503 -0.05672128
0.034112114 -0.041242246 -0.042268373 -0.0296545 -0.0075221513 -0.08508724 0.015386876 0.056372527
0.5813609 -0.010430179 -0.057939686 0.060021553 0.025201207 0.012042572 -0.60653573 0.059544094
0.060383826 -0.026054816 -0.15039337 -0.077682205 -0.090531275 -0.06050536 0.3943834 -0.047867823
-0.062403545 0.020442856 -0.06682404 -0.012686251 0.008219524 -0.06339806 -0.06547777 -0.06089726
0.3566735 -0.011010668 0.06783117 -0.06788533 -0.016646322 -0.06469578 -0.060834885 0.18136299
0.2628208 0.033683877 -0.048873518 -0.051263023 0.05236855 0.19686905 0.12274007 -0.045195222
-0.05150893 -0.030982543 0.22364101 -0.10559566 -0.063761346 0.01880262 0.015377315 0.02466945
-0.082757 -0.04702056 0.013961286 0.042788662 0.008743976 -0.06283153 -0.0595725 -0.084645234
0.011170944 -0.25269583 0.06950378 0.04676163 0.06386029 -0.05876395 0.016512426 0.1740033
00000000: 74c5 76bd e9ff 3dbd f3e2 0a3f 849c 1cbc
00000010: 9ac7 3fbd 6f70 6dbd e155 bdbd ce77 d53d
00000020: 7b8f be3b 3f00 273b ef5f 59bb 1951 7b3c
00000030: fac3 8dbd f580 71bd 53bd 65bd a2be 86bd
00000040: 77e8 2dbd b0ca e53c 1738 19bd 7805 033d
00000050: 3a5e 5fbd 4a75 bfbc 86ed e7bc 7289 35bd
00000060: a0a1 bd39 dd8b 7e3d b961 61bc 0883 42bd
00000070: 2cc4 c4bd 352e c13e 7d12 803d a616 21be
00000080: 54e3 a53e 6b09 7dbd a36d 6b3c 30ef ffbb
00000090: 72dc 0e3d 106e 31bb 2277 54bd 599e c03c
000000a0: 4dd4 2a3d 945a 18bd 186d 7f3d 9801 6fbd
000000b0: 6e34 b0bd 93ed 843e b142 85bd 9963 4ebd
000000c0: 3a9f 9f3e b84b 47bd 2d50 46bd 2b33 593e
000000d0: 53e4 40bd f6b7 78bd c716 87bd f69f 5f3d
000000e0: f2c1 3abd 471e 38bd 402d 0d3d 108b d43d
000000f0: fd01 96bd 2b6d 163c 1723 aebd c100 0b3f
00000100: a1e9 fbbe 6adf 74bd 626b 84bc 7b09 013d
00000110: f737 143f 306c 44bd ae3d 20bd ca77 2c3d
00000120: f0ff eabc c9b0 9bbd 29da f23c 7599 78bd
00000130: 2484 39bd b5f4 9abd 92cd 963e 5558 65bc
00000140: dd71 9abd 8b4a 5b3b 22e5 adbd 364c 943e
00000150: 50fc b3bd 6a3f cfbd 9323 8dbd 69d2 03bc
00000160: 92db 60bd 2df6 583e 0a6d aabd 5c10 b73e
00000170: b814 043e 4945 87bd 0018 84bc a44c 8bbd
00000180: e29e 123f b777 a4bb 9c15 f53c de84 afbb
00000190: 4621 3d3d 7f6f 5b3d 97f3 a9bd 5db8 79bc
000001a0: 9124 3fbd ce90 193d 5f06 663d fd39 9bbb
000001b0: e39f 91bd 5822 a1bd 19ee a0bd 8557 59bc
000001c0: 22f6 4ebd 93e4 433d 6472 b4bd 473e c53b
000001d0: c180 0fbc 7d90 85bd cdb8 76be e79c d53e
000001e0: b04f 73bd b064 36bd f72b 6cbd c799 233d
000001f0: 1406 92bd f2b7 493d 8236 6bbd 9354 68bd
00000200: 25b9 0b3d a1ed 28bd 9a21 2dbd feed f2bc
00000210: 617c f6bb 3842 aebd 3c19 7c3c e1e6 663d
00000220: 11d4 143f 57e3 2abc 2a52 6dbd 29d9 753d
00000230: c372 ce3c 354e 453c ed45 1bbf 82e4 733d
00000240: 0855 773d e970 d5bc b800 1abe d917 9fbd
00000250: 7668 b9bd 78d4 77bd 9fec c93e 0d11 44bd
00000260: dc9a 7fbd c777 a73c 0bdb 88bd fed9 4fbc
00000270: 2fab 063c d8d6 81bd 3619 86bd 686f 79bd
00000280: e99d b63e 1766 34bc 12eb 8a3d 7707 8bbd
00000290: de5d 88bc 397f 84bd 002e 79bd 38b7 393e
000002a0: 7390 863e 1bf8 093d 992f 48bd 2df9 51bd
000002b0: 6880 563d 0a98 493e 255f fb3d a01e 39bd
000002c0: 07fb 52bd 1acf fdbc 2602 653e 8a42 d8bd
000002d0: 4f95 82bd f407 9a3c 22f1 7b3c 9617 ca3c
000002e0: 817c a9bd a198 40bd e1bd 643c 2a43 2f3d
000002f0: e542 0f3c d1ad 80bd 4b02 74bd 7b5a adbd
00000300: 5606 373c 5961 81be ff57 8e3d 1f89 3f3d
00000310: 2fc9 823d 78b2 70bd 1145 873c ec2d 323e
