lab2/problem3/neural-network-3-critic.pth (torch, 339275 bytes, 5 tensors)

weight f4 [400, 8]
0	0x3e056823	0.13028006
1	0x3eff405b	0.49853787
2	0x3e193253	0.14960603
3	0xbf1e9e09	-0.6195989
4	0x3e561bd5	0.20909055
5	0x3d9787e7	0.07398968
6	0x3e53732d	0.20649405
7	0xbedf2939	-0.43586138
8	0xbe2ca005	-0.16857918
9	0xbf0ce49a	-0.5503632
10	0x3ef1190b	0.4708942
11	0xbe76d573	-0.24104862
12	0xbe37af3b	-0.17937939
13	0xbc833b6a	-0.016019542
14	0xbf6c4edb	-0.92307824
15	0x3e710887	0.23538409
16	0xbcb8b200	-0.022545815
17	0x3ebbb99f	0.36665055
18	0x3e53b712	0.20675305
19	0xbf29e3d8	-0.66363287
20	0xbf142e8f	-0.5788354
21	0x3f057096	0.5212492
22	0x3cf06732	0.029346082
23	0xbf5ece67	-0.87033695
24	0xbe3b27f1	-0.18276955
25	0x3eb901d4	0.36134207
26	0x3ef3a757	0.47588608
27	0xbebbdd18	-0.3669212
28	0xbf665b4b	-0.8998305
29	0x3da029a0	0.07820439
30	0xbdc47c51	-0.09594024
31	0xbe597768	-0.21236956
32	0xbe7e95d8	-0.24861848
33	0xbe687eaa	-0.22704569
34	0x3eb4313d	0.35193816
35	0x3e8e249e	0.27762312
36	0xbee2617b	-0.44214997
37	0xbf312539	-0.6919742
38	0xbf0d5186	-0.5520252
39	0x3ca3cc2a	0.019994814
40	0x3d25c00d	0.040466357
41	0x3e115278	0.14191616
42	0xbca71e54	-0.020400204
43	0x3f9659df	1.1746176
44	0x3d925c73	0.071465395
45	0xbf10d4fb	-0.5657498
46	0x3f16f9ab	0.58974713
47	0x3eb93fd8	0.3618152
48	0x3ef2f932	0.47455746
49	0x3e2eaaee	0.17057392
50	0x3e3f9536	0.18709263
51	0x3f2f0477	0.6836619
52	0xbd91d46b	-0.07120594
53	0xbdd78ab5	-0.10524503
54	0x3e8806b4	0.26567614
55	0x3f0b8a5f	0.5450801
56	0xbf3bbf6b	-0.73338956
57	0xbe81cf63	-0.25353536
58	0xbe1c0c23	-0.15239005
59	0x3ed3e270	0.41383696
60	0x3eabbcc9	0.3354247
61	0xbcb38596	-0.021914285
62	0xbf4ca9b9	-0.79946476
63	0x3d05afda	0.03263841
64	0x3df4cb58	0.11952847
65	0x3c145753	0.009054023
66	0x3e8d61ac	0.2761358
67	0xbe7c8bb9	-0.24662675
68	0xbe07806c	-0.13232583
69	0x3d852e0f	0.065029256
70	0xbe85ae49	-0.26109532
71	0xbf179c57	-0.5922293
72	0x3d6ae6ab	0.05734889
73	0xbf08bb66	-0.5341095
74	0x3e19ab85	0.15006836
75	0x3e090fb4	0.13384897
76	0x3e027111	0.12738444
77	0x3e460d7f	0.19341086
78	0x3e182aed	0.14860125
79	0xbf012ac4	-0.5045588
80	0x3f90b190	1.1304188
81	0xbe85a356	-0.26101178
82	0x3ed018d9	0.40643957
83	0xbed98557	-0.42484543
84	0xbea9b959	-0.33149222
85	0x3d8e057c	0.0693464
86	0xbc102e3e	-0.0088000875
87	0x3eb9870e	0.3623585
88	0x3e8e2df4	0.27769434
89	0xbf36579b	-0.71227425
90	0x3ddfe1c0	0.1093173
91	0xbee48923	-0.44635877
92	0x3e843098	0.25818324
93	0xbd52adea	-0.05143539
94	0x3e16ec94	0.14738685
95	0x3ce0fcd1	0.027464302
96	0x3e7b3bcf	0.24534534
97	0xbf6dd11e	-0.9289721
98	0x3c975aef	0.018475978
99	0x3f10664e	0.56406105
100	0x3e035339	0.12824716
101	0x3df483f8	0.119392335
102	0x3c7c9676	0.015416732
103	0xbeb25929	-0.3483365
104	0xbf6521bd	-0.89504606
105	0xbe0f1358	-0.13972223
106	0xbe2bbc02	-0.16770938
107	0xbd72e94f	-0.05930453
108	0x3d6e5bce	0.05819302
109	0x3ea1602d	0.3151869
110	0xbeff62da	-0.49880105
111	0xbe2aee1a	-0.16692391
112	0x3e172c70	0.14763045
113	0xbec75822	-0.38934427
114	0xbe0a09cc	-0.134803
115	0xbe88eeed	-0.26744786
116	0x3ee51139	0.44739702
117	0xbe1cca62	-0.15311578
118	0xbee9c7c7	-0.4566023
119	0x3d7a9fb3	0.061187457
120	0x3e30c373	0.17262058
121	0xbf32370c	-0.69615245
122	0xbe763e67	-0.24047242
123	0xbdb878e4	-0.09007433
124	0xbd1f71c2	-0.038926847
125	0xbe446bc6	-0.19181737
126	0xbe2fd319	-0.17170371
127	0x3e1b906c	0.15191811
128	0x3d9f04f1	0.077646144
129	0xbdd0cf51	-0.101957925
130	0x3e6191b2	0.22028235
131	0x3ec5604e	0.38550037
132	0x3f572cc4	0.8405268
133	0xbea7ed0f	-0.3279805
134	0xbec9d049	-0.3941672
135	0xbdb22eba	-0.08700319
136	0x3f3184fc	0.69343543
137	0xbdc45e43	-0.095882915
138	0x3e3c3f26	0.18383464
139	0x3d8cc260	0.068730116
140	0xbe3e335c	-0.1857428
141	0xbe20653e	-0.15663621
142	0xbefe2e0c	-0.49644506
143	0x3d60cb45	0.054881353
144	0xbe60421b	-0.21900217
145	0x3f1c26ec	0.6099689
146	0x3ec7d5ad	0.3903021
147	0xbf5714d9	-0.84016186
148	0xbf31e926	-0.6949638
149	0x3df345c4	0.11878541
150	0xbd701bc2	-0.058620222
151	0xbdc84a42	-0.097797886
152	0x3f8c3e9a	1.0956604
153	0xbe900607	-0.28129598
154	0x3ec25051	0.37951902
155	0xbbb8dca0	-0.005641535
156	0xbe1e4b22	-0.15458348
157	0xbd96c8e2	-0.07362534
158	0xbf21a8e6	-0.63148344
159	0xbec33bb7	-0.38131496
160	0x3e7bae83	0.2457829
161	0xbf815ad7	-1.0105847
162	0xbe557e79	-0.20849027
163	0x3efb4d05	0.490822
164	0xbe39a85b	-0.18130629
165	0x3e45dae8	0.19321787
166	0x3dd5f099	0.10446281
167	0xbf0194c2	-0.5061761
168	0x3e1c8a9b	0.15287249
169	0xbbb7d7a6	-0.005610424
170	0x3e84aae5	0.25911632
171	0x3cc51877	0.024059517
172	0x3fc148e4	1.510037
173	0xbe8eba11	-0.27876332
174	0xbe516fe0	-0.20452833
175	0xbe6c54c5	-0.23079212
176	0xbf9760b8	-1.1826391
177	0xbea6d694	-0.32585585
178	0xbef73ca2	-0.48288447
179	0xbec1a1b7	-0.3781869
180	0x3f14d6e4	0.581404
181	0xbd289b7e	-0.041163914
182	0x3cce2361	0.025163354
183	0x3d12894c	0.035775468
184	0x3df0df8f	0.117613904
185	0xbd0594ce	-0.032612614
186	0x3f3b1b95	0.7308896
187	0xbe07336a	-0.13203207
188	0x3eaf4727	0.34233972
189	0x3ee0b47f	0.43887708
190	0x3f069367	0.5256867
191	0x3eba618a	0.3640254
192	0x3d6e8fc5	0.058242578
193	0xbea9b453	-0.3314539
194	0xbd224632	-0.039617725
195	0xbe6432c8	-0.22284997
196	0xbf306694	-0.6890652
197	0xbe77009b	-0.24121325
198	0xbf7fa1cd	-0.99856263
199	0xbd0954a5	-0.03352799
200	0xbed0344f	-0.40664908
201	0xbf150f0d	-0.5822609
202	0xbe919029	-0.28430298
203	0x3e61b2a3	0.22040801
204	0x3eb8c78b	0.3608974
205	0x3e98ce5d	0.29844943
206	0xbed54b61	-0.41659072
207	0xbee87348	-0.45400453
208	0xbe8bec3e	-0.27328676
209	0xbe46dade	-0.19419429
210	0xbf002cf3	-0.5006859
211	0x3db2147e	0.08695315
212	0x3f17ba02	0.592682
213	0x3f950c07	1.1644295
214	0xbbc4a2a0	-0.0060008317
215	0xbcd8e190	-0.026474744
216	0x3daff710	0.08592045
217	0x3d2f4c5f	0.042797443
218	0xbdd17493	-0.10227313
219	0x3d8af7c2	0.06785537
220	0x3e1ec33e	0.15504166
221	0xbc64d534	-0.013966847
222	0xbe4ad9f7	-0.1980971
223	0xbe060503	-0.1308785
224	0x3e536163	0.20642619
225	0x3e5346a1	0.20632412
226	0xbe6b624b	-0.22986715
227	0xbeef3599	-0.4672058
228	0x3e934418	0.2876289
229	0xbede5d5c	-0.43430603
230	0x3e1daa42	0.1539698
231	0xbd8137f0	-0.06309497
232	0xbd53862d	-0.051641632
233	0xbda42ca4	-0.08016327
234	0x3f1cbbf2	0.6122428
235	0xbeaa2b00	-0.3323593
236	0x3f272fc6	0.6530727
237	0xbd3f4fa7	-0.04670682
238	0xbf23b0b2	-0.6394149
239	0xbccfa5fb	-0.0253477
240	0xbe7a99a0	-0.24472666
241	0xbd0ba700	-0.03409481
242	0x3b365e7a	0.0027827309
243	0xbefee098	-0.49780726
244	0xbfcb2f60	-1.5873833
245	0xbe70ad82	-0.23503688
246	0xbdb1a86b	-0.08674701
247	0xbd930ed6	-0.07180564
248	0x3f1041cd	0.56350404
249	0xbe94d6a7	-0.29070017
250	0x3ec0340e	0.37539715
251	0xbe8b564c	-0.27214277
252	0xbf039ffd	-0.51416
253	0xbf9d502d	-1.2290093
254	0xbd83dc6d	-0.06438527
255	0x3e23abf5	0.15983565

bias f4 [400]
0	0x3d8b9a7c	0.06816575
1	0x3dd34b4e	0.103170976
2	0x3d9baa56	0.076008484
3	0x3da53837	0.08067363
4	0xbe083b89	-0.13303961
5	0x3e8233f2	0.25430256
6	0x3e0ed318	0.13947713
7	0xbd673d2a	-0.056454815
8	0xbee06b07	-0.43831655
9	0x3e5d2021	0.21594287
10	0xbd490678	-0.049078435
11	0x3c5ca122	0.013466151
12	0x3e875f54	0.26439917
13	0xbdf7a2a8	-0.12091571
14	0x3e4e30d5	0.20135815
15	0xbdec69f3	-0.11543646
16	0x3e00a806	0.12564096
17	0xbe39c430	-0.18141246
18	0xbd73ffe0	-0.059570193
19	0x3d827277	0.06369489
20	0x3eb0fd22	0.34568125
21	0x3ca039f1	0.019558879
22	0xbe10877b	-0.14114182
23	0x3df5a11b	0.11993619
24	0xbe00e26d	-0.12586375
25	0x3d9ccf90	0.07656777
26	0xbd1e5843	-0.03865839
27	0xbece631c	-0.4030999
28	0x3e3e7b13	0.18601637
29	0x3d4330cc	0.04765396
30	0xbe6c535b	-0.23078673
31	0xbe831664	-0.2560302
32	0xbe7aeb9b	-0.24503939
33	0x3d0ed5f8	0.034872025
34	0x3dba1c75	0.09087459
35	0x3e3f7f8e	0.18701002
36	0x3d76d17a	0.060258366
37	0xbed3623f	-0.41285893
38	0x3f040598	0.51571035
39	0x3e94e520	0.29081059
40	0xbe7255a1	-0.23665477
41	0xbe03c42a	-0.128678
42	0xbd33bad4	-0.043879345
43	0x3e51e43c	0.20497221
44	0x3d93e062	0.07220532
45	0xbdd473cb	-0.10373648
46	0xbd30dc18	-0.043178648
47	0xbe5be1fa	-0.21472922
48	0xbcde36e5	-0.027125785
49	0x3e21c4e4	0.15797764
50	0x3c767ffc	0.015045162
51	0xbd8b8036	-0.06811564
52	0xbdd52505	-0.104074515
53	0x3e1698d3	0.14706735
54	0x3cb34090	0.021881372
55	0xbf0a2e00	-0.5397644
56	0xbdcafe70	-0.09911811
57	0x3da868cb	0.08223113
58	0x3ed32b53	0.4124399
59	0x3e73b921	0.2380109
60	0x3ea63e62	0.3246947
61	0x3d93f837	0.072250776
62	0x3c4f6863	0.012659165
63	0x3e8fff32	0.28124386
64	0x3e0e0ee8	0.13872874
65	0x3ebd21f4	0.36939967
66	0xbd67a929	-0.056557808
67	0x3dd1f90c	0.1025258
68	0xbe063135	-0.13104708
69	0x3e0ba288	0.1363622
70	0xbe814f7f	-0.25255963
71	0xbcbcf78b	-0.023067256
72	0xbe6cbe17	-0.23119389
73	0x3d90f3df	0.07077765
74	0xbdfe6db8	-0.12423271
75	0x3b167c4b	0.0022962268
76	0xbd3c4516	-0.045964323
77	0xbc930f52	-0.017951641
78	0x3decd96c	0.115649074
79	0xbe3e7755	-0.18600209
80	0xbd5ceb61	-0.053935412
81	0xbd4946c7	-0.049139764
82	0xbe112912	-0.14175823
83	0xbe26b26c	-0.16279
84	0x3e55ddef	0.20885442
85	0xbcab71da	-0.020928312
86	0xbe6acd4b	-0.22929876
87	0x3ebd1ff5	0.36938444
88	0xbdf72e09	-0.120693274
89	0xbe14649e	-0.14491507
90	0xbebffa51	-0.37495664
91	0x3e252e72	0.16130999
92	0x3d5f25e2	0.054479487
93	0xbd180575	-0.03711458
94	0x3e92816a	0.2861436
95	0x3e0be561	0.1366172
96	0x3eac5a41	0.33662608
97	0x3e1aa5c4	0.15102297
98	0xbdd73dec	-0.105098575
99	0x3d2d0f99	0.042251203
100	0x3dda687e	0.106644616
101	0xbdde58e2	-0.10856797
102	0x3e750525	0.23927744
103	0x3ea75c95	0.32687822
104	0xbe2c50ef	-0.16827749
105	0xbd79c003	-0.060974132
106	0xbe366341	-0.178113
107	0x3ea4a4c4	0.32156956
108	0xbc7e7705	-0.015531306
109	0x3e238c9a	0.15971604
110	0x3eaf92b5	0.34291616
111	0xbdf5653d	-0.119822
112	0xbdcf852a	-0.10132821
113	0xbe243007	-0.16033946
114	0xbe0658aa	-0.1311976
115	0x3e9e8559	0.3096111
116	0x3d43e07b	0.047821503
117	0x3e56d4ae	0.20979568
118	0xbe4d38f0	-0.20041251
119	0x3e01476e	0.12624905
120	0x3cd6fa26	0.026242327
121	0xbe222c6b	-0.15837257
122	0x3e18f600	0.14937592
123	0xbe57a28f	-0.21058105
124	0xbdc38300	-0.09546471
125	0xbdc345d5	-0.09534804
126	0x3eea7e44	0.45799458
127	0xbdd17511	-0.10227407
128	0x3e0076d9	0.12545337
129	0x3ddcbc0e	0.10778056
130	0xbca4b2d4	-0.020104803
131	0x3eb9f9aa	0.3632329
132	0x3e1cce9b	0.15313189
133	0xbcccb8d2	-0.024990473
134	0xbe296650	-0.16542935
135	0x3e0408d8	0.12893999
136	0xbda956c3	-0.082685016
137	0xbdc8e9e6	-0.098102376
138	0xbe5cede2	-0.2157512
139	0x3ebe001b	0.37109455
140	0x3e7f00db	0.2490267
141	0xbdac3b56	-0.08409755
142	0xbe76054c	-0.24025458
143	0xbdf50be9	-0.11965162
144	0x3ef487aa	0.47759753
145	0x3e78e8d4	0.24307567
146	0xbd6267e0	-0.055274844
147	0xbdb39739	-0.08769078
148	0x3d88e475	0.066842
149	0xbe410cdb	-0.1885256
150	0x3c2151ca	0.00984616
151	0xbde432ec	-0.11142525
152	0xbda051d0	-0.078281045
153	0xbd851f7a	-0.06500144
154	0x3ec39489	0.3819926
155	0x3d6ab4c0	0.057301283
156	0xbd398e73	-0.045301866
157	0xbece6785	-0.40313354
158	0xbde06621	-0.109569795
159	0xbec23f23	-0.37938794
160	0x3e9270cf	0.2860169
161	0x3e9faca1	0.31186393
162	0xbcfcd3ee	-0.030862775
163	0xbe8bcd9a	-0.273053
164	0x3e51c40c	0.20484942
165	0xbe931e81	-0.2873421
166	0x3e1505cd	0.14552994
167	0x3f35868c	0.7090843
168	0xbdca8001	-0.09887696
169	0x3ebe44d2	0.3716188
170	0xbcd6a682	-0.026202444
171	0x3e307b02	0.17234424
172	0x3e33e24b	0.17566793
173	0xbe145618	-0.14485967
174	0xbe9363b3	-0.28787002
175	0x3e6e5cc3	0.23277573
176	0xbb77c1c6	-0.0037804707
177	0xbe78d3c3	-0.2429953
178	0x3d895f9b	0.067076884
179	0x3d2f82be	0.042849295
180	0x3e9dc968	0.30817723
181	0xbd498838	-0.049202174
182	0xbdb53a00	-0.08848953
183	0xbd56d9bf	-0.052453753
184	0x3d6430f1	0.055710737
185	0xbcc64bdb	-0.024206093
186	0xbdccd2e2	-0.1000116
187	0xbc8a9ccf	-0.016920475
188	0xbe13effc	-0.14447016
189	0x3ed5c9eb	0.41755614
190	0x3eb49731	0.352716
191	0x3e3b2b46	0.18278226
192	0xbda9f712	-0.08299078
193	0x3ef63c79	0.48093012
194	0xbddd84ce	-0.10816346
195	0xbed4c616	-0.41557378
196	0x3d555080	0.052078724
197	0x3d799bb9	0.060939524
198	0x3cb61c4d	0.022230292
199	0xbe9e0644	-0.30864155
200	0xbd9c4ec3	-0.0763221
201	0x3e56f992	0.20993641
202	0xbe816183	-0.25269708
203	0xbdc6a435	-0.09699289
204	0xbecf19af	-0.40449283
205	0xbddcedb8	-0.10787529
206	0x3de66dec	0.11251435
207	0xbe39bed5	-0.18139203
208	0xbe7e0ae6	-0.24808845
209	0x3e6a20e7	0.22864114
210	0xbd9642df	-0.073369734
211	0xbdda6aa5	-0.10664872
212	0x3e93d819	0.28875807
213	0x3ecff93b	0.40619835
214	0xbbe72385	-0.007053795
215	0x3dff7ab5	0.124745764
216	0x3e9c5229	0.30531433
217	0x3ec70c29	0.38876465
218	0x3e6048bd	0.21902747
219	0xbda9e658	-0.08295888
220	0x3e345d97	0.17613827
221	0x3c9ae85e	0.01890963
222	0x3e1ae5e7	0.15126763
223	0xbe104112	-0.14087322
224	0xbe80eb8b	-0.25179705
225	0x3de85bbc	0.11345622
226	0xbc904274	-0.017609812
227	0xbe285a17	-0.16440617
228	0x3b7ae3fd	0.0038282864
229	0xbe6f1909	-0.23349394
230	0xbdb1ffdf	-0.08691382
231	0xbdef107b	-0.11673065
232	0xbe3296b8	-0.17440307
233	0xbda75d62	-0.08172108
234	0x3ea46d96	0.32114857
235	0x3cc76340	0.024339318
236	0x3e23a9b1	0.15982701
237	0x3e79be95	0.24389108
238	0xbe86271b	-0.2620171
239	0x3dfcc3a2	0.123420015
240	0x3eacba90	0.33736086
241	0xbe314d92	-0.17314747
242	0xbe616506	-0.22011194
243	0x3d07801e	0.033081166
244	0x3cc9aa3d	0.024617309
245	0xbe01da12	-0.12680843
246	0x3d834477	0.06409543
247	0xbddf91af	-0.10916459
248	0x3e2e208c	0.17004603
249	0xbeb84e45	-0.35997215
250	0xbdfdfd64	-0.12401846
251	0x3db2837b	0.08716484
252	0xbc622a72	-0.013804065
253	0x3eb44621	0.35209754
254	0xbda94451	-0.082649834
255	0x3da786c0	0.081799984

weight f4 [200, 400]
0	0xbe591d9b	-0.212027
1	0xbda99a8b	-0.0828143
2	0x3c5c9e64	0.013465498
3	0xbd143c7f	-0.036190506
4	0xbda57e27	-0.08080702
5	0xbddbe228	-0.10736495
6	0x3db90882	0.09034826
7	0x3eaaa30e	0.33327526
8	0x3cca8e87	0.024726165
9	0x3e8d53a4	0.27602875
10	0xbea110a4	-0.31458008
11	0xbe154463	-0.14576869
12	0x3f200e8b	0.6252219
13	0xbedf55f8	-0.43620276
14	0x3e15b7f2	0.14620951
15	0x3dc434fe	0.0958042
16	0x3cb18d94	0.021673955
17	0xbcc87a22	-0.0244723
18	0xbe6fdf81	-0.23425104
19	0xbe2f4410	-0.17115808
20	0x3f513b24	0.81730866
21	0x3decdfb4	0.115661055
22	0xbe0ef19f	-0.13959359
23	0xbea7f244	-0.32802022
24	0x3e8e92c0	0.27846336
25	0x3f2db8c0	0.6786003
26	0x3ea54db1	0.32285836
27	0xba6eb2cd	-0.0009105623
28	0xbdb68131	-0.0891136
29	0x3d574df8	0.05256459
30	0xbc6123bd	-0.013741431
31	0xbe60e658	-0.21962869
32	0xbe0ef015	-0.13958772
33	0xbcdeaa33	-0.027180767
34	0x3f1722e1	0.59037596
35	0x3e41eff6	0.18939194
36	0x3e10ae36	0.14128956
37	0xbe9cb9fa	-0.3061064
38	0x3d908e8b	0.07058438
39	0x3e6b699e	0.22989509
40	0x3db0ca11	0.08632291
41	0xbbf79199	-0.0075551984
42	0x3e503dd4	0.20336086
43	0x3ead049d	0.33792582
44	0x3ea89148	0.3292334
45	0x3e9b1884	0.3029214
46	0x3dd90467	0.10596543
47	0x3de3831c	0.111089915
48	0x3e22c15b	0.15894072
49	0x3de01519	0.10941524
50	0xbe598beb	-0.2124478
51	0x3e197b85	0.14988525
52	0x3cf115ba	0.029429305
53	0x3cb56ed7	0.02214758
54	0xbd67f0d6	-0.056626163
55	0xbe8ffd35	-0.2812287
56	0xbe266c42	-0.16252235
57	0xbe5881bf	-0.21143244
58	0x3e9224be	0.28543657
59	0x3e87ee0e	0.2654881
60	0x3f3db02d	0.7409695
61	0xbe11dd66	-0.14244613
62	0xbe47c14d	-0.19507332
63	0x3f02edb1	0.5114394
64	0x3e831d17	0.2560813
65	0x3e80b307	0.25136587
66	0xbe1524d0	-0.14564824
67	0xbdfec308	-0.12439543
68	0x3e91002a	0.28320438
69	0x3d027148	0.031846315
70	0x3c2317cf	0.009954407
71	0x3c0e72c1	0.008694352
72	0x3eaed9a2	0.34150416
73	0xbe5c57fa	-0.21517935
74	0x3cf5841e	0.029970225
75	0x3e28fdda	0.16503087
76	0xbe8ee63a	-0.27910024
77	0x3d17281d	0.03690349
78	0x3d81b814	0.06333938
79	0x3d8412f8	0.064489305
80	0x3e232c79	0.15934934
81	0x3e302c34	0.17204362
82	0xbdff35e4	-0.12461451
83	0xbe2fe0c5	-0.17175587
84	0x3e4c026f	0.19922803
85	0xbee2dd28	-0.44309354
86	0xbea90a50	-0.3301568
87	0x3edeb269	0.4349549
88	0x3d42517f	0.047441002
89	0x3daa47a3	0.08314445
90	0x3e1fd9bb	0.15610401
91	0x3e569554	0.20955402
92	0x3b678a74	0.0035330327
93	0x3da6a49d	0.08136866
94	0x3dc403d4	0.09571043
95	0x3c9fd84b	0.019512316
96	0x3e90aae7	0.28255388
97	0x3d97e9d0	0.07417643
98	0xbd1bb5a3	-0.03801502
99	0xbea64369	-0.32473305
100	0x3eb24edb	0.34825787
101	0xbd0f78da	-0.035027362
102	0x3f65397e	0.8954085
103	0x3f083e73	0.5322029
104	0x3d943fec	0.07238755
105	0x3e3cdf77	0.1844462
106	0xbd3414cd	-0.04396515
107	0x3ea5da89	0.32393292
108	0x3e8d0a0d	0.2754673
109	0xbe290b17	-0.16508137
110	0x3f245414	0.64190793
111	0x3e1da248	0.15393937
112	0x3ec4c8d6	0.38434476
113	0xbd22ec95	-0.039776403
114	0x3d808bdf	0.06276678
115	0x3e869c13	0.2629095
116	0xbea94d71	-0.33066896
117	0x3db6c694	0.089245945
118	0xbd5dde4b	-0.054167073
119	0x3c88b0c3	0.016685849
120	0xbd037d1c	-0.032101735
121	0x3e3e370a	0.18575683
122	0x3d39703e	0.045273058
123	0xbe4f6cca	-0.20256343
124	0xbe1be1de	-0.1522288
125	0x3e147109	0.14496244
126	0x3dad8d08	0.08474165
127	0x3d661569	0.056172762
128	0x3f15e7db	0.5855691
129	0x3ed9eb39	0.42562273
130	0xbe455f20	-0.19274569
131	0x3e1a2c21	0.15055896
132	0x3f05d61f	0.5227985
133	0xbe60e9b4	-0.2196415
134	0xbdd7704e	-0.10519467
135	0xbe4810ca	-0.19537655
136	0xbb66cd08	-0.0035217423
137	0x3e880521	0.26566413
138	0x3d5cea48	0.053934366
139	0x3f14baec	0.5809772
140	0xbe315c15	-0.17320283
141	0xbda10d20	-0.078638315
142	0xbe6f5a21	-0.23374225
143	0x3ef42843	0.47686967
144	0x3da2d2a0	0.0795033
145	0x3ec842c8	0.3911345
146	0xbe05e549	-0.13075747
147	0xbc9d6316	-0.019212287
148	0x3e0b3ca6	0.13597354
149	0x3d28c120	0.041199803
150	0xbeab55da	-0.33463937
151	0xbc990a9d	-0.018681819
152	0xbe4c9e4b	-0.19982259
153	0x3e6d6efe	0.23186871
154	0x3e2127a9	0.15737785
155	0xbcc23979	-0.023709046
156	0x3e0c1f52	0.13683823
157	0xbe92653f	-0.2859287
158	0xbe8b2375	-0.2717549
159	0x3c9c2cea	0.019064385
160	0x3e64639e	0.22303626
161	0x3e5aa006	0.21350107
162	0x3ef15f65	0.47143093
163	0xbd88cffe	-0.06680296
164	0x3d6b539d	0.057452787
165	0x3dfc2ccc	0.12313232
166	0x3efd19a3	0.49433622
167	0xbdf77bac	-0.120841354
168	0xbecf1801	-0.40448
169	0x3eb919f3	0.3615261
170	0x3e5d3f69	0.2160622
171	0x3da1ad9b	0.07894441
172	0x3f35fbe2	0.7108747
173	0xbed40dcd	-0.4141678
174	0x3e651e4b	0.22374837
175	0x3f406bd6	0.75164545
176	0xbe81b855	-0.25335947
177	0xbdc11a73	-0.09428873
178	0x3ed45150	0.41468287
179	0xbcc03a57	-0.023465319
180	0x3f2b03d1	0.668027
181	0xbe46b19d	-0.19403692
182	0x3ccf0043	0.02526868
183	0xbdd3498e	-0.10316764
184	0xbe1efe6b	-0.1552674
185	0xbc1a109a	-0.009403372
186	0xbea6d993	-0.3258787
187	0xbe992f9b	-0.29919133
188	0xbd79b063	-0.06095923
189	0x3e79d2e2	0.24396852
190	0x3e928617	0.28617927
191	0x3e9afdd1	0.30271772
192	0xbcd81d07	-0.026381029
193	0x3f164fac	0.5871532
194	0xbe96190b	-0.2931598
195	0xbda3da87	-0.08000665
196	0x3ebe899c	0.37214363
197	0xbca4fbe1	-0.020139636
198	0xbd4a81a6	-0.04944005
199	0x3de5a8ef	0.11213862
200	0x3e83db14	0.2575308
201	0x3d78c8aa	0.060738243
202	0xbe6208b0	-0.22073627
203	0x3e0f56bb	0.13997929
204	0x3c21513d	0.009846029
205	0x3e939c32	0.28830105
206	0xbefa9d8b	-0.4894832
207	0xbd218e85	-0.039442558
208	0xbdb31488	-0.087441504
209	0x3f10b801	0.5653077
210	0x3b7fbd58	0.003902277
211	0xbd8af4b3	-0.06784954
212	0x3ef7c138	0.48389602
213	0x3e116226	0.14197597
214	0xbe29f8ba	-0.16598788
215	0xbe8b697d	-0.2722892
216	0x3e8ca573	0.27469978
217	0x3f0432d6	0.5164007
218	0xbe3113bb	-0.17292683
219	0x3e8ff25f	0.28114602
220	0x3d26d86c	0.04073374
221	0x3dfbc95e	0.12294267
222	0x3e63daa6	0.22251377
223	0xbcc750ae	-0.024330463
224	0xbd9f9614	-0.07792297
225	0x3d88982a	0.06669648
226	0x3c05d1b4	0.008167673
227	0xbdbad8cf	-0.09123384
228	0x3e267e25	0.16259058
229	0xbe179778	-0.14803874
230	0x3bb031f7	0.00537705
231	0xbe7449fd	-0.2385635
232	0xbe4b22ab	-0.19837444
233	0x3dc3bb2c	0.095571846
234	0xbe58d74a	-0.21175876
235	0x3dd845c5	0.105601825
236	0xbe5c91d0	-0.21539998
237	0xbe0d9a01	-0.13828279
238	0xbe8bf789	-0.27337292
239	0xbd228fe9	-0.039688025
240	0x3f56797c	0.8377912
241	0x3e7772e3	0.2416492
242	0x3b19e6ad	0.002348344
243	0xbddd0dfd	-0.10793684
244	0xbe5c437d	-0.2151012
245	0x3d0415b7	0.03224727
246	0x3e941f2e	0.28930038
247	0xbbe57aa3	-0.007003145
248	0x3f20052a	0.6250788
249	0x3e17135b	0.14753477
250	0xbb2e933b	-0.002663805
251	0xbe202e42	-0.15642646
252	0xbd9e8805	-0.077407874
253	0x3e1552b6	0.14582333
254	0x3d9301d9	0.07178087
255	0xbd94464a	-0.07239969

bias f4 [200]
0	0x3e3fd653	0.18734102
1	0xbc99a20b	-0.018754026
2	0xbe64a69f	-0.22329186
3	0xbdb657cf	-0.08903467
4	0xbd51fe82	-0.05126811
5	0xbdbc7d1d	-0.09203551
6	0xbe32759c	-0.17427677
7	0xbda0fd98	-0.07860869
8	0xbe691741	-0.22762777
9	0x3c0dd81b	0.008657481
10	0xbdbcaa95	-0.092122234
11	0xbdb92fa3	-0.09042289
12	0xbc61a2a3	-0.013771686
13	0xbcf7c489	-0.030245082
14	0x3ee6396d	0.44965687
15	0xbcbcddb2	-0.023054931
16	0xbdb324d3	-0.08747258
17	0xbe4ef9fd	-0.2021255
18	0xbe449dc1	-0.19200803
19	0x3ee8e909	0.45490292
20	0xbe4611bb	-0.19342701
21	0xbe4102bf	-0.18848704
22	0xbd96157a	-0.07328315
23	0xbe0008b6	-0.12503323
24	0x3ecb1df9	0.39671305
25	0xbd882c62	-0.0664909
26	0x3f2bb7ff	0.6707763
27	0xbcdb1037	-0.02674113
28	0x3c847384	0.016168363
29	0xbd4a1f54	-0.049346283
30	0x3a21c5be	0.00061711285
31	0xbd836521	-0.06415773
32	0xbe0519dd	-0.12998147
33	0xbe8c2187	-0.2736933
34	0x3cf55b21	0.02995068
35	0xbe670b73	-0.22562961
36	0xbd947e5d	-0.072506644
37	0xbd6840d8	-0.056702465
38	0xbd146e1c	-0.03623782
39	0xbd2a5756	-0.041587196
40	0xbda82363	-0.082098745
41	0xbda8cd01	-0.082422264
42	0xbe2d7a18	-0.16941106
43	0xbdf4b7ed	-0.119491436
44	0x3d87e3a0	0.06635213
45	0xbcbbb13b	-0.022911659
46	0xbdcd96e2	-0.10038544
47	0xbd49fa73	-0.049311113
48	0x3c6a780e	0.01431085
49	0xbdfa366a	-0.1221741
50	0xbd6d8561	-0.05798853
51	0xbd5f91ee	-0.05458253
52	0xbc00ab0c	-0.007853281
53	0xbe5a1395	-0.21296532
54	0xbd250f3e	-0.04029774
55	0xbd6b8639	-0.05750105
56	0xbe41f084	-0.18939406
57	0xbda6b3dd	-0.08139775
58	0xbda458ab	-0.080247246
59	0xbdc8c260	-0.09802699
60	0xbcb2aa9b	-0.021809867
61	0xbd06d2b3	-0.032915782
62	0xbe70ea81	-0.23526956
63	0xbcac273a	-0.021014798
64	0xbd653fb9	-0.055968974
65	0xbc98e3c6	-0.018663298
66	0xbdb65ad1	-0.089040406
67	0xbd3d781e	-0.04625713
68	0x3e29eb3c	0.16593641
69	0xbe36518b	-0.17804544
70	0x3d0b64b8	0.0340316
71	0xbe833169	-0.25623634
72	0x3c0249c3	0.0079521565
73	0xbe1d0243	-0.15332894
74	0xbdf39d09	-0.118951865
75	0xbcf14238	-0.02945052
76	0xbdd41192	-0.10354914
77	0x3e518d49	0.20464052
78	0xbe3b8e2e	-0.18315956
79	0xbe4b5f41	-0.19860555
80	0xbd0f0db4	-0.034925178
81	0xbdcaffe8	-0.099120915
82	0xbd5f660b	-0.054540675
83	0x3e2ff149	0.17181887
84	0xbda188cc	-0.0788742
85	0xbdff5f2c	-0.124693245
86	0xbdbe17e0	-0.092818975
87	0x3c855c49	0.016279357
88	0xbe06a198	-0.1314758
89	0xbc15e822	-0.009149583
90	0xbe8c9b91	-0.27462438
91	0xbd7d33ee	-0.061817102
92	0xbdfdbb32	-0.1238922
93	0xbe847227	-0.2586834
94	0x3dffd90d	0.12492571
95	0xbe2cb799	-0.16866912
96	0xbe415ad7	-0.18882309
97	0xbdb34ca7	-0.08754855
98	0x3a93c300	0.0011273324
99	0x3ec73fe5	0.38915935
100	0xbd07d748	-0.033164293
101	0x3b86607b	0.004100857
102	0xbde55f53	-0.11199822
103	0xbc73990f	-0.014868035
104	0xbe643871	-0.22287156
105	0x3ed9b79a	0.4252289
106	0x3ada3ba5	0.0016649856
107	0x3f2f54ec	0.68488955
108	0x3cc6d2ee	0.024270501
109	0xbe5054ce	-0.2034485
110	0x3d2d0c55	0.04224809
111	0xbdf97d21	-0.121820696
112	0xbdb9d879	-0.09074492
113	0xbe1150aa	-0.14190927
114	0xbe84b629	-0.25920227
115	0xbdd51f69	-0.10406382
116	0xbd0e4aff	-0.03473949
117	0xbda9a0db	-0.08282634
118	0x3ea47a31	0.32124475
119	0xbd667d63	-0.05627192
120	0x3c95e249	0.018296378
121	0xbe43ebda	-0.19132939
122	0xbe5a16f5	-0.2129782
123	0xbde3ac5f	-0.111168616
124	0xbe18ca0c	-0.14920825
125	0xbe366be2	-0.17814592
126	0xbccd83b5	-0.025087217
127	0xbdef849b	-0.11695214
128	0xbd681b09	-0.056666408
129	0xbd6b393b	-0.057427626
130	0xbe6aca94	-0.2292884
131	0xbe26e6f2	-0.16299036
132	0xbe6b533d	-0.22980972
133	0xbd78b9a1	-0.060723905
134	0xbe1eb922	-0.1550031
135	0xbdd9ce98	-0.10635108
136	0xbd980375	-0.074225344
137	0xbc2428fb	-0.010019536
138	0xbe463236	-0.19355091
139	0x3f0c7f2a	0.54881537
140	0xbde5067b	-0.11182877
141	0xbd9e1234	-0.07718316
142	0xbdd653be	-0.10465191
143	0xbe539aa8	-0.20664465
144	0xbc60ee01	-0.01372862
145	0xbdde76c1	-0.10862494
146	0xbc14ef19	-0.009090208
147	0xbd5d35d4	-0.054006413
148	0xbd815d8d	-0.063166715
149	0x3f494b95	0.78630954
150	0xbde33436	-0.11093943
151	0xbe14f38e	-0.14546034
152	0xbe0a2a15	-0.13492616
153	0xbdbfbf13	-0.093626164
154	0x3e8fcab3	0.28084335
155	0xbe2b84a3	-0.16749816
156	0xbd9f0a6d	-0.077656604
157	0xbd140eef	-0.036147054
158	0x3f09004e	0.5351609
159	0x3c2822f8	0.010262243
160	0xbe35e801	-0.17764284
161	0xbd077169	-0.03306714
162	0xbdff83e8	-0.12476331
163	0xbe75debd	-0.24010749
164	0xbde020da	-0.10943766
165	0xbe500296	-0.20313486
166	0xbd0ff404	-0.03514482
167	0xbe66d1db	-0.22540991
168	0xbdd60b01	-0.104513176
169	0xbe381bcb	-0.17979352
170	0xbddc5c58	-0.10759801
171	0xbd20e85f	-0.039284106
172	0xbc236179	-0.00997197
173	0xbe6dcf74	-0.23223668
174	0x3cb9f9e7	0.02270217
175	0x3c7f8bfa	0.015597338
176	0xbe0fba53	-0.14035921
177	0x3d6c1ff1	0.05764765
178	0x3ede079e	0.43365186
179	0xbd4869b2	-0.048928924
180	0xbd442c95	-0.04789408
181	0xbde679e5	-0.11253718
182	0xbe1bf0b9	-0.15228547
183	0x3cf00a73	0.029301858
184	0x3f3ee257	0.7456412
185	0xbe158726	-0.14602336
186	0xbe5eca85	-0.21756943
187	0xbd82bb62	-0.06383397
188	0xbe6e0f5b	-0.23248045
189	0x3dd80151	0.10547126
190	0xbe242580	-0.1602993
191	0xbc545c75	-0.012961497
192	0xbcc7de93	-0.024398124
193	0xbd503ed4	-0.050841168
194	0xbc63067a	-0.013856525
195	0xbe03a63a	-0.12856379
196	0xbc1e73e2	-0.009671183
197	0xbdead27b	-0.11465927
198	0xb767ba75	-1.3812086e-05
199	0x3d43f311	0.047839228

weight f4 [1, 200]
0	0x3e3c9e7c	0.18419832
1	0x3ca50829	0.020145493
2	0xbb98b333	-0.004660034
3	0xbe2bb06e	-0.16766521
4	0xbdef3e23	-0.116817735
5	0xbba55ed8	-0.0050467066
6	0xbe1d26ed	-0.1534688
7	0xbd34d781	-0.044150833
8	0xbd3e84e8	-0.046513468
9	0x3ca6d345	0.020364413
10	0xbd6dc219	-0.058046434
11	0xbe1ca806	-0.15298471
12	0xbce49840	-0.02790463
13	0x3c2df839	0.010618263
14	0x3f0d7c1d	0.55267507
15	0x3cbd20cf	0.023086933
16	0xbddb7390	-0.10715401
17	0xbe0739a6	-0.13205585
18	0xbe07f629	-0.13277496
19	0x3ec817b0	0.39080572
20	0xbd710f51	-0.058852497
21	0xbdba8c71	-0.09108818
22	0xbc2555c2	-0.010091247
23	0xbe01011f	-0.12598084
24	0x3eb5afb3	0.3548561
25	0xbcd545e1	-0.026034297
26	0x3f0d4e5f	0.5519771
27	0x3bc77402	0.0060868273
28	0x3e1d0625	0.15334375
29	0xbd49a4ff	-0.04922962
30	0x3cfaa3fd	0.030595774
31	0xbdcb64d9	-0.099313445
32	0x3c527ed9	0.012847626
33	0xbe28e1c0	-0.16492367
34	0x3bb384e8	0.00547849
35	0xbc47cffe	-0.012195585
36	0xbc5db118	-0.013530992
37	0x3c1f6288	0.0097280815
38	0xbe0ecb12	-0.13944653
39	0xbd07e366	-0.03317585
40	0x3cce408b	0.02517726
41	0xbcb909b1	-0.022587629
42	0xbe03f108	-0.12884915
43	0x3cb7132f	0.022348015
44	0x3dc31407	0.09525304
45	0x3ce170e2	0.027519647
46	0x3c8d8830	0.017276853
47	0x3d1d06ce	0.038336568
48	0x3d6224d6	0.05521091
49	0x3c5197a9	0.012792506
50	0xbc64ad11	-0.013957278
51	0x3bf8750a	0.0075823115
52	0x3d11742b	0.035511177
53	0xbd382ab7	-0.04496261
54	0x3d4c8152	0.049928017
55	0x3d6e80b0	0.058228195
56	0x3bfa8bf1	0.007646077
57	0x3d06c237	0.03290006
58	0xbe013aff	-0.12620161
59	0xbe004055	-0.1252454
60	0x3ce23d15	0.027617017
61	0xbce4855e	-0.027895626
62	0x3d660b79	0.056163285
63	0x3b9f2fbd	0.004857986
64	0x3da5533e	0.08072518
65	0x3e91acee	0.28452247
66	0xbaa9a211	-0.0012941976
67	0xbdb3e5bd	-0.087840535
68	0x3e3a4c38	0.18193138
69	0xbe80cd32	-0.25156552
70	0x3d8008cb	0.06251677
71	0xbe42c882	-0.190218
72	0x3c60676a	0.013696531
73	0xbd74ba2d	-0.059747864
74	0xbe2809a1	-0.16409923
75	0x3cb533c6	0.022119414
76	0xbc8cb5c9	-0.017176526
77	0x3ec7b689	0.3900645
78	0x3cb38611	0.021914514
79	0xbe164fb1	-0.14678837
80	0xbe0644d3	-0.13112192
81	0xbddb281f	-0.10701012
82	0x3d16e84a	0.036842622
83	0x3ec21a7e	0.37910837
84	0xbc8416e6	-0.0161242
85	0x3b9a4a86	0.004708591
86	0x3b87cddb	0.004144413
87	0x3cd60c83	0.026129013
88	0xbdae687d	-0.08516023
89	0xbc71b719	-0.014753127
90	0xbdf989d1	-0.121844895
91	0x3afb2ebc	0.0019163708
92	0x3cff529c	0.03116732
93	0xbe2810b0	-0.16412616
94	0x3e9a0f7c	0.3008994
95	0xbd2b00e2	-0.04174889
96	0xbd61bcbe	-0.05511164
97	0xbdc6353a	-0.09678121
98	0x3cdf0e09	0.027228372
99	0x3f159eee	0.5844563
100	0x3ccd9d2a	0.025099356
101	0x3b7ac5fa	0.0038264976
102	0x3c9a9100	0.01886797
103	0xbc9d48f9	-0.019199835
104	0xbd51bd5c	-0.051205978
105	0x3edd239a	0.43191224
106	0x3ce00f12	0.027350936
107	0x3f1f9118	0.6233077
108	0xbbd4d055	-0.0064945617
109	0x3d2fd14e	0.042924218
110	0x3d496fe7	0.049178984
111	0xbd6307ca	-0.05542735
112	0x3c6f1769	0.014592984
113	0xbd3cf6cf	-0.046133813
114	0x3d5e4488	0.054264575
115	0xbd3fa608	-0.0467892
116	0x3cb1bf6f	0.021697728
117	0xbe23c480	-0.15992928
118	0x3ed827a6	0.4221775
119	0x3d13c8ce	0.036080174
120	0xb8115f0d	-3.4659217e-05
121	0x3b4ef9bd	0.003158196
122	0xbe1edd57	-0.15514122
123	0x3aaebf33	0.0013332128
124	0xbe3fd387	-0.18733035
125	0x3c2ac0f0	0.010421976
126	0x3d80073c	0.0625138
127	0x3c9cf8c7	0.019161595
128	0x3c4872e6	0.012234425
129	0x3cbeada2	0.023276154
130	0xbeae4364	-0.3403579
131	0xbd803a0a	-0.0626107
132	0x3d517a2b	0.0511419
133	0x3ca36236	0.019944292
134	0xbe0e2f63	-0.13885264
135	0xbdffc906	-0.12489514
136	0x3d062f4b	0.032759946
137	0x3cd6450a	0.026155967
138	0xbe16a078	-0.14709651
139	0x3f10d069	0.5656801
140	0xbd737659	-0.059439037
141	0xbd554689	-0.05206922
142	0xbe163c77	-0.14671503
143	0x3c99c630	0.018771261
144	0x3d2aa7b8	0.041663855
145	0xbc817eda	-0.015807558
146	0x3c4f72f3	0.012661683
147	0x3cc2f508	0.02379848
148	0x3ca29b6e	0.019849505
149	0x3f2c6cac	0.6735332
150	0xbe03db13	-0.12876539
151	0xbe27e0e9	-0.1639439
152	0xbe818fe5	-0.25305095
153	0xbdfd7743	-0.12376263
154	0x3e2613c5	0.16218479
155	0xbd4a7430	-0.04942721
156	0xbd71ad6e	-0.059003286
157	0x3d112f6d	0.03544562
158	0x3f124b79	0.5714641
159	0x3d71035f	0.058841106
160	0xbc2072ce	-0.009792997
161	0x3d330913	0.043709826
162	0xbc6d15fe	-0.014470575
163	0xbd4abbc8	-0.04949549
164	0xbd5e69c4	-0.054300085
165	0xbdf9ede0	-0.12203574
166	0x3cde9998	0.027172849
167	0x3cd506d0	0.026004225
168	0x3c21208c	0.00983442
169	0xbe01185b	-0.12606947
170	0xbd18a496	-0.037266336
171	0x3c96ce35	0.018408874
172	0xbae1abc3	-0.0017217327
173	0xbe000fa7	-0.12505971
174	0x3d0e6d0b	0.03477196
175	0x3d6fd1ef	0.058549818
176	0xbc772a9d	-0.015085843
177	0x3e73419a	0.23755494
178	0x3f0324ce	0.51228034
179	0x3b79b6db	0.0038103375
180	0x3a2ba1bb	0.0006547232
181	0x3c26a1b6	0.010170391
182	0x3b872099	0.004123759
183	0x3c69616b	0.014244418
184	0x3f37f824	0.7186301
185	0x3d15a42b	0.036533516
186	0xbe050bbb	-0.12992756
187	0x3d07525e	0.033037536
188	0xbcd01277	-0.02539943
189	0x3e0ec78c	0.13943309
190	0xbcc7dcbf	-0.024397252
191	0x3c4935c0	0.012280881
192	0x3d7fe837	0.062477317
193	0xbd767b5c	-0.06017624
194	0xbc9ef1dd	-0.019402439
195	0xbc10ba6d	-0.00883351
196	0x3d2e5b77	0.042567696
197	0xbd9109ef	-0.07081973
198	0x3d3bb84b	0.045830052
199	0xbcd492a4	-0.02594883
