lab2/problem3/neural-network-3-critic-gamma-0_01.pth (torch, 339275 bytes, 5 tensors)

weight f4 [400, 8]
0.48497188 0.30134082 0.46247742 0.6301842 -0.07077377 -0.44405648 -0.3936834 0.07592868
-0.17709532 -0.068168424 -0.04858551 0.34547904 0.59914637 0.37832066 -0.39477962 0.3929736
-0.06672608 0.29875192 0.32680902 0.04091162 -0.10321046 -0.015022877 -0.062611744 -0.28908598
-0.46378937 0.09920307 -0.23365602 0.24630593 0.2607064 0.0433009 0.2651772 0.14086977
0.2716734 0.74809664 -0.56754196 -0.33362228 0.06063404 0.4468642 -0.24505168 0.35126328
-0.4525092 -0.5331007 -0.4442282 0.40779412 -0.11280221 -0.0005102216 -0.26944426 0.054859385
-0.07566187 -2.6373138 0.1377037 -0.11152043 0.13413341 -0.11815828 0.20907715 0.14925247
0.2931684 -0.06976941 0.46209532 0.46504828 0.3293864 0.022945315 0.20462346 -0.34610084
0.05455867 0.30269223 0.52713466 0.52420396 -0.26543453 -0.27485153 0.08846462 -0.07160869
0.014135097 -1.9968101 0.112865746 0.08122441 -0.2105207 -0.18027328 0.059997234 0.25336534
-0.012117007 -0.32755426 0.165765 -0.14430813 0.07352724 -0.08847588 0.04861624 -0.14579624
0.43744904 0.25085878 0.42871648 0.36256692 0.50862694 0.20655972 0.04385116 -0.0067053083
-0.117304265 0.073336996 -0.59348905 0.37990615 -0.4047579 -0.29561365 -0.017297447 -0.37524593
0.5069834 -1.6966481 -0.39448816 0.10729895 -0.18096156 0.036657553 0.07391708 -0.06761796
0.07276546 -0.42177275 -0.03952643 0.079983965 0.008452892 0.1399745 0.25988722 0.11683961
0.4044081 -1.5075321 0.19535582 0.39937565 0.08532251 0.041761458 -0.083188415 -0.10667092
-0.3755895 -1.3495872 -0.31909257 0.20368406 0.09886567 0.5708071 0.12242006 -0.02394794
0.18217018 -1.1226463 -0.11626459 0.1580594 0.07548903 0.24831273 0.070060246 -0.12589628
-0.029544465 -0.9651678 -0.23022127 0.37770903 -0.12184096 0.16240107 0.061410278 -0.34262344
0.02532909 -4.0971093 0.063375026 -0.057409607 0.32102606 0.016895162 0.2534911 -0.010701597
-0.19419388 -1.6946101 -0.30501026 0.11413654 0.3656871 -0.55390847 0.00753882 -0.03324297
0.28561115 -0.8339372 0.07118394 0.11639524 0.030799158 -0.19603068 -0.31864405 -0.032229967
0.79684746 -0.998087 0.2221263 0.25454405 -0.047045816 0.00079596107 0.19723606 -0.2709125
-0.35521078 -2.3303173 -0.60581756 -0.108780526 -0.04915554 0.41533935 -0.14537708 -0.39796013
0.20284049 0.0637286 0.01962555 0.032585073 1.0926439 0.11749015 -0.4279308 -0.83794504
0.07780125 -3.8630347 -0.15285699 -0.20760904 -0.3008759 -0.06208046 0.06316519 -0.06549942
-0.017248444 -3.6782892 0.19219081 -0.08570313 0.25876546 0.02042501 -0.11623983 0.2584262
-0.49781162 -3.772337 0.12979464 -0.18639417 0.42165712 0.008745942 -0.19580592 -0.058335964
0.03511471 -0.18990767 -0.31957558 0.41441786 0.33587715 0.5871393 0.5234618 0.59022945
0.12494909 -0.34517968 -0.07138503 0.08047032 0.119364746 -0.08981057 0.06495589 -0.17275715
0.17243586 0.20162284 -0.59155124 0.50152665 0.3044734 0.2711134 -0.49957862 0.2590856
-0.23086245 -0.46692562 0.09275868 0.020286044 0.025057597 0.01823459 0.026030786 -0.041586503
00000000: 3c4e f83e 5849 9a3e d7c9 ec3e c053 213f
00000010: d7f1 90bd 5f5b e3be df90 c9be 7f80 9b3d
00000020: 7a58 35be e39b 8bbd 9a01 47bd a1e2 b03e
00000030: a861 193f 3fb3 c13e 8e20 cabe d633 c93e
00000040: afa7 88bd 03f6 983e 8353 a73e f192 273d
00000050: 0160 d3bd 8322 76bc 963a 80bd 1403 94be
00000060: cd75 edbe fb2a cb3d 8643 6fbe 9f37 7c3e
00000070: 4f7b 853e 495c 313d 4ec5 873e 2a40 103e
00000080: c718 8b3e 4383 3f3f 6e4a 11bf 8ad0 aabe
00000090: 665b 783d 62cb e43e d4ee 7abe c8d8 b33e
000000a0: 49af e7be 4a79 08bf e171 e3be 64ca d03e
000000b0: d804 e7bd 64c0 05ba 99f4 89be 3cb4 603d
000000c0: 9cf4 9abd c0c9 28c0 3302 0d3e d364 e4bd
000000d0: 455a 093e f8fc f1bd 5218 563e a4d5 183e
000000e0: 2b1a 963e 44e3 8ebd c297 ec3e cf1a ee3e
000000f0: 56a5 a83e d0f7 bb3c d088 513e 2134 b1be
00000100: e978 5f3d 7afa 9a3e 4cf2 063f 3b32 063f
00000110: 09e7 87be 57b9 8cbe f02c b53d 94a7 92bd
00000120: e596 673c 7997 ffbf 2826 e73d fc58 a63d
00000130: bd92 57be 8f99 38be a9bf 753d 1ab9 813e
00000140: 6986 46bc 31b5 a7be 4dbe 293e 83c5 13be
00000150: 7395 963d d832 b5bd d321 473d 9c4b 15be
00000160: 52f9 df3e 9070 803e ba80 db3e 5fa2 b93e
00000170: 6035 023f 6484 533e 469d 333d 34b8 dbbb
00000180: 383d f0bd b531 963d e6ee 17bf 0f83 c23e
00000190: 6d3c cfbe ac5a 97be 60b3 8dbc 3c20 c0be
000001a0: aac9 013f c42b d9bf 5afa c9be 8dbf db3d
000001b0: fd4d 39be 3b26 163d d761 973d 497b 8abd
000001c0: 0f06 953d 99f2 d7be 77e6 21bd a2ce a33d
000001d0: 007e 0a3c 7a55 0f3e f00f 853e 9b49 ef3d
000001e0: 940e cf3e d0f6 c0bf 5b0b 483e f77a cc3e
000001f0: 91bd ae3d 100e 2b3d b05e aabd 4976 dabd
00000200: 444d c0be 46bf acbf 1a60 a3be 8e92 503e
00000210: 167a ca3d 6a20 123f 5eb7 fa3d 782e c4bc
00000220: d28a 3a3e e0b2 8fbf 211c eebd 53da 213e
00000230: fe99 9a3d b145 7e3e bf7b 8f3d f4ea 00be
00000240: 3c07 f2bc 3d15 77bf 20bf 6bbe 1463 c13e
00000250: c187 f9bd 774c 263e 5889 7b3d 576c afbe
00000260: f47e cf3c 851b 83c0 c4ca 813d 5626 6bbd
00000270: 875d a43e b967 8a3c 96c9 813e c055 2fbc
00000280: c3da 46be fce8 d8bf 4e2a 9cbe 6bc0 e93d
00000290: 573b bb3e f2cc 0dbf 3508 f73b c829 08bd
000002a0: a03b 923e e97c 55bf e3c8 913d a160 ee3d
000002b0: 844e fc3c 44bc 48be 5025 a3be 9203 04bd
000002c0: 32fe 4b3f a182 7fbf 1475 633e 9953 823e
000002d0: 1db3 40bd 0ba8 503a 40f8 493e 0bb5 8abe
000002e0: 30de b5be eb23 15c0 dc16 1bbf 53c8 debd
000002f0: 5257 49bd 5ca7 d43e bbdd 14be 6ec1 cbbe
00000300: 6bb5 4f3e 2484 823d c3c5 a03c ed77 053d
00000310: c1db 8b3f ad9e f03d bf19 dbbe 9183 56bf
00000320: 4356 9f3d f63b 77c0 8b86 1cbe 7797 54be
00000330: 680c 9abe 1548 7ebd c05c 813d 8f24 86bd
00000340: 9c4c 8dbc 1769 6bc0 abcd 443e 1f85 afbd
00000350: e87c 843e 5a52 a73c 260f eebd 7050 843e
00000360: 2ae1 febe f86d 71c0 e3e8 043e 1dde 3ebe
00000370: 71e3 d73e 244b 0f3c 5981 48be b1f1 6ebd
00000380: 71d4 0f3d 2877 42be 699f a3be 942e d43e
00000390: 17f8 ab3e c34e 163f 9801 063f 4719 173f
000003a0: 4fe5 ff3d 64bb b0be 5132 92bd a0cd a43d
000003b0: 8175 f43d 9bee b7bd 9807 853d 40e7 30be
000003c0: 0793 303e 3876 4e3e e76f 17bf 0d64 003f
000003d0: f0e3 9b3e 60cf 8a3e c5c8 ffbe dea6 843e
000003e0: 3567 6cbe e010 efbe 43f8 bd3d eb2e a63c
000003f0: 9745 cd3c b560 953c 843e d53c 9c56 2abd

bias f4 [400]
-0.10483128 -0.16283356 0.26716635 -0.26213452 0.0217667 -0.25628397 -0.38047406 0.1264517
0.49632883 -0.7310949 -0.6435832 -0.44742826 -0.41771516 -0.507281 -0.5219324 -0.37974605
-0.71346056 -0.3082907 -0.5784124 -0.41953948 -0.60048646 -0.67700243 -0.372317 -0.41061258
-0.05210833 -0.52046573 -0.28291187 -0.52959865 -0.1542044 -0.48278332 -0.16467728 -0.31932744
-0.55532354 -0.38570017 -0.5159841 -0.28250235 -0.17758371 0.24583443 -0.19563888 -0.5569892
-0.13528317 -0.4358625 -0.28893325 -0.29582176 -0.3389547 -0.071656704 -0.7991915 0.59275824
-0.42469522 -0.46828964 -0.34603947 0.6007472 -0.35222447 -0.713014 -0.4326574 -0.6255469
-0.2378295 -0.29609624 -0.09560203 -0.45116794 0.29046905 -0.44175142 -0.42078304 -0.7444435
-0.37223437 0.39097708 -0.112226 0.24612638 -0.38583785 -0.3534326 -0.13942406 -0.46976295
-0.6830781 -0.12523235 -0.45371398 -0.7017657 -0.4996508 0.01476487 -0.13864395 0.33965635
-0.3243423 -0.4104815 -0.5730437 -0.5650063 -0.4027143 -0.53158 -0.2715543 -0.24093062
-0.4975373 -0.56148475 -0.5380302 -0.13731542 -0.31307882 -0.1473258 -0.4843602 -0.22282854
0.48202688 -0.57912517 -0.13654965 0.45607787 -0.5439953 0.11274225 -0.6595972 -0.032171924
-0.8413842 -0.7697276 0.17344949 -0.23828512 0.6746047 0.19747853 -0.1679888 -0.19971898
-0.61452067 -0.2484014 -0.68232435 -0.42861918 -0.057313282 -0.37734473 -0.60480547 -0.5405213
-0.0892654 -0.29473513 -0.31443173 -0.31628966 -0.5282529 -0.572328 -0.20097376 -0.16955964
-0.086680904 -0.4067234 -0.5276677 -0.31229264 -0.3296453 -0.60547835 -0.6412553 -0.5296472
-0.66616386 0.010116416 0.0044104876 -0.5219209 -0.33821392 -0.31438333 -0.22358954 0.10179036
-0.66767156 -0.54382193 -0.4095669 0.27121264 -0.36984125 0.21168213 -0.3297482 0.0998088
-0.3727423 0.2633723 -0.4291379 -0.345899 -0.154454 -0.3271381 -0.8685491 0.048557043
-0.17886527 0.22758369 0.24307731 -0.15725194 0.06139674 -0.35089573 -0.6866671 -0.15824391
-0.20106629 -0.52781606 0.17196518 -0.78919905 -0.48254794 -0.4816193 0.07828065 -0.3649855
0.35262096 -0.34645516 -0.4295612 -0.2659565 -0.4842219 -0.60912985 -0.51712155 -0.33737162
-0.5265281 -0.29498634 -0.2786198 -0.68406785 -0.508408 0.12585719 -0.13342638 -0.66173434
-0.26969126 -0.039574634 -0.033540294 -0.1754887 -0.060852528 0.32558075 -0.39862818 -0.50022024
-0.67021734 0.65098554 -0.23791528 0.49080786 0.005592965 -0.23132227 -0.57654333 0.17276254
-0.49493465 -0.40051177 -0.38567746 -0.49297625 0.07768319 -0.57644814 -0.3209279 -0.16383068
0.06070134 -0.34027016 -0.62080437 -0.4638767 -0.10680949 -0.37883857 -0.37754393 -0.6013927
-0.5822565 -0.52552414 -0.60033256 -0.44909692 0.2097817 -0.56697583 -0.5567976 -0.7461551
-0.14905097 -0.73595333 -0.045377847 -0.42973286 -0.5700721 -0.099559925 -0.37823603 0.2491902
-0.21523902 -0.22471462 -0.43398845 0.15146464 -0.5812703 -0.17040135 -0.6142194 -0.48371908
-0.21622361 -0.2506213 -0.28427884 -0.29055923 -0.407794 -0.6674285 -0.66094726 -0.32016402
00000000: c8b1 d6bd d7bd 26be 07ca 883e 7f36 86be
00000010: 1450 b23c a737 83be 7fcd c2be 8e7c 013e
00000020: d01e fe3e 0929 3bbf dec1 24bf 5115 e5be
00000030: c3de d5be 2bdd 01bf 5d9d 05bf 136e c2be
00000040: 5aa5 36bf 47d8 9dbe d612 14bf e1cd d6be
00000050: 7bb9 19bf 0850 2dbf 55a0 bebe d03b d2be
00000060: 8b6f 55bd 3e3d 05bf d3d9 90be c793 07bf
00000070: c2e7 1dbe 602f f7be 29a1 28be e37e a3be
00000080: af29 0ebf 7e7a c5be 8917 04bf 26a4 90be
00000090: 81d8 35be 05bc 7b3e 8f55 48be d896 0ebf
000000a0: ac87 0abe 5f29 dfbe 0fef 93be f375 97be
000000b0: 788b adbe c0c0 92bd d097 4cbf 01bf 173f
000000c0: a771 d9be a9c3 efbe 162c b1be 92ca 193f
000000d0: c456 b4be 1688 36bf 4585 ddbe d723 20bf
000000e0: 9489 73be ed99 97be ffca c3bd 7cff e6be
000000f0: 5cb8 943e 3e2d e2be e070 d7be d993 3ebf
00000100: 8195 bebe 262e c83e bfd6 e5bd 8e08 7c3e
00000110: 8a8c c5be 1ef5 b4be 2ec5 0ebe c584 f0be
00000120: 35de 2ebf e93c 00be 334d e8be eba6 33bf
00000130: 3bd2 ffbe 5ae8 713c aef8 0dbe 70e7 ad3e
00000140: 3210 a6be a22a d2be feb2 12bf 41a4 10bf
00000150: 9230 cebe a015 08bf 2a09 8bbe 84b6 76be
00000160: 36bd febe 77bd 0fbf 59bc 09bf 6a9c 0cbe
00000170: de4b a0be 93dc 16be 0ffe f7be 2a2d 64be
00000180: 3acc f63e 8c41 14bf acd3 0bbe 0a83 e93e
00000190: 4743 0bbf 69e5 e63d 5ddb 28bf b5c6 03bd
000001a0: f464 57bf de0c 45bf be9c 313e 0401 74be
000001b0: e5b2 2c3f d037 4a3e 4205 2cbe 2283 4cbe
000001c0: 3a51 1dbf f05c 7ebe cfac 2ebf f973 dbbe
000001d0: 55c1 6abd 5433 c1be 88d4 1abf 9b5f 0abf
000001e0: c7d0 b6bd 86e7 96be 32fd a0be b8f0 a1be
000001f0: 953b 07bf 1684 12bf 11cc 4dbe 0ba1 2dbe
00000200: c285 b1bd 0d3e d0be 3b15 07bf d2e4 9fbe
00000210: 45c7 a8be a100 1bbf 4f29 24bf f596 07bf
00000220: b789 2abf 53bf 253c da85 903b 9c9c 05bf
00000230: 602a adbe daf6 a0be a8f4 64be 7777 d03d
00000240: 86ec 2abf ea37 0bbf c1b2 d1be 62dc 8a3e
00000250: d55b bdbe 33c3 583e c2d4 a8be 8e68 cc3d
00000260: 14d8 bebe bcd8 863e f6b7 dbbe ac19 b1be
00000270: 3029 1ebe a57e a7be 3c59 5ebf c0e3 463d
00000280: 7528 37be b30b 693e 42e9 783e a706 21be
00000290: 267b 7b3d 9ba8 b3be 6ac9 2fbf b10a 22be
000002a0: 52e4 4dbe f41e 07bf a417 303e f308 4abf
000002b0: 8610 f7be ce96 f6be 9b51 a03d 61df babe
000002c0: bc8a b43e 9262 b1be 72ef dbbe 732b 88be
000002d0: efeb f7be efef 1bbf 1462 04bf f9bb acbe
000002e0: 8cca 06bf 7308 97be 41a7 8ebe 121f 2fbf
000002f0: 0727 02bf b5e0 003e eda0 08be 6c67 29bf
00000300: f914 8abe 0319 22bd 8c61 09bd 4fb3 33be
00000310: 8040 79bd 85b2 a63e fe18 ccbe 6f0e 00bf
00000320: 5d93 2bbf fda6 263f 10a0 73be 2b4b fb3e
00000330: 3145 b73b bfdf 6cbe 5898 13bf aae8 303e
00000340: 1368 fdbe e10f cdbe 8477 c5be 6267 fcbe
00000350: 5d18 9f3d 1b92 13bf a950 a4be 3bc3 27be
00000360: f8a1 783d e437 aebe 09ed 1ebf 3f81 edbe
00000370: efbe dabd 21f7 c1be 704d c1be dff4 19bf
00000380: c30e 15bf c088 06bf 65af 19bf 08f0 e5be
00000390: 04d1 563e 5425 11bf 4a8a 0ebf 0504 3fbf
000003a0: d1a0 18be 7067 3cbf 1fde 39bd f205 dcbe
000003b0: 3ff0 11bf 13e6 cbbd 27a8 c1be b72b 7f3e
000003c0: 9e67 5cbe 971b 66be bc33 debe 8c19 1b3e
000003d0: 21ce 14bf b17d 2ebe 7c3d 1dbf 07aa f7be
000003e0: b969 5dbe 6f51 80be ff8c 91be 2ec4 94be
000003f0: 60ca d0be 98dc 2abf d733 29bf 8aec a3be

weight f4 [200, 400]
0.1530167 -0.28600925 -0.13540749 -0.028594207 -0.45439604 0.048187766 0.11630586 -0.039941438
-0.115176894 0.2316326 -0.13724312 0.019265126 -0.25828046 -0.020845257 -0.045689885 0.006995737
-0.15167335 -0.04665372 -0.08072861 0.09299073 0.22605744 -0.27924693 -0.15044273 0.079674125
0.03071872 0.08681933 0.10293619 0.07334576 -0.31383073 0.049512792 -0.34038904 0.03566004
-0.008547169 -0.0811069 0.110037625 -0.02842665 -0.6738936 -0.18467124 -0.11140366 -0.07289899
0.028044647 -0.111254014 0.3359859 0.25559756 -0.06480579 -0.41400865 0.0016756492 -0.25400716
0.04234725 0.051634427 0.068779 -0.37685463 -0.07641557 0.08396131 0.17055106 0.16573928
0.048249442 0.043892242 0.006080568 0.20371725 -0.46706042 0.07589839 0.04195504 -0.12032723
0.042982444 -0.28921333 -0.36326346 -0.17491458 0.091603436 -0.19248365 0.21030767 0.1785987
-0.2476219 0.050201308 -0.030254897 0.09517961 0.12672797 -0.05113881 -0.009780074 -0.6231117
-0.08324443 -0.056592874 0.06009178 -0.0007431654 0.07100645 0.037178464 -0.19727957 0.29653198
-0.15358986 -0.010085267 0.23708947 0.071267955 -0.031898644 -0.12533511 -0.26919433 -0.064199835
-0.22753008 0.1285378 -0.07033584 -0.39278448 -0.10695122 -0.07335975 -0.062150802 -0.24814422
0.021372706 0.0735852 -0.36493012 0.15602723 -0.1759591 -0.054117326 -0.11994772 -0.082184374
-0.060897138 0.03127239 -0.0199968 -0.0049936986 0.10958672 0.0695714 -0.058308568 0.19301315
-0.14463802 0.010465732 0.005633188 -0.1642204 -7.323404e-05 -0.039096303 0.08560379 -0.07911181
-0.14453673 -0.059553307 0.04594955 -0.06822118 -0.26458353 0.26454234 0.18046048 0.16422088
0.14038184 -0.40766048 -0.30263165 0.2849416 -0.009685905 -0.017802095 -0.038964007 -0.21024482
0.10136594 -0.062480386 -0.0651164 -0.36660126 -0.12520304 -0.13385129 0.0285548 -0.21384916
0.03155765 -0.24656847 -0.18223578 0.16452259 0.02312361 0.120356075 -0.013342489 -0.09744838
-0.084264636 -0.52562886 -0.5462797 -0.04952086 -0.2950826 -0.07937201 0.16974624 -0.18427321
-0.1854401 -0.04163996 -0.31850314 0.17259152 0.015735876 0.009328379 0.060625676 -0.02951871
-0.27138624 0.01741581 -0.076536566 -0.15195341 -0.05008908 0.017400349 0.021074947 -0.056123808
0.0837279 -0.025335139 0.12554415 -0.06849092 -0.021307347 -0.24744129 -0.012069734 0.15849867
0.094019875 -0.17068817 -0.098753445 -0.027521115 -0.4288482 -0.29070255 -0.010985069 0.019687282
0.18492667 -0.229741 -0.02800776 -0.239195 0.029897375 -0.28878775 0.060282424 -0.08253833
0.04928654 0.0904032 -0.05296069 -0.026816532 0.009002554 -0.0040025027 -0.016959049 0.07591411
-0.05891378 0.20923276 -0.12512834 -0.09214538 -0.013626544 -0.27516344 -0.09088191 -0.113067605
-0.027115194 0.07770638 -0.09972768 -0.017781895 -0.16525742 0.06319028 -0.06671507 -0.23061788
-0.22857499 0.23868951 -0.34260452 -0.09197527 0.21845563 0.012233584 -0.044679426 0.02054878
-0.24676941 -0.06343957 -0.08092151 -0.0050429865 -0.0074245445 0.006857453 0.09732494 0.017003272
0.08489608 0.1407984 0.0034956944 -0.057522222 -0.11521299 0.05137522 0.058839817 0.011768204
00000000: 69b0 1c3e ce6f 92be 43a8 0abe 663e eabc
00000010: 99a6 e8be 8960 453d c431 ee3d a299 23bd
00000020: dde1 ebbd 1931 6d3e 7689 0cbe e6d1 9d3c
00000030: 563d 84be acc3 aabc 5125 3bbd 7f3c e53b
00000040: 4250 1bbe f917 3fbd 0b55 a5bd ed71 be3d
00000050: 9a7b 673e 74f9 8ebe a90d 1abe 302c a33d
00000060: d3a5 fb3c 55ce b13d 36d0 d23d 4d36 963d
00000070: 6cae a0be edcd 4a3d 7947 aebe 4310 123d
00000080: 6d09 0cbc 601b a6bd 685b e13d 02df e8bc
00000090: 4a84 2cbf 751a 3dbe 9a27 e4bd 114c 95bd
000000a0: e3bd e53c 25d9 e3bd 5806 ac3e afdd 823e
000000b0: e6b8 84bd f1f8 d3be 75a1 db3a 3a0d 82be
000000c0: 4f74 2d3d 9f7e 533d 01dc 8c3d 17f3 c0be
000000d0: c47f 9cbd e8f3 ab3d f0a4 2e3e 8fb7 293e
000000e0: 35a1 453d 5ac8 333d 803f c73b 419b 503e
000000f0: 8b22 efbe 9d70 9b3d 0cd9 2b3d 1f6e f6bd
00000100: 5c0e 303d c513 94be abfd b9be cf1c 33be
00000110: 959a bb3d 6f1a 45be e55a 573e 94e2 363e
00000120: 9890 7dbe e39f 4d3d 1ed9 f7bc 87ed c23d
00000130: fac4 013e ee76 51bd 9a3c 20bc 4084 1fbf
00000140: 0e7c aabd eecd 67bd cc22 763d fcd0 42ba
00000150: d46b 913d 7248 183d a803 4abe 0ad3 973e
00000160: a946 1dbe ad3c 25bc 95c7 723e eff4 913d
00000170: 27a8 02bd d957 00be d7d3 89be 347b 83bd
00000180: a5fd 68be 6a9f 033e 3d0c 90bd 0c1b c9be
00000190: 3e09 dbbd a33d 96bd d791 7ebd 8519 7ebe
000001a0: d015 af3c d6b3 963d 1fd8 babe 9ac5 1f3e
000001b0: 9f2e 34be 21aa 5dbd 26a7 f5bd 4850 a8bd
000001c0: 476f 79bd 7a17 003d 54d0 a3bc 2ea2 a3bb
000001d0: 016f e03d 737b 8e3d f7d4 6ebd 3da5 453e
000001e0: fd1b 14be 7678 2b3c 9b96 b83b 6429 28be
000001f0: 3a95 99b8 7223 20bd 0a51 af3d 5f05 a2bd
00000200: 7001 14be 2bee 73bd 9835 3c3d 8cb7 8bbd
00000210: 7e77 87be 1872 873e a2ca 383e 8529 283e
00000220: 42c0 0f3e e0b8 d0be 89f2 9abe dee3 913e
00000230: a1b1 1ebc b3d5 91bc b998 1fbd 6b4a 57be
00000240: f298 cf3d 6feb 7fbd bf5b 85bd 29b3 bbbe
00000250: 3a35 00be 5010 09be c2eb e93c 46fb 5abe
00000260: 9842 013d 727c 7cbe 049c 3abe 9c78 283e
00000270: ba6d bd3c 3f7d f63d 749a 5abc 0493 c7bd
00000280: f092 acbd 9d8f 06bf fdd8 0bbf 63d6 4abd
00000290: 1115 97be cb8d a2bd f5d1 2d3e 1eb2 3cbe
000002a0: 02e4 3dbe aa8e 2abd d812 a3be d5bb 303e
000002b0: 86e8 803c 0fd6 183c a152 783d 39d1 f1bc
000002c0: 23f3 8abe 9aab 8e3c 34bf 9cbd ad99 1bbe
000002d0: 352a 4dbd 2d8b 8e3c 5ea5 ac3c 14e2 65bd
000002e0: 8979 ab3d a38b cfbc a58e 003e f844 8cbd
000002f0: bf8c aebc 4061 7dbe 22c0 45bc 7a4d 223e
00000300: 7e8d c03d e1c8 2ebe 3f3f cabd f673 e1bc
00000310: fe91 dbbe f7d6 94be b8fa 33bc 3947 a13c
00000320: 6b5d 3d3e 3a41 6bbe 8870 e5bc 89ef 74be
00000330: 57eb f43c fddb 93be b4ea 763d db09 a9bd
00000340: afe0 493d 5025 b93d 4fed 58bd 58ae dbbc
00000350: 737f 133c 6d27 83bb b4ed 8abc db78 9b3d
00000360: 934f 71bd 1d41 563e a521 00be b8b6 bcbd
00000370: de41 5fbc 39e2 8cbe 4b20 babd fd8f e7bd
00000380: af20 debc 8624 9f3d 073e ccbd 56ab 91bc
00000390: 3e39 29be e869 813d e9a1 88bd 1827 6cbe
000003a0: 900f 6abe 066b 743e dc69 afbe 885d bcbd
000003b0: d5b2 5f3e 5f6f 483c c601 37bd ea55 a83c
000003c0: 1fb1 7cbe 9bec 81bd 2dba a5bd a33f a5bb
000003d0: 9849 f3bb 7cb4 e03b 4c52 c73d 724a 8b3c
000003e0: ffdd ad3d 752d 103e 0518 653b 6c9c 6bbd
000003f0: caf4 ebbd d36e 523d 0502 713d 6dcf 403c

bias f4 [200]
-0.13268365 -0.19403239 -0.17393464 0.010777453 -0.23405494 -0.40302512 -0.16243248 0.027695084
-0.10137904 -0.17503646 -0.050101306 -0.36490452 -0.027166037 0.016355189 -0.03726864 -0.18687558
-0.23380265 -0.3652844 -0.03330646 0.018395882 -0.11303688 -0.047818378 -0.010870766 -0.097070344
-0.17681436 0.082402 0.04181946 -0.072290525 -0.051258657 -0.07675546 -0.050252732 -0.27494985
0.009541608 -0.0073445514 0.010665332 -0.46094322 -0.35030463 -0.34735468 -0.03811497 -0.20494172
-0.052090522 -0.027284054 -0.060922883 -0.061709873 -0.22066881 -0.11054286 -0.41258994 -0.3023394
-0.044365298 -0.09040854 -0.15182556 -0.058651935 -0.15652585 -0.31175175 -0.0414244 -0.33996528
-0.04344547 -0.073166914 -0.14353015 -0.12083932 0.20265904 -0.089065984 -0.0308367 0.01484458
-0.33371496 -0.2927781 -0.19625673 0.1213563 -0.067119405 -0.02695381 -0.31325537 -0.32455778
-0.3046297 -0.3524577 -0.19621035 -0.037969764 0.003060629 -0.04554221 -0.027107513 -0.12370649
-0.06904458 -0.029003073 0.012246627 -0.44077212 0.0072173695 -0.23586412 -0.03769593 -0.33298928
-0.12700723 -0.0797958 -0.32385248 0.060488164 -0.18071395 -0.11043461 -0.10885799 -0.5715997
-0.18442672 -0.14374483 -0.07725536 -0.21146168 0.20976444 -0.027184887 0.31282493 -0.024887165
0.07888216 -0.044129975 -0.15808867 -0.2508198 -0.4226812 0.08456097 -0.003735392 -0.07014714
-0.043443725 -0.016361175 -0.00051425997 -0.44083795 -0.18266356 -0.15925746 -0.045342427 -0.20437683
-0.24173042 -0.116236396 -0.4397119 -0.45673642 -0.058781542 -0.12504345 -0.22821988 0.011864117
-0.18288958 -0.1795304 -0.098438874 -0.19835292 -0.14301105 -0.011486967 -0.12774368 0.018330492
-0.08406602 -0.30499706 0.0030498295 -0.10497168 -0.08404364 -0.047331896 -0.23110019 -0.14032476
-0.16647801 -0.045061007 0.15894544 -0.36392656 -0.25002706 -0.1374652 -0.17854145 -0.27887133
-0.12783445 0.0025017555 0.17968364 -0.030005723 -0.035000317 -0.075097345 -0.21502466 -0.22921051
-0.04774404 -0.1583021 -0.010403759 -0.3534871 -0.13951941 -0.4850955 0.031222658 -0.1313034
-0.18832819 -0.38645226 -0.055349715 -0.031772967 -0.22747694 -0.07352412 -0.101919554 -0.02778706
-0.22973494 -0.0727777 -0.020356787 -0.38433832 -0.00873788 -0.34853548 -0.18148442 -0.18073823
0.0024526324 0.02718145 -0.070964515 -0.22093971 -0.14540815 -0.16320959 0.11709043 -0.16372117
-0.21310376 -0.054174438 -0.08465081 -0.15280637 0.073597126 -0.20713848 -0.11959036 0.02359476
00000000: 39de 07be 6db0 46be ec1b 32be ea93 303c
00000010: 19ac 6fbe 4f59 cebe b354 26be cde0 e23c
00000020: d09f cfbd c23c 33be 0737 4dbd c4d4 babe
00000030: 4f8b debc 51fb 853c 00a7 18bd 505c 3fbe
00000040: f669 6fbe 8f06 bbbe 5b6c 08bd f6b2 963c
00000050: e17f e7bd 34dd 43bd 4c1b 32bc d1cc c6bd
00000060: d30e 35be 61c2 a83d e24a 2b3d 0e0d 94bd
00000070: 99f4 51bd f731 9dbd cfd5 4dbd 3ac6 8cbe
00000080: 6854 1c3c 90aa f0bb a5bd 2e3c c000 ecbe
00000090: 215b b3be 79d8 b1be 711e 1cbd 3edc 51be
000000a0: df5c 55bd cf82 dfbc 468a 79bd 7ec3 7cbd
000000b0: 01f7 61be 4c64 e2bd fd3e d3be 3bcc 9abe
000000c0: 63b8 35bd 1d28 b9bd 2978 1bbe 033d 70bd
000000d0: 5048 20be ed9d 9fbe a2ac 29bd ee0f aebe
000000e0: e1f3 31bd 89d8 95bd 91f9 12be 9b7a f7bd
000000f0: da85 4f3e 3a68 b6bd 3f9d fcbc ae36 733c
00000100: b0dc aabe 03e7 95be 86f7 48be a789 f83d
00000110: e675 89bd 3dce dcbc 0263 a0be 702c a6be
00000120: 6df8 9bbe 5675 b4be 5eeb 48be 2f86 1bbd
00000130: d594 483b 788a 3abd 9310 debc d459 fdbd
00000140: 3f67 8dbd da97 edbc 14a6 483c e2ac e1be
00000150: af7f ec3b 5d86 71be 0c67 1abd 927d aabe
00000160: 2f0e 02be fb6b a3bd fecf a5be 70c2 773d
00000170: 140d 39be 8a2b e2bd f0f0 debd 5c54 12bf
00000180: 5cda 3cbe d831 13be 0f38 9ebd 6989 58be
00000190: 7dcc 563e d7b2 debc 972a a03e 2be0 cbbc
000001a0: f88c a13d a2c1 34bd ffe1 21be 746b 80be
000001b0: ac69 d8be 4d2e ad3d 7acd 74bb 4ea9 8fbd
000001c0: 0cf2 31bd df07 86bc 67cf 06ba 83b5 e1be
000001d0: 280c 3bbe 6314 23be fbb8 39bd 2948 51be
000001e0: 2e88 77be 590d eebd eb21 e1be 5bd9 e9be
000001f0: eac4 70bd 640b 00be 79b2 69be b761 423c
00000200: 6847 3bbe d1d6 37be 529a c9bd 071d 4bbe
00000210: 7d71 12be d533 3cbc 3dcf 02be d429 963c
00000220: ce2a acbd 9328 9cbe a6df 473b 64fb d6bd
00000230: 121f acbd 17df 41bd 87a5 6cbe 4bb1 0fbe
00000240: 3679 2abe e491 38bd 98c2 223e 9554 babe
00000250: 8c03 80be adc3 0cbe 92d3 36be 39c8 8ebe
00000260: 09e7 02be 7ef4 233b fdfe 373e 90ce f5bc
00000270: 7e5c 0fbd a3cc 99bd 6d2f 5cbe 29b6 6abe
00000280: 418f 43bd f219 22be 8774 2abc 43fc b4be
00000290: 2dde 0ebe 705e f8be a9c6 ff3c 6674 06be
000002a0: 1bd9 40be 12dd c5be 62b6 62bd 5f24 02bd
000002b0: b7ef 68be d093 96bd 33bb d0bd b0a1 e3bc
000002c0: a33f 6bbe 7a0c 95bd 47c3 a6bc fec7 c4be
000002d0: 5329 0fbc 3e73 b2be 0dd7 39be 7113 39be
000002e0: 58bc 203b a2ab de3c d855 91bd 053e 62be
000002f0: e0e5 14be 6a20 27be 1bcd ef3d 86a6 27be
00000300: df37 5abe 04e6 5dbd 675d adbd 4679 1cbe
00000310: 17ba 963d 1c1c 54be caeb f4bd cc49 c13c

weight f4 [1, 200]
-0.29492706 -0.20583439 -0.25390622 0.10934112 -0.2132959 -1.3332795 -0.23500776 0.2929988
0.11623331 -0.13892548 0.010947683 -0.59693664 0.031773955 -0.04868594 0.14561541 -0.111551076
-0.5536406 -0.8032377 0.061120138 -0.6008764 -0.024414482 0.02290239 0.0013429984 -0.15128241
-0.1692977 0.3825385 0.3772439 -0.09514805 0.019388676 -0.043733377 0.0014846638 -0.55977494
0.0034731412 0.0808967 -0.022655573 -1.3375556 -1.4550418 -0.69652456 0.020383079 -0.20355882
-0.038132384 0.005960544 -0.061748274 0.050046038 -0.66106254 -0.15727332 -0.82382405 -0.6800011
-0.023251643 -0.00823179 -0.13255805 -0.017287625 -0.2184123 -0.25923172 -0.0059090904 -0.48031104
-0.048749555 0.22353366 -0.15755355 0.06743093 0.14500539 0.026422752 -0.052597973 0.048436504
-0.84740615 -0.974929 -0.26912898 0.6007988 0.034188166 0.023216391 -0.7686069 -0.8285625
-1.2507792 -0.94978213 -0.25617918 0.10373834 0.047196556 0.023924462 -0.046858687 -0.1950365
0.010611319 -0.01983362 -0.0064808256 -0.42280272 -0.0005696021 -0.2343091 0.038277794 -0.5422247
-0.120138146 -0.103023104 0.2268217 0.28991348 -0.15692495 0.19093713 -0.036379643 -0.44056052
-0.63994735 0.24153161 -0.08236884 -0.6741104 0.8181648 -0.027946973 0.5717508 0.005852693
0.33073664 0.017620724 -0.08867286 -0.18138732 -1.4408653 0.53826845 -0.025271744 -0.00552974
0.020029882 -0.0020127313 -0.005656744 -0.6465794 -1.2575395 -0.7803479 0.31732926 0.13557315
-0.21601237 0.03237434 -0.27911937 -0.6478688 0.013484135 -0.5199828 -0.16723897 -0.050480194
-0.24135882 -0.19731039 0.12692077 -0.062799685 0.11147695 0.0006702152 -0.075367965 0.0047973343
-0.75202906 -1.2658402 -0.0040527596 -0.03579255 -0.027583519 -0.0051177396 -0.23114905 -0.12762128
-0.20035289 0.0057336255 0.1681381 -0.65844834 -0.47031146 -0.21018597 0.11686759 -0.6061335
-0.18992774 0.052236293 0.6720494 -0.057029974 0.022069408 -0.008492081 -0.21473296 -0.1550495
0.07647991 -1.0190904 0.038370088 -0.21763326 0.07576664 -0.59392744 -0.0005737615 -0.25663298
-0.19904779 -0.54564506 -0.01937899 0.023574086 -0.16587321 0.10793809 -0.24415848 -0.0059545073
-0.21341096 -0.4874424 0.413099 -0.8079607 0.049147293 -0.5094447 -0.7493118 -0.15187502
-0.0018796803 0.019416694 0.026811602 -0.2730914 -0.03693765 -0.2269244 0.00878487 -0.006130234
-0.566306 -0.0053853653 -0.05019718 -0.23684742 0.15844986 -0.17061296 -3.0736406e-05 -0.026216408
00000000: ae00 97be 40c6 52be ffff 81be 3dee df3d
00000010: 3e6a 5abe e7a8 aabf e0a5 70be f003 963e
00000020: bb0b ee3d 7b42 0ebe e95d 333c d7d0 18bf
00000030: 6825 023d e96a 47bd 351c 153e e474 e4bd
00000040: 64bb 0dbf fca0 4dbf 1c59 7a3d 09d3 19bf
00000050: e100 c8bc cb9d bb3c 8c07 b03a c7e9 1abe
00000060: 605c 2dbe 16dc c33e 1d26 c13e fbdc c2bd
00000070: 00d5 9e3c c521 33bd 0d99 c23a 694d 0fbf
00000080: a49d 633b 2bad a53d 2e98 b9bc 0635 abbf
00000090: cf3e babf 6f4f 32bf 6afa a63c b971 50be
000000a0: b430 1cbd ab50 c33b c2eb 7cbd 13fd 4c3d
000000b0: 653b 29bf 420c 21be 22e6 52bf 8d14 2ebf
000000c0: 3b7a bebc a1de 06bc 4cbd 07be c79e 8dbc
000000d0: 79a7 5fbe 05ba 84be 0ba1 c1bb 54eb f5be
000000e0: 9dad 47bd 02e6 643e b855 21be 3a19 8a3d
000000f0: 4b7c 143e 8774 d83c f970 57bd 5b65 463d
00000100: 9cef 58bf f294 79bf 46cb 89be f3cd 193f
00000110: e408 0c3d 4d30 be3c 6cc3 44bf ac1c 54bf
00000120: 8819 a0bf ec24 73bf eb29 83be c474 d43d
00000130: 2d51 413d 3cfd c33c e5ee 3fbd a6b7 47be
00000140: 19db 2d3c 1e7a a2bc 1b5d d4bb 9979 d8be
00000150: 5a51 15ba baee 6fbe 2dc9 1c3d 3dcf 0abf
00000160: fd0a f6bd c7fd d2bd f343 683e 8a6f 943e
00000170: efb0 20be 0685 433e d202 15bd 2691 e1be
00000180: 97d3 23bf 1054 773e ffb0 a8bd 8092 2cbf
00000190: 4073 513f 0df1 e4bc 435e 123f f3c7 bf3b
000001a0: 5056 a93e 5659 903c 1e9a b5bd 99bd 39be
000001b0: 466e b8bf f6cb 093f b006 cfbc d232 b5bb
000001c0: b515 a43c 07e8 03bb 355c b9bb 3a86 25bf
000001d0: 0ef7 a0bf e1c4 47bf fb78 a23e b0d3 0a3e
000001e0: 5932 5dbe f59a 043d bce8 8ebe bbda 25bf
000001f0: 90ec 5c3c 981d 05bf b140 2bbe 52c4 4ebd
00000200: c426 77be bc0b 4abe 85f7 013e 1f9d 80bd
00000210: 074e e43d 61b1 2f3a 855a 9abd f532 9d3b
00000220: fa84 40bf 0d07 a2bf 03cd 84bb 359b 12bd
00000230: d5f6 e1bc b6b2 a7bb 56b2 6cbe 27af 02be
00000240: 4f29 4dbe 23e1 bb3b 652c 2c3e 1290 28bf
00000250: aacc f0be fe3a 57be 4658 ef3d 912b 1bbf
00000260: 6b7c 42be b9f5 553d 6e0b 2c3f 4398 69bd
00000270: e7ca b43c 5f22 0bbc f5e2 5bbe 4cc5 1ebe
00000280: 80a1 9c3d 8e71 82bf f429 1d3d 41db 5ebe
00000290: 8a2b 9b3d a10b 18bf 7c68 16ba 6665 83be
000002a0: 2fd3 4bbe 65af 0bbf b0c0 9ebc 711e c13c
000002b0: abda 29be a50e dd3d ae04 7abe 071e c3bb
000002c0: 6788 5abe 0d92 f9be b681 d33e 83d6 4ebf
000002d0: ac4e 493d f86a 02bf e6d2 3fbf 2085 1bbe
000002e0: 9b5f f6ba c20f 9f3c 01a4 db3c a3d2 8bbe
000002f0: ef4b 17bd df5e 68be 6aee 0f3c 21e0 c8bb
00000300: 6ef9 10bf b877 b0bb 8f9b 4dbd 2188 72be
00000310: ae40 223e 2ab5 2ebe f7ea 00b8 cbc3 d6bc
