lab2/problem1/neural-network-1-memory-5000.pth (torch, 23233 bytes, 6 tensors)

weight f4 [64, 8]
000000 59 87 7c 3e 6f 74 c8 bc 4b 0c b7 3e 61 34 24 bf
       0.24661006 -0.024469582 0.35751566 -0.64142424
000010 4b 57 17 bf aa 7a b5 bd 65 93 1a be 3b db e5 3e
       -0.59117573 -0.08861287 -0.15095289 0.44893822
000020 89 44 e7 be 49 ec 39 3e c6 52 ff bd 6a d2 78 be
       -0.45169476 0.18156542 -0.1246696 -0.24299017
000030 3c b0 ce 3e a7 94 83 3f 4e bc 23 be 6d 05 8a 3d
       0.4036883 1.027974 -0.15989801 0.06739316
000040 64 97 95 be c8 62 28 3d de c3 c2 3c 51 83 bb be
       -0.29217064 0.04110983 0.023775037 -0.36623624
000050 93 c1 09 3d 1e c7 0e 3f ad 0a 8e be 6e 40 78 bf
       0.033631872 0.5577258 -0.2774252 -0.9697331
000060 4c ad 7c 3c b6 ee 99 bd c2 c8 23 3d 21 37 cd bd
       0.015422177 -0.075162336 0.03998638 -0.10020281
000070 3e 70 03 3f 71 36 5b 3f 47 54 8b 3e bb 7c 3d 3e
       0.51343143 0.85629946 0.27212736 0.18504612
000080 87 77 9e bf 41 a2 09 3e 25 ca 37 be ab 2b 35 be
       -1.2380227 0.13440801 -0.17948206 -0.1769244
000090 f9 ac f6 3e 0f 6a ab 3e 47 eb f1 bd af fe 38 3e
       0.48178843 0.33479354 -0.11812454 0.18065904
0000a0 f9 36 30 be d4 41 aa 3e 2b e3 2b 3e 49 98 11 3f
       -0.1720847 0.33253348 0.16785876 0.56872994
0000b0 4c 1e b7 be a9 37 29 bf 35 92 38 bf 5e 2a 7c be
       -0.35765302 -0.66100556 -0.72098094 -0.24625537
0000c0 66 62 ff 3e 38 32 24 be a6 02 a4 3d 73 ee ca 3d
       0.4987976 -0.16034782 0.08008318 0.09908762
0000d0 67 b7 47 bc 77 c6 ef be 38 6a f9 be b3 bd bb be
       -0.012189723 -0.46831104 -0.4871385 -0.36668167
0000e0 5b 35 07 bf 85 32 c4 be 44 f6 f0 be 61 fd 85 bf
       -0.5281579 -0.38319793 -0.47062886 -1.046795
0000f0 50 fc e8 bd 7b 4a 5b be 37 be 99 3d 16 18 be bd
       -0.1137625 -0.21415131 0.07506984 -0.09281938
000100 ba 2a 6d be 8b 67 0a 3f 8c 0c 0f bf d2 b9 01 bf
       -0.2316083 0.54064244 -0.5587852 -0.50674164
000110 02 2a 64 be 01 08 fa be dc 7d 52 bf 5e 0b 91 3e
       -0.2228165 -0.48834231 -0.82223296 0.28328985
000120 de 4b f4 be b1 a1 1a 3f 0d 9c 0f 3e fe 86 1c bf
       -0.47714132 0.6040297 0.14024372 -0.6114348
000130 c8 8a 0d bf 5c f5 67 3e 92 be d6 3e 19 e6 66 bd
       -0.5528989 0.22652191 0.4194227 -0.056371782
000140 29 10 15 bf b9 4f b6 b9 7e b7 1d bf 17 8b 84 be
       -0.58227783 -0.00034773143 -0.6160811 -0.25887367
000150 3f bf 53 3f c1 d4 20 3f 88 f3 ab bd 2c c0 af bd
       0.82713693 0.62824637 -0.08396059 -0.08581576
000160 eb a7 aa be 9b 55 b8 bd a9 20 1f 3e 3b 53 7a bf
       -0.33331236 -0.09000703 0.15539803 -0.9778325
000170 77 04 2b bf 3e 34 dd be 2c 05 ef be a3 a6 8f 3c
       -0.6680369 -0.4320392 -0.46683633 0.017535513
000180 b6 3d 37 3d 47 22 4e bf 9f 01 d2 be 36 d6 1c bf
       0.044736587 -0.80521053 -0.41016862 -0.6126436
000190 6d 01 62 bf 64 9c f1 3e 4d 23 03 be 6f 3f 27 be
       -0.88283426 0.4718963 -0.12806435 -0.16332792
0001a0 96 bc 1c bf 73 00 71 bc ed 97 33 bd b4 4a a3 be
       -0.6122526 -0.01470958 -0.04384606 -0.3189293
0001b0 3c ac e2 bc b2 77 ed 3e 2c 5b 49 be 30 d6 85 bf
       -0.027670018 0.46380383 -0.19663686 -1.045599
0001c0 95 29 b1 3e e9 77 b4 3e a8 68 66 3e cc 57 a2 bd
       0.34602037 0.35247734 0.2250086 -0.07926902
0001d0 09 b3 c8 3d 08 cc 96 be cd f8 e9 be a4 48 cb 3e
       0.09799773 -0.29452538 -0.45697632 0.39703858
0001e0 c1 67 8a be 25 97 50 bf da 2e a0 3a b3 bb 97 bf
       -0.27032283 -0.8148063 0.0012220994 -1.1854156
0001f0 a2 b1 04 be e2 8d c2 bc e6 6a a1 be e2 1f 8a bc
       -0.12958387 -0.023749296 -0.3152687 -0.016860906
000200 c4 8e 9b be 1d 80 5e 3f 7d c6 86 3d 98 74 06 c0
       -0.3038236 0.86914235 0.065808274 -2.1008663
000210 06 ec 81 bf 63 37 01 bf 0f a1 81 be d6 0b b9 be
       -1.0150154 -0.5047514 -0.2531819 -0.36141843
000220 93 e5 81 be 79 b9 a1 3d 93 b3 d3 3e 16 0e ad 3c
       -0.25370464 0.07896704 0.41347942 0.02112488
000230 ba bb 80 be 7c 1a 9b 3f 1b 76 a7 3d 9e 46 5e bf
       -0.25143224 1.2117457 0.08176824 -0.86826503
000240 ec 4a 02 3d 85 9e db 3e 7e 50 a5 be e3 c3 23 3f
       0.031809732 0.42894378 -0.32287973 0.63970774
000250 60 8d 0e 3f 1e 3b 2c 3e 27 50 ca bd 1f 5e 46 bf
       0.5568447 0.16819426 -0.09878569 -0.7748737
000260 f2 a0 cd be 67 e1 d8 3c 5e b7 48 bf 0b f9 b9 bd
       -0.40161854 0.026474668 -0.78404796 -0.09080704
000270 22 a3 e9 3e 04 c8 ab be e9 39 a5 be 4c 4c be bd
       0.45632273 -0.33551037 -0.32270744 -0.09291896
000280 5a b2 8d be 49 ad 30 3f 2f 13 c6 be e6 3c 65 bf
       -0.27675134 0.6901441 -0.3868651 -0.8954605
000290 a0 f8 64 bf e4 e5 6a 3f e0 c3 c1 3d cd 0f 0f 3e
       -0.8944187 0.91757035 0.09461188 0.13970871
0002a0 f1 5d 8f be ac 2c 31 3f 64 24 28 3e d3 2e 05 c0
       -0.2800136 0.6920879 0.16420132 -2.080983
0002b0 fe 30 1b be 1c 58 0c bf 6b 9a 02 be c7 b1 f8 be
       -0.15155408 -0.54821944 -0.12754218 -0.48573133
0002c0 d9 bd 1e 3e 2f 2e 5c 3f 44 e5 14 3d 66 77 04 be
       0.15502109 0.8600797 0.036351457 -0.12936172
0002d0 04 9a 45 be 1c 66 ed 3e ba b8 f9 be ce 46 30 bf
       -0.19297034 0.46366966 -0.48773748 -0.6885804
0002e0 17 17 83 bd 57 c1 91 3e cf 7f 54 be b5 ce 56 3f
       -0.064008884 0.2846782 -0.2075188 0.8390916
0002f0 17 ea aa 3e 26 00 ea 3e be 39 27 bf 09 58 70 be
       0.3338172 0.45703238 -0.6532248 -0.23471083
000300 89 83 be be f4 b5 12 bf 53 0e b1 bd e6 45 27 bf
       -0.37209728 -0.5730889 -0.0864531 -0.6534103
000310 e8 b6 0f 3f 46 a1 69 3e 1e 52 85 be 0e bd ea 3e
       0.5613847 0.22815427 -0.26039213 0.45847362
000320 02 9f 04 bf ad fa 9f 3e cc 87 f2 3d db 43 19 bf
       -0.51805127 0.31245938 0.118423074 -0.59869164
000330 4b ed 79 bd 1f 74 a7 3e 0b 7b 8e 3d bd 34 46 be
       -0.061017316 0.3270578 0.06957062 -0.19356056
000340 30 c2 13 3f c6 f3 b7 3d 4d ae 7f 3e 97 66 07 3e
       0.5771818 0.08982043 0.24968834 0.13222729
000350 23 73 e9 be 8f dd a7 be f0 9d 6e 3e 5b 1a 85 3e
       -0.45595655 -0.32786223 0.23302436 0.2599667
000360 8a 35 8c 3e 85 3a bd be 5f 3a f5 bf 06 62 32 3e
       0.27384597 -0.3695871 -1.9158438 0.17420205
000370 30 c1 a9 3e ff 97 fc be 9c 1f ef be 43 10 8c be
       0.33155203 -0.49334714 -0.46703804 -0.27356157
000380 ea 0b 02 bf ac 5c 25 bf 2b d1 a5 be 93 45 d8 be
       -0.5079943 -0.6459453 -0.32386145 -0.4224058
000390 bc df ef 3e 2b 0d 8a 3d 4a 81 c6 bd ca 12 f0 bd
       0.46850383 0.06740793 -0.09692629 -0.11722334
0003a0 a5 6f 81 bd b5 50 85 3f 11 ca e5 be e3 26 1d bf
       -0.06320123 1.0415255 -0.44880727 -0.6138746
0003b0 e2 ad e8 be 15 96 18 3e ca b4 1e be 63 b7 a3 be
       -0.45445162 0.14901002 -0.15498653 -0.3197585
0003c0 0c c9 ba 3e ef a6 aa be c1 ce 62 3f 42 be 13 bf
       0.36481512 -0.33330485 0.8859673 -0.57712185
0003d0 5e ac 32 3e a3 29 88 3e 30 4c cd bd e3 03 9c 3e
       0.17448565 0.26594266 -0.10024297 0.30471715
0003e0 68 e4 a7 be f0 8a 40 3f 3e e2 c5 3e cd 92 21 bf
       -0.32791448 0.75212 0.38649172 -0.63114625
0003f0 38 73 1d bf 9d 0c e5 3e a3 36 bc bd 1a 27 5b 3d
       -0.61503935 0.44736186 -0.091901086 0.053504087

bias f4 [64]
000000 ee c6 88 be 1d 2b 0b be b6 b2 44 3e 4c 93 8a bc
       -0.2671427 -0.13590665 0.19208798 -0.01691594
000010 9c 9e 78 3d bd 49 29 3e 81 27 9d 3e 25 34 87 be
       0.060698137 0.16532035 0.30694202 -0.2640697
000020 75 c5 16 3f 7e ff 59 3f cd d1 15 bf cb 81 d1 be
       0.58895046 0.85155475 -0.58523256 -0.40919337
000030 c8 2b f3 3e 6f 64 22 3e 0f a6 96 be 85 04 21 be
       0.4749434 0.15858625 -0.29423568 -0.1572438
000040 65 4f 34 3f 97 1e 7e be d6 54 9f 3e b8 d8 9e 3e
       0.70433646 -0.24816357 0.31119412 0.31024718
000050 28 a6 c9 3e 61 dd 04 3f ff 7c 13 3f 14 b3 a1 3e
       0.3938458 0.519003 0.57612604 0.31581938
000060 af a3 87 be d8 2f 44 3f 68 dd 86 3e 40 33 6e 3e
       -0.26492068 0.76635504 0.26340795 0.23261738
000070 b2 b2 8a be 4a 12 09 bf f2 6a a1 be 00 47 de 3e
       -0.2708946 -0.5354353 -0.31526905 0.43413544
000080 e4 e2 c6 3e 2d 56 fa 3e 05 05 e8 3e 8c 3f 66 3e
       0.3884498 0.48893872 0.4531633 0.22485179
000090 58 52 19 3f 07 90 84 be 26 fc a8 be 88 46 9a be
       0.5989127 -0.25891134 -0.33004874 -0.30131936
0000a0 3c b3 a0 3e b4 b7 c4 3e 9f 70 27 3f 1e 0f 05 bf
       0.31386745 0.38421404 0.6540622 -0.5197619
0000b0 ca be 2b 3f 40 bb 56 3e 91 f6 77 3e ac bb f9 be
       0.67087996 0.20969868 0.24215151 -0.48775995
0000c0 c8 95 17 3f a3 d9 fe be 58 82 56 be 15 39 ac 3e
       0.59212923 -0.4977542 -0.2094816 0.336373
0000d0 41 a9 0f 3c 9d d5 f9 3e a1 ca 13 3f 0f da 05 3e
       0.008768381 0.48795786 0.5773106 0.13071464
0000e0 d3 68 7d 3e 61 25 8b 3e 32 89 bf 3e 27 96 ce be
       0.24747019 0.27176955 0.3740936 -0.40348932
0000f0 62 0e 72 be 22 1b ac 3e ac 6a f4 3e 20 43 9a 3e
       -0.23638299 0.3361445 0.47737634 0.30129337

weight f4 [64, 64]
000000 eb 28 75 3e c0 dc ee 3e 84 fc 07 3f 77 2d ce 3e
       0.2394139 0.46652794 0.53119683 0.40269062
000010 ab 3b 06 3f 8d a8 0b be 71 c5 c1 3e f9 c5 fd 3e
       0.52434796 -0.13638516 0.37845948 0.49565104
000020 bd 8b 95 bc 20 91 96 bd c7 a3 e6 3e 0c ff 21 3f
       -0.018255109 -0.07351899 0.45046827 0.63279796
000030 cd ac 47 bf 28 7d b7 3e 6c ed ab 3e 24 75 6f 3f
       -0.7799805 0.35837674 0.33579576 0.9353812
000040 01 f5 4a 3e d1 0a 24 3f 84 ad 04 3f bb 8f 55 3e
       0.19820024 0.64079005 0.51827264 0.2085561
000050 ad 3e d8 bd a2 04 81 3e 19 20 65 be cc 53 03 3f
       -0.105588295 0.25198847 -0.22375526 0.5129974
000060 9b 69 3a 3f ee f3 8b bd 68 7a f4 bd 88 1f 38 bf
       0.7281739 -0.06833635 -0.1193741 -0.7192311
000070 cf f1 02 3f c6 a3 7f bf d7 02 29 3f 5e cd 38 be
       0.5115022 -0.99859273 0.6601996 -0.18047091
000080 32 3e 8b 3e c8 a2 de 3e e2 fd ab 3e 81 d8 31 3e
       0.2719589 0.43483567 0.33592135 0.17367746
000090 c3 0a 22 bf 9e c3 9a 3e e8 d5 ed 3e 74 d1 04 ba
       -0.6329767 0.3022737 0.4645226 -0.00050666113
0000a0 e9 d6 1b 3f ab 2e dc 3e b2 8e de 3e 3a 72 25 3f
       0.608748 0.43004355 0.43468243 0.6462742
0000b0 d3 3c 40 3e cf e4 10 3e 03 b7 70 bf c6 e3 32 3f
       0.18773203 0.14149784 -0.94029254 0.69878805
0000c0 9a 6f 76 bd 68 c9 42 3f 2a 90 b4 bd 1a 62 5d 3e
       -0.060165025 0.7608857 -0.088165596 0.21619454
0000d0 09 34 b0 bf ca 34 20 3e 84 1f 78 3e ea 07 f2 3e
       -1.376588 0.15645137 0.24230772 0.47271663
0000e0 64 66 e7 be ce ce 3b 3f 51 3c f6 3e 5f 61 1f be
       -0.45195305 0.73362434 0.48092893 -0.15564488
0000f0 57 82 0d 3f 75 ba bc bd 35 49 da 3d 6a fa ae 3e
       0.5527701 -0.09215251 0.106584944 0.34175426
000100 e7 cc 52 bf cd 72 67 3e de e7 37 3e 11 b0 08 bc
       -0.82343906 0.22602387 0.17959544 -0.008342759
000110 6a 34 17 3d 8f 15 de 3e 0a d3 f9 be e7 8e 24 3e
       0.03691522 0.43375823 -0.48793823 0.16070138
000120 09 a0 dc bd c3 95 de bc 30 cc 2a be 9c 70 7a bf
       -0.10772712 -0.027171021 -0.16679454 -0.9782808
000130 3e 21 17 3f 14 ee 2f bd cb d1 30 bf 65 52 79 3e
       0.590351 -0.04295166 -0.6907012 0.24347837
000140 8a ef 2c be 92 fa 10 3d 59 a7 c1 3c fc ad d2 be
       -0.16888252 0.035395212 0.023639368 -0.41148365
000150 a9 4d 97 be fa 99 b9 bd 28 1c d8 3d 60 a7 e0 3d
       -0.29551437 -0.09062572 0.105522454 0.10969424
000160 7c cd 98 be 75 a4 f3 3d 43 96 eb be de 24 fd 3e
       -0.29844272 0.11896602 -0.46013078 0.4944219
000170 4e 97 0d be 81 7b 9f 3e 2c 48 12 3f d2 ee e0 bd
       -0.1382725 0.31148914 0.57141376 -0.10983051
000180 ce 94 40 3e 16 0a 92 3d 9f 35 4a 3e f7 c0 12 3e
       0.18806764 0.0713083 0.19747017 0.14331423
000190 91 c3 0b 3f 4d e4 e5 3e 6c 6e 8d 3d cf 68 96 be
       0.54595286 0.44900742 0.06905827 -0.29376838
0001a0 dd c9 1a 3d 2c 5c 8d 3e 47 95 d3 bc fd 91 08 bf
       0.037790168 0.27609384 -0.025828017 -0.5334776
0001b0 e8 53 cc bb d8 d2 a6 3e e9 ea 6c 3e ef 8d 03 be
       -0.0062355883 0.32582736 0.23136486 -0.12847112
0001c0 d9 90 2a bd b7 be fc 3e 62 ee b9 be 97 6f 23 3e
       -0.041642044 0.49364254 -0.36314684 0.15960537
0001d0 54 a0 90 3f b2 f1 a2 3d 75 d6 83 3d 2a 85 3c 3e
       1.1298928 0.07956256 0.06437389 0.18410173
0001e0 01 7c 04 3e af 08 78 3e f3 0e b7 be 64 37 5b be
       0.12937929 0.24222063 -0.35753593 -0.21407849
0001f0 8e 6c 04 bd f0 69 e4 3d b4 e5 d5 bc 48 26 8a bc
       -0.03233009 0.111530185 -0.026110508 -0.016863957
000200 13 a3 0f 3f 31 af 82 3e 9d 5d 16 3f 56 7a 45 bc
       0.56108207 0.25524285 0.5873659 -0.012053093
000210 5a ac c8 3e 34 c5 df 3e fe fb 1e 3f 22 19 48 3e
       0.39193994 0.43705142 0.6210326 0.19540837
000220 76 c6 59 bc 25 01 87 be aa e7 0a 3f b1 df 4b 3f
       -0.013291946 -0.2636806 0.5425974 0.796382
000230 c5 10 56 bf b7 6a da 3e 86 95 cf 3e 38 09 23 3f
       -0.8361934 0.42659542 0.40543765 0.6368594
000240 83 65 de 3e 74 55 4e 3f e8 5f 1a 3f cd a6 d2 3e
       0.43436822 0.8059914 0.6030259 0.41142884
000250 2f c6 23 be 40 54 ae 3e 6d 41 6a be 00 de f6 3e
       -0.1599357 0.34048653 -0.2287652 0.48216248
000260 3d 81 03 3f f7 8e 3e be 42 fe f4 3d 61 12 3d bf
       0.51369077 -0.18609224 0.11962558 -0.7385617
000270 7e 77 fb 3e 0b f3 31 bf 2f 0a 71 3e a3 d0 30 be
       0.49114603 -0.6951148 0.23539041 -0.17267089
000280 f9 4f c6 3e b3 88 11 3f 6a 58 74 3a 0d a7 bf bc
       0.3873289 0.5684921 0.0009321036 -0.023395086
000290 2c eb 55 bf 18 f7 b3 bc 68 95 ae bd 60 53 92 3e
       -0.8356197 -0.02196841 -0.08524591 0.28579235
0002a0 40 4d 1b 3f 1b 69 fe 3e 57 d5 09 3e 4b 1e 44 3f
       0.6066475 0.49689564 0.13460289 0.76608723
0002b0 90 bd dc bd b9 67 db 3c f3 ea d7 be 9f c6 09 3f
       -0.10778344 0.026782857 -0.4217144 0.53818697
0002c0 91 91 9a be 7f 51 35 3f 06 c4 94 3e a7 c3 1f be
       -0.30189183 0.7082748 0.29055804 -0.15601979
0002d0 cf 48 e8 bf 53 0b 56 3d ab 64 d4 3d 50 e5 3a 3d
       -1.814722 0.052256893 0.103707634 0.045628846
0002e0 99 c2 28 bf d7 2e e2 3e 24 85 a8 3e d4 b9 3c bc
       -0.6592193 0.4417636 0.32914078 -0.011518914
0002f0 6a c5 97 3e 0b 8c 9d be e9 52 03 bd 5c 13 2e 3f
       0.29642802 -0.30770907 -0.03206149 0.6799829
000300 2e 18 be 3e eb ab ed 3e a7 8f d8 3d 45 f7 ed bc
       0.37127823 0.46420226 0.105742745 -0.029048571
000310 02 47 23 3f f5 34 0f 3f 26 a3 c8 3e 65 8b 7d 3f
       0.63780224 0.5594018 0.39186972 0.99040824
000320 4e c2 91 3c 4a 8f 46 be af 11 fe 3e 5c 39 83 3f
       0.017792847 -0.19390598 0.49622867 1.025188
000330 b7 d4 ef be 27 2c 36 3e b1 ee 4f 3f 69 b3 a4 3f
       -0.46841976 0.1779028 0.8122359 1.2867252
000340 81 63 c3 3e 5e 24 96 3e bb b7 f8 3e 4c ae 12 3f
       0.38161853 0.2932462 0.48577675 0.57297206
000350 5f fc 7e be de 1e b8 3e 3f ba 7c be 38 65 d3 3e
       -0.2490096 0.3596105 -0.24680422 0.4128816
000360 02 0e 5c 3f e9 f7 09 be 63 b9 2a be fb ec 9b bf
       0.85958874 -0.13473476 -0.16672282 -1.2181696
000370 7e 5e 6c 3f c4 72 0e bf 39 03 56 3f 91 e2 81 be
       0.92331684 -0.5564387 0.8359867 -0.2536817
000380 fe eb a3 3e d5 2d 02 3f 05 d3 07 3e e1 78 93 bd
       0.32015985 0.50851184 0.13264091 -0.0720079
000390 9e 77 1d bf 53 07 eb 3e 66 56 bc 3e 10 fb 36 bd
       -0.61510646 0.45904025 0.36784667 -0.044673026
0003a0 fc 8e e4 3e e9 1d cb 3e 06 4c 00 3f 13 13 29 3f
       0.44640338 0.39671257 0.50116 0.6604473
0003b0 4e cc b9 3a 6c fe 04 3e 6f df e5 bf b7 11 13 3f
       0.0014175267 0.12987679 -1.7958812 0.57448906
0003c0 15 ff 21 be 28 4b 89 3f e5 b7 83 bd 12 ad 26 bd
       -0.15819962 1.0726061 -0.064315595 -0.040692396
0003d0 21 52 98 bf 71 99 ef 3c 4a 78 18 3e 3d 58 57 3e
       -1.1900064 0.029247971 0.14889637 0.21029754
0003e0 6d dc 18 bf e8 4d 40 3f 38 5c b7 3e e9 ca 60 3e
       -0.59711343 0.75118876 0.35812545 0.21952404
0003f0 1a f4 cb 3e 9c 87 7b be 81 61 e2 bc 86 14 02 3f
       0.39834672 -0.2456345 -0.027634384 0.50812566

bias f4 [64]
000000 a1 43 93 bd 9a 9a 3c be c7 76 e7 be b1 7a 45 be
       -0.071906336 -0.18418351 -0.45207807 -0.19285084
000010 82 eb 04 3f 5f 7e 3f be 13 79 22 be ce 87 b1 be
       0.51921856 -0.1870055 -0.15866499 -0.34673923
000020 09 52 a0 be cd 1e e7 3c b1 eb 97 3e 8e a1 6c be
       -0.31312588 0.02821293 0.29672006 -0.23108503
000030 c5 3d ba 3e 6b 00 20 3f 80 9e 58 3d cd 4e 18 3c
       0.3637525 0.6250064 0.052885532 0.009296131
000040 02 78 1b bd ad d6 ac 3e 85 5a 77 3c 22 3b d8 3e
       -0.037956245 0.33757535 0.015097265 0.42232615
000050 10 c8 21 bd 46 a0 07 3f f4 48 67 be 4c 2e c6 bd
       -0.039497435 0.5297893 -0.22586423 -0.09676799
000060 94 64 f7 3d 32 4d 3a be ca b5 40 be fb 96 65 3d
       0.12079731 -0.1819351 -0.18819347 0.05605219
000070 29 01 ee 3e 72 b3 0b bd cd d3 9e be d3 e2 26 bd
       0.4648526 -0.03410668 -0.31020966 -0.04074366
000080 af e8 3e be 7c d0 03 3f 2b 53 42 be e8 9c 1e 3f
       -0.18643449 0.51489997 -0.18977039 0.6195817
000090 c4 ea 2e 3e 82 10 05 be fb 28 13 3f eb 7e e5 bd
       0.17081743 -0.12994578 0.57484406 -0.11205848
0000a0 b0 e0 28 3f 7a 20 f4 bc 7e 81 ae bd 8f 9d 29 be
       0.65967846 -0.029800642 -0.085207924 -0.1656401
0000b0 e7 bf 71 3e 75 09 71 bd 56 d2 84 be 97 90 95 be
       0.23608361 -0.05884691 -0.25941724 -0.29211876
0000c0 a3 29 94 3d ad db 84 bd bc c5 8b be a9 c0 37 be
       0.07234504 -0.06487212 -0.27299297 -0.17944588
0000d0 66 33 5b bd 5d 3e e6 be d3 78 9b be 33 27 b4 3b
       -0.053515814 -0.44969454 -0.3036562 0.005497837
0000e0 59 58 f8 3d f5 52 99 be 23 5c 5d be 1a e6 0f bd
       0.12126226 -0.29946104 -0.21617179 -0.03513155
0000f0 6e fa 53 3c 33 d0 2f be 37 55 f8 bc e0 42 a1 be
       0.012938125 -0.17169265 -0.030314071 -0.31496334

weight f4 [4, 64]
000000 97 ac 0f bf ae 2f d1 3e 54 67 5e bf 55 ca 8c bf
       -0.56122726 0.4085669 -0.86876416 -1.0999247
000010 de ac 47 3f 2a a8 3b bf 4a 79 0f 3f c9 b6 29 bf
       0.7799815 -0.73303473 0.5604445 -0.66294533
000020 57 71 65 bf 95 79 83 be 03 09 30 3f 11 12 3a bf
       -0.8962607 -0.25678697 0.6876375 -0.7268382
000030 0c a9 25 3f 66 b7 29 3f 9e 18 32 3f a5 85 95 be
       0.6471107 0.6629547 0.6956881 -0.29203525
000040 f7 5a 3e be a0 48 2c 3d 00 60 88 b8 8d 00 63 3f
       -0.18589388 0.042061448 -6.502867e-05 0.88672715
000050 eb 52 d1 be a8 84 2c 3f cf 18 39 bf 68 70 94 3d
       -0.40883574 0.6738992 -0.7230348 0.07248002
000060 b1 56 87 3f e2 0b 49 bf cd fb 40 bf 77 1b c9 be
       1.0573331 -0.78533757 -0.7538422 -0.39278767
000070 2b 53 43 3f 93 1c 35 be b0 f9 0d bf 5f 61 ba bd
       0.7629878 -0.17686681 -0.5545912 -0.09100603
000080 b9 12 4e bf c1 28 40 3f 06 fc fa 3e 03 c4 44 3f
       -0.8049732 0.75062186 0.49020404 0.7686159
000090 e0 29 3a 3f 18 20 23 bf 48 34 63 3f 8f 22 37 bf
       0.72720146 -0.63720846 0.8875165 -0.7153711
0000a0 61 03 67 3f 97 0c 88 3f 95 5e 74 bf b0 1d 39 bf
       0.9023953 1.0628842 -0.9545682 -0.72310925
0000b0 38 eb 1b bf ce 06 c3 be d2 b4 74 bf 11 bd 29 bf
       -0.6090579 -0.3809113 -0.9558841 -0.6630412
0000c0 3b 67 bb be db d3 3b 3d 39 75 5e bf 55 e5 6c bf
       -0.36602196 0.045856338 -0.8689762 -0.9253743
0000d0 07 99 13 bf db 04 3c bf b5 1b 64 bf 43 61 39 bf
       -0.57655376 -0.7344491 -0.8910478 -0.72414035
0000e0 b8 97 e0 be af d8 2c bf 55 ed 4e bf 1a 0e c7 3b
       -0.43865752 -0.6751813 -0.8083089 0.006074679
0000f0 5a 21 49 bf 0c 30 2a bf c5 f1 02 bf d9 6a 26 bf
       -0.78566515 -0.66479564 -0.5115016 -0.65006787
000100 b5 6f 44 bf 8e 96 a8 bd e4 21 7c bf e6 0e 7e bf
       -0.7673295 -0.08231841 -0.98489213 -0.99241483
000110 7d 8e 31 3f da 5f 3c bf dd 7f 01 be 52 2d 44 bf
       0.69358045 -0.7358376 -0.12646432 -0.76631653
000120 42 58 84 bf f1 61 0b bf c7 b1 2b 3f 48 08 77 bf
       -1.0339434 -0.5444632 0.6706814 -0.9649701
000130 dd 67 d7 3e ed d4 3a 3f b8 cc 39 3f b7 a4 e2 be
       0.4207143 0.7298115 0.72578 -0.44266292
000140 f1 22 14 be 2e 5e 6d bf a8 9b e9 bc 23 ff 97 3f
       -0.14466454 -0.9272183 -0.028516605 1.1874737
000150 80 7c 74 be a9 98 3b 3f ba 2f 48 bf fa 92 2e 3d
       -0.23875618 0.73279816 -0.78197825 0.042620637
000160 a5 21 bb 3f 97 27 1c bf f4 34 e8 be 30 2d 95 be
       1.4619642 -0.6099791 -0.453529 -0.29136038
000170 71 da 70 3f f3 76 3a be d6 6c 09 bf 8e d4 92 bc
       0.94083315 -0.18209438 -0.53681695 -0.01792362
000180 ad 8f d4 be 92 30 2b 3f 49 b5 91 3f 83 2e 6d 3f
       -0.41515866 0.6687099 1.1383449 0.92649096
000190 a5 d2 85 3f c0 59 c7 be 75 a9 4f 3f df cd 1d bf
       1.0454909 -0.3893566 0.81117946 -0.6164226
0001a0 d1 28 4a 3f cb ce a2 3f 66 f5 39 bf bb 6d 37 bf
       0.7896853 1.2719358 -0.72640073 -0.7165181
0001b0 fe c5 02 bf a7 1d 20 bf ac f4 76 bf 34 aa 59 bf
       -0.5108336 -0.62545246 -0.9646709 -0.85025334
0001c0 a3 32 91 be ab c1 ae bd 3a da 4a bf 8c b4 7a bf
       -0.28358945 -0.08533033 -0.7923924 -0.9793174
0001d0 9f ed 6f bf 2b ca 52 bf df 96 54 bf 7d a5 82 bf
       -0.93721956 -0.82339734 -0.8304271 -1.0206753
0001e0 5c b8 af be ab 91 31 bf 5c 16 0c bf 2f 34 f1 3c
       -0.34320343 -0.69362897 -0.5472162 0.029443828
0001f0 02 e4 85 bf 33 86 05 bf 2f e5 39 bf f0 8a ec be
       -1.0460207 -0.52157897 -0.7261533 -0.4619975
000200 c1 ec 11 bf ce be ad 3f 47 af 71 bf 46 48 b4 be
       -0.5700188 1.3573854 -0.94408077 -0.3521139
000210 c2 b6 58 3f bc 55 35 bf 05 7b 91 3f 3a b9 1e bf
       0.84653866 -0.70833945 1.1365668 -0.62001383
000220 21 45 3e bf e0 ec 15 bf 2e af 6a 3f cd 5a fb be
       -0.7432423 -0.5856457 0.91673553 -0.49092713
000230 0d 2b 30 3f 1f 8a 45 3f 8f 1d b0 3f 1e 3d 19 bf
       0.6881569 0.7716388 1.375902 -0.5985888
000240 d9 3b 44 bf b6 04 a0 3e 88 92 e4 bc 89 e4 bd 3e
       -0.7665382 0.31253594 -0.027901903 0.3708842
000250 11 b9 5b bf bd 48 34 3f 59 c6 2f bf 71 e2 30 bd
       -0.85829264 0.7042349 -0.6866203 -0.0431847
000260 a9 be 6a bf 84 05 8b bf 84 d2 20 bf 64 66 b2 3d
       -0.91697174 -1.0861058 -0.6282122 0.08710936
000270 18 57 fb 3e 87 14 78 3e 46 e3 24 bf 1a 0c 28 bf
       0.49089885 0.2422658 -0.6440929 -0.65643466
000280 6d 88 31 bf 13 78 4d 3f 7c cb b2 3e 57 13 39 3f
       -0.69348794 0.80261344 0.3492087 0.72295135
000290 21 7f 92 3f 63 bc 07 bf 1e 72 5a 3f 17 6f 31 bf
       1.1445047 -0.5302183 0.8533038 -0.69310135
0002a0 0b 11 ce 3e eb b6 bf 3f 96 38 f5 be 05 47 0a bf
       0.40247378 1.4977697 -0.47894734 -0.5401462
0002b0 4f 01 0f bf a4 11 28 bf 3b 51 a3 be f3 ac 54 bf
       -0.5586137 -0.6565192 -0.3189791 -0.830764
0002c0 5e b0 2f bf 83 0e f2 be b6 98 3d bf 75 e7 8d be
       -0.6862849 -0.47276697 -0.74061143 -0.2771565
0002d0 7d a1 0a bf 6e a2 46 bf 7b 82 05 bf f8 31 3b bd
       -0.5415266 -0.775916 -0.5215222 -0.04570195
0002e0 48 b1 72 bf c3 a2 18 bf fc da 55 bf 5a 84 7e 3d
       -0.9480176 -0.59623355 -0.8353727 0.06213794
0002f0 87 68 43 be 39 b7 1e bf 65 57 17 bf 85 e5 0e bf
       -0.19082843 -0.61998326 -0.5911773 -0.5581897
000300 4d 85 20 bf d3 e8 b1 3e d5 74 2e bf 95 3e 68 bf
       -0.627034 0.34747943 -0.6814702 -0.9072049
000310 f8 df 62 3f f8 39 3b bf b7 d7 24 3f 84 19 0b bf
       0.88623 -0.7313533 0.64391655 -0.5433581
000320 a7 b0 8f bf 3b 23 c2 bc b9 fa 3d 3f ed 2b 33 bf
       -1.1225785 -0.02369844 0.742107 -0.699889
000330 9f f4 3e 3f d1 20 2f 3f ec 36 49 3f 17 bb 9b be
       0.7459201 0.6840945 0.7859943 -0.30416176
000340 d0 41 98 bc 0a 0d 22 3f cc f4 1e bc 84 0d 76 3f
       -0.01858607 0.63301146 -0.009701919 0.96114373
000350 1f 6b 10 bf 7f 78 32 3f c7 c1 44 bf 61 61 66 3d
       -0.56413454 0.6971511 -0.7685818 0.05624521
000360 d5 55 02 40 68 96 d7 be e0 8b 87 bf f2 e3 73 bf
       2.0364888 -0.42106938 -1.0589561 -0.9526969
000370 d0 e0 0f 3f 93 57 14 3f b3 22 28 bf ce bc 4a 3e
       0.5620241 0.5794613 -0.65677947 0.19798586
000380 48 ef 34 bf 00 a7 3c 3f af 94 0d bf 84 c6 3b 3f
       -0.70677614 0.7369232 -0.55305 0.73349786
000390 44 07 35 3f 75 08 47 bf e6 a3 6d 3f bf 5d 38 bf
       0.7071421 -0.7774728 0.92828214 -0.72018045
0003a0 7c f2 81 3f 43 08 12 3f 94 1a 6d bf 07 93 4a bf
       1.0152125 0.57043856 -0.9261868 -0.79130596
0003b0 ad 94 6d bf a7 2c 00 bf 20 29 47 bf a8 8b 5c bf
       -0.92804986 -0.50068134 -0.77797127 -0.861506
0003c0 92 3a 71 bf 86 5b f6 bd 40 e8 09 bf 93 30 64 bf
       -0.94229996 -0.120291755 -0.5387001 -0.8913662
0003d0 5b a0 19 bf ae c9 2e bf a4 e4 42 bf b7 30 15 bf
       -0.6001031 -0.6827649 -0.7613013 -0.5827746
0003e0 9a bf 26 bf cc 39 36 bf 19 8b 4c bf 45 13 a7 3d
       -0.6513611 -0.7118194 -0.79899746 0.08157972
0003f0 42 26 33 bf f5 ce 33 bf 10 58 c9 be 93 7d 3c bf
       -0.6998025 -0.70237666 -0.39325 -0.7362911

bias f4 [4]
000000 49 21 e4 3e 6b bf 8e 3e 2a 20 b3 3d 55 74 75 3e
       0.44556645 0.27880415 0.08746369 0.23970158
