lab2/problem1/neural-network-1-gamma-0_01.pth (torch, 23275 bytes, 6 tensors)

weight f4 [64, 8]
0.3399663 0.44157723 -0.4064213 -0.2219171 0.13271353 -0.45862564 -0.36431637 0.15330069
-0.6422195 -0.7172162 0.8547418 -0.12553023 0.9774483 1.0417886 0.31280574 -0.41928616
0.10240748 0.46578676 0.2352917 0.8022767 -0.36359468 -0.73868066 -1.0099584 0.025604695
-0.26752573 0.057550453 0.13015214 0.23097542 -0.069400534 0.9730981 0.50660753 0.31226796
-0.13319327 0.19455108 0.2015883 0.6022102 -0.079387404 0.38748607 -0.43526107 -0.8039246
0.06431426 1.0697584 0.056588918 -0.08665294 -0.0985228 0.61539674 -0.2653953 -0.0074411817
-0.41005033 -1.084207 -0.32474166 -0.5638272 -0.12369497 -0.24327876 0.33396277 0.25347817
0.49975702 -0.5578916 0.26559314 -0.9969757 -0.71347773 -0.7972176 -0.17801012 -0.12854436
-0.0852587 0.79749215 -0.34101227 -0.24567589 0.1763341 -0.18089484 -0.7764155 -1.0046527
-0.27279022 -0.82894576 0.6234703 -0.9160681 -0.14535208 0.71472627 0.22619665 0.024016153
-0.68640566 0.06763347 -0.38069728 0.005618187 -0.2009191 -0.49664205 -0.055312194 0.14179872
-0.5600188 0.66470325 -0.2681487 -0.25788411 -0.27066535 0.5431318 -0.6524072 -0.14596456
-0.123359025 -0.15336582 0.71880704 -0.029532919 0.37649062 -0.1997496 -1.2998679 0.08412907
-0.118525386 0.77916145 0.22982095 -0.5815333 -0.2326732 0.19170037 0.06288485 0.52743506
0.7724481 -0.69119376 0.40804845 -1.0242867 -0.57914144 -0.37842926 -0.055833783 -0.06362779
-0.2265531 -0.45685378 -0.5232116 -0.4088077 -0.053234924 0.61853564 0.3475268 -0.80947477
0.3285335 -0.47118577 -0.1651634 -0.24070036 -0.07354496 -0.8837555 -0.9304148 -0.16868289
0.109427206 -0.19916719 -0.33920375 0.18068299 0.3829407 -1.3662741 0.44117233 0.10709225
0.82289284 -0.6586475 0.6989607 -0.6082979 -0.18157317 -0.21283184 -0.28512335 0.12086459
0.073726125 0.6436426 1.0449744 -2.2765563 0.42956644 0.34679654 -0.005936729 0.17368466
0.20745055 0.5031283 -0.05711244 1.6670899 -0.941736 -0.15810874 -0.18639034 -0.42068684
-0.49294212 0.89766747 0.35475016 0.21323468 0.2719825 0.3412341 -0.5581565 -0.093724705
-0.26282722 1.0984341 0.1839675 0.086523466 0.3627752 -0.6896743 0.124939814 -0.82986146
0.015116376 0.079276495 0.2248891 -0.1938168 -0.41302782 0.70256406 0.5779429 -1.1100632
-0.011315618 0.18990636 0.14420658 0.45611835 1.3242311 -0.5727334 -0.2696824 0.18403438
-0.38090545 0.7696158 -0.42941487 -0.21050383 0.49310732 0.39044353 0.12791477 0.57136655
-0.3802691 -0.070372775 -0.2722952 0.35389453 0.33418733 0.7169399 0.44032684 0.16780238
-0.24623035 0.21726914 1.1291834 -0.18768005 -0.50763196 0.48691186 0.30672586 -0.01047183
-0.2155818 -0.35032225 -0.46370935 -0.81969845 0.34328225 1.0591047 0.42860207 -0.8170455
0.094956264 -0.8886196 -0.25188822 -1.1093252 -0.20184784 -0.47065037 0.12308231 -0.21377549
-0.37967917 -0.3201794 -1.179843 -0.57522136 0.04865096 -0.6081108 0.50248945 -0.16445614
0.36382267 0.029555062 0.5200143 0.034633107 -0.27230206 0.50143135 0.44519514 0.32337174
00000000: 1010 ae3e 6916 e23e 7416 d0be 3c3e 63be
00000010: 0ee6 073e fbd0 eabe ad87 babe dbfa 1c3e
00000020: 7f68 24bf 7b9b 37bf 5cd0 5a3f ff8a 00be
00000030: 0d3a 7a3f 5459 853f 1328 a03e adac d6be
00000040: 03bb d13d 9a7b ee3e 4ff0 703e 0162 4d3f
00000050: 1529 babe 2d1a 3dbf 5146 81bf f0c0 d13c
00000060: 22f9 88be 06ba 6b3d 9a46 053e d284 6c3e
00000070: de21 8ebd f51c 793f 08b1 013f 96e1 9f3e
00000080: d163 08be 6638 473e 2a6d 4e3e 732a 1a3f
00000090: dd95 a2bd 9364 c63e 8ada debe 01ce 4dbf
000000a0: 32b7 833d d8ed 883f c8c9 673d 1977 b1bd
000000b0: 52c6 c9bd a48a 1d3f e5e1 87be 28d5 f3bb
000000c0: 1ef2 d1be 4cc7 8abf 8a44 a6be fb56 10bf
000000d0: ca53 fdbd 111e 79be 2bfd aa3e e4c7 813e
000000e0: 27e0 ff3e fcd1 0ebf d3fb 873e cd39 7fbf
000000f0: 7aa6 36bf 7416 4cbf 4948 36be 22a1 03be
00000100: 1d9c aebd 7228 4c3f 2999 aebe 7692 7bbe
00000110: ed90 343e 7f3c 39be 2bc3 46bf 7698 80bf
00000120: 29ab 8bbe ca35 54bf c09b 1f3f 7083 6abf
00000130: 2dd7 14be 4df8 363f 18a0 673e 86bd c43c
00000140: 48b8 2fbf 6b83 8a3d c1ea c2be c518 b83b
00000150: bdbd 4dbe de47 febe 0a8f 62bd af33 113e
00000160: 645d 0fbf fe29 2a3f c94a 89be 6309 84be
00000170: a694 8abe b00a 0b3f 2904 27bf bc77 15be
00000180: a8a3 fcbd ee0b 1dbe bd03 383f 05ef f1bc
00000190: 61c3 c03e 298b 4cbe 1262 a6bf dd4b ac3d
000001a0: 70bd f2bd 2077 473f 2f56 6b3e 5edf 14bf
000001b0: e241 6ebe 1a4d 443e c6c9 803d fc05 073f
000001c0: 29bf 453f 13f2 30bf baeb d03e d41b 83bf
000001d0: 9d42 14bf 7bc1 c1be f7b1 64bd 494f 82bd
000001e0: 89fd 67be bde8 e9be 32f1 05bf 3e4f d1be
000001f0: dd0c 5abd 5a58 1e3f 08ef b13e bd39 4fbf
00000200: 8b35 a83e 433f f1be 9820 29be 287a 76be
00000210: bd9e 96bd cd3d 62bf aa2f 6ebf 35bb 2cbe
00000220: 5f1b e03d 7cf2 4bbe 1dac adbe f604 393e
00000230: ce10 c43e 12e2 aebf 57e1 e13e 2e53 db3d
00000240: 1ba9 523f 1f9d 28bf 17ef 323f 69b9 1bbf
00000250: 51ee 39be 97f0 59be b0fb 91be db87 f73d
00000260: b9fd 963d c3c5 243f b9c1 853f 19b3 11c0
00000270: 22f0 db3e 518f b13e e488 c2bb 64da 313e
00000280: eb6d 543e 04cd 003f bcee 69bd 3463 d53f
00000290: 9c15 71bf 42e7 21be 1cdd 3ebe 4464 d7be
000002a0: e962 fcbe 89cd 653f d0a1 b53e 315a 5a3e
000002b0: 4a41 8b3e 3cb6 ae3e 58e3 0ebf bdf2 bfbd
000002c0: 4a91 86be 7d99 8c3f fa61 3c3e 3733 b13d
000002d0: acbd b93e 7f8e 30bf 72e0 ff3d cd71 54bf
000002e0: adaa 773c b75b a23d 5449 663e e977 46be
000002f0: 6278 d3be 3ddb 333f 11f4 133f 8d16 8ebf
00000300: 2465 39bc d076 423e e4aa 133e 5888 e93e
00000310: 6880 a93f a89e 12bf d013 8abe 8273 3c3e
00000320: 0a06 c3be 8b05 453f 44dc dbbe 518e 57be
00000330: 9078 fc3e 37e8 c73e 17fc 023e 1445 123f
00000340: a2b2 c2be 9a1f 90bd 476a 8bbe aa31 b53e
00000350: 9a1a ab3e 6089 373f 8572 e13e 63d4 2b3e
00000360: cf23 7cbe cd7b 5e3e 1589 903f 332f 40be
00000370: 2bf4 01bf 834c f93e 2c0b 9d3e 0a92 2bbc
00000380: 7ac1 5cbe 705d b3be 506b edbe c2d7 51bf
00000390: b1c2 af3e be90 873f bb71 db3e e529 51bf
000003a0: 6e78 c23d 937c 63bf 7ef7 80be 5efe 8dbf
000003b0: 33b1 4ebe 16f9 f0be 9412 fc3d f6e7 5abe
000003c0: 4f65 c2be 8eee a3be 1805 97bf b541 13bf
000003d0: 3b46 473d 26ad 1bbf 26a3 003f 3167 28be
000003e0: f746 ba3e 751d f23c a81f 053f 72db 0d3d
000003f0: 2d6b 8bbe ce5d 003f 9ef0 e33e fb90 a53e

bias f4 [64]
-0.40105388 -0.27409744 0.19766289 0.22472347 0.27412847 0.87256515 -0.004181542 -0.22659494
0.31409228 0.11626481 0.47845054 0.3951509 -0.28818876 0.6470163 -0.3880229 -0.19587271
-0.30569267 -0.28867856 -0.20682637 0.7042174 0.15032521 -0.6977498 0.29041213 0.2146746
0.037598718 0.4884072 0.29682025 -0.051092427 -0.20019267 -0.4882157 -0.06094066 0.3735185
-0.33886418 0.59130716 -0.22601372 0.76688325 0.17895769 -0.38677254 0.9999037 0.22656514
0.5815084 0.057796407 0.89253366 0.46644032 0.02010512 0.7105529 0.9500214 -0.36349392
0.22338618 -0.04615449 -0.0035779516 -0.5281821 0.26281282 0.3020711 0.18791915 -0.63438183
0.06274423 -0.13606958 0.0036083758 -0.12925246 0.27112445 -0.5206429 0.74024 0.19168328
00000000: ef56 cdbe 8056 8cbe 2468 4a3e e91d 663e
00000010: 915a 8c3e 6e60 5f3f 5105 89bb 8108 68be
00000020: b4d0 a03e 3f1c ee3d 78f7 f43e 3851 ca3e
00000030: 7a8d 93be dca2 253f f0aa c6be db92 48be
00000040: c083 9cbe adcd 93be 4bca 53be 9747 343f
00000050: daee 193e bb9f 32bf e6b0 943e a9d3 5b3e
00000060: 1d01 1a3d 8210 fa3e d3f8 973e 4b46 51bd
00000070: 4fff 4cbe 69f7 f9be ea9c 79bd d13d bf3e
00000080: 9b7f adbe e85f 173f 2470 67be 7652 443f
00000090: af40 373e 0d07 c6be b0f9 7f3f b100 683e
000000a0: bcdd 143f edbb 6c3d 167d 643f 44d1 ee3e
000000b0: 7eb3 a43c cbe6 353f 9a34 733f e01b babe
000000c0: 59bf 643e 7e0c 3dbd 117c 6abb f136 07bf
000000d0: 678f 863e 10a9 9a3e e16d 403e d966 22bf
000000e0: 0c80 803d d355 0bbe 807a 6c3b c25a 04be
000000f0: d3d0 8a3e da48 05bf 5e80 3d3f 9f48 443e

weight f4 [64, 64]
0.8247433 -0.82177854 0.8543813 0.25829035 0.5835208 -0.0020164193 0.40525106 1.0190036
0.024063477 -0.30075866 -0.25330493 -0.03016947 1.185153 -0.06064323 1.1912484 1.0923831
0.5935149 0.13754971 0.23253188 0.05233926 0.508132 -0.62596107 0.12272212 0.43650153
-0.6375513 -0.043796524 -0.16261469 -1.5034273 1.3242818 0.5394802 0.46785092 0.018415578
0.7450611 -0.040163904 -0.10727676 0.060335744 0.64880097 0.6953821 0.099012405 0.584121
0.065623835 0.4910305 0.09529385 -0.0812755 -1.3532573 0.33704776 -0.05227728 0.033042204
0.49343303 0.41199318 -0.33296156 1.2864614 0.7570389 0.16977479 0.37049982 0.40626433
0.31747752 -0.87529796 0.58719623 1.2650815 0.24664205 0.68985486 -0.069062054 0.7234666
0.9491401 -1.0982076 0.6477133 0.6877847 0.54773134 -0.06417833 0.46421388 0.644635
-0.1061988 -0.27188912 0.18902181 -0.065830156 1.1893668 0.04570649 0.8771484 0.81790465
0.7226998 0.43556148 0.3835774 0.19334656 0.2471909 -0.88435006 -0.12618428 0.41782215
-0.31920445 0.05489965 0.2593715 -0.9287102 1.0876112 0.7957266 0.52008444 0.181999
1.101597 0.16125323 0.06813677 -0.16498066 0.75694585 0.67934334 0.17064653 0.39458847
-0.042649213 0.37330422 -0.090995714 -0.062478784 -0.5241491 0.32116336 -0.0012115134 -0.3728567
0.61235875 0.50016654 -0.6665679 1.0833577 0.66700625 -0.010625397 0.5781746 0.57587075
0.7621301 -1.0084449 0.7636445 1.2085795 0.28083307 0.5794392 -0.042858005 0.57812387
-0.17757875 1.581144 -0.083221324 -0.43058544 -0.5846319 0.5468302 -0.25153512 -0.2903554
0.77159595 0.56316465 -0.034779295 0.6711432 -0.7259106 0.49649104 -0.59201837 -0.8972407
-0.0400185 -0.15479945 -0.19235893 0.18990888 0.004565952 1.452917 0.74844515 -0.020003874
0.8653134 0.21046393 -0.09159553 0.9950187 -0.8210683 -0.46115318 -0.0227263 0.10271472
-0.3694022 0.56981987 0.5982008 0.45687163 -0.43739545 -0.39240298 0.5286191 0.08964225
0.6062604 0.44241402 0.23770137 0.5954174 0.80546045 0.40950102 0.4127081 1.3139137
-0.7174312 -0.14057788 0.849382 -0.5087287 -0.3939044 0.78921956 -0.43566352 0.08457865
-0.6011531 1.5479306 -0.85903203 -0.7018374 0.015738968 -0.38100094 0.62960434 -0.1747955
0.69363105 -1.2697245 0.49370104 0.61436474 0.69762534 -0.09914266 0.6845846 0.5630438
-0.15245394 -0.2393459 0.39922228 -0.11254879 1.2312719 0.05868572 0.7837521 1.1586032
0.6962931 0.51643455 0.3548352 0.35003588 0.30273506 -1.0684342 -0.08165413 0.3189823
-0.43808347 0.042652857 0.14233497 -1.0654941 1.1272556 0.680226 0.43516976 0.2526072
0.90890676 0.007839895 -0.17616138 -0.0067296065 0.7332332 0.64956415 -0.009944428 0.38116494
-0.14062993 0.31759804 -0.03996505 -0.0037536076 -0.54000616 0.40261567 0.036851432 -0.3745048
0.9513113 0.55856746 -0.68893796 0.9420852 0.66855603 -0.1566039 0.57994586 0.467703
0.6847606 -0.87890255 0.9423455 1.3386779 0.43504247 0.7342477 0.051226746 0.5412575
00000000: 6022 533f 1460 52bf bcb8 5a3f a23e 843e
00000010: 9f61 153f e725 04bb 117d cf3e b66e 823f
00000020: c520 c53c 0afd 99be 2fb1 81be f725 f7bc
00000030: 18b3 973f 0965 78bd d47a 983f 36d3 8b3f
00000040: 98f0 173f d5d9 0c3e d61c 6e3e b161 563d
00000050: f014 023f fc3e 20bf bc55 fb3d 217d df3e
00000060: 9036 23bf fc63 33bd 7784 26be 4e70 c0bf
00000070: 1182 a93f 601b 0a3f 288a ef3e 44dc 963c
00000080: 53bc 3e3f e882 24bd ebb3 dbbd 9d22 773d
00000090: d217 263f 9004 323f 04c7 ca3d f488 153f
000000a0: ca65 863d 5a68 fb3e 6c29 c33d c573 a6bd
000000b0: 8937 adbf 8691 ac3e b320 56bd 4357 073d
000000c0: 41a3 fc3e c5f0 d23e f079 aabe c4aa a43f
000000d0: 4dcd 413f 71d9 2d3e 27b2 bd3e e101 d03e
000000e0: 6a8c a23e 8713 60bf 7e52 163f 31ee a13f
000000f0: bc8f 7c3e 549a 303f 6870 8dbd 1b35 393f
00000100: d8fa 723f 1192 8cbf 8ad0 253f a812 303f
00000110: 1f38 0c3f ee6f 83bd 71ad ed3e cd06 253f
00000120: c27e d9bd 0d35 8bbe ef8e 413e f6d1 86bd
00000130: 2c3d 983f ba36 3b3d cc8c 603f 3362 513f
00000140: db02 393f ea01 df3e 4264 c43e a4fc 453e
00000150: 9c1f 7d3e c464 62bf 7436 01be c9ec d53e
00000160: c46e a3be 75de 603d 57cc 843e f4bf 6dbf
00000170: d836 8b3f bdb4 4b3f 4124 053f f25d 3a3e
00000180: 2101 8d3f 911f 253e 4a8b 8b3d b1f0 28be
00000190: 34c7 413f 72e9 2d3f f7bd 2e3e 8007 ca3e
000001a0: f1b0 2ebd bb21 bf3e f65b babd c1e9 7fbd
000001b0: a32e 06bf 866f a43e a5cb 9eba 13e7 bebe
000001c0: 8bc3 1c3f ea0a 003f 32a4 2abf 77ab 8a3f
000001d0: ecc0 2a3f 2516 2ebc 4003 143f 446c 133f
000001e0: f51a 433f b914 81bf 357e 433f bcb2 9a3f
000001f0: 5ac9 8f3e 2156 143f e08b 2fbd edff 133f
00000200: 34d7 35be ed62 ca3f f16f aabd b275 dcbe
00000210: 70aa 15bf 10fd 0b3f 36c9 80be 77a9 94be
00000220: 5087 453f 8f2b 103f bc74 0ebd 0ad0 2b3f
00000230: 47d5 39bf 1334 fe3e 848e 17bf 91b1 65bf
00000240: 70ea 23bd bf83 1ebe bdf9 44be 7977 423e
00000250: fb9d 953b 2ff9 b93f 1a9a 3f3f 2adf a3bc
00000260: 2e85 5d3f db83 573e 7096 bbbd 8cb9 7e3f
00000270: 8831 52bf 451c ecbe 812c babc 185c d23d
00000280: 4922 bdbe b7df 113f b023 193f 14eb e93e
00000290: 4cf2 dfbe 0be9 c8be 9553 073f 5b96 b73d
000002a0: e233 1b3f 1784 e23e fd67 733e 466d 183f
000002b0: a832 4e3f 1eaa d13e 7a4e d33e 532e a83f
000002c0: 92a9 37bf a6f3 0fbe 1971 593f 0b3c 02bf
000002d0: d6ad c9be 4b0a 4a3f 4a0f dfbe 9237 ad3d
000002e0: 2be5 19bf 9722 c63f 86e9 5bbf 9eab 33bf
000002f0: 02ef 803c 8e12 c3be c02d 213f 97fd 32be
00000300: ce91 313f 5586 a2bf 62c6 fc3e 0247 1d3f
00000310: 9397 323f 4f0b cbbd f040 2f3f a323 103f
00000320: e31c 1cbe 1717 75be dd66 cc3e fb7f e6bd
00000330: 519a 9d3f 7060 703d faa3 483f 1c4d 943f
00000340: 4440 323f 0e35 043f f6ac b53e e737 b33e
00000350: 1700 9b3e 74c2 88bf 483a a7bd a651 a33e
00000360: 7a4c e0be c3b4 2e3d 42c0 113e 1c62 88bf
00000370: e949 903f 4b23 2e3f 92ce de3e bb55 813e
00000380: 1dae 683f e772 003c a663 34be 0884 dcbb
00000390: 2cb5 3b3f d649 263f f4ed 22bc 0d28 c33e
000003a0: 4b01 10be 369c a23e 64b2 23bd 16ff 75bb
000003b0: d83d 0abf a423 ce3e 87f1 163d 18bf bfbe
000003c0: 2389 733f 47fe 0e3f 3d5e 30bf 7f2c 713f
000003d0: 7d26 2b3f c65c 20be 5577 143f c576 ef3e
000003e0: 784c 2f3f c2ff 60bf 8e3d 713f cc59 ab3f
000003f0: e3bd de3e a8f7 3b3f 23d3 513d da8f 0a3f

bias f4 [64]
-0.05388347 -0.073253006 0.4390961 -0.029849395 0.4827641 -0.068903185 0.27118307 0.17340198
-0.17980365 0.26711407 0.113015294 -0.065592945 0.19197664 0.012462348 0.05565485 0.72431976
0.39182314 -0.057908986 0.066316664 -0.06682638 0.040119603 -0.08587401 0.6624774 0.17739454
0.499355 0.048380487 0.031568266 -0.06521881 -0.0022173808 0.6716011 0.010301515 0.08135455
-0.056240395 0.058661435 0.0077307415 0.07168608 -0.08331825 0.0314138 -0.025739772 0.07469313
0.36686525 -0.16023137 0.0025267024 0.5656867 -0.092891544 -0.0074925344 0.14817272 0.5268021
0.39663744 0.25796172 0.082574174 0.015572828 0.016936146 -0.11061794 0.49242705 -0.059712294
-0.041836206 -0.14737669 -0.072141245 0.43266353 0.16172507 -0.09506884 -0.08342294 0.36182112
00000000: eab4 5cbd ac05 96bd 34d1 e03e b886 f4bc
00000010: db2c f73e 1d1d 8dbd 82d8 8a3e 4a90 313e
00000020: 731e 38be 2dc3 883e 9074 e73d 9855 86bd
00000030: 8695 443e e02e 4c3c 57f6 633d 056d 393f
00000040: 0b9d c83e f931 6dbd 08d1 873d 45dc 88bd
00000050: 7454 243d b7de afbd 1e98 293f eaa6 353e
00000060: 75ab ff3e 9e2a 463d ba4d 013d 7191 85bd
00000070: 7a51 11bb 0dee 2b3f b0c7 283c 379d a63d
00000080: 545c 66bd f946 703d 2952 fd3b 27d0 923d
00000090: c2a2 aabd c2ab 003d 37dc d2bc b6f8 983d
000000a0: c3d5 bb3e b113 24be 0897 253b d8d0 103f
000000b0: ec3d bebd ef83 f5bb 97ba 173e 81dc 063f
000000c0: 1014 cb3e 8f13 843e a61c a93d 2d25 7f3c
000000d0: acbd 8a3c a98b e2bd 661f fc3e e194 74bd
000000e0: 715c 2bbd eae9 16be cabe 93bd 1386 dd3e
000000f0: 429b 253e 74b3 c2bd a5d9 aabd 9e40 b93e

weight f4 [4, 64]
-0.7958703 -0.66736513 0.5760047 -0.7207015 0.5787611 -0.9487953 0.34109706 -0.75600255
-0.2053127 -0.7652363 -0.8798915 -0.7956003 -0.2797768 -0.064978585 2.2352176 0.8632996
0.8039985 -0.7006464 -0.54131746 -0.9460186 -0.66451323 -0.8208937 0.61767787 2.9582605
0.90133053 -0.59819496 -0.96741265 -0.795887 -0.8904283 0.81498355 -0.90645725 -0.7405337
-0.8018313 -0.87922055 -0.9175874 -0.82131207 -0.85142505 -0.7211563 -0.94097084 -0.82747215
0.44319868 -1.4122229 -0.8843918 0.8646096 -1.2648948 0.9297681 -0.029291961 0.59125483
0.49112856 -0.05413815 -0.72057253 0.062029675 -0.7684204 -0.74571645 0.7708679 -0.7637114
0.045587942 -0.8211353 0.111549765 0.7727086 -0.7763211 -0.83984065 -0.8574316 0.6562749
-0.80649495 -0.7184077 0.7820606 -0.9160629 0.70327216 -0.9029661 -0.113957025 -0.73227805
-0.44309536 -0.6023392 -0.93838125 -0.8436595 0.038216196 -0.047290012 2.10125 0.903936
0.9634342 -0.2619174 -0.7796197 -0.9925751 -0.74150866 -0.81877273 0.52728194 2.8996334
0.94861037 -0.67467916 -1.1531783 -1.029443 -0.854304 0.77991843 -0.93380564 -0.53864473
-0.9323905 -0.9222508 -0.81474686 -0.92138803 -0.6699313 -0.95812106 -0.8457618 -0.7862119
0.7316873 -1.514483 -1.0064787 0.7171221 -1.2612904 0.2190423 -0.51958394 0.7119178
0.7297211 -0.072107665 -0.80765575 -0.0004483853 -0.5458183 -0.9106681 0.6732449 -0.70942473
-0.054426953 -0.98859215 -0.0353126 0.5748597 -0.8927979 -0.9238454 -0.9273965 0.66557527
-1.2210792 -0.8996729 0.5494058 -0.82535493 0.72215545 -0.9703198 -1.4485214 -0.9703878
-1.1074129 -1.1519289 -0.9371851 -0.7857206 -1.1771291 -0.06006223 0.8789905 0.7146738
0.9261671 -0.8340067 -1.052976 -0.728478 -0.81533486 -0.82392925 0.7383744 1.8446795
0.4311203 -0.9520007 -0.8888825 -0.5208601 -0.5122121 0.96582764 -0.77800494 -0.77731884
-0.5333659 -0.7408517 -0.63318187 -0.75474256 -0.039969377 -0.9621411 -0.8772305 -0.8060828
0.5230867 -0.20269197 -0.5471183 0.71926606 -0.8578471 0.23302907 1.0552706 0.7007649
0.7011624 -1.2956177 -0.41307727 -0.022967936 -0.75474364 -0.44134665 0.8530145 -0.7593805
0.093490645 -0.6787919 0.07825448 0.80597836 -0.23863697 -0.77144545 -0.6177595 0.79788816
-1.1424559 -0.88471174 0.40630725 -0.7035808 0.77313584 -1.0997274 0.9193979 -0.56733173
-0.76131296 -0.61183625 -0.5566757 -0.94934577 -0.27867815 0.05091785 2.0732179 0.84434414
0.83339334 -0.9384757 -0.58199286 -0.71248317 -0.5853468 -0.83309335 0.8960042 2.7641358
0.49664092 -0.60670877 -0.68406874 -0.6438907 -0.8533654 0.86114436 -0.85423416 -1.0044684
-0.74942636 -0.6698119 -0.798674 -0.7127012 -0.90314204 -0.6581703 -0.7925675 -0.94256705
0.2813666 -1.0479699 -0.8481968 0.7860907 -1.2940933 1.3724494 0.2902494 0.7742432
0.42880338 -0.40356323 -0.86668396 -0.038908366 -0.9912628 -0.8171438 0.67168564 -0.6655165
-0.14013006 -1.024099 -0.015792035 0.79607403 -0.7243213 -0.9735196 -0.7606648 0.50161976
00000000: 28be 4bbf 71d8 2abf 0b75 133f e57f 38bf
00000010: b029 143f 40e4 72bf 46a4 ae3e 6289 41bf
00000020: 7e3d 52be 87e6 43bf 9240 61bf 76ac 4bbf
00000030: e83e 8fbe 7e13 85bd ce0d 0f40 3401 5d3f
00000040: d8d2 4d3f 905d 33bf c893 0abf 462e 72bf
00000050: 8a1d 2abf 1726 52bf 2320 1e3f 2454 3d40
00000060: 99bd 663f 4e23 19bf 5ba8 77bf 40bf 4bbf
00000070: 1cf3 63bf c3a2 503f 950d 68bf 9e93 3dbf
00000080: d144 4dbf 9914 61bf 02e7 6abf 8241 52bf
00000090: fef6 59bf b39d 38bf 77e3 70bf 37d5 53bf
000000a0: f0ea e23e b8c3 b4bf 8067 62bf 0e57 5d3f
000000b0: 13e8 a1bf 4805 6e3f b2f5 efbc 7a5c 173f
000000c0: 3475 fb3e f7bf 5dbd 7177 38bf d412 7e3d
000000d0: 33b7 44bf 46e7 3ebf 9957 453f 9782 43bf
000000e0: 6cba 3a3d ec35 52bf 3474 e43d 3bd0 453f
000000f0: fbbc 46bf ccff 56bf a380 5bbf a201 283f
00000100: 7476 4ebf 91e9 37bf 2035 483f 1983 6abf
00000110: a509 343f c928 67bf 4d62 e9bd 9376 3bbf
00000120: 65dd e2be e732 1abf c139 70bf 12fa 57bf
00000130: 9688 1c3d 2cb3 41bd e17a 0640 5a68 673f
00000140: a0a3 763f 0a1a 86be 2895 47bf 6719 7ebf
00000150: 83d3 3dbf 179b 51bf f3fb 063f 9893 3940
00000160: 21d8 723f c6b7 2cbf 599b 93bf cac4 83bf
00000170: abb3 5abf bca8 473f e30d 6fbf 9fe4 09bf
00000180: 25b1 6ebf a118 6cbf 4093 50bf 16e0 6bbf
00000190: 9e80 2bbf 6c47 75bf d883 58bf 2f45 49bf
000001a0: dc4f 3b3f 94da c1bf 4bd4 80bf 5095 373f
000001b0: f771 a1bf a04c 603e 7403 05bf 3f40 363f
000001c0: 01cf 3a3f 2fad 93bd 87c2 4ebf 4215 ebb9
000001d0: c0ba 0bbf 8b21 69bf c759 2c3f dc9c 35bf
000001e0: ccee 5ebd 6014 7dbf f2a3 10bd 012a 133f
000001f0: 678e 64bf 2281 6cbf db69 6dbf 2463 2a3f
00000200: 534c 9cbf f750 66bf dca5 0c3f 764a 53bf
00000210: 2edf 383f e166 78bf 2669 b9bf 566b 78bf
00000220: b5bf 8dbf 6872 93bf 5deb 6fbf fc24 49bf
00000230: 2bac 96bf d003 76bd 8505 613f ddf4 363f
00000240: 4919 6d3f 7781 55bf ebc7 86bf 897d 3abf
00000250: c9b9 50bf 07ed 52bf 1b06 3d3f 751e ec3f
00000260: cdbb dc3e 51b6 73bf ce8d 63bf 1657 05bf
00000270: 5520 03bf 7b40 773f 552b 47bf 5efe 46bf
00000280: ab8a 08bf 75a8 3dbf 3518 22bf cf36 41bf
00000290: eeb6 23bd e14e 76bf 2e92 60bf 715b 4ebf
000002a0: 03e9 053f 7c8e 4fbe f20f 0cbf d221 383f
000002b0: de9b 5bbf 2c9f 6e3e 1b13 873f 5465 333f
000002c0: 617f 333f cdd6 a5bf dd7e d3be 4127 bcbc
000002d0: e136 41bf 30f8 e1be 295f 5a3f c366 42bf
000002e0: 0678 bf3d 4ec5 2dbf e343 a03d 9954 4e3f
000002f0: 405d 74be 737d 45bf 7d25 1ebf 6642 4c3f
00000300: ff3b 92bf 787c 62bf 8107 d03e df1d 34bf
00000310: 3bec 453f dec3 8cbf a95d 6b3f a73c 11bf
00000320: 68e5 42bf 4da1 1cbf 4c82 0ebf 5308 73bf
00000330: e7ae 8ebe 3c8f 503d 9aaf 0440 f026 583f
00000340: 4459 553f f23f 70bf 7cfd 14bf 4c65 36bf
00000350: 4ad9 15bf 9b45 55bf 8860 653f 9ae7 3040
00000360: b847 fe3e 4451 1bbf 211f 2fbf 05d6 24bf
00000370: 2876 5abf f573 5c3f 17af 5abf 6c92 80bf
00000380: 68da 3fbf cb78 2bbf e675 4cbf 9673 36bf
00000390: 5134 67bf d97d 28bf b4e5 4abf 134c 71bf
000003a0: 480f 903e e123 86bf 6d23 59bf 3d3d 493f
000003b0: d9a4 a5bf 6cac af3f 929b 943e cd34 463f
000003c0: 1e8c db3e d79f cebe 00df 5dbf 615e 1fbd
000003d0: 66c3 7dbf 5630 51bf 97f3 2b3f 4a5f 2abf
000003e0: 417e 0fbe ad15 83bf 4c5e 81bc 82cb 4b3f
000003f0: 1f6d 39bf 9538 79bf eeba 42bf 276a 003f

bias f4 [4]
0.27846485 0.17494665 0.15646952 0.15880094
00000000: f292 8e3e 3725 333e 8c39 203e b79c 223e
