lab2/problem1/neural-network-1.pth (torch, 23275 bytes, 6 tensors)

weight f4 [64, 8]
00000000: 5c12 8f3d 39f2 93bd 4cb1 c3be 62a3 0240
00000010: 74bd c1be 3a89 463f 6b65 f23c d757 1fbf
00000020: efec 9fbd 1179 b4be 9864 9b3c 941e 36bf
00000030: 60cd da3d 9eba 3cbe ad14 023f ea00 c73e
00000040: 3256 1fbd bde4 65c0 16c8 2b3d b275 553e
00000050: 1ecd ce3e 7580 4cbe bf8d e63e f32e 273e
00000060: f801 8fbf c142 e23e 4d77 38bf aaff da3e
00000070: 7e06 2a3f 9aac 713d b9fd 77bc 9ea7 17be
00000080: c5da c1be 49f5 a6be 9054 35bf 899b 933e
00000090: a7c8 d73e 29bc 79bd 585a 61be 7050 e53e
000000a0: 5f8e cabe b55e 40bd fccc 803f 31de 803e
000000b0: b5c2 503e 7cd0 a2bd 4d90 cb3e 855c 113f
000000c0: ebd4 fcbe 62e0 fd3e 4bc3 4dbf 5124 76be
000000d0: d4e9 82bf 8f44 b5be 158d 53bf 680f 6ebd
000000e0: 0f28 7cbc abab 803c 9753 0e3c 5edd abbe
000000f0: b283 933b 3b13 03bf dcf9 fa3e bc41 7d3e
00000100: 5b2b 723e 6297 53be f14e 9e3e 8c9a e73d
00000110: 4818 c03e 0c02 433f 6944 a63e a3b5 b5bd
00000120: 6045 12be cb13 b9bd 6ecd 90bd 93ac 4e3e
00000130: 75af dc3e 4239 013f 6b15 1c3f 9941 11bf
00000140: a1db 973c 7336 0b3e 1478 23bf 72db 943e
00000150: fd75 143f e040 cf3c 4a60 853e e1e0 3abf
00000160: ac7a 643e 1177 493d 67dd e4bd 2539 1dbf
00000170: b53e 03be dd44 123f 64a8 543e 1398 2fbf
00000180: d141 5bbe c77b 063e 6275 6c3e b523 48bf
00000190: f733 43be 01c7 a83f dfd6 8abe b67b d33d
000001a0: e97e 423f 109a 2d3d 755e 153f 773b 77be
000001b0: a9a9 f73e d6b1 83be bac6 d23e ea6d 02be
000001c0: c996 5fbf a6fb 43bf bdeb 9ebe 0554 6bbf
000001d0: df5c ac3e 0ddc 323e 995e 9cbc 4028 3a3e
000001e0: 511a 133f e6b5 47be 4e3f 543e 7ead 60be
000001f0: 0c95 0b3f 6106 a5bc f1d8 e63e 6181 953e
00000200: 9f88 593e 5e4a 10be e230 c2bd e253 1e3f
00000210: 2f38 ca3e 91fd 0dbf 9ea2 9f3e bf41 ee3e
00000220: 78c5 63be 29ff 403d bf0c 25bd 8a12 efbe
00000230: 7b2e 333f 7adb 9a3e d98a 9f3e 654b bb3e
00000240: 32c3 38be 5d61 6c3e a1e0 71bb fb6e 10bf
00000250: d8a6 b7be 7c43 2d3f 6568 193f 3419 f73e
00000260: 407f 2b3d 364a dbbd cec6 773c d8de 2bbe
00000270: 61ed 083f 9aba f13e 1783 c43e 1524 d33e
00000280: fd89 893d d9dc a6bb b864 8f3c e1d4 163d
00000290: b704 d43f 3724 39be e58a eb3e 7fd3 f03d
000002a0: b660 0ebf 54db 4b3e 7b15 693e 7dfd ab3d
000002b0: f5a2 6e3e de3d 033f d682 cd3b a4ac 07bf
000002c0: 265f 9b3c 1d3c d5bd e579 8ebe 244e 49bf
000002d0: 0289 513d 75fd c43e 2fb0 223a 29c8 b13e
000002e0: d35d 0b3d b18b 8e3e 508b 9abd e53c 4bbf
000002f0: dfb7 a03c c9e4 113f bad5 da3e c7a2 17be
00000300: 7ab5 723f 1e96 7abe 6b27 253f 738f 87bc
00000310: 07b9 543e 4f88 c43a d704 bfbd 2c25 1a3f
00000320: d70a 69bc f434 d03e 5e6e 073f 2d7d b0bf
00000330: 3da5 9ebe 95cc 63be 8572 393f 04b7 a13e
00000340: 21eb 97be 2d45 a9be 17e5 47bf 44e1 5fbe
00000350: f5d4 92be 1f43 e9be 49cf 183e 31ff e23b
00000360: 330c 673d 48f1 0b3e f827 0e3d 541f fcbe
00000370: 59ef 95be 7946 3abf e380 35bf 3cbe 0cbe
00000380: 7735 17be f9bb 5dbf 2959 24bf 482c 9dbf
00000390: 0b65 a23d c4cc 4cbc 9086 743d 811d 7abe
000003a0: 4da8 9f3e a558 17be 8731 603e ef4d babd
000003b0: 6be8 1a3f d785 d43e c474 d83e 9a6f 813e
000003c0: 3c82 b23e b924 7d3f 0a61 ffbe 9c3c 9dbd
000003d0: 895a 8c3e 8689 a9be 66ab 3cbf 3730 b0bd
000003e0: 79dd 4c3e 21cc b83e fc2e d53e a9e9 213c
000003f0: 8042 f7be a8aa 1fbf 6777 8dbf d280 24be
0.06985924 -0.07223935 -0.38221204 2.041222 -0.37839854 0.7755314 0.029589375 -0.6224341
-0.07808863 -0.35248616 0.018968865 -0.7114041 0.106837034 -0.18430564 0.508128 0.38867885
-0.03890056 -3.592086 0.041938864 0.20845678 0.40390867 -0.19970877 0.4503002 0.16326503
-1.1172476 0.44191554 -0.7205704 0.4277318 0.66416156 0.059002496 -0.015136176 -0.14810035
-0.3786222 -0.32609013 -0.7083216 0.288296 0.42145273 -0.06097046 -0.2200712 0.4478793
-0.39561746 -0.04696532 1.0062556 0.2516952 0.20386775 -0.079499215 0.3975853 0.567818
-0.49381194 0.49585253 -0.8037612 -0.24037291 -1.0227609 -0.3540387 -0.8263715 -0.05812016
-0.01539041 0.015706858 0.008686922 -0.33567327 0.0045017833 -0.5120122 0.49018753 0.24732107
0.23649351 -0.20663217 0.30919603 0.11308774 0.37518525 0.76175 0.32474068 -0.08872535
-0.14284277 -0.09036978 -0.070704326 0.2018302 0.43102613 0.50477993 0.6097018 -0.5674072
0.018537344 0.1359499 -0.638551 0.29073673 0.57992536 0.02529949 0.26050025 -0.7299939
0.2231242 0.049185816 -0.11175042 -0.6141532 -0.1281689 0.5713633 0.20767361 -0.6859142
-0.21411826 0.13133155 0.23091653 -0.78179485 -0.19062792 1.3185731 -0.2711706 0.1032633
0.759749 0.042383254 0.58347255 -0.24143778 0.48371628 -0.25721616 0.4116724 -0.12737241
-0.87339455 -0.7655586 -0.3103923 -0.9192508 0.33664605 0.17466755 -0.019088076 0.18179417
0.5746203 -0.19502982 0.20727274 -0.21941182 0.545243 -0.020144643 0.45087388 0.2920027
0.21243523 -0.14090869 -0.0948198 0.61846745 0.3949599 -0.55465037 0.31178755 0.46534535
-0.22243297 0.04711834 -0.04029536 -0.46693832 0.699928 0.30245572 0.3116062 0.3658096
-0.18043211 0.23084016 -0.003690757 -0.5641934 -0.3586948 0.676811 0.5992492 0.48261416
0.041869402 -0.10707514 0.015123082 -0.16784227 0.5348721 0.47212678 0.38381264 0.41238466
0.06715772 -0.005092245 0.017504081 0.03682411 1.6563939 -0.18080221 0.46004406 0.1175909
-0.5561632 0.19907886 0.227621 0.083979584 0.2330435 0.51266277 0.0062717004 -0.52997804
0.018966269 -0.10411856 -0.27827373 -0.7863486 0.05115605 0.38474622 0.0006206063 0.34723023
0.034025025 0.2784095 -0.07546103 -0.7938979 0.019618927 0.56989723 0.42741185 -0.14808188
0.9480816 -0.24471328 0.6451327 -0.016547894 0.20773707 0.0014994236 -0.09327095 0.6021297
-0.014223776 0.406654 0.5290278 -1.3788201 -0.30985442 -0.2224601 0.7244037 0.31584942
-0.29671577 -0.3306059 -0.7808394 -0.21863276 -0.28678098 -0.45559022 0.14922823 0.006927394
0.05640812 0.1366626 0.034706086 -0.4924265 -0.2928417 -0.7276378 -0.7089979 -0.13744444
-0.14766489 -0.8661495 -0.6419855 -1.2279139 0.07929429 -0.012499992 0.05969864 -0.24425317
0.3118309 -0.14779909 0.21893893 -0.09096896 0.6051089 0.41508362 0.42276585 0.25280458
0.34864986 0.9888416 -0.49878722 -0.07677576 0.27412823 -0.33112735 -0.73699033 -0.08602946
0.2000636 0.36093238 0.4163741 0.009882369 -0.48292923 -0.62369776 -1.1052064 -0.16064766

bias f4 [64]
00000000: 0d95 623e e52d e2bd b4a0 a93e 77b4 473e
00000010: fed6 21be f994 ac3e 8d7b 98bd 1c35 b03e
00000020: 884b dd3e d806 803d 1c23 c63e a58f b0be
00000030: ef1b 1a3f 2204 f93e 19d5 66be b45f 98be
00000040: f130 5dbe ef4f 84be 052d 3a3f 89b4 a73c
00000050: 1ebd 9cbb e74b a1be b491 313f 6347 4c3f
00000060: ff6c b23d 580d 793f 29e7 a03e 5ca2 e4be
00000070: 6bbf a4be ee5e 823d 24bb 9abe 79ac f93d
00000080: f7bf 6b3f d632 733d 8d29 d4bd ea4b 99be
00000090: a4aa 773e 0052 5e3e ed7f b23e 3fa2 813f
000000a0: 46d0 7d3e 1d31 84be 10b3 d2be 1d7d 3c3f
000000b0: abed 34bc 90be 953e 4046 3b3a 2048 d93e
000000c0: f89c abbd b6b4 babe 0fe2 c8be 9f52 363e
000000d0: 95fd abbe d593 5a3f 080e e93d f73a 023f
000000e0: aa29 02bf 1548 8abe 1155 403f 897f 33be
000000f0: 89ba 363d febd 1c3f 0130 8e3e 849d 713e
0.22127171 -0.1104391 0.3313042 0.19502436 -0.1580467 0.33707407 -0.074454404 0.3441552
0.43221688 0.06251305 0.3869866 -0.34484592 0.60198873 0.48635966 -0.22542228 -0.29760516
-0.21600701 -0.25842234 0.72724944 0.020471828 -0.0047832867 -0.3150322 0.6936295 0.7979643
0.087121956 0.97285986 0.3142636 -0.4465512 -0.3217729 0.06365763 -0.30220902 0.121911
0.9208979 0.059374653 -0.10359488 -0.2994073 0.24186188 0.21710968 0.34863225 1.0127639
0.24786481 -0.2581872 -0.4115224 0.7362841 -0.011042993 0.2924695 0.0007143952 0.4243784
-0.08379549 -0.36465997 -0.3923497 0.17804955 -0.33591905 0.85381824 0.113796294 0.50871223
-0.50844824 -0.2700812 0.751298 -0.1752912 0.044611488 0.61227405 0.27771 0.23595244

weight f4 [64, 64]
00000000: cf7b bf3d 5485 7b3d 3583 783f 59c8 e5be
00000010: 3754 4a3e ac54 2e3f f08a 113f 1541 293c
00000020: ea46 a03d 2c93 53be bd40 6fbe 2b19 5fbe
00000030: b814 243f 7750 183e ca09 2bbf cad6 55be
00000040: 4f32 f4bd eafb babd eee0 a33e 1c68 923d
00000050: 3fcf 763f 886d 94bd eb77 fa3e fb00 e83e
00000060: 54d1 10be 29d0 9c3e 4ad7 b43e 25e5 52bf
00000070: d067 4fbf 4374 a63d 9147 8f3f d463 f5be
00000080: bbad 123f c4de bb3d f7ab 33bd e1aa 44be
00000090: 48c0 a2be 126b 2cbe 7b73 b1be a7db 0b3f
000000a0: ab3d 583e 2e84 88bd f5d2 b7be fe5d 053f
000000b0: fcc6 90be f969 3bbe 3023 953f 69c4 023e
000000c0: f344 ba3f e14f 35bf f273 393f ff90 4abe
000000d0: ac35 2abd 3a76 fa3e b788 243f 119d 083f
000000e0: 9181 143e 7e93 efbe 01eb e33e 2486 913c
000000f0: 0a65 553f 16b3 be3e 150b 603d 9868 14be
00000100: db0d 3abe 8855 963e 5ba3 17bf 700f 5c3f
00000110: 00ab 6b3e 5907 00bf 3cae e0be 3022 cd3e
00000120: 358a e03e 70a2 463e 0e19 563e cd07 593e
00000130: d8fd 72be 232b 9f3e db3a 573f efce a43e
00000140: d699 dc3e 4a36 b03e 2ce7 13bd e11f 853e
00000150: a286 12bf 2247 8b3e 0cfd 17bd 41c9 d3bb
00000160: 88f8 db3e 98d7 a13e 50c3 dc3e 20d3 6d3f
00000170: df81 713f f926 0d3e e2a8 29bf fa06 393f
00000180: 4b15 913d b777 293e 3b50 4e3e abff 853e
00000190: fd71 72bd dac7 613e c3f4 1e3f a1b2 013e
000001a0: 72af d0bc 577a 21bd e6fb e33e 6dd5 aa3d
000001b0: 0532 f33e 2c00 c7bd eb7b d9be 54ea ae3e
000001c0: 9801 5bbf 9d2d 7d3f 75fd 6cbf c85b 093f
000001d0: b0f4 cf3c 289e 50bc 623b 50be 41cf 02be
000001e0: 355c 0e3f a963 593f 2d48 983d e196 223e
000001f0: 11f3 84be 1941 0abf 1992 bc3d 0859 dc3d
00000200: 7274 8b3e 7284 893e e0cb 6abf 16aa 163f
00000210: d019 c73e 9f2d 2abf c6f5 8ebf 6b9d 7e3e
00000220: 0f43 003f 0466 243f 23ee ca3e ffcc 113f
00000230: fbde 10be cfbf 5b3e 3c74 483f 66d8 013f
00000240: ff4e 023f a6dd fb3e 316f 51bd 2b35 5f3e
00000250: d537 32bf 9dc9 3e3f e03a ea3b 33c2 16be
00000260: c435 f13e d668 84bd 3c51 f23d 03b2 503f
00000270: 7123 6c3f 02fa 733e 86c4 c1bf d3a7 e73e
00000280: a9e0 763b ffed a33e e7bf b4bd b5b1 283f
00000290: 0209 e63e 56b9 153f 2b26 ec3e 33c2 5e3d
000002a0: 4a58 e03e 84bb 1a3e cda6 243f 8237 1cbe
000002b0: 713d 1c3f 8827 093f f22f f8be db67 1e3e
000002c0: e37a 9bbf 9e05 683f 138f 37bf c4fa 9c3e
000002d0: 308c 35bd 706b f13b 8833 01bf c68d 68bc
000002e0: 1eff 373f 031b 613f 8c93 26be 8c72 f93d
000002f0: 1cd6 5ebf 0eb1 fabc efcb df3e 8124 1d3f
00000300: 12ea e6be 8353 ab3e 6d73 2abf 9936 643f
00000310: e7db d43e 2492 69be 65ab a6bf 934c 813e
00000320: 0506 b03e 0c34 783e 5bfd 1c3e 279c b23e
00000330: d484 99be e8a6 993e 87c9 5f3f 9b8f 913e
00000340: 50bf a43e 840c f33e a3fa 97bd bfdf c73e
00000350: 76b7 9a3c ccd5 3a3d 1479 2f3e 5512 f1bd
00000360: 6acc df3e c735 143e 1924 9d3e 0cee 3c3f
00000370: f46a 5c3f 94f5 773e edfe 81bf 145b 143f
00000380: 01e4 983d f884 d43e bcde 453e 00eb 4b3e
00000390: 915e 35be 9319 9f3e f135 113f c219 bf3e
000003a0: 6cb4 ba3d b62f 073e ff3f d73d 3550 033e
000003b0: 7c21 d33e 15a4 373e 161a 8dbf 230a e33e
000003c0: dc7b 03bf d183 683f a339 d9bf 29f6 393f
000003d0: 408a 5e3c ba5a b1bd 520e c9bd c3b7 d93a
000003e0: d046 92bd 2c3e 423f 0da4 0b3e 963f c83e
000003f0: 2f3b dc3b a613 00bf 269a 233e e088 283d
0.093497865 0.06140645 0.97075206 -0.44879416 0.19758688 0.6809795 0.56852627 0.010330458
0.07826026 -0.2066161 -0.2336454 -0.21786945 0.64094114 0.14874445 -0.6681181 -0.20882717
-0.11923658 -0.0913008 0.32007545 0.071487635 0.9640998 -0.07247454 0.48919615 0.45313248
-0.14142352 0.30627564 0.35320503 -0.82380897 -0.8101778 0.08127644 1.1193715 -0.47927725
0.5729634 0.091733485 -0.04386517 -0.1920581 -0.31787324 -0.16837719 -0.34658417 0.5463204
0.21117274 -0.06665836 -0.35903135 0.52096546 -0.28276813 -0.18302144 1.1651363 0.12770237
1.4552292 -0.7082501 0.72442544 -0.19781874 -0.04155509 0.48918325 0.6427111 0.53364664
0.1450255 -0.46792215 0.4451523 0.017764159 0.833573 0.37246007 0.05469807 -0.14493024
-0.18169348 0.2936213 -0.59233636 0.85961056 0.2301445 -0.5001121 -0.4388293 0.40065145
0.43855444 0.19397902 0.20907995 0.21194382 -0.23729646 0.31087598 0.8407418 0.32189128
0.43086118 0.3441642 -0.036109135 0.26000884 -0.57236683 0.27202708 -0.03710656 -0.0064632003
0.42963052 0.31609797 0.43117762 0.92900276 0.9433879 0.13784398 -0.6627332 0.7227627
0.070841394 0.16549574 0.20147793 0.26171622 -0.05919074 0.22048894 0.62092227 0.12665798
-0.025474284 -0.039423313 0.4452812 0.08341489 0.474991 -0.0971683 -0.42477354 0.34163153
-0.85549307 0.98897725 -0.92574245 0.5365567 0.02538523 -0.01273302 -0.20335153 -0.12774374
0.55609447 0.84917694 0.074356414 0.15877868 -0.25966695 -0.5400558 0.092075534 0.10759169
0.27237278 0.2685886 -0.9171734 0.5885328 0.3888688 -0.6647586 -1.1168754 0.24864738
0.50102323 0.64218163 0.3963481 0.56953424 -0.1414756 0.21459888 0.7830236 0.5072082
0.5090179 0.49192542 -0.05113143 0.21797626 -0.6961644 0.7452639 0.0071481317 -0.14722519
0.47111332 -0.06465308 0.118319005 0.81521624 0.9224158 0.23825839 -1.5138099 0.45245227
0.003767053 0.32017514 -0.08825665 0.6589616 0.44928747 0.58485925 0.4612287 0.05438442
0.4381736 0.15110594 0.6431702 -0.1525555 0.6103125 0.53575945 -0.4847408 0.15469305
-1.2146877 0.9063357 -0.7170269 0.3066007 -0.044323146 0.007367544 -0.50469255 -0.014193958
0.7187365 0.8793184 -0.16267222 0.12180051 -0.87045455 -0.030602004 0.43710276 0.61383826
-0.45100456 0.33462152 -0.66582376 0.8914581 0.41574022 -0.22809654 -1.3021055 0.25253734
0.34379593 0.24238604 0.15331022 0.3488476 -0.29984152 0.30010152 0.8741688 0.28429875
0.3217721 0.47470486 -0.07420852 0.39037892 0.01888631 0.04561405 0.17136031 -0.11771075
0.43710643 0.1447364 0.30691603 0.7380073 0.861007 0.24214774 -1.0155922 0.57951474
0.07465363 0.41507697 0.19323248 0.19913864 -0.17711855 0.310742 0.56722933 0.3732434
0.09116444 0.13201794 0.10510253 0.12823565 0.41236484 0.17933686 -1.1023586 0.4434367
-0.5136087 0.90826136 -1.6970714 0.72641236 0.013582766 -0.08659883 -0.098171845 0.0016610551
-0.07142413 0.75876117 0.13636799 0.39111012 0.0067209224 -0.5002998 0.15976772 0.04114616

bias f4 [64]
00000000: cf9d b73e 1bb4 94bd 6ab1 12be 069d 01be
00000010: 70a0 d4bc c68e 3abd 18ed babc 5966 2b3f
00000020: 3cf0 00be 5eae d1bd a0d7 eb3d 6da8 a63b
00000030: e81a e33e d960 4bbe 679c 94bc 838e 36bd
00000040: cfd9 0d3d dc83 ba3a c994 063f cd1a f73e
00000050: b3eb 273e 3f98 d9bd 5917 213e a101 14be
00000060: 43c8 183e f504 ff3d 3ecf 00be f540 afbd
00000070: f32e 1abe f931 f53e 44dd 8a3e ea9f 1e39
00000080: 61aa 68bd 64e2 b9bd 1892 adbd 91e3 1d3e
00000090: 2e55 d03e 2d50 46bd 3e93 873d 573f a63c
000000a0: cb0f 17be 1ad1 cc3d 5608 2fbe 84fa 1e3f
000000b0: 8db3 cbbd 7ad0 bf3d a8c1 063f e072 79bc
000000c0: f057 06bd a49a d1bc 03b5 f43e e77d 81bd
000000d0: 2722 f63e f794 1f3e 12db 3ebe ec88 44be
000000e0: 68e4 c3bc 402b f5bc 476b a2bd 4edf 293f
000000f0: 9b99 c03e 139d b0bc e2d6 08bb 1823 383d
0.35862586 -0.07260915 -0.1432549 -0.12657556 -0.025955409 -0.045546316 -0.022818133 0.66953045
-0.12591642 -0.10238336 0.115157366 0.005085996 0.44356465 -0.19861163 -0.018140985 -0.044569504
0.034631547 0.0014229971 0.5257078 0.48262635 0.16398506 -0.10624742 0.15731563 -0.14453746
0.14920144 0.12452117 -0.12579057 -0.085573114 -0.15056972 0.4788969 0.27121937 0.00015127627
-0.05680311 -0.09076384 -0.08475131 0.15418841 0.40689987 -0.048416305 0.06619881 0.020293875
-0.14752118 0.100008205 -0.17093024 0.62101007 -0.09946356 0.093659356 0.52639246 -0.015225142
-0.032798707 -0.025586434 0.4779435 -0.06322842 0.4807293 0.1558417 -0.18638256 -0.19192857
-0.023912624 -0.02992785 -0.07930618 0.6635636 0.37617192 -0.021559274 -0.0020880033 0.044955343

weight f4 [4, 64]
00000000: 5e4f 3f3f 817a 2cbf c8b9 2abf 3373 06bf
00000010: e0e7 8bbc 1441 353f 8e61 a6bd 80f3 3d3f
00000020: 41b2 33bf def4 32bf 80cc 54bf fbda 22bf
00000030: efde 123f ddac 3cbf 70d1 17bf 272a c5be
00000040: 0b1d 4dbf 2857 20bf 4437 f03e 7a03 3c3f
00000050: ccab f13e e1dc 14bf ac9e 0a3f a028 0cbf
00000060: 7b2d a03f c5ee c53f 58f6 59bf cdc2 1cbf
00000070: 6acd 15bf a9bb 1a3f 9bd0 2740 a5df 11bf
00000080: d2d2 03bf 031c febd 05e9 09bf ec97 fb3e
00000090: 2cd8 2f3f 4113 1abf eb9a 2bbf a608 1ebf
000000a0: 50da 2cbf 7cf4 093f 550a 30bf 36a2 073f
000000b0: 8d75 07bf 90b9 d5bd 658d 423f 22a5 9a3d
000000c0: 731e 39bf a901 c33d 8698 3a3f 508c cdbe
000000d0: 9846 ae3e 2f59 a4be 86ae 49bf 8ac7 48bf
000000e0: c6d4 32bf de59 8bbe 53da 02bf acad 343f
000000f0: 913c a43e 150d 47bf 17fe 28bf 9f5f 3dbf
00000100: eb71 b33e 1cb7 18bf af65 1dbf d9d3 1ebf
00000110: 2ee9 acbd 3e88 df3e d884 ef3d 9089 633f
00000120: 910e 1dbf 9351 30bf e94f 28bf 2405 ebbe
00000130: de3d 513f 4b5f 5bbf 38d1 0dbf e00b 5ebe
00000140: f909 d8be 7f8d 01bf f893 f93e 8a24 683f
00000150: a172 5b3e 6e03 37bf 37e1 ff3d 4b90 22bf
00000160: bae7 b13f 03db 0940 6b2f 2bbf dfbb 2bbf
00000170: 20e2 38bf af23 013f 656a 3440 9fe6 42bf
00000180: 961a ffbe a5df 13bb 5b56 30bf a591 353e
00000190: 9318 2b3f 0469 17bf 385c 15bf c523 0bbf
000001a0: 982a 34bf 3bb9 6b3e a401 4dbf 82dc 513f
000001b0: db4e 26bf 405d 35bd 1b04 743f a89f a13c
000001c0: 2170 11bf f800 673d 020a 003f 8f5c a6be
000001d0: 5d8c 1d3f d802 e8be b36d 3fbf 6ed5 4abf
000001e0: a25f 4fbf 08bd 58bf 2882 36bf 897a 2f3f
000001f0: d63f 883f 10f7 13bf 84bc 0ebf 419f 3abf
00000200: abb6 063f d885 edbe 66ad 50bf 7c4a 26bf
00000210: 7c07 fd3d 6830 733f 7ccd ffbd 94ed 363f
00000220: 0dc7 42bf de78 49bf c2e8 a4bd 1f8b 26bf
00000230: c31d 3a3f aa2d f3be f82e 24bf ef1a 13bf
00000240: b0cc 25bf 9464 2dbf 904c 5d3f b265 c03e
00000250: 7369 263e eb0c 2ebf 1a0d 893f 2b3c 42bf
00000260: 58f5 673f 98ee 003f 1778 1ebf 5a1d 32bf
00000270: e890 41bf a183 5c3f 69b4 313f dbd0 44bf
00000280: 5e10 47bf 2a30 d9bd 3b71 06bf 68db 953f
00000290: 1877 af3e 6333 6ebf 48e3 e3be 7d8d 2bbf
000002a0: 64f2 38bf 4376 a73b 0735 0dbf 46cf 213f
000002b0: cf87 47bf bdd3 9a3d 0f5e 593f 963a c2bd
000002c0: 3c54 33bf e04c c33c 62e2 053f 0e6a 82bf
000002d0: 7435 293f 154d 473f 8616 0ebf 5657 42bf
000002e0: 822f 1abf 2598 07bf f8a0 31bf e1b1 4b3f
000002f0: 6c36 b7bf 4efa 3abf f480 ecbd 8010 32bf
00000300: 39d6 323f 9495 e9be 887d 33bf c32b 4dbe
00000310: ec99 a8bd 8aac 333f 8062 18bc 7a6a 3c3f
00000320: 8afb 35bf 079a 28bf 5ad5 babf b683 22bf
00000330: fd14 733e 7beb 2fbf 5732 14bf 8cae 41bf
00000340: 0e2d 51bf b54b 1dbf 7520 463f 15c3 083f
00000350: 2576 613f e4b9 25bf ce72 e73e 2cdf 1dbf
00000360: cdd0 943f 88bb d33f dca2 57bf 711b 16bf
00000370: 54d4 06bf 1228 2d3f ccf3 2240 29d9 1fbf
00000380: 5324 34bf 2e73 293d c2b6 1cbf 20e0 f13e
00000390: 3f1b 3b3f 29a0 5cbf d4d7 c5be 5c06 f9be
000003a0: 5779 2bbf f5e8 633f 3acf 56bf ff11 263f
000003b0: 183f 14bf e842 6c3d 8294 cf3e e20f d23d
000003c0: eff7 1cbf 0482 febc 3ab5 3a3f e135 7abe
000003d0: bf8a d73e e1d1 3dbf 01b8 5ebf 1d61 43bf
000003e0: c494 fdbe 9271 e9be a4ad fcbe 1f86 2e3f
000003f0: fa17 5abe 5d10 52bf 3e0d 3dbf 3b0f 04bf
0.7473048 -0.67374426 -0.6668973 -0.5251953 -0.01707834 0.70802426 -0.08124076 0.74199677
-0.7019387 -0.6990489 -0.8312454 -0.6361539 0.5737142 -0.7370127 -0.5930395 -0.38508722
-0.8012244 -0.6263299 0.46917164 0.73442805 0.47201383 -0.58149534 0.54148364 -0.5474949
1.251388 1.5463492 -0.85141516 -0.6123474 -0.5851656 0.60442597 2.6221073 -0.5698188
-0.5149356 -0.124076866 -0.53871185 0.49139345 0.6868923 -0.6018563 -0.6703326 -0.61731946
-0.6752062 0.5388868 -0.68765765 0.5298189 -0.52913743 -0.10435784 0.75997 0.07551028
-0.72312087 0.09521801 0.7288898 -0.40146112 0.34038234 -0.32099292 -0.78781927 -0.7842947
-0.69855917 -0.27217 -0.51114386 0.705775 0.32077459 -0.77754337 -0.6601271 -0.7397403
0.3504785 -0.596544 -0.6148328 -0.62042004 -0.08442913 0.43658632 0.1169526 0.8888178
-0.6135035 -0.6887447 -0.65746933 -0.4590236 0.81735027 -0.8569228 -0.5539737 -0.21684217
-0.4219511 -0.5060653 0.48745704 0.90680754 0.21430446 -0.7148961 0.12494128 -0.63501424
1.3898842 2.1539924 -0.6686923 -0.67083544 -0.7222004 0.50445074 2.8189938 -0.7613315
-0.4982497 -0.0022563722 -0.6888177 0.1773134 0.6683437 -0.59144616 -0.5834384 -0.54351455
-0.7037749 0.23019879 -0.8008063 0.81977093 -0.64964074 -0.044278383 0.95318764 0.01972945
-0.5681172 0.05639741 0.5001527 -0.32492492 0.615423 -0.4531467 -0.7477676 -0.7923192
-0.810053 -0.8466344 -0.7129235 0.6854635 1.0644481 -0.5779886 -0.557564 -0.7289925
0.5262248 -0.46391177 -0.81514585 -0.64957404 0.12354943 0.9499574 -0.12490365 0.71456265
-0.7608498 -0.78700054 -0.080522075 -0.6505603 0.7270166 -0.47495776 -0.6413417 -0.5746297
-0.64765453 -0.67731595 0.8644495 0.37577587 0.16251163 -0.6798846 1.0707123 -0.7587306
0.9060874 0.50364065 -0.6190199 -0.69576037 -0.75611734 0.8613835 0.6941591 -0.7688119
-0.7775935 -0.1060489 -0.52516526 1.1707582 0.3427055 -0.9304716 -0.4450934 -0.6701277
-0.7224486 0.0051105334 -0.5515904 0.632069 -0.779416 0.07559917 0.8490915 -0.09483831
-0.70050406 0.023840368 0.5229856 -1.0188615 0.6609719 0.7785199 -0.5550312 -0.75914514
-0.6022874 -0.5296653 -0.69386244 0.79568297 -1.4313483 -0.73038185 -0.11548033 -0.69556427
0.6985813 -0.45621932 -0.7011342 -0.20036225 -0.08232483 0.7018515 -0.009300828 0.7359997
-0.71086943 -0.6586003 -1.459636 -0.63482225 0.23738475 -0.6871869 -0.5788931 -0.7565696
-0.81709373 -0.61443645 0.77393275 0.5342267 0.880709 -0.6473677 0.45204777 -0.6166866
1.1626221 1.6541605 -0.8423288 -0.5863562 -0.52667737 0.6763927 2.5461302 -0.62440735
-0.70367926 0.04136961 -0.61216366 0.47241306 0.7308845 -0.86181885 -0.38641226 -0.48637664
-0.66982025 0.8902734 -0.8390995 0.6487121 -0.57908773 0.057680994 0.4054299 0.10256936
-0.61315817 -0.031067856 0.7293278 -0.24434616 0.42098042 -0.74148375 -0.8699952 -0.7632006
-0.49527562 -0.4559446 -0.49351227 0.681734 -0.21298209 -0.8205622 -0.7384833 -0.5158574

bias f4 [4]
00000000: ad24 7b3e 1bbf 793e d52b 403e ee38 763e
0.2452571 0.24389307 0.1876672 0.24045154
