lab2/problem1/neural-network-1-episodes-250.pth (torch, 23233 bytes, 6 tensors)

weight f4 [64, 8]
00000000: 6d29 0bbf da8a aebe 1a0c 4abf 9948 c0be
00000010: 1c9b 5e3e 2aa9 39bf 639c fe3e f6dc 193e
00000020: 93d7 2a3f 0c5c 0dbe f2a0 1d3f c243 62bf
00000030: 9f6d 31bf 0e03 7abe 856f 573d 78de 64be
00000040: ec0b f53d 4121 7f3d 1623 1fbf 48c2 d4be
00000050: 4a06 18c0 50d3 613d 3a42 83be 0560 23be
00000060: 80da fcbe 0a15 493f dfe1 8bbc 41bc 0ebf
00000070: cbba 9bbd 8d45 7cbc 4934 b5be 0e97 4fbe
00000080: 202c 39bd 05b4 99be 197d 233d 740d d8be
00000090: 7bcb 2b3e f4c8 033f ca7c 113f dc2c 5cbe
000000a0: 43dd 7ebe ece3 da3e 3c5d aabf 19d1 fbbd
000000b0: bd9b e53e b2f1 fb3e 7b70 e23d fe0e 553e
000000c0: fb02 91bd 3306 003f 4ad2 cabe fadb b03e
000000d0: 6cbd 7abe 48de 583f 1998 73bd 8235 53bf
000000e0: ef89 dcbe 4301 173e 5ed5 683f c9ea 2a3e
000000f0: 61ae 963e 7d1d c5bd 5312 02bf 2275 8f3d
00000100: fafb 81be b336 be3d 7168 84be 89d3 103d
00000110: 74e2 20c0 0701 8d3e e43c 10be d6b7 61bd
00000120: c0e8 48be 86d0 f83e 61d0 c4be 9d90 fa3e
00000130: 751c fabd d2ae 6d3f 8399 0dbe faa8 64bf
00000140: f2a2 acbd a3e5 133e 780d 34bd 184b 8abf
00000150: 5234 593f 28ae 803f 8eef 82be c1bb 81be
00000160: f8b1 debe baac 8abb 4037 11bf 8219 2bbe
00000170: a123 e3bd 8a3b 3e3f 836a 5d3e f242 ccbe
00000180: 6a09 02bf c7f7 7ebf 401d c23e 5acd 13bf
00000190: 8080 583f 731d 473e 5149 273f b14a e73e
000001a0: 2978 2dbd 3782 d63e bbf9 c6be f12a 5fbf
000001b0: 4c11 2bbd b5de d3be 28eb 31bf 394d 0a3e
000001c0: 05d8 9abd f806 da3e 1aac 883e 754d e13e
000001d0: fc67 39bf 789c 2ebf 7926 f8be 6c7f 5abe
000001e0: cf79 21be 33a1 903d 4a5a 5abe e08e 623f
000001f0: d716 993e 0567 0f3f a485 4a3f 8730 eb3d
00000200: fbc0 1cbe 4ea3 f03e 5ea9 b7bd a3e1 d13e
00000210: 00ec 02bf 9466 26bf 19a6 f9be 047e a4bd
00000220: 4195 2abe 338f dabd 2289 16be 3f57 ed3a
00000230: 9031 c2be 188b 84bf af7f 02bf 0f44 71be
00000240: b494 d03d 3936 f23d fcca f5bd d328 713e
00000250: c372 bc3e 35fa 98be f1df 12bf 7763 233e
00000260: 5479 9bbe e0a2 6bbc a90e 35be 78ef ef3e
00000270: cedd edbd 636c 1f3f c2c4 783e 7288 0ebf
00000280: 0dfb 5abe 07c2 49be d1c6 efbe 89d5 f63e
00000290: d941 1dbe fe72 08bf 415d 1bbd c2b4 a03e
000002a0: 01ba b73e 95a9 343e 24a8 5a3f df87 c1bd
000002b0: ed7e 613f 6e03 853f ae63 113f 8a4d fe3c
000002c0: 43fe 8cbe 3c62 f93e 8946 a63e 75a5 7bbe
000002d0: 6dea 23bc 862e 2d3f f29d 26bf 27fc 1f3e
000002e0: f879 b8be 9ba0 1f3f 519f 07bf 6294 98bf
000002f0: db3c 033e 7c87 c13e b811 063e 8f73 10bf
00000300: 60b3 6fbe 9c31 e33b dfde c6be b8ff d93e
00000310: d372 1cbe b281 06bf 00b6 a63c 9553 ea3e
00000320: 5041 21be 4159 e33e b9c1 853f 3b4a bd3f
00000330: 6e2c 31be 953b b23e 2450 ee3c b26f 99bd
00000340: 88df 003e 0a3c 1c3c f27e f8be 6cdc e43d
00000350: c366 96bc b1fe 6dbf 4381 0cbf 030b 0cbe
00000360: dbca 88be 3e04 323f 94c9 113e 121e 44bf
00000370: 3fe5 ab3f de78 53be be25 dcbe 04ec 30be
00000380: 2ee2 c53d 77f2 613e 1014 09be 58a6 833e
00000390: 5503 02bf bda2 ffbe 3bae 59be bcef 903e
000003a0: 030c 493e 692c 3c3f 5c1c 8c3d 532e 4ebe
000003b0: b444 b63e 655a c7bd 5fe2 6fbf 4f4e ff3d
000003c0: a9c2 e8bb 643e 593f 27dd 423e 8ff6 3fbf
000003d0: 9cea bf3e 6136 21bf bf11 42bf 8dac 653e
000003e0: 4864 0a3f 2f38 433e 3c6f 8dbc 560d f8be
000003f0: 47d7 bebd 4ff0 413e b74f 63bf 8525 2bbf
-0.54360086 -0.3409031 -0.78924716 -0.37555388 0.21738857 -0.7252375 0.4972869 0.15025696
0.6673519 -0.13804644 0.6157371 -0.8838464 -0.69307894 -0.24415228 0.052596588 -0.2235049
0.119651645 0.062287573 -0.6216291 -0.41554475 -2.3753839 0.055133164 -0.25636464 -0.15954597
-0.49385452 0.7854773 -0.017075477 -0.55756 -0.07603987 -0.015397442 -0.35391453 -0.20272467
-0.045208097 -0.30020157 0.039914224 -0.42197764 0.1677684 0.51478505 0.5683104 -0.21501487
-0.24889092 0.42752016 -1.3309703 -0.122957416 0.4484538 0.49207836 0.1105661 0.208065
-0.070806466 0.5000946 -0.39613563 0.3454283 -0.24486321 0.84714174 -0.059471224 -0.8250352
-0.43073985 0.14746575 0.9095057 0.16691126 0.29429916 -0.09624765 -0.5080921 0.07004763
-0.25387555 0.09287777 -0.25860932 0.035357986 -2.5138216 0.27539846 -0.14085728 -0.05510696
-0.19620037 0.4859659 -0.3844023 0.48938456 -0.12212459 0.9284488 -0.13828091 -0.8932034
-0.08429517 0.14443068 -0.043958157 -1.0804167 0.8484546 1.0053148 -0.2557339 -0.25338557
-0.43495154 -0.0042320164 -0.5672493 -0.16708949 -0.1109078 0.743096 0.21622662 -0.39894825
-0.50795615 -0.9959683 0.3791294 -0.57735217 0.84571075 0.19444828 0.65346247 0.45174173
-0.04235092 0.4189622 -0.38862404 -0.871749 -0.041764542 -0.4138085 -0.69499445 0.1350602
-0.07560734 0.42583442 0.26693803 0.44004408 -0.7242429 -0.682075 -0.48466852 -0.2133767
-0.15769123 0.07061996 -0.21323505 0.8849926 0.29900238 0.5601657 0.7911017 0.11483865
-0.15307991 0.46999592 -0.08967851 0.4099246 -0.5114136 -0.6500027 -0.48759535 -0.08031848
-0.16658498 -0.10671844 -0.1470075 0.0018107666 -0.37928438 -1.0354948 -0.5097608 -0.23561119
0.10184613 0.118267484 -0.12001607 0.2355073 0.36806306 -0.29878393 -0.5737296 0.15955912
-0.30366004 -0.014382094 -0.17681374 0.46862388 -0.116145715 0.6227476 0.24293807 -0.5567695
-0.21384831 -0.19702922 -0.46831372 0.4820979 -0.1535715 -0.53300464 -0.03793073 0.31387907
0.35884097 0.17642815 0.8541281 -0.094497435 0.880843 1.0391672 0.56792724 0.031042833
-0.27537736 0.4870776 0.3247569 -0.24574836 -0.010004622 0.67649114 -0.65084755 0.15623532
-0.36030555 0.6235444 -0.5297747 -1.1920283 0.12816183 0.3779868 0.13092697 -0.5642633
-0.2340827 0.006933404 -0.38841912 0.4257791 -0.15278177 -0.5254165 0.020350456 0.45766893
-0.15747571 0.44404033 1.0449744 1.4788278 -0.17302105 0.34811082 0.029090948 -0.07492007
0.1258527 0.009535799 -0.48534352 0.11174855 -0.018359547 -0.92966753 -0.5488474 -0.13676076
-0.26717266 0.69537723 0.14237052 -0.76608384 1.3429335 -0.20651576 -0.42997545 -0.17277533
0.09662281 0.22065149 -0.1338656 0.25712848 -0.50786334 -0.49928847 -0.2125787 0.28307903
0.19633488 0.73505265 0.068413466 -0.20134859 0.3559929 -0.09734038 -0.9370479 0.12466108
-0.0071032834 0.84860826 0.19029675 -0.74985594 0.3748368 -0.629736 -0.7580833 0.22429104
0.5405927 0.19064401 -0.017264955 -0.48447675 -0.09318405 0.18939327 -0.8879351 -0.66854125

bias f4 [64]
00000000: 8dd0 8b3e 351d 483e bf50 59bd 4873 8dbe
00000010: 714e bdbe df24 853e 2519 fa3d 3e21 ca3b
00000020: 69c7 b93c f217 1b3e 4951 873e 9fa9 bdbe
00000030: c660 723e b2bb ee3e 3b51 933e 6b3e f53e
00000040: a4cc 453e 97b9 e93c 923d 9b3e 41ee a9be
00000050: da20 9bbd 2df7 533e cfd3 98be 5e3c 5cbe
00000060: de8e 7cbe 0916 003f 7159 cfbe c4d1 1abe
00000070: 2c10 9b3e 5677 283f 7231 02be 8a96 803e
00000080: 4f8c 0c3f 6214 c03d 746d 0a3e 6568 023f
00000090: a507 5c3e ca3a c5be a2b2 233f d2e5 c7be
000000a0: b901 72be 7b6b aa3e bc05 51be 3a39 083f
000000b0: 0e22 97be 27bd 393d 6808 b8be 92b8 1f3e
000000c0: 756e ef3e 812a 413f 8b5b 183f dd9a 133f
000000d0: 593e 643d ff08 ebbc a6a0 6a3e f240 dfbe
000000e0: c1b4 28be bf1d 4bbf f247 a7be 3b28 0d3f
000000f0: d820 913e fd2d 8cbe 97d7 66be 7136 8a3e
0.2730755 0.19542392 -0.05305552 -0.27627015 -0.3697391 0.26004693 0.12211827 0.0061685136
0.022678094 0.15145853 0.26429203 -0.37043473 0.23669729 0.46627575 0.2877291 0.47899184
0.19316345 0.028530879 0.30320412 -0.33189586 -0.07574625 0.20699759 -0.29849097 -0.21507403
-0.24663875 0.5003362 -0.40497926 -0.15119082 0.30285776 0.6580709 -0.12714174 0.25114852
0.54901594 0.09378888 0.13518316 0.50940543 0.21487291 -0.38521415 0.6394445 -0.39042526
-0.2363347 0.33285126 -0.20412344 0.5321232 -0.2951817 0.045346405 -0.35943913 0.15597752
0.4676396 0.7545548 0.59514683 0.5765818 0.05572352 -0.028690813 0.22912845 -0.43604237
-0.16475202 -0.79342264 -0.32672077 0.5513951 0.2834537 -0.27378836 -0.22543178 0.2699466

weight f4 [64, 64]
00000000: fea2 82be a97d 3b3f 8a20 c8bf 5946 80be
00000010: d257 f13e 3078 9abb eacc 4d3f e0e7 50bd
00000020: 8185 5dbf d1c2 0b3f df69 1d3e 7b4a ae3e
00000030: 6bc7 a5be 6215 6d3e 7d98 a43e 7731 8bbc
00000040: 6c29 453f 8442 e83e 9cf1 c23d 5707 aa3e
00000050: d9f9 9c3e 5a0e db3d f85e ffbe 33b8 80be
00000060: c61c be3e e570 9c3d d766 0f3f fd6e 0fbf
00000070: 7a5e e73e 96ad 91bd ed62 9fbc f2ba 5cbe
00000080: bd90 5a3e 392a 7a3e 17b7 2a3e 455f 14be
00000090: f779 f5bd 2a61 953d 2010 063e c828 113f
000000a0: e5ee c43e 961e f73e 29d5 cebe f449 f9bc
000000b0: f380 15bf 1290 87be 7bee 493e ec5e 0f3f
000000c0: 5e73 aabb c4b9 623e 4b61 6b3e c1f4 6d3e
000000d0: 044c b63e 648c 90bf 66ad 403f 2d2a 843f
000000e0: dece a03e f40b 13bf e945 c23e f36c 8fbe
000000f0: 8787 553e 316c c33e 5af4 193e 6604 513e
00000100: 6ed0 9fbe 825a ea3e a579 9cbf 90f3 f8be
00000110: 5fd6 223e 3cf1 233f 67f9 393f 678a babe
00000120: 072e 26bf cdf3 223f 2a29 753d e0d4 223f
00000130: fea1 62be c01c 6f3d c4b4 ee3d fbf0 eabd
00000140: 829c 183d 6450 7d3e e431 8e3e f7f9 c93e
00000150: 2a8a f63d 5257 6e3d a598 6dbe 0d5b 77bb
00000160: f77b 6dbd 6ea7 25bf 5f7b 1bbe 9704 d5be
00000170: 0369 e83c e4b0 90bd f4e8 b7bc 252d 763d
00000180: 2f21 273e 84ff 9b3e 1d6a a83e caa1 94bc
00000190: 1f2f 833c 2b8d fd3e 089a 743c 8f09 71bd
000001a0: 1dd1 c03e 1467 bd3e 591c 8dbe a3f8 48bd
000001b0: a06c 21bf fec9 a8be e34b c83e 9e4c 183e
000001c0: cc11 563e 1911 a13e 79c4 bcbd 8dd5 6d3e
000001d0: bd57 f33e fb4d cebf fe12 f03e 6efd 2f3f
000001e0: 98df b33e cb76 57bf 48d8 523e 7403 83be
000001f0: 2ac7 463f 503a 7a3e 5d71 503d a67c 843e
00000200: c797 013f 2f1a 14bf 03b4 fe3f ea39 2b3f
00000210: 7fba 10be 682b 00be 8359 29be a8c8 1c3f
00000220: 37f3 973f 2e18 bcbe 8879 eb3d affe dcbe
00000230: 7854 0d3e b399 ca3e d016 a4be d1fb bb3d
00000240: c082 06bf d924 00bf 5335 d0be 595f 5ebe
00000250: 1510 dcbe 71fd d63d 0f71 403f 248a 073f
00000260: 6895 06be bef0 283e 8426 8fbe 9716 7d3f
00000270: a2e7 2abe ebe3 fa3e 1847 d53e cf6e 103f
00000280: 9cc8 f63e e0d9 5b3c e2e5 de3e 5f9a 24bc
00000290: 7494 2f3f 36ed 16bf 6aec fe3e 9dc7 ddbe
000002a0: 3079 dfbe 1519 b23e e5d2 483f a503 db3e
000002b0: 81d9 823f 46e9 303f 0282 873d ac7f a2be
000002c0: 1f4e 9b3e cf01 803e aba9 133f 6bb3 853e
000002d0: b071 0bbd 16fb 9e3f 9f4b 643d f52f a3be
000002e0: b182 d8be 31fa 8d3f ff16 24be 608e 943e
000002f0: ad31 f5be 810d a6be b041 30be 0776 adbe
00000300: 3efa 12be 855b 2e3f 0060 60bf 208d 78be
00000310: 1632 843e 279e cebe 877c da3e 6cd1 cf3b
00000320: f21a fbbe 66e0 c93e 3013 423e 1144 af3d
00000330: 61ee 82be 4811 2b3e 9723 193e 4e20 09be
00000340: 3a9a c23e ca67 023f 9148 e1bc b098 fd3d
00000350: f011 eabc 8893 3d3e 8d92 9cbe 58c5 51be
00000360: 9c2f a43e a6ef 79be 21f0 d63e af8d edbe
00000370: d3af 533e f824 cb3d e5a9 4b3d f458 9e3c
00000380: 54d0 2d3e eb70 543e 74b0 733e 2961 c0bd
00000390: d56a 16be bffa ff3d 136b 8e3d 7268 a53e
000003a0: 111e a13e 6747 b63e cfa3 a4be 5aff 1bbd
000003b0: fc3e 0dbf fe17 6fbe 69d4 693e 2492 9b3e
000003c0: 85dc 843c 577c 6c3e 6eab 283e f526 9a3e
000003d0: 8295 113f 2ac2 b0bf 16aa 513f 5dca 383f
000003e0: d548 183f b858 63bf 45d7 b53e c970 05be
000003f0: 8304 2ebe c767 af3e 2395 733e d5e6 9f3e
-0.25514978 0.7323862 -1.563493 -0.2505367 0.47137314 -0.0047140345 0.803908 -0.051002383
-0.86531836 0.5459414 0.15372418 0.340412 -0.32378706 0.23152688 0.3214759 -0.01699136
0.7701633 0.45363247 0.095187396 0.33208725 0.3065937 0.10696097 -0.49877143 -0.25140533
0.37131327 0.076387204 0.56016296 -0.5602873 0.45189267 -0.07113187 -0.019456351 -0.21555689
0.21344276 0.24430169 0.16671406 -0.14489467 -0.119861536 0.07293923 0.13092089 0.5670285
0.38463512 0.48265523 -0.40397003 -0.030430771 -0.58399886 -0.26477104 0.1971988 0.56004214
-0.005201741 0.22141176 0.22986333 0.23237897 0.3560487 -1.1292844 0.75264585 1.0325371
0.31407827 -0.57440114 0.37943962 -0.2801281 0.20852481 0.3816848 0.15034619 0.20411834
-0.31213707 0.45772177 -1.2224623 -0.48623323 0.15902089 0.6403997 0.7264618 -0.36433718
-0.6491398 0.6365326 0.05985371 0.6360607 -0.22132108 0.058377028 0.11655572 -0.114717446
0.037258632 0.24737698 0.2777244 0.3944852 0.120380715 0.058188744 -0.2320276 -0.003774348
-0.05797955 -0.647086 -0.15183781 -0.41605064 0.028370386 -0.07064989 -0.022449948 0.060101647
0.16321252 0.3046838 0.32893458 -0.018143553 0.01601368 0.49521765 0.014929302 -0.058847006
0.3765954 0.36992705 -0.2756069 -0.049065243 -0.63056374 -0.32966608 0.39120397 0.14872977
0.20905226 0.31458357 -0.09217162 0.23225994 0.47527876 -1.6117548 0.4688949 0.6874608
0.35131526 -0.8416564 0.20590317 -0.25588572 0.7764765 0.24436307 0.05088936 0.2587635
0.5062222 -0.57852453 1.9898685 0.66885245 -0.14133643 -0.12516558 -0.16538052 0.6124368
1.1871098 -0.36737198 0.114977896 -0.43163058 0.13801754 0.39570388 -0.32048655 0.091788895
-0.5254326 -0.50056225 -0.40665683 -0.2171606 -0.4298102 0.10497559 0.75172514 0.5294516
-0.13142931 0.16498086 -0.27959073 0.98862594 -0.16689923 0.49002013 0.41655803 0.5641908
0.48199928 0.013418645 0.43534762 -0.010046571 0.68585896 -0.58955705 0.49789745 -0.43316355
-0.43647146 0.3478476 0.784468 0.42776218 1.0222627 0.69105947 0.06616594 -0.3173803
0.3033304 0.2500138 0.5768077 0.26113448 -0.034043968 1.2420375 0.05573618 -0.31872526
-0.4228721 1.1091977 -0.16024397 0.29014874 -0.47889462 -0.32432178 -0.17212558 -0.3387911
-0.14353272 0.681084 -0.87646484 -0.24272585 0.25819463 -0.40355036 0.42673132 0.0063421037
-0.49043995 0.39429015 0.18952632 0.085579045 -0.25572494 0.16705811 0.14954983 -0.1339123
0.3800829 0.5093962 -0.027500423 0.123826385 -0.028573006 0.1851331 -0.3058056 -0.20485437
0.32067573 -0.24407825 0.4198008 -0.46397159 0.2067254 0.099191606 0.04972257 0.019329526
0.16974002 0.207462 0.2379778 -0.09393532 -0.1468919 0.12498998 0.069540165 0.32306248
0.3146825 0.3560135 -0.32156226 -0.03808532 -0.5517423 -0.23348996 0.22834934 0.30384934
0.016218433 0.23094307 0.16471645 0.30107847 0.56868756 -1.3809254 0.81900156 0.7218378
0.5948613 -0.8880725 0.355158 -0.13031305 -0.16993909 0.34258863 0.2378736 0.31230798

bias f4 [64]
00000000: ad12 8bbe 8b4f 73bd 8be3 fb3e e2ca 89ba
00000010: b83c 743e 6aee ef3d 7ad2 813e 97cd 313f
00000020: 35a2 183e f1ac 8abe c1a1 123f d4d7 dabd
00000030: 2260 ff3e 5a3c 53be 75ab e0be 089c f4bd
00000040: b895 87be 9203 2bbe 20b1 33be c313 573d
00000050: 122b d63e d2ea 2dbe 394a 82be 0a33 543d
00000060: 1894 fbbd f96c 703e ca82 4a3e d9fd f8be
00000070: 73a1 4e3e 03d3 58be f0a4 b7be a41c aebd
00000080: 857b ecbe 6f8f 73be e9e4 3f3e dc87 82be
00000090: a2b9 0bbc 1750 2dbe 138b dc3e 4da1 91be
000000a0: a196 843e fec3 ba3e 8867 3e3e bb6e 063f
000000b0: 604f a6bd 9160 afbd 675d 35be 05aa c43e
000000c0: ed0a b5be 9d22 79be 09f0 f6bd 5bf4 893e
000000d0: fbc7 d9bc 8ab7 cd3e 910e 70be 0fe1 bcbe
000000e0: e99a dfbe d7bd a2be e0ea 073f 5760 113e
000000f0: 7602 92be a89f 9cbe b2f3 5ebe 6cc6 d63c
-0.27162686 -0.05940203 0.4919704 -0.0010512734 0.23851287 0.11715396 0.25355893 0.6945433
0.14905627 -0.2708507 0.57278067 -0.10685697 0.4987803 -0.20628491 -0.4388081 -0.11943823
-0.26481414 -0.1670058 -0.17548037 0.05250908 0.41829735 -0.16984108 -0.25447252 0.051806487
-0.12284106 0.2347907 0.19776455 -0.4863117 0.20178775 -0.21174245 -0.35868025 -0.085015565
-0.46187988 -0.23785184 0.18739666 -0.25494277 -0.008528145 -0.16925083 0.43074855 -0.28443375
0.2589617 0.36477655 0.18594182 0.5251271 -0.08120608 -0.085633405 -0.17711411 0.38410965
-0.35359898 -0.2432961 -0.12057502 0.2694424 -0.026584616 0.40179092 -0.23443057 -0.36890456
-0.43672875 -0.3178546 0.53092766 0.14196907 -0.28517503 -0.30590558 -0.2177265 0.026217662

weight f4 [4, 64]
00000000: 8000 53bf 5bcb 1abf dba1 183f 65ce 19bf
00000010: f901 ab3f 4e1f 243f b114 3d3f aa4c b43f
00000020: 8e9b 603f fc0a 27bf f4fc 4e3f 3ee6 06bf
00000030: 9ab5 d23e 892a 43bf 2c2f 42bf c966 1cbf
00000040: 17f6 31bf 7dce 07bf 28ea efbe fdc0 1fbf
00000050: 6b42 c93e e6b4 11bf df5a 29bf 7ae3 cd3f
00000060: 1434 21bf 33c2 babe 94cc 5c3f 20f5 1bbf
00000070: 1fcc 2d3f 5da6 47bf d1ed 17bf f726 cc3d
00000080: f98b 03bf cce4 f0be 5907 273f 7d0c 3cbf
00000090: 4e5d 14bf a7e5 0abf 015c 213f f854 0bbf
000000a0: 9fac d83e 0d93 d53e dce3 473f 7643 da3e
000000b0: 8e4f 0d3f 49eb f4be 4f43 19bf 7a5f d63e
000000c0: e9b8 2dbf cf20 37bf 3858 843d be36 113f
000000d0: 2faa b7be fbbb 9c3e 3d96 4f3f 8936 33bf
000000e0: c60b 30bf fbf3 05bf b485 123f ba85 e8be
000000f0: 9271 febe 22fe 02bf 4b17 19bf 31d8 5a3e
00000100: 7ab9 16bf 7f08 2dbf 14cc 2a3f 18f5 04bf
00000110: 3ba4 c93f f03a ce3e 94b7 143f 0de4 bb3f
00000120: 1e72 813f 2260 cabe d3cd 353f ef17 4bbe
00000130: 4d0f 153f 90b3 22bf e71d 48bf 6a4f 57bf
00000140: 5638 4cbf 2b96 13bf 4e2f 00bf b058 20bf
00000150: 765d ef3e cb90 16bf 2b0c 02bf f0fb e13f
00000160: 3008 f0be bbce 84bf 26cd 4f3f e444 54bf
00000170: 8cbc e33e da57 2bbf 5add 49bf 8f4c bcbe
00000180: ee97 f9be 09ce 32bf 9d98 133f 91a5 1abf
00000190: ab72 e3be e41e 20bf 9fe1 f53e a39a 1bbf
000001a0: caa7 6a3f 5911 3a3f 84e5 833f 8a24 b93e
000001b0: c089 8a3f 5fc2 2ebf 48c2 f7be 8737 a53e
000001c0: 1f1b 1cbf eb84 10bf f4f3 253d aed9 2d3f
000001d0: 3c64 1dbe 872c d43d 5d57 113f 9f05 1ebf
000001e0: ed99 39bf 44d6 56bf d306 033f 73b5 09bf
000001f0: 1d15 24bf 83fc 38bf 3619 c4be e8c5 d1bc
00000200: 1c76 94be 24ce 0cbf 7d04 503f 1edc 28bd
00000210: b370 c73f 8925 3e3f c29d 3d3f 1ae6 fe3e
00000220: d289 90be 44b7 39bf c645 1e3f 65e2 48bf
00000230: ba3a 303f 6082 93be f7db 343d 8cc6 20bf
00000240: f7f1 65bf 6db9 07bf d2fb 71bf 96bd e0be
00000250: e3c7 233f a155 0fbf c7e5 0dbf 3f11 17bd
00000260: 924d 23bd 71e4 80bf 087f 443f 021d 7d3c
00000270: 784a ec3e a363 16bf 8c9d 0cbe 3534 01bf
00000280: 4375 43bf d95f 34bf bbf3 2b3f 5888 4bbf
00000290: 3d40 4dbf 0faf 38bf c339 323f 2078 f4be
000002a0: 0682 093f de9d 3e3f d6fd de3e 788c 253f
000002b0: a914 283f 0c18 10be 2f66 54bf 060d 263f
000002c0: 3a3d 21bf af9f 25bf 77c8 cc3d 521e de3e
000002d0: f034 1ebf cc42 503f e951 243f 7479 59bf
000002e0: 320a 03bf a406 07bf 2d7d 223f 9d36 6fbf
000002f0: 7dd5 36bf 45c6 37bf 2fc6 4bbf 87d8 f7be
00000300: 20b7 2abf 014c 48be 6133 ed3e ceac 22bf
00000310: a285 b03f d88e 263f 669d 0f3f 6fb1 9b3f
00000320: 43d6 f93e 4d91 8cbe bd2d 333f cd45 c3be
00000330: 6394 123f aaca 46bf 3d69 04bf 7532 bfbe
00000340: c202 01bf 5fbe 78bf d293 33bf 4ec1 5fbf
00000350: dfac 0c3f 4733 d4be 4181 21bf 83b4 863f
00000360: 9f28 6abf 785a 873e 9e82 563f 2227 0ebf
00000370: d744 453f a810 1bbf 6b39 24bf 3f04 8d3c
00000380: 7d64 193d c7a6 27bf 6b75 0c3f 11ab 25bf
00000390: 6cde 12bf 23a4 66bf 5621 f93e 5e82 ecbe
000003a0: 9b61 ef3e 8ce7 c63e 8e3a 443f 94e8 ee3e
000003b0: 884c f23e 6fe3 3fbf 2768 2cbf 21cf e63e
000003c0: 65dc 49bf 121b aabe 7028 3fbc 43c7 4b3f
000003d0: ddf2 49bf bfb9 d03e 3c83 133f e3de 1ebf
000003e0: 2811 05bf d9aa cbbe cf88 073f 868e c2be
000003f0: 9f87 61bf 602e 08bf 8ac8 5dbf a72a 4e3e
-0.8242264 -0.60466546 0.5962197 -0.6008056 1.3359977 0.6411027 0.738597 1.4085896
0.8773736 -0.65251136 0.80854726 -0.5269507 0.41154176 -0.7623678 -0.7585323 -0.6109434
-0.6951613 -0.5304945 -0.46858335 -0.6240385 0.39308485 -0.56916654 -0.66154283 1.6085045
-0.6297009 -0.36476287 0.8624966 -0.60920906 0.6788959 -0.77988225 -0.59347254 0.099683695
-0.51385456 -0.47049558 0.65245587 -0.73456556 -0.5795487 -0.5425667 0.6303101 -0.5442653
0.423192 0.41713753 0.7808206 0.42629594 0.55199516 -0.47835758 -0.5986833 0.41869718
-0.67860276 -0.71534437 0.06462139 0.56724155 -0.35872027 0.30612168 0.8108862 -0.7000509
-0.68767965 -0.5232541 0.57235265 -0.45414525 -0.49696022 -0.51169026 -0.5980117 0.21371533
-0.58876765 -0.6759109 0.6671765 -0.51936483 1.5753244 0.4027934 0.5809262 1.467897
1.0112951 -0.3952647 0.7101719 -0.19833349 0.5822647 -0.6355524 -0.7817063 -0.8410555
-0.7977346 -0.57651013 -0.5007218 -0.62635326 0.46750993 -0.58814687 -0.50799817 1.765501
-0.46881247 -1.0375589 0.81172407 -0.8291762 0.44479787 -0.66930926 -0.7885338 -0.3677716
-0.48748726 -0.69845635 0.57654744 -0.60408884 -0.44423422 -0.62547135 0.48023698 -0.6078283
0.91662276 0.7268272 1.0304418 0.3616069 1.0823288 -0.68265337 -0.48390412 0.32268927
-0.60978884 -0.56452817 0.040515855 0.6791028 -0.15370268 0.103600554 0.5677393 -0.6172733
-0.725005 -0.83920693 0.5118229 -0.53792495 -0.64094716 -0.722603 -0.38300484 -0.025607064
-0.2899636 -0.55002046 0.8125685 -0.041225545 1.5581268 0.74276024 0.74068844 0.4978493
-0.2823015 -0.72545266 0.61825216 -0.7847045 0.6883961 -0.28810406 0.044155087 -0.6280296
-0.89822334 -0.5301731 -0.9452487 -0.43894643 0.6397688 -0.55990034 -0.5542874 -0.03688168
-0.0398689 -1.0069715 0.76756334 0.0154488105 0.46150565 -0.58745784 -0.13731974 -0.50470287
-0.763508 -0.7045875 0.6716878 -0.7950492 -0.80176145 -0.7214212 0.6961939 -0.47747898
0.53714025 0.74459636 0.43553036 0.64667463 0.65656525 -0.14071673 -0.8296842 0.6486362
-0.6298405 -0.6469678 0.09999173 0.43382508 -0.61799526 0.81351924 0.64187485 -0.8495095
-0.5118743 -0.5274451 0.63472253 -0.9344271 -0.7141951 -0.7178691 -0.7959928 -0.48407385
-0.66685677 -0.19560243 0.46328261 -0.6354493 1.3790781 0.6506171 0.56099546 1.2163523
0.4879628 -0.27454606 0.69991666 -0.3813919 0.5725767 -0.7765299 -0.5172308 -0.37343183
-0.50394833 -0.97165483 -0.7014743 -0.87404335 0.5495128 -0.41445372 -0.6308785 1.0523838
-0.9146823 0.2643621 0.83793056 -0.5552846 0.77058166 -0.6057229 -0.6415011 0.017213939
0.03744935 -0.6548886 0.54866666 -0.6471415 -0.5737064 -0.900942 0.48658246 -0.46193212
0.46754155 0.3884853 0.7665185 0.46661818 0.47324014 -0.7495641 -0.67346424 0.45079902
-0.7885192 -0.33223778 -0.011667356 0.79600924 -0.78886205 0.40766713 0.5762212 -0.6205885
-0.51979303 -0.39778784 0.5294313 -0.37999362 -0.88097566 -0.5319576 -0.86634123 0.20133458

bias f4 [4]
00000000: c15f 913e d9a2 d43e 2148 d73e 624b 103e
0.28393367 0.41530493 0.42047217 0.14091256
