lab2/problem1/neural-network-1-gamma-1.pth (torch, 23275 bytes, 6 tensors)

weight f4 [64, 8]
0.66565865 -0.06365133 0.94965845 -0.53240633 2.0247653 0.1519156 0.123827316 0.27887237
0.28036845 -0.82593614 0.5616597 -1.418188 -0.09021774 0.24301974 0.26631936 0.39267698
0.11661009 -0.29866645 -0.42203838 0.7875912 -0.97757185 0.5641962 0.4685452 0.41228357
-0.28920278 0.030773148 -0.20820135 -0.02665485 -3.1220686 0.11322373 0.03986823 -0.011267258
0.38562346 0.99971855 -0.12677677 -2.9509747 0.29608044 0.574886 -0.539477 -0.27374238
0.36047238 0.5763989 -0.1907545 0.02160478 0.18946199 -0.36967406 -0.040252782 -0.6210849
-0.19804128 -0.34486553 -0.18845469 -0.60185575 -0.46121973 -1.1391604 -1.0834019 -0.06353262
0.08743784 -0.08839045 -0.2947194 -0.106674716 -0.03606154 -0.5503262 -0.14183973 0.41724622
0.42807874 0.17770398 0.0852366 0.22255592 -0.81982315 -0.44722545 -0.045726307 0.0017239938
0.8453388 0.43517357 0.733837 -0.7651781 -0.014240607 0.61275566 0.08385306 0.2517316
0.0016851835 0.5590524 -0.5688122 1.08817 0.65380865 0.33777407 -0.6360123 -0.22080235
0.32199213 0.6494986 -0.23171383 -0.6440094 -0.14842534 -0.42596212 0.33226222 0.30870312
-0.032617982 -0.16242558 -0.6912 -1.0596164 -0.023076989 -0.29140303 0.12876277 -0.5542702
-0.048275217 0.10235958 0.113736235 0.2624155 0.019154701 0.5927932 0.25585368 -0.6030649
-0.14125188 -0.006432656 0.96651965 -0.8597505 0.33047494 -0.08950234 -0.1574459 0.40690333
0.44391966 0.9183246 0.3904298 -0.22192945 0.44791612 0.5468935 0.09859004 -0.112368554
-0.00081183965 -0.05864851 -0.51588625 -0.3077529 0.34260267 1.1000388 -0.1808229 -0.9702493
0.49729252 1.1355034 -0.39697865 -0.138658 0.60184264 -0.13486433 -0.618761 -0.63880527
-0.8370528 -0.021492079 1.552432 0.54502815 -0.0025536192 0.117846996 0.08208295 -0.7422418
0.062420085 -0.88808 0.65729505 -0.503502 0.69680196 -0.8954081 0.18140751 -0.091280565
0.17729554 0.905328 0.22932594 -0.5317228 0.31472105 0.773107 0.3820148 0.015325547
-1.0090085 0.3469043 -0.10189456 0.9069387 -0.36935472 -0.22460455 -0.48198947 -0.76561916
-0.014162588 -0.10303474 -0.010610322 -0.17875637 -0.044749197 0.7657547 0.7012523 -0.2841164
-0.29700017 -0.4905447 -0.24223237 -0.65778303 0.6064072 0.04859374 -0.67108434 0.11265818
-0.12811707 0.6538422 0.50950515 0.47260764 0.23353638 0.08656898 0.19348088 -0.25572738
-0.03779434 0.011180265 -1.7513638 0.86369663 -0.07400046 0.1901135 0.28154206 0.3538484
-0.7710435 0.72404385 -0.093944505 0.8184356 -0.090532966 -0.71293616 -0.24393786 -0.83889455
0.31399462 -0.40335968 -0.08038574 -1.0951318 -0.1347437 0.3377523 0.09108056 -0.7208464
-0.55223477 -0.1587114 -0.5181969 -0.19709314 0.110150754 -0.30278027 -0.90179276 0.126073
0.6367343 0.90270716 -0.49762422 0.22737047 0.7795112 0.79269177 -0.48484123 -0.081325024
0.16635546 0.19336584 0.08074855 0.52628285 -0.50064707 -0.5886906 -1.0113802 -0.10767645
-0.18063143 1.0412825 -0.13089772 -1.510883 0.10708675 -0.4723441 -0.34884107 0.12643172
00000000: 9b68 2a3f a15b 82bd d11c 733f c84b 08bf
00000010: c195 0140 c38f 1b3e 2d99 fd3d 5cc8 8e3e
00000020: 748c 8f3e 8d70 53bf eec8 0f3f 2f87 b5bf
00000030: 14c4 b8bd 2bda 783e 035b 883e f50c c93e
00000040: 45d1 ee3d cfea 98be 6a15 d8be 949f 493f
00000050: 2642 7abf 2a6f 103f 28e5 ef3e d516 d33e
00000060: 6312 94be f817 fc3c bc32 55be 465b dabc
00000070: f9cf 47c0 d8e1 e73d de4c 233d 4e9a 38bc
00000080: 7070 c53e 8eed 7f3f c5d1 01be c5dc 3cc0
00000090: db97 973e bb2b 133f 2a1b 0abf f627 8cbe
000000a0: d68f b83e e18e 133f 2655 43be 82fc b03c
000000b0: 5302 423e eb45 bdbe 1ae0 24bd 6cff 1ebf
000000c0: 55cb 4abe 3792 b0be 44fa 40be 3813 1abf
000000d0: fe24 ecbe 02d0 91bf eaac 8abf 641d 82bd
000000e0: 9c12 b33d 0d06 b5bd 76e5 96be 4678 dabd
000000f0: 44b5 13bd 2ee2 0cbf 6f3e 11be 4ca1 d53e
00000100: 232d db3e 08f8 353e 8790 ae3d b3e5 633e
00000110: eedf 51bf bcfa e4be 824b 3bbd a2f7 e13a
00000120: 2068 583f 12cf de3e bedc 3b3f b6e2 43bf
00000130: 6f51 69bc 8edd 1c3f 27bb ab3d f7e2 803e
00000140: 60e1 dc3a 0f1e 0f3f ad9d 11bf 2849 8b3f
00000150: 0160 273f b9f0 ac3e b4d1 22bf 031a 62be
00000160: 27dc a43e 8a45 263f 6446 6dbe cddd 24bf
00000170: d0fc 17be b517 dabe 461e aa3e 560e 9e3e
00000180: 6f9a 05bd e452 26be 7cf2 30bf 83a1 87bf
00000190: f40b bdbc c732 95be 63da 033e a7e4 0dbf
000001a0: 3cbc 45bd e6a1 d13d 8bee e83d 535b 863e
000001b0: 52ea 9c3c 4cc1 173f 41ff 823e 7662 1abf
000001c0: 55a4 10be 08c9 d2bb d56d 773f 9c18 5cbf
000001d0: 0334 a93e 014d b7bd 7f39 21be a255 d03e
000001e0: 7049 e33e 5217 6b3f 6ae6 c73e 7941 63be
000001f0: 4355 e53e 3601 0c3f 93e9 c93d 7c21 e6bd
00000200: a3d1 54ba 6c39 70bd 1f11 04bf ca91 9dbe
00000210: 9e69 af3e 12ce 8c3f a329 39be 4262 78bf
00000220: 209d fe3e 2d58 913f c940 cbbe 5dfc 0dbe
00000230: 5c12 1a3f e019 0abe 1f67 1ebf be88 23bf
00000240: 1849 56bf 2810 b0bc 17b6 c63f f786 0b3f
00000250: 9f5a 27bb c459 f13d 1b1b a83d 8f03 3ebf
00000260: 34ac 7f3d 3659 63bf 7d44 283f 82e5 00bf
00000270: 9d61 323f 7739 65bf e4c2 393e 4ef1 babd
00000280: f68c 353e 93c3 673f 6bd4 6a3e fc1e 08bf
00000290: 1e23 a13e 57ea 453f 7297 c33e 0118 7b3c
000002a0: 3127 81bf 719d b13e 18ae d0bd 222d 683f
000002b0: 101c bdbe bcfe 65be 53c7 f6be 9eff 43bf
000002c0: 330a 68bc e103 d3bd ead6 2dbc e90b 37be
000002d0: ef4a 37bd 8008 443f 4585 333f b477 91be
000002e0: 6810 98be ad28 fbbe c30b 78be 7864 28bf
000002f0: 813d 1b3f 3b0a 473d 2fcc 2bbf 55b9 e63d
00000300: 1f31 03be 3462 273f ee6e 023f a1f9 f13e
00000310: 2924 6f3e 144b b13d da1f 463e b3ee 82be
00000320: 3dce 1abd 6e2d 373c b02c e0bf 391b 5d3f
00000330: 8e8d 97bd 1dad 423e 4826 903e 9e2b b53e
00000340: 1b63 45bf f05a 393f fa65 c0bd ff84 513f
00000350: 5969 b9bd fc82 36bf d9ca 79be cbc1 56bf
00000360: e7c3 a03e 2985 cebe 47a1 a4bd 472d 8cbf
00000370: 41fa 09be dfed ac3e 7288 ba3d 6489 38bf
00000380: 425f 0dbf 3e85 22be 8da8 04bf c9d2 49be
00000390: b896 e13d 0406 9bbe e4db 66bf 4819 013e
000003a0: 0501 233f d117 673f 9ac8 febe ced3 683e
000003b0: 0c8e 473f d9ed 4a3f 1c3d f8be bc8d a6bd
000003c0: 1659 2a3e b201 463e 7f5f a53d 79ba 063f
000003d0: 682a 00bf 6db4 16bf e874 81bf 7885 dcbd
000003e0: 72f7 38be bf48 853f 0d0a 06be 9d64 c1bf
000003f0: 4c50 db3d 16d7 f1be 4c9b b2be 5177 013e

bias f4 [64]
0.6131464 0.9596398 0.14348109 0.1388697 0.9052148 0.37998256 -0.099548526 0.34255672
0.27706143 0.02543166 0.17992696 0.9304401 0.5965997 -0.5567407 -0.17552397 0.9887689
-0.3407174 -0.37787262 -0.13172726 0.119387455 0.9161371 -0.5501473 0.31044534 -0.34342936
0.7109036 0.027333224 -0.5543008 0.28737497 -0.3096076 0.54670376 0.25738147 0.6734711
0.22870855 -0.38815406 -0.38563392 -0.4436322 -0.23218668 0.9145824 0.4295289 0.38427454
0.0654968 0.77842486 -0.08683173 0.9723234 -0.490014 0.08676322 0.32171777 0.3503361
0.19052206 0.17887096 -0.11386665 -0.54859143 0.33085516 -0.63582903 0.82214755 0.60251945
-0.29381424 0.22097532 0.74576455 0.9484773 -0.49493194 -0.35878283 0.9356228 -0.203587
00000000: 2af7 1c3f f4aa 753f b5ec 123e dc33 0e3e
00000010: 28bc 673f 138d c23e 19e0 cbbd 9863 af3e
00000020: ffda 8d3e 0e56 d03c c63e 383e 5331 6e3f
00000030: c2ba 183f 8f86 0ebf 8ebc 33be f51f 7d3f
00000040: 8372 aebe 8578 c1be 83e3 06be 6981 f43d
00000050: f687 6a3f 74d6 0cbf b1f2 9e3e f9d5 afbe
00000060: c7fd 353f ede9 df3c a8e6 0dbf d022 933e
00000070: e384 9ebe c7f4 0b3f 81c7 833e 9a68 2c3f
00000080: 9332 6a3e 21bc c6be cf71 c5be c223 e3be
00000090: 58c2 6dbe 1222 6a3f 36eb db3e a2bf c43e
000000a0: 3023 863d da46 473f d6d4 b1bd 30ea 783f
000000b0: 1de3 fabe eab0 b13d 31b8 a43e 415f b33e
000000c0: 3718 433e f329 373e eb32 e9bd 7d70 0cbf
000000d0: d965 a93e b1c5 22bf 4378 523f b73e 1a3f
000000e0: d26e 96be 5b47 623e 6dea 3e3f 69cf 723f
000000f0: b867 fdbe 62b2 b7be fa84 6f3f 1c79 50be

weight f4 [64, 64]
-0.9672578 -0.5799395 -1.0076268 -1.3537883 0.19595037 -0.38095462 0.52151465 0.28663403
0.71347904 0.1856151 0.7698527 -0.066277884 -0.92108345 0.67210513 0.26011863 0.035023738
1.1698855 -0.58326304 -1.8271259 -0.3372265 -0.06449276 -0.59986585 0.45528796 0.8566914
-0.32681888 -1.4353589 -0.47248864 0.85824853 0.8077404 0.12167481 0.7297232 0.17445323
0.6096467 0.74408877 1.0426075 -0.41272733 0.77398306 -0.20476383 0.2427595 -0.002274891
0.18072622 -0.10104185 0.5654364 0.12386264 1.3945425 0.73829603 -0.00979424 -0.27728954
-0.08641915 0.53263986 0.39920658 0.17816067 0.35653678 -1.0829923 -0.063372545 -0.26078796
0.39135984 0.47904643 -0.2233682 0.096297145 0.88354087 0.6661217 0.027115738 0.66514844
1.1237075 0.60631263 0.57173103 1.4721557 -0.1579877 0.05807305 -0.16213866 0.08773378
-0.17829536 -0.16763265 0.2349098 0.20407145 1.0599122 -0.25953773 0.61923 0.18118137
-0.16555035 0.25595173 1.1956146 0.7598761 0.08855375 -0.0678312 0.2774776 0.040854983
0.4798496 1.0227728 -0.13904394 -0.7173907 0.02786825 -0.06291511 -0.43646392 0.1268623
0.08081192 -0.021401968 0.12969588 0.010403948 -0.0119523965 0.20272534 0.022887878 0.114565425
0.14505613 0.08433701 0.09631877 0.14812045 -0.38895717 0.27189347 -0.03755629 -0.14788242
0.43650046 -0.18124178 0.04802941 -0.17631434 -0.01936418 0.6651352 0.377338 0.01012509
-0.36754298 0.43883765 0.024050893 0.118955016 -0.4673948 -0.30711457 0.2663403 -0.30968112
-0.85458654 -0.39191353 -0.5092505 -1.5836229 0.1457929 -0.2975665 0.63432443 0.43391654
0.9421587 0.1825661 0.580718 0.09110451 -0.6791758 0.4923991 -0.17324977 0.0045634746
0.69222814 -0.63591635 -1.8402343 -0.2732182 0.02800542 -0.7196288 0.5356493 0.88310707
-0.15067734 -1.3063211 -0.6870291 0.9761642 0.93070495 0.14511666 1.0447185 -0.08038835
0.563082 0.614087 0.9566066 -0.449364 0.64675915 -0.20182355 0.67567223 -0.0555547
0.1590749 0.06795478 0.6698353 0.11095753 1.2654763 0.6555122 0.06741448 -0.008392332
-0.08759844 0.61343867 0.11418658 0.067588486 0.28884324 -0.9481289 -0.19055821 -0.08824392
0.19068158 0.44300982 -0.15842181 0.024890576 0.5662824 0.29112178 0.0705829 0.64064455
-0.9504535 -0.58204037 -0.9342481 -1.6335615 0.34094465 -0.37623304 0.121836 0.23735036
0.50252 0.32195243 0.37601712 0.06252285 -0.7945201 0.4162433 0.3034218 0.17860176
0.5083447 -0.75765437 -1.2208252 -0.673549 0.10146239 -0.48494196 0.61829954 0.61768
-0.0128829675 -2.2527025 -0.38844648 1.514084 0.52577585 0.21364972 0.51280767 0.069868684
0.42436585 0.7428619 0.95617634 -0.22488788 0.36474478 -0.005914455 0.35717183 0.041246958
0.431214 0.0552887 0.6123026 0.2746211 0.8640046 0.79265827 -0.003240495 0.017998796
-0.38656315 0.65786886 0.3106862 -0.08060488 0.43932006 -1.0565404 -0.047581762 -0.30880657
0.036465313 0.2197237 -0.069398575 0.2347002 0.32979167 -0.0035870273 0.053460043 0.1401932
00000000: 359e 77bf ea76 14bf eaf9 80bf ef48 adbf
00000010: 37a7 483e 7c0c c3be fc81 053f b2c1 923e
00000020: 90a6 363f e311 3e3e 1115 453f b3bc 87bd
00000030: 20cc 6bbf 150f 2c3f 452e 853e 0d75 0f3d
00000040: cfbe 953f ba50 15bf 43df e9bf f4a8 acbe
00000050: c814 84bd cf90 19bf 811b e93e 2150 5b3f
00000060: ce54 a7be d7b9 b7bf 08ea f1be 2db6 5b3f
00000070: 13c8 4e3f a530 f93d 24cf 3a3f dea3 323e
00000080: ce11 1c3f 9a7c 3e3f 2a74 853f ff50 d3be
00000090: c123 463f 9cad 51be f295 783e 5616 15bb
000000a0: 4b10 393e 08ef cebd 71c0 103f b2ab fd3d
000000b0: 5e80 b23f f800 3d3f 0578 20bc e5f8 8dbe
000000c0: 86fc b0bd 165b 083f ce64 cc3e c06f 363e
000000d0: fd8b b63e 7e9f 8abf 77c9 81bd 0086 85be
000000e0: 5160 c83e 9345 f53e a2ba 64be 7037 c53d
000000f0: bc2f 623f f486 2a3f d321 de3c 2b47 2a3f
00000100: a6d5 8f3f 4e37 1b3f f75c 123f 996f bc3f
00000110: 87c7 21be 02de 6d3d ad07 26be c5ad b33d
00000120: 0f93 36be e5a7 2bbe 328c 703e 1bf8 503e
00000130: 34ab 873f 21e2 84be db85 1e3f 9c87 393e
00000140: 0886 29be 1b0c 833e e609 993f 3d87 423f
00000150: ab5b b53d 16eb 8abd 8b11 8e3e 8e57 273d
00000160: d9ae f53e 38ea 823f 8961 0ebe eba6 37bf
00000170: f54b e43c a3d9 80bd 3378 dfbe 31e8 013e
00000180: b880 a53d 2e53 afbc ffce 043e 5275 2a3c
00000190: fcd3 43bc 3b97 4f3e 5c7f bb3c 47a1 ea3d
000001a0: 9889 143e e2b8 ac3d c642 c53d e3ac 173e
000001b0: 6525 c7be 9f35 8b3e a0d4 19bd 7d6e 17be
000001c0: fd7c df3e 7297 39be 7dba 443d bf8b 34be
000001d0: a1a1 9ebc 4d46 2a3f 7232 c13e b5e3 253c
000001e0: 982e bcbe 54af e03e 6106 c53c b09e f33d
000001f0: 5f4e efbe 1f3e 9dbe c15d 883e 868e 9ebe
00000200: 2fc6 5abf e4a8 c8be 3e5e 02bf 28b4 cabf
00000210: bc4a 153e a35a 98be 1663 223f 4f2a de3e
00000220: 5031 713f 9cf2 3a3e efa9 143f 0095 ba3d
00000230: 77de 2dbf bc1b fc3e 6368 31be 3389 953b
00000240: dd35 313f 6acb 22bf cc8c ebbf 42e3 8bbe
00000250: 9f6b e53c 9839 38bf 5020 093f 4e13 623f
00000260: 294b 1abe 8835 a7bf 24e1 2fbf e6e5 793f
00000270: ae42 6e3f 7699 143e 56b9 853f a6a2 a4bd
00000280: 2426 103f ce34 1d3f 2ce4 743f 0a13 e6be
00000290: 0292 253f d5aa 4ebe dbf8 2c3f 538d 63bd
000002a0: 88e4 223e e02b 8b3d 547a 2b3f b43d e33d
000002b0: 21fb a13f a6cf 273f 9a10 8a3d fe7f 09bc
000002c0: d066 b3bd 510a 1d3f a7da e93d d56b 8a3d
000002d0: 43e3 933e 93b8 72bf b121 43be 3ab9 b4bd
000002e0: 0842 433e 2fd2 e23e 5439 22be 52e7 cb3c
000002f0: e2f7 103f ea0d 953e c48d 903d 4801 243f
00000300: ec50 73bf 9900 15bf e22a 6fbf 8b18 d1bf
00000310: 4c90 ae3e 9ea1 c0be 2785 f93d f90b 733e
00000320: 27a5 003f f3d6 a43e 5185 c03e fb0b 803d
00000330: ab65 4bbf d81d d53e 1a5a 9b3e 61e3 363e
00000340: e122 023f a3f5 41bf 0044 9cbf b56d 2cbf
00000350: 83cb cf3d 504a f8be e148 1e3f 4720 1e3f
00000360: 1513 53bc 472c 10c0 75e2 c6be 81cd c13f
00000370: 3f99 063f fec6 5a3e 5d47 033f 5017 8f3d
00000380: 7b46 d93e 332c 3e3f f9c7 743f 0249 66be
00000390: d4bf ba3e 0bce c1bb 3adf b63e 92f2 283d
000003a0: 15c8 dc3e 6776 623d ddbf 1c3f 239b 8c3e
000003b0: 682f 5d3f a7eb 4a3f 7c5e 54bb 3672 933c
000003c0: 9beb c5be 186a 283f 4312 9f3e 2c14 a5bd
000003d0: 8fee e03e b73c 87bf 18e5 42bd e51b 9ebe
000003e0: a75c 153d 40ff 603e d720 8ebd 4055 703e
000003f0: 74da a83e 5514 6bbb ebf8 5a3d ce8e 0f3e

bias f4 [64]
-0.19213684 0.4053676 0.014365876 -0.004207659 0.6143489 0.18946895 0.15733387 -0.13785517
0.009625062 -0.08097396 0.27530625 -0.13741727 -0.17025375 0.12785463 -0.20055108 -0.009614488
0.20977008 0.058524773 -0.108274154 -0.08688831 -0.29000485 -0.06370666 0.22377256 0.614111
-0.1265064 0.3000093 0.24763957 0.6027683 -0.18298358 0.30208582 0.3217225 0.3899897
-0.021121893 -0.068580486 -0.03703753 0.54956794 0.58376867 0.059926424 -0.39113614 0.08276077
0.007682541 0.409596 -0.11383422 -0.1312464 0.7558355 -0.1887309 0.67456615 0.05640789
-0.08481811 0.014236532 0.6500048 0.61027575 -0.11963684 -0.05795939 -0.06722435 -0.24443349
0.39016452 -0.02090874 -0.1511467 -0.16959833 -0.022743559 0.15714835 0.25332996 0.2129812
00000000: 85bf 44be 588c cf3e da5e 6b3c 67e0 89bb
00000010: f845 1d3f 2604 423e 211c 213e e829 0dbe
00000020: 70b2 1d3c add5 a5bd f1f4 8c3e 1db7 0cbe
00000030: 0057 2ebe 53ec 023e 435d 4dbe 1686 1dbc
00000040: f8cd 563e acb7 6f3d d7be ddbd 80f2 b1bd
00000050: 847b 94be a378 82bd a224 653e 6136 1d3f
00000060: e58a 01be d29a 993e 3a95 7d3e 064f 1a3f
00000070: 0c60 3bbe feaa 9a3e d0b8 a43e bbac c73e
00000080: d207 adbc ed73 8cbd aab4 17bd 7cb0 0c3f
00000090: dd71 153f 6975 753d ff42 c8be 7b7e a93d
000000a0: d3bd fb3b 91b6 d13e ea21 e9bd 7565 06be
000000b0: 6f7e 413f ac42 41be 5eb0 2c3f f60b 673d
000000c0: 1eb5 adbd 5840 693c b766 263f 083b 1c3f
000000d0: 2904 f5bd d366 6dbd ecac 89bd c64c 7abe
000000e0: a5c3 c73e ce48 abbc 33c6 1abe 2fab 2dbe
000000f0: b350 babc 7feb 203e 77b4 813e be17 5a3e

weight f4 [4, 64]
-1.1276718 0.8706216 -1.0994545 -1.0966389 0.75587696 0.39054427 2.0507376 -0.8292715
0.041998237 -0.8909975 -0.48834598 -1.0752304 -0.80825996 -1.1689231 -0.8958344 -0.8561025
0.6634392 1.7217343 -0.8311484 -0.03999628 -1.1765367 -1.1866475 -0.47150004 0.7439839
0.071291 -0.8031785 0.20910007 0.7606832 -1.2811942 1.0431283 0.6935779 0.8345654
-0.9838647 -0.06439311 -1.0873805 0.778403 0.8355764 -1.0879256 -0.8015557 -0.33757803
-0.80247986 0.5272419 -0.71437556 -1.149035 0.93054736 -1.1359288 0.6755697 -1.1999663
-0.031305403 -1.0138403 0.76975423 0.6368771 -0.9273503 -1.1675773 -0.3036619 -1.058813
0.7417816 -0.31304947 -0.6629307 -0.392125 -1.4597534 -1.0799441 0.6870876 -0.90864915
-1.1261469 0.98251486 -1.1466097 -1.2989761 0.8386283 0.052350823 2.6843927 -1.215502
0.010069966 -0.8979644 -0.30252188 -0.5981174 -1.0725892 -1.5387791 -0.98062825 -0.79812944
0.8037121 1.8223945 -0.6063707 -0.0106547475 -1.1987127 -1.1624198 -0.19501618 0.5763742
-0.09525633 -0.98349065 0.90027726 0.7724087 -0.9739707 0.7247501 1.0015514 0.71870893
-1.1118182 0.034494687 -0.90697986 0.71078414 0.708609 -1.0878054 -0.77628887 -0.23091987
-0.85047793 0.6398033 -0.62357587 -1.0694166 0.9055952 -1.0024178 0.680635 -0.95976794
0.053596724 -0.98376656 0.6542142 0.6318501 -1.1316786 -1.1821014 -0.037347984 -1.0635251
0.89485353 -0.1822357 -0.861833 -0.51554626 -1.1491557 -1.0743477 0.76134527 -1.4026555
-0.9270029 1.0484844 -0.76137996 -0.5909662 0.90306294 0.72700286 0.15593913 -0.7973167
0.11966278 -1.0705099 -1.0665641 -1.0371028 -0.96521974 -1.262317 -1.2869973 -0.9470558
0.7070728 0.36534575 -0.93021727 0.037453055 -0.73222584 -0.5599949 -1.0947535 0.8511434
0.08212753 -1.1090347 -0.044398934 0.7503467 -0.85846484 0.7027348 0.7428882 1.0166715
-1.3049641 0.07077756 -0.618643 0.86048424 0.4871597 -0.97904223 -1.1543946 -0.52134305
-0.8164614 0.7816085 -0.8569243 -0.7907785 0.70871633 -0.8939053 0.67372596 -0.9392416
0.009960038 -0.907494 0.8568087 0.7445401 -1.151752 -0.8486488 0.37786058 -0.97939956
0.17856821 -1.4059844 -0.7592753 -1.1869546 -0.5445651 -1.1835204 0.8607923 0.48593882
-1.0874747 0.5539328 -1.3632556 -0.88905025 0.84568894 0.36486202 2.4787102 -1.1405766
0.04193841 -1.2114404 -0.65389043 -1.2122324 -1.2185274 -0.39181134 -0.9060751 -1.0399553
0.4071046 2.1064322 -0.996264 -0.07821976 -0.9843358 -1.2350839 -0.65418196 0.6188472
0.054335132 -0.6920757 -0.54294467 0.97343475 -1.0991203 1.325371 0.57604665 0.726135
-1.035049 -0.0062281042 -1.165005 0.57462084 0.81257886 -0.710955 -0.9316256 -0.85538656
-1.1620767 0.5649616 -0.97527766 -1.2069064 0.93748033 -1.1092807 0.7959778 -1.2229077
0.035525687 -0.895636 0.812448 0.6894856 -0.97182906 -0.5432208 -0.613957 -1.2888826
0.94729364 -0.1982173 -1.3213967 -0.8078842 -1.2090192 -0.7323399 0.6795794 -0.492802
00000000: 8d57 90bf 0fe1 5e3f edba 8cbf aa5e 8cbf
00000010: 2781 413f 6bf5 c73e 493f 0340 234b 54bf
00000020: 5806 2c3d 6a18 64bf 7c08 fabe 26a1 89bf
00000030: 20ea 4ebf 469f 95bf 6755 65bf 8929 5bbf
00000040: 27d7 293f ca61 dc3f 24c6 54bf 24d3 23bd
00000050: c198 96bf 11e4 97bf 7468 f1be bb75 3e3f
00000060: 0401 923d 1b9d 4dbf 541e 563e 22bc 423f
00000070: 2cfe a3bf 3a85 853f 528e 313f 14a6 553f
00000080: 8fde 7bbf 89e0 83bd 492f 8bbf 6b45 473f
00000090: 56e8 553f 2541 8bbf c132 4dbf 07d7 acbe
000000a0: 526f 4dbf 53f9 063f 51e1 36bf 9413 93bf
000000b0: 5a38 6e3f 1d66 91bf 23f2 2c3f 7f98 99bf
000000c0: 183a 00bd 85c5 81bf 9d0e 453f 610a 233f
000000d0: d466 6dbf 2c73 95bf 9379 9bbe 2f87 87bf
000000e0: 66e5 3d3f 0548 a0be d4b5 29bf 9cc4 c8be
000000f0: 33d9 babf 9c3b 8abf f9e4 2f3f 3b9d 68bf
00000100: 9525 90bf 1886 7b3f 1bc4 92bf d944 a6bf
00000110: 58b0 563f d16d 563d 17cd 2b40 9295 9bbf
00000120: 80fc 243c ffe0 65bf 26e4 9abe 391e 19bf
00000130: 9a4a 89bf b7f6 c4bf 740a 7bbf 3652 4cbf
00000140: 14c0 4d3f 3944 e93f 1c3b 1bbf 4091 2ebc
00000150: 6b6f 99bf 2cca 94bf 52b2 47be 428d 133f
00000160: c015 c3bd 0bc6 7bbf 9278 663f 94bc 453f
00000170: 2556 79bf 3989 393f d632 803f 4ffd 373f
00000180: 0f50 8ebf 4d4a 0d3d d52f 68bf f3f5 353f
00000190: 6667 353f 353d 8bbf deba 46bf 4276 6cbe
000001a0: ecb8 59bf 26ca 233f aba2 1fbf a5e2 88bf
000001b0: 16d5 673f 3a4f 80bf 183e 2e3f 5ab3 75bf
000001c0: 3d88 5b3d 20d8 7bbf 957a 273f eec0 213f
000001d0: d8da 90bf 194f 97bf 33fa 18bd 9721 88bf
000001e0: 1f15 653f ff9b 3abe 16a1 5cbf d7fa 03bf
000001f0: 8917 93bf 3a84 89bf 86e7 423f 378a b3bf
00000200: 1050 6dbf bd34 863f cce9 42bf 9049 17bf
00000210: 222f 673f dc1c 3a3f 82ae 1f3e f21c 4cbf
00000220: c211 f53d 7806 89bf 2c85 88bf c9bf 84bf
00000230: a418 77bf 9a93 a1bf 54bc a4bf 4072 72bf
00000240: b902 353f 990e bb3e b822 6ebf 6068 193d
00000250: 2773 3bbf d35b 0fbf e220 8cbf 89e4 593f
00000260: 7a32 a83d d9f4 8dbf a8db 35bd b916 403f
00000270: 5ac4 5bbf 6ee6 333f ec2d 3e3f 4b22 823f
00000280: 1009 a7bf d3f3 903d 635f 1ebf b248 5c3f
00000290: ff6c f93e 83a2 7abf 34c3 93bf bd76 05bf
000002a0: 9d03 51bf 7f17 483f 645f 5bbf 7670 4abf
000002b0: 6f6e 353f fad6 64bf 4e79 2c3f 2372 70bf
000002c0: 6d2f 233c 8751 68bf d157 5b3f 2e9a 3e3f
000002d0: 9c6c 93bf 0c41 59bf f176 c13e eeb9 7abf
000002e0: 96da 363e 4cf7 b3bf de5f 42bf 21ee 97bf
000002f0: 9e68 0bbf 997d 97bf e25c 5c3f f9cc f83e
00000300: 5f32 8bbf 8ace 0d3f 297f aebf cc98 63bf
00000310: 127f 583f 32cf ba3e 30a3 1e40 6afe 91bf
00000320: 9cc7 2b3d 7b10 9bbf 5d65 27bf 6e2a 9bbf
00000330: b5f8 9bbf 7f9b c8be 8af4 67bf 411d 85bf
00000340: 0470 d03e c9cf 0640 280b 7fbf ae31 a0bd
00000350: 6efd 7bbf 3b17 9ebf 7878 27bf c56c 1e3f
00000360: 848e 5e3d e02b 31bf 6cfe 0abf 0533 793f
00000370: f9af 8cbf c2a5 a93f cb77 133f fce3 393f
00000380: 7c7c 84bf 2015 ccbb e21e 95bf 5a1a 133f
00000390: 2b05 503f 2601 36bf 047f 6ebf 9dfa 5abf
000003a0: eebe 94bf 53a1 103f ccab 79bf e97b 9abf
000003b0: b6fe 6f3f e9fc 8dbf 33c5 4b3f 3d88 9cbf
000003c0: 6283 113d 6748 65bf 98fc 4f3f 2182 303f
000003d0: cac9 78bf 8510 0bbf 492c 1dbf 1bfa a4bf
000003e0: d681 723f 7af9 4abe 8723 a9bf 80d1 4ebf
000003f0: 24c1 9abf a17a 3bbf eaf8 2d3f 8b50 fcbe

bias f4 [4]
0.31065407 0.2849481 0.32715815 0.27099186
00000000: 0d0e 9f3e b8e4 913e 4681 a73e 72bf 8a3e
