lab2/problem1/neural-network-1-episodes-750.pth (torch, 23233 bytes, 6 tensors)

weight f4 [64, 8]
-4.90235e-05 0.07275459 0.025489442 0.78516966 0.14245458 0.6977098 0.594236 0.53483224
-0.0818405 0.2620697 -0.06629931 0.16713049 -0.33025572 0.6805493 0.44494966 0.26070037
-0.005930768 1.0992701 -0.20440032 -0.63154984 0.1500089 0.830228 0.2203927 0.08598416
-0.18343984 0.44250986 -0.26566336 0.46909887 0.6435768 0.72268164 -0.32935846 -0.8952426
0.3564137 -0.31827512 0.61285126 1.4062892 -0.06298382 -0.010899325 0.46833682 0.54777956
0.011870096 -0.770196 -0.27908704 -0.43917343 0.53619474 0.5994029 0.38651875 0.124904305
-0.1894795 -0.13974741 -0.23194057 0.0047650873 -0.19037813 -1.2466762 0.037437923 0.25773382
0.09932017 0.01275874 -0.6439355 1.1909828 -0.14381641 0.22435491 -0.1665601 -0.10398348
-0.010207085 0.32447088 0.22259247 0.47728023 -0.7815545 -0.29202062 -0.0027801401 -0.43605268
-0.16010404 0.03495971 -0.45063156 2.8891397 -1.2375405 0.2664702 -0.63780904 -0.17598124
-0.07930207 -0.02416106 -0.04353605 0.29634902 0.063901365 -0.043508023 -0.20798361 -0.023560131
-0.2279099 0.5280375 0.23365869 -0.724041 0.88346523 -0.89954734 0.072178885 0.07127884
0.28476077 -2.4903326 -0.3301886 -0.51082605 -0.039800253 -0.0845244 0.5504847 -0.07206629
-0.08212295 0.2543048 1.2177693 -1.6472371 -0.21271664 0.07282114 -0.09076825 -0.4419093
-0.24955058 0.101087235 0.3339313 -0.124653645 -0.086082146 -0.46539956 -0.23634681 -0.403407
0.09227707 0.015104099 -0.46152413 0.18781123 0.40090936 -0.6712348 -0.057147607 0.43948087
-0.09270228 0.3945778 0.13064592 0.21092628 -0.2713958 -0.80456096 0.15430953 0.50084496
0.1395172 0.071498014 1.3480226 2.1412635 -0.27815652 0.6210234 0.49005455 0.46013305
0.5507465 0.27001444 0.05750415 -0.47588068 -0.8660951 1.2235028 0.20822597 0.21673104
-0.18428724 0.44628578 0.21185029 -0.73781884 0.6160146 0.3530826 -0.28922182 0.38141325
0.46817106 0.1517052 0.9429801 -0.9506123 0.33764133 0.441012 0.40102944 0.17816448
0.16950776 -0.3008636 -0.41731718 0.20030524 0.45496163 -0.83724946 -0.27525952 0.24805696
-0.23340899 0.4567368 0.25436577 -0.44920805 0.0007342407 0.23657893 0.1634589 -0.064186804
-0.26575658 0.11205888 0.25226757 0.6072306 -0.4712623 -0.36850837 -0.42144236 -0.25584134
-0.64106005 -0.18251385 -0.63612705 -0.43562874 0.2586576 0.1428235 0.1593811 -0.071073875
0.3784325 -2.6885152 0.32988673 -0.4437065 -0.1590561 0.7150552 -0.16923939 0.37257642
0.13128923 0.35074273 0.34313038 -0.21490954 -0.2577252 -0.55751115 -0.66865927 0.5021824
0.1802216 -0.1385322 -0.15580529 0.28345874 -0.07747424 -0.49674046 -0.19673264 0.5204925
-0.22206602 0.6888376 -0.6758983 -0.23664153 0.081029356 -0.89542437 -0.077998705 0.15707882
-0.12587096 -0.11739251 -0.14738855 0.16685835 0.5945838 0.71881384 0.5699894 0.17495415
0.5946813 0.33350396 -0.2687575 -0.90034324 -0.042567402 0.46031925 0.30789763 -0.5623612
-0.06972771 -0.025327718 -0.5798524 -0.08509808 0.15284087 0.5518531 0.10776611 -0.5874155
00000000: 959e 4db8 5c00 953d 3ccf d03c e100 493f
00000010: 9ddf 113e 1c9d 323f da1f 183f c4ea 083f
00000020: fe9b a7bd 002e 863e efc7 87bd 4124 2b3e
00000030: 4717 a9be 7b38 2e3f 71d0 e33e 857a 853e
00000040: e356 c2bb e2b4 8c3f 514e 51be 40ad 21bf
00000050: ef9b 193e d289 543f a0ae 613e 7718 b03d
00000060: a7d7 3bbe a790 e23e 0705 88be ba2d f03e
00000070: 73c1 243f aa01 393f aca1 a8be 9e2e 65bf
00000080: db7b b63e f5f4 a2be d2e3 1c3f 4901 b43f
00000090: a9fd 80bd 1593 32bc d8c9 ef3e 483b 0c3f
000000a0: cb7a 423c 912b 45bf 7fe4 8ebe 57db e0be
000000b0: 0f44 093f 7872 193f c9e5 c53e d4cd ff3d
000000c0: ea06 42be f219 0fbe d481 6dbe 7324 9c3b
000000d0: 7cf2 42be 1693 9fbf 8258 193d b0f5 833e
000000e0: 6068 cb3d 090a 513c f5d8 24bf 2072 983f
000000f0: 9c44 13be 4bbd 653e bb8e 2abe 4af5 d4bd
00000100: 9e3b 27bc 0c21 a63e 48ef 633e 135e f43e
00000110: f513 48bf ba83 95be 0333 36bb 4c42 dfbe
00000120: 50f2 23be ea31 0f3d 2eb9 e6be aae7 3840
00000130: ba67 9ebf c86e 883e 7447 23bf 6d34 34be
00000140: 2069 a2bd 6aed c5bc db52 32bd 0fbb 973e
00000150: b8de 823d 7835 32bd a8f9 54be 2d01 c1bc
00000160: 3661 69be 772d 073f 3944 6f3e c05a 39bf
00000170: c72a 623f bc48 66bf 86d2 933d a4fa 913d
00000180: 2acc 913e 9c61 1fc0 7b0e a9be 7fc5 02bf
00000190: 9705 23bd 211b adbd 91ec 0c3f 7e97 93bd
000001a0: 1430 a8bd 3d34 823e dddf 9b3f aad8 d2bf
000001b0: 64d2 59be 4023 953d b4e4 b9bd f041 e2be
000001c0: 308a 7fbe d306 cf3d 0bf9 aa3e 694a ffbd
000001d0: d64b b0bd da48 eebe e604 72be 5d8b cebe
000001e0: c3fb bc3d 2f77 773c e44c ecbe 9651 403e
000001f0: fe43 cd3e 0bd6 2bbf 9c13 6abd a303 e13e
00000200: b1da bdbd 1a06 ca3e 0bc8 053e 0ffd 573e
00000210: 64f4 8abe b5f7 4dbf 5103 1e3e 6037 003f
00000220: 99dd 0e3e 8d6d 923d 018c ac3f 760a 0940
00000230: 886a 8ebe 64fb 1e3f 6ee8 fa3e 8f96 eb3e
00000240: b9fd 0c3f 553f 8a3e 7989 6b3d a2a6 f3be
00000250: 69b8 5dbf bd9b 9c3f 3039 553e beee 5d3e
00000260: cbb5 3cbe 927f e43e 48ef 583e b2e1 3cbf
00000270: 22b3 1d3f 3ec7 b43e e214 94be 9948 c33e
00000280: 1eb4 ef3e 9c58 1b3e 2567 713f 545b 73bf
00000290: 53df ac3e 53cc e13e bb53 cd3e c070 363e
000002a0: 7193 2d3e cb0a 9abe 99aa d5be d11c 4d3e
000002b0: bbf0 e83e fb55 56bf d1ee 8cbe a502 7e3e
000002c0: c402 6fbe 68d9 e93e 3b3c 823e 99fe e5be
000002d0: 0f7a 403a bf41 723e c561 273e 5f74 83bd
000002e0: 3f11 88be 207f e53d 3729 813e 7773 1b3f
000002f0: 4b49 f1be 21ad bcbe 4bc7 d7be a3fd 82be
00000300: 831c 24bf e9e4 3abe 39d9 22bf bb0a dfbe
00000310: c56e 843e 5340 123e cd34 233e 2e8f 91bd
00000320: e8c1 c13e a210 2cc0 eae6 a83e 802d e3be
00000330: 9adf 22be dc0d 373f 174d 2dbe 56c2 be3e
00000340: af70 063e 8d94 b33e c9ae af3e 3f11 5cbe
00000350: 8ff4 83be 0db9 0ebf 412d 2bbf 078f 003f
00000360: 038c 383e 63db 0dbe 6c8b 1fbe 8121 913e
00000370: d0aa 9ebd c454 febe 4874 49be ff3e 053f
00000380: 4665 63be a957 303f ac07 2dbf 2852 72be
00000390: b8f2 a53d 883a 65bf c9bd 9fbd 45d9 203e
000003a0: 51e4 00be 7c6b f0bd 06ed 16be eadc 2a3e
000003b0: a536 183f 2f04 383f d3ea 113f 2e27 333e
000003c0: 093d 183f 08c1 aa3e 959a 89be e57c 66bf
000003d0: 285b 2ebd f7ae eb3e c2a4 9d3e e7f6 0fbf
000003e0: 67cd 8ebd 137c cfbc 3571 14bf e747 aebd
000003f0: 5182 1c3e 3f46 0d3f 7ab4 dc3d dd60 16bf

bias f4 [64]
-0.30738235 0.29164928 -0.26215664 0.089193836 0.39707184 -0.14987239 0.18799983 0.2727547
0.4340895 -0.033295233 -0.31719598 -0.07649094 0.22293457 0.30516663 0.7688875 0.1809697
-0.01081664 -0.06771814 0.44698635 0.63812065 0.6871243 0.37399495 0.75818104 0.56320167
-0.09233731 0.31671226 0.13333729 0.16562651 0.54118466 0.46214008 0.26871225 -0.37533075
0.071499996 0.50650984 -0.2116933 0.8072296 -0.22574154 0.54926 -0.56563425 0.32928228
-0.058185767 0.5581395 -0.09673341 -0.13459991 0.35156852 0.23390707 -0.1498772 -0.3455334
-0.53797483 0.2793254 0.7853185 -0.011895596 0.12162625 0.010563493 0.22055747 -0.24355827
0.8253469 -0.47752932 0.60212433 0.11285165 -0.16132794 -0.2497699 -0.0034620569 -0.17748408
00000000: 3861 9dbe 0e53 953e 6539 86be 42ab b63d
00000010: 004d cb3e 2678 19be 0783 403e 81a6 8b3e
00000020: fb40 de3e 9560 08bd 8367 a2be 48a7 9cbd
00000030: f648 643e cd3e 9c3e d0d5 443f 1f50 393e
00000040: 4738 31bc cfaf 8abd 65db e43e e05b 233f
00000050: 61e7 2f3f 447c bf3e 2718 423f fc2d 103f
00000060: 581b bdbd 1c28 a23e 9289 083e ff99 293e
00000070: 148b 0a3f a09d ec3e a794 893e 5a2b c0be
00000080: 976e 923d a1aa 013f 21c6 58be 99a6 4e3f
00000090: ca28 67be 4e9c 0c3f 68cd 10bf b097 a83e
000000a0: 3354 6ebd 3be2 0e3f 2b1c c6bd 8fd4 09be
000000b0: ca00 b43e 5685 6f3e 6979 19be c1e9 b0be
000000c0: b8b8 09bf bd03 8f3e a20a 493f bfe5 42bc
000000d0: 2f17 f93d 8012 2d3c d1d9 613e 5767 79be
000000e0: ef49 533f b97e f4be d224 1a3f c41e e73d
000000f0: 2733 25be aec3 7fbe ade3 62bb 63be 35be

weight f4 [64, 64]
-0.08745452 -0.32022303 0.6022409 0.17300196 -0.5188314 -0.14076892 0.3238909 0.032411154
-0.41495696 -0.005500027 0.03121142 0.14206354 0.48083073 -0.18097396 0.1967281 0.19778359
-0.16812335 -0.12304405 0.35550204 0.1417492 0.12656763 0.20246138 0.10142854 -0.36526886
-0.40810788 0.54557526 -0.35796425 0.113672964 0.35065204 -0.018318066 -0.12637572 -0.06130857
0.41105324 -7.966574e-06 -0.23121871 0.38930404 -0.023581218 0.81359047 0.0772006 0.48146656
0.74431115 -0.017281579 -0.032250453 0.077387005 -0.03781855 0.019488461 -0.1628861 0.5633076
-0.37907124 0.42206067 0.1403522 -0.20990282 0.23668098 0.15870246 0.09661933 0.11111803
0.22643356 -0.01639789 0.22204234 0.15815604 -0.17973284 -0.13094257 -0.027326321 -0.26857266
-0.9137417 -0.36134648 -0.38823497 0.37739265 -1.0233027 -0.05894371 0.22842619 -0.4584314
0.10570903 -0.5895242 0.03031972 0.24780431 -0.95922047 -0.049942028 0.21437588 0.25680906
0.09007139 -1.5405415 -0.28173706 0.20194718 -0.22006269 0.2155263 -0.029886747 0.09574165
-0.30438274 -0.42821175 0.23696941 0.21833465 0.29304928 0.025048565 0.10817605 -0.2964813
0.11992895 0.12187891 0.20772482 -0.13968329 -0.37240407 -0.1749995 0.5697262 0.24747649
-0.06781453 0.03362478 0.5040828 0.29221275 -0.6251376 0.7469705 -0.07174288 -2.5764356
0.30509725 -0.5297882 0.05761546 0.070508584 -0.9245972 0.16626357 0.14863135 0.27097425
0.08040859 0.07007974 -0.19849315 0.20428199 0.2336282 -0.42339465 -0.11847692 0.6036326
0.250157 0.38455284 -0.3522607 0.31034288 -1.1268167 -0.054760385 0.4559571 0.29510087
0.57299 -0.5147537 0.005094856 -0.42661592 -0.41938272 0.41535193 0.013524606 0.17545015
0.16226552 -0.09826388 0.12765428 0.042155564 0.11764891 0.53658795 -0.07762817 0.49937746
0.25290984 -0.65301484 0.50961494 0.41178048 -0.20847242 0.1169026 0.11538588 0.7893178
0.2180417 0.23415932 0.4674665 0.056566324 0.5052599 -0.8415017 0.8340496 -0.33862743
-1.0416344 0.31966293 0.2843484 0.24906692 0.24709345 0.31622148 0.32335192 -1.5589037
0.70909786 -1.045047 -0.06809569 0.74819547 -1.11721 0.34139365 0.5567856 0.39105427
0.07352773 0.47037387 -0.0670708 0.19967666 0.40272933 0.39609414 0.14192806 -0.012501007
0.21981321 0.030820142 -2.1408796 -0.10660931 -0.609881 0.004977369 0.49041972 0.29167026
0.30343992 0.007349318 -0.12265174 -0.13821164 -0.2089075 -0.68056643 0.081516914 0.5973991
0.6526746 0.0015344272 0.1190221 -0.11689052 -0.2996603 0.5370983 -0.015612212 0.41410753
0.5853347 -0.4934637 0.26313937 0.40478715 0.56284744 0.19503282 -0.44160166 -0.2918193
0.46365786 -0.1738325 0.063890785 -0.08925972 0.52478665 -0.3190487 0.07237641 0.26649415
-1.0618337 0.31788754 0.04345081 0.18903977 0.1620631 -0.13816787 0.093733996 -0.6742717
0.22579929 -0.49268526 0.31219003 0.48577878 -0.11284194 0.45512608 0.0591666 0.11289912
0.08565282 0.3040539 0.18956797 0.37720355 0.07961689 -0.11483248 0.3348945 -0.49187148
00000000: 5b1b b3bd 46f4 a3be 762c 1a3f 6d27 313e
00000010: 22d2 04bf ba25 10be 07d5 a53e 8fc1 043d
00000020: 3d75 d4be 9239 b4bb 18af ff3c 1b79 113e
00000030: 722f f63e 3d51 39be 1773 493e c887 4a3e
00000040: 8728 2cbe 85fe fbbd 5d04 b63e b426 113e
00000050: f29a 013e 0952 4f3e c4b9 cf3d 8504 bbbe
00000060: 84f3 d0be d2aa 0b3f 1747 b7be 5fcd e83d
00000070: aa88 b33e c50f 96bc a368 01be b21e 7bbd
00000080: 9275 d23e 2da8 05b7 99c4 6cbe dc52 c73e
00000090: 662d c1bc 7747 503f 591b 9e3d c982 f63e
000000a0: 2d8b 3e3f 1992 8dbc 0d19 04bd 147d 9e3d
000000b0: a0e7 1abd 44a6 9f3c 9dcb 26be ed34 103f
000000c0: a015 c2be 5618 d83e 7db8 0f3e c4f0 56be
000000d0: 805c 723e e682 223e 5be0 c53d da91 e33d
000000e0: 33de 673e de54 86bc 115f 633e a8f3 213e
000000f0: e30b 38be cf15 06be 73db dfbc 5b82 89be
00000100: faea 69bf 6802 b9be bcc6 c6be 9c39 c13e
00000110: 95fb 82bf f66e 71bd 8ee8 693e 85b7 eabe
00000120: fa7d d83d 0feb 16bf 1061 f83c 6ac0 7d3e
00000130: 798f 75bf 0390 4cbd 5a85 5b3e 7a7c 833e
00000140: 5977 b83d 7730 c5bf d73f 90be 3ecb 4e3e
00000150: 1d58 61be edb2 5c3e 0dd5 f4bc 3314 c43d
00000160: 0ed8 9bbe 923e dbbe 1ca8 723e 1e93 5f3e
00000170: 8e0a 963e a632 cd3c 688b dd3d 66cc 97be
00000180: 4f9d f53d a69b f93d d1b5 543e 2309 0fbe
00000190: bfab bebe 1233 33be 94d9 113f 7a6a 7d3e
000001a0: 58e2 8abd 23ba 093d 920b 013f e99c 953e
000001b0: 0509 20bf 7539 3f3f eeed 92bd 52e4 24c0
000001c0: b535 9c3e 33a0 07bf 30fe 6b3d ce66 903d
000001d0: 67b2 6cbf ff40 2a3e d132 183e 23bd 8a3e
000001e0: 42ad a43d f785 8f3d ca41 4bbe 4c2f 513e
000001f0: 3b3c 6f3e 2fc7 d8be 07a4 f2bd ab87 1a3f
00000200: 9414 803e 1ce4 c43e 845b b4be 43e5 9e3e
00000210: 883b 90bf 6d4c 60bd 3673 e93e 7617 973e
00000220: 79af 123f e6c6 03bf c0f2 a63b 676d dabe
00000230: 55b9 d6be 02a9 d43e 4f96 5d3c 34a9 333e
00000240: ef28 263e 933e c9bd ceb7 023e 50ab 2c3d
00000250: e9f1 f03d d45d 093f 85fb 9ebd 67ae ff3e
00000260: 667d 813e fb2b 27bf 2076 023f e4d4 d23e
00000270: cb79 55be a16a ef3d 6f4f ec3d bb10 4a3f
00000280: 5346 5f3e 76c7 6f3e c557 ef3e 17b2 673d
00000290: b658 013f a86c 57bf 4684 553f 9360 adbe
000002a0: 4754 85bf dcaa a33e 1d96 913e 660b 7f3e
000002b0: 1106 7d3e c8e7 a13e 628e a53e 288a c7bf
000002c0: 7087 353f 1ac4 85bf c175 8bbd bd89 3f3f
000002d0: bd00 8fbf 26cb ae3e 8089 0e3f 4438 c83e
000002e0: b595 963d d8d4 f03e 6a5c 89bd 0a78 4c3e
000002f0: 8a32 ce3e dacc ca3e 9755 113e 06d1 4cbc
00000300: b716 613e 867a fc3c 2c04 09c0 fb55 dabd
00000310: 2921 1cbf 3319 a33b 4b18 fb3e ce55 953e
00000320: 7a5c 9b3e 8cd2 f03b d630 fbbd 5a87 0dbe
00000330: d9eb 55be 9a39 2ebf 57f2 a63d 26ef 183f
00000340: af15 273f d51e c93a dcc1 f33d 4c64 efbd
00000350: 136d 99be 467f 093f 5dca 7fbc e705 d43e
00000360: 7fd8 153f 46a7 fcbe 34ba 863e 4340 cf3e
00000370: c516 103f afb6 473e 9d19 e2be 5769 95be
00000380: 9064 ed3e 2601 32be 2cd9 823d cdcd b6bd
00000390: 6b58 063f 5a5a a3be 153a 943d ec71 883e
000003a0: 2bea 87bf 28c2 a23e 7af9 313d a493 413e
000003b0: dff3 253e e17b 0dbe 9cf7 bf3d 129d 2cbf
000003c0: ee37 673e 3e41 fcbe 5fd7 9f3e ffb7 f83e
000003d0: ad19 e7bd 4906 e93e ad58 723d a737 e73d
000003e0: bf6a af3d f4ac 9b3e 1b1e 423e d320 c13e
000003f0: 2e0e a33d 4b2d ebbd 4b77 ab3e 94d6 fbbe

bias f4 [64]
0.358236 0.029530482 -0.16452713 0.13703659 0.18992178 0.0106959045 0.07559065 0.32772133
-0.0737699 0.05726829 -0.20653735 -0.053137768 0.52984995 0.3693887 0.13358605 0.17314738
0.028278247 0.06610872 0.11454251 0.493888 -0.033413216 -0.087497965 -0.07559316 -0.1333722
-0.03592972 0.4017737 -0.16634354 0.018456427 0.029188508 -0.05303623 -0.08836892 0.58012015
0.3759055 -0.118155144 0.7510948 0.6540379 -0.1743284 0.04573543 0.6127832 0.0413454
-0.060836688 0.041037675 -0.062234484 -0.05017988 0.2162629 0.16675583 0.2436029 -0.19672976
0.059050463 0.026183864 -0.3079635 0.12276358 0.10045633 0.39761078 0.024020724 0.1551303
0.26868245 -0.03955243 -0.15749781 -0.13586235 -0.14695998 0.30179083 -0.04191257 0.08539597
00000000: b66a b73e e9e9 f13c cd79 28be 5253 0c3e
00000010: db7a 423e e03d 2f3c 45cf 9a3d 17cb a73e
00000020: ac14 97bd 2892 6a3d 877e 53be fda6 59bd
00000030: 3fa4 073f 8420 bd3e c8ca 083e 8c4d 313e
00000040: c8a7 e73c 0264 873d 4395 ea3d e3de fc3e
00000050: 4cdc 08bd 2232 b3bd 96d0 9abd b992 08be
00000060: 0b2b 13bd 48b5 cd3e f655 2abe ef31 973c
00000070: bd1c ef3c 853c 59bd c4fa b4bd c182 143f
00000080: b076 c03e 53fb f1bd c047 403f 076f 273f
00000090: 2583 32be 1355 3b3d 5cdf 1c3f cb59 293d
000000a0: e42f 79bd 1f17 283d 96e9 7ebd 6b89 4dbd
000000b0: 0674 5d3e 0ac2 2a3e 0a73 793e 8773 49be
000000c0: e6de 713d 8b7f d63c 64ad 9dbe 796b fb3d
000000d0: 0cbc cd3d a493 cb3e 1cc7 c43c 7ada 1e3e
000000e0: bf90 893e bb01 22bd 1b47 21be 801f 0bbe
000000f0: ad7c 16be 5484 9a3e 84ac 2bbd 15e4 ae3d

weight f4 [4, 64]
0.17211099 -0.36167744 -1.0064745 -0.6334267 0.8640702 -0.6770919 -0.4719551 0.3682807
-0.66831386 -0.03574984 -0.61417526 -0.329788 0.6703414 1.6831865 0.8835703 1.3922507
-0.96794444 -0.14722578 -0.48184097 1.522975 0.9625847 -0.8935458 0.11388938 -0.84616023
-0.64234185 0.6447467 -0.8296913 0.554604 -0.6027861 -0.9044829 -0.54553187 0.71928805
0.694123 -0.13191192 0.5736392 0.71606326 -0.470492 -0.42046356 0.79118127 -0.41931292
-0.11305055 -1.2331808 -0.39156613 -0.61376524 0.64837945 0.34320724 0.14858823 -0.44488183
0.32944617 -0.3154802 -0.8805378 -0.77362764 -0.6309815 1.5631825 0.9323394 1.42655
-0.42172542 -0.73099923 -0.85005975 1.0953587 -0.5915439 0.7049409 -0.7313768 0.5780069
-0.091178596 -0.6268472 -0.8573368 -1.0473343 0.76174426 -0.5470099 -0.58160573 0.33403248
-0.22277775 0.387205 -0.8399123 -0.21342146 0.7881015 1.6644886 1.0484802 1.6738906
-1.0446402 0.38794628 -0.49610794 1.4821146 1.4102994 -0.8252685 0.026932195 -0.9866691
-0.9101553 0.76611924 -1.0519193 0.03624185 -0.51904976 -0.90140516 -0.9198448 0.61379427
0.85601234 -0.3228485 0.6772518 0.75556916 -0.18679973 -0.64469415 0.80917376 -0.16183001
-0.32832843 -0.74533623 -0.42880112 -0.60206234 0.5845477 0.44482085 -0.03854704 -0.75835574
1.3188732 -0.57287747 -0.67695105 -0.5951931 -0.6334288 1.1708469 1.3071477 1.2679106
-0.61075586 -0.8904654 -1.0478969 0.8340683 -0.6764016 0.5640248 -0.74842525 0.6848522
0.745764 -1.2124941 -0.9841432 -0.12105324 0.9751185 -0.39427242 -0.23238315 0.9069617
-0.55296296 0.13766678 -0.77127135 -0.467085 0.4177798 0.9921306 0.6127594 1.3108121
-1.0872428 0.5794057 -0.39192647 1.1765465 1.6608763 -1.1390665 0.00036287308 -1.2314699
-0.99432486 0.89995164 -0.777732 0.60277337 -0.48865175 -0.9281977 -0.8212317 0.6965272
1.1461176 -1.0045228 0.8183331 0.5519517 -0.7187388 -0.44187456 0.7510708 -0.8884751
-0.9602163 -0.95360756 -0.4449525 -0.4916745 0.8579544 -0.83634907 0.80687153 -0.7142543
-1.5678135 -0.65810645 -0.9386837 -0.44418183 0.08553209 1.2835953 -0.5498228 1.1874741
-0.1418202 -0.5906334 -0.69962656 1.4505472 -0.63037044 0.29475823 -0.90473855 0.83439755
0.36920282 -0.13803431 -1.0434283 -0.18322612 0.8675995 -0.7575938 -0.49556133 0.10567296
-1.0314218 -0.5408837 -0.6520439 -0.66006464 0.76141524 1.5840198 0.75946367 1.3011512
-0.67251146 -0.28509545 -0.27016744 1.7921458 0.57888514 -0.9042347 -0.104500085 -0.6398925
-0.41383442 0.769357 -1.0087819 0.9279081 -0.61630297 -0.8009234 -0.51279557 0.6055392
0.8940956 0.32921347 0.6122123 0.65009373 -0.41112888 -0.66908693 0.70340544 -0.06629717
-0.101911575 -1.2749634 -0.5365703 -0.69813883 0.59751695 0.83311105 0.15630591 -0.6670128
-0.18797319 -0.60133934 -0.5594906 -0.8654249 -1.1112497 1.8451018 1.2733926 1.5422711
0.11974133 -0.43787766 -0.8686543 1.3977878 -0.5098379 0.77187157 -0.86166614 0.6168376
00000000: dd3d 303e c92d b9be 28d4 80bf 4128 22bf
00000010: b433 5d3f e555 2dbf 19a4 f1be 4a8f bc3e
00000020: 9e16 2bbf 6d6e 12bd 973a 1dbf f9d9 a8be
00000030: 7e9b 2b3f a872 d73f aa31 623f 4535 b23f
00000040: 35cb 77bf 5bc2 16be dcb3 f6be d8f0 c23f
00000050: f36b 763f 6bbf 64bf d63e e93d f59d 58bf
00000060: 8470 24bf 1f0e 253f a666 54bf 87fa 0d3f
00000070: 3150 1abf 318c 67bf faa7 0bbf 4323 383f
00000080: 0cb2 313f eb13 07be 05da 123f ec4f 373f
00000090: 54e4 f0be 0047 d7be db8a 4a3f 2fb0 d6be
000000a0: 0c87 e7bd ded8 9dbf 5b7b c8be b81f 1dbf
000000b0: 32fc 253f dcb8 af3e 8327 183e 8dc7 e3be
000000c0: 2bad a83e 9f86 a1be ed6a 61bf 760c 46bf
000000d0: 0188 21bf 5d16 c83f cbad 6e3f 3199 b63f
000000e0: 65ec d7be c422 3bbf 849d 59bf b734 8c3f
000000f0: 6c6f 17bf 0277 343f 833b 3bbf 43f8 133f
00000100: d8bb babd 0f79 20bf 6d7a 5bbf 0d0f 86bf
00000110: ac01 433f d708 0cbf 1de4 14bf 4e06 ab3e
00000120: da1f 64be bc3f c63e 7e04 57bf 288b 5abe
00000130: 05c1 493f f60d d53f 9934 863f 0c42 d63f
00000140: c5b6 85bf e5a0 c63e dc01 febe eeb5 bd3f
00000150: b184 b43f cc44 53bf e8a0 dc3c 5996 7cbf
00000160: f0ff 68bf 6420 443f 4ba5 86bf 5672 143d
00000170: 72e0 04bf 7dc2 66bf f37a 6bbf 9f21 1d3f
00000180: a023 5b3f 664c a5be 6060 2d3f fb6c 413f
00000190: 6e48 3fbe ad0a 25bf 0326 4f3f c4b6 25be
000001a0: aa1a a8be 5bce 3ebf d28b dbbe c220 1abf
000001b0: eba4 153f 8fbf e33e 80e3 1dbd 9a23 42bf
000001c0: d6d0 a83f 19a8 12bf aa4c 2dbf 935e 18bf
000001d0: 6428 22bf 50de 953f 9e50 a73f e54a a23f
000001e0: 7f5a 1cbf 8af5 63bf 7c21 86bf 8085 553f
000001f0: a828 2dbf ee63 103f cc98 3fbf 7952 2f3f
00000200: 64ea 3e3f 0233 9bbf cff0 7bbf c3ea f7bd
00000210: 5ea1 793f 13de c9be d9f5 6dbe a42e 683f
00000220: fb8e 0dbf 85f8 0c3e 0a72 45bf c425 efbe
00000230: 3ce7 d53e 45fc 7d3f cddd 1c3f b1c8 a73f
00000240: c62a 8bbf ef53 143f 96aa c8be 1399 963f
00000250: 9897 d43f eecc 91bf 0040 be39 cea0 9dbf
00000260: 138c 7ebf 3b63 663f 7219 47bf 5b4f 1a3f
00000270: 9030 fabe 5d9e 6dbf 3e3c 52bf 9b4f 323f
00000280: fbb3 923f 3494 80bf 477e 513f b54c 0d3f
00000290: 44ff 37bf 623d e2be 2d46 403f 1b73 63bf
000002a0: bcd0 75bf a01f 74bf d0d0 e3be c3bc fbbe
000002b0: e6a2 5b3f f91a 56bf 228f 4e3f 5fd9 36bf
000002c0: 1dae c8bf aa79 28bf 934d 70bf cd6b e3be
000002d0: 732b af3d da4c a43f 30c1 0cbf 27ff 973f
000002e0: 5139 11be c033 17bf ba1a 33bf 88ab b93f
000002f0: f55f 21bf 8dea 963e f29c 67bf 149b 553f
00000300: 2708 bd3e de58 0dbe 0f8f 85bf a19f 3bbe
00000310: 001b 5e3f abf1 41bf 37ba fdbe 116b d83d
00000320: a105 84bf 5b77 0abf 59ec 26bf fff9 28bf
00000330: 1cec 423f 29c1 ca3f 366c 423f 1f8c a63f
00000340: b629 2cbf 08f8 91be 6353 8abe 0965 e53f
00000350: d131 143f ed7b 67bf 2404 d6bd ffcf 23bf
00000360: 1be2 d3be 95f4 443f c41f 81bf 638b 6d3f
00000370: 08c6 1dbf 5109 4dbf 9246 03bf 9e04 1b3f
00000380: 73e3 643f ab8e a83e f2b9 1c3f 8b6c 263f
00000390: 7c7f d2be 4849 2bbf 6112 343f d0c6 87bd
000003a0: 04b7 d0bd 0032 a3bf ac5c 09bf 3ab9 32bf
000003b0: dff6 183f c446 553f a80e 203e 5ac1 2abf
000003c0: 0b7c 40be 60f1 19bf c73a 0fbf 7c8c 5dbf
000003d0: 6e3d 8ebf 4c2c ec3f 87fe a23f 2469 c53f
000003e0: f13a f53d 8031 e0be 2160 5ebf b6ea b23f
000003f0: bd84 02bf 6099 453f 2796 5cbf 12e9 1d3f

bias f4 [4]
0.18759392 0.24988806 0.30502167 0.28121945
00000000: 9f18 403e a8e2 7f3e cd2b 9c3e fffb 8f3e
