lab2/problem1/neural-network-1-memory-30000.pth (torch, 23233 bytes, 6 tensors)

weight f4 [64, 8]
0.08851534 -1.2429819 -1.0129344 -0.21337791 0.6948597 -0.23458649 0.42569116 0.07110299
0.43277046 0.18105565 0.63807666 -0.71444434 -0.2043301 -0.33817536 -0.649755 -0.03601526
-0.19188657 0.56983197 -0.3561848 -0.48838103 0.14628834 0.27076548 -0.025544928 -0.010079698
-0.056947563 0.33610445 0.34806854 -0.358428 -0.21784493 -0.0023143312 -0.1496878 0.008854107
-0.83565575 -0.1805601 0.9838631 0.5715383 -0.21512516 0.554675 0.9028175 0.34502602
0.6604319 0.07225457 0.27922645 -0.7031975 0.053454246 0.7004978 0.3739903 0.14474712
-0.17524245 0.42555502 -0.05792479 -0.91407883 -0.14438805 -0.046285618 -0.0851366 0.41645914
0.07946737 0.11347168 -0.11109444 -0.8327526 0.28029644 1.1358942 -0.28477383 -0.039822575
0.64340246 0.24939607 0.40415278 0.70155203 -0.55313677 -0.6073441 -0.077770405 0.34124467
-0.32272968 -1.5363412 -0.27146876 -0.8403603 0.53411937 0.40777588 0.051494762 0.25258532
0.10567746 -0.32485557 0.43192306 -0.61830866 -0.620651 -0.3328039 0.39060995 0.43736133
-0.25400984 0.5057769 -0.13721558 0.5919279 -0.46658197 -0.75996584 -0.6372477 -0.18163711
-0.16732852 0.4745107 0.7428624 -0.48768273 -0.567282 0.91274965 0.09284715 0.56744784
-0.09438839 -0.16726579 -0.6413448 -0.051823214 -0.17246519 0.55364513 0.5356334 0.25771946
-0.2518659 0.4377847 -0.09214821 0.3844438 0.5005702 0.7968874 0.32659402 -0.5763322
0.15568255 -0.055304494 0.21279193 0.051988434 -0.14096324 0.6864259 0.5460818 0.013444388
0.18909548 -0.44810858 1.2376046 -1.0830184 0.32724252 -0.07939395 0.6084769 0.007419822
-0.7575362 0.020790726 -0.027929036 -0.5118174 -0.011534839 0.5794332 0.35932207 0.39514077
0.09490498 0.14641194 0.08454843 -0.38931268 -0.61095065 -1.0239613 0.18229647 0.15492886
-0.30414295 -0.15068685 0.10265955 0.11100172 -0.21918729 0.6025669 0.50132954 0.269176
-0.9986183 -0.42249075 -0.8354259 -0.065395005 0.37001207 0.09027767 0.006622864 0.18498437
-0.12972616 0.31612888 -0.59296834 -0.89595234 0.4763317 -0.048979145 0.3581506 -0.20766336
-0.18110594 -0.05698363 -0.013148145 0.2280709 -0.10817345 0.5950343 0.35625648 -0.2746425
0.22631611 -0.21724539 -0.0967527 0.18236552 -0.4778656 -0.7969365 -0.2146498 0.31936988
-0.01254289 0.6429716 0.5661288 -0.6517261 -1.2000805 -0.29424793 0.4254691 0.33362073
0.22287853 0.6574158 -0.08383395 -1.1447273 -0.46128428 -1.2887232 -0.23390637 -0.013717055
-0.10069368 0.35537332 -0.18969373 -0.11766326 0.087473616 -0.27536428 0.07902757 0.17441224
0.054382466 -0.05238216 0.34473014 -0.37874168 -0.15557463 0.68266654 -0.35989136 -0.0491595
0.26777112 0.18950939 0.4096795 0.599823 -0.5552971 -0.2558998 -0.61044717 -0.0046952954
0.00639444 0.17002694 -0.020828487 0.23029995 0.2259897 -0.30104706 0.7207411 0.24387799
0.14104484 0.18465579 1.4272649 1.0363427 -0.6640784 0.14728431 -0.12567908 -0.03325564
0.016831277 0.47725686 0.5159627 -1.2565565 0.059019584 -1.4730763 0.020571591 -0.3081194
00000000: 8847 b53d 081a 9fbf d6a7 81bf bd7f 5abe
00000010: 53e2 313f 7137 70be 31f4 d93e 729e 913d
00000020: 1794 dd3e a766 393e fe58 233f d3e5 36bf
00000030: e93b 51be 5225 adbe 5856 26bf bd84 13bd
00000040: ea7d 44be 82e0 113f db5d b6be 140d fabe
00000050: 9ccc 153e c6a1 8a3e 9943 d1bc 5125 25bc
00000060: d941 69bd e215 ac3e 0a36 b23e e083 b7be
00000070: be12 5fbe 09ac 17bb c247 19be d110 113c
00000080: 89ed 55bf bfe4 38be 74de 7b3f 5650 123f
00000090: c549 5cbe 2eff 0d3f 0c1f 673f 40a7 b03e
000000a0: 1112 293f 34fa 933d c5f6 8e3e c004 34bf
000000b0: d7f2 5a3d d353 333f a87b bf3e 9738 143e
000000c0: c272 33be 59e2 d93e 8b42 6dbd 1201 6abf
000000d0: 76da 13be fd95 3dbd 195c aebd 223a d53e
000000e0: cabf a23d d763 e83d 7b85 e3bd 462f 55bf
000000f0: 0483 8f3e fb64 913f e0cd 91be ff1c 23bd
00000100: 06b6 243f af61 7f3e 1ded ce3e ea98 333f
00000110: 5f9a 0dbf e77a 1bbf 1746 9fbd 9fb7 ae3e
00000120: d33c a5be d4a6 c4bf f4fd 8abe da21 57bf
00000130: 0cbc 083f 00c8 d03e 2cec 523d dd52 813e
00000140: 6d6d d83d 7853 a6be 0525 dd3e 7a49 1ebf
00000150: fce2 1ebf 4665 aabe 07fe c73e d3ed df3e
00000160: 940d 82be 987a 013f 3e82 0cbe 9688 173f
00000170: d5e3 eebe 1f8d 42bf aa22 23bf 14ff 39be
00000180: 2b58 2bbe 11f3 f23e 3b2c 3e3f 8db1 f9be
00000190: 6539 11bf f6a9 693f a626 be3d 4344 113f
000001a0: b34e c1bd b947 2bbe 2c2f 24bf 9444 54bd
000001b0: b79a 30be b0bb 0d3f 451f 093f cef3 833e
000001c0: 91f4 80be 5125 e03e 33b8 bcbd d1d5 c43e
000001d0: 5e25 003f d000 4c3f 5537 a73e 828a 13bf
000001e0: 3f6b 1f3e f786 62bd 21e6 593e d3f1 543d
000001f0: ab58 10be 9cb9 2f3f 04cc 0b3f da45 5c3c
00000200: 3fa2 413e 7d6e e5be d469 9e3f 59a0 8abf
00000210: 558c a73e 4c99 a2bd 24c5 1b3f fa21 f33b
00000220: e4ed 41bf 5051 aa3c 6fcb e4bc 7706 03bf
00000230: 9ffc 3cbc bc55 143f 10f9 b73e e44f ca3e
00000240: 8b5d c23d 03ed 153e ba27 ad3d fe53 c7be
00000250: 4367 1cbf 2a11 83bf edab 3a3e aca5 1e3e
00000260: a0b8 9bbe a74d 1abe 2c3f d23d df54 e33d
00000270: a272 60be d341 1a3f 2257 003f 70d1 893e
00000280: 73a5 7fbf b550 d8be 79de 55bf d1ed 85bd
00000290: 3972 bd3e 80e3 b83d 9c04 d93b 8b6c 3d3e
000002a0: efd6 04be a5db a13e c6cc 17bf 225d 65bf
000002b0: c0e1 f33e 5b9e 48bd 845f b73e b4a5 54be
000002c0: d673 39be ab67 69bd 516b 57bc 6b8b 693e
000002d0: 0b8a ddbd 2b54 183f 4067 b63e f19d 8cbe
000002e0: 69bf 673e 9375 5ebe 4826 c6bd 07be 3a3e
000002f0: cdaa f4be 0804 4cbf 28cd 5bbe 7384 a33e
00000300: b280 4dbc c999 243f d1ed 103f 86d7 26bf
00000310: 3d9c 99bf aaa7 96be 16d7 d93e 56d0 aa3e
00000320: 453a 643e 674c 283f 22b1 abbd 6d86 92bf
00000330: 742d ecbe e2f4 a4bf 2785 6fbe 80bd 60bc
00000340: 7d38 cebd 7ef3 b53e 133f 42be 6ff9 f0bd
00000350: 5e25 b33d 8cfc 8cbe 35d9 a13d 1f99 323e
00000360: 26c0 5e3d ad8e 56bd 7880 b03e 6eea c1be
00000370: f54e 1fbe 3cc3 2e3f ae43 b8be 795b 49bd
00000380: 4c19 893e c00e 423e 83c1 d13e 008e 193f
00000390: f327 0ebf 4c05 83be 4446 1cbf feda 99bb
000003a0: 7388 d13b 8b1b 2e3e 81a0 aabc c0d3 6b3e
000003b0: d869 673e d722 9abe 7d82 383f 27bb 793e
000003c0: 0f6e 103e 6816 3d3e 9eb0 b63f e1a6 843f
000003d0: 0b01 2abf b3d1 163e 04b2 00be 1137 08bd
000003e0: bfe1 893c 035b f43e 2216 043f d8d6 a0bf
000003f0: 85be 713d c48d bcbf c185 a83c d3c1 9dbe

bias f4 [64]
0.4809221 0.020446936 0.8846219 0.87007964 0.5473945 0.112858854 -0.12944603 0.29664198
0.21668097 0.12803657 -0.10627778 0.01636317 0.36308518 -0.2041046 0.06660655 -0.13360319
0.41104227 0.028813263 -0.028096948 0.4078616 -0.060642473 0.6176301 0.33859885 0.44233224
0.1798356 0.12099568 0.7718263 0.3250615 0.34055933 0.755438 -0.08018198 0.3052776
-0.16863863 -0.009728697 -0.2782802 0.37481433 -0.23900399 -0.041063216 0.6427436 0.6811389
0.33723217 0.46031755 -0.05148226 0.3591479 0.17541172 -0.07523185 -0.12290346 0.14068021
0.26605234 -0.07309084 0.22289899 0.22629026 -0.21433438 0.47428283 -0.22529094 -0.33107296
0.023335515 0.7859523 0.010200083 0.5854361 0.30384505 0.08922137 -0.055073705 0.6755995
00000000: 6c3b f63e 5580 a73c 9576 623f 8abd 5e3f
00000010: 0c22 0c3f 8b22 e73d 808d 04be 75e1 973e
00000020: 9ee1 5d3e 051c 033e 2aa8 d9bd 0e0c 863c
00000030: 4de6 b93e cc00 51be 0469 883d 46cf 08be
00000040: 2274 d23e cb09 ec3c 922b e6bc 3cd3 d03e
00000050: 3e64 78bd 021d 1e3f d45c ad3e 5f79 e23e
00000060: d326 383e 95cc f73d 6996 453f 766e a63e
00000070: cb5d ae3e 6364 413f 7336 a4bd 584d 9c3e
00000080: 9baf 2cbe 1d65 1fbc be7a 8ebe aae7 bf3e
00000090: 76bd 74be e731 28bd d88a 243f 1e5f 2e3f
000000a0: b2a9 ac3e beae eb3e 10df 52bd 3ce2 b73e
000000b0: 219f 333e 2813 9abd cfb4 fbbd 790e 103e
000000c0: 0338 883e a6b0 95bd a23f 643e a2b8 673e
000000d0: 797a 5bbe 33d5 f23e abb2 66be 6582 a9be
000000e0: 1f2a bf3c 2c34 493f 401e 273c 24df 153f
000000f0: 9491 9b3e b2b9 b63d f794 61bd 17f4 2c3f

weight f4 [64, 64]
-0.34921873 0.5745879 0.14787388 -0.07796293 -0.13344607 0.04893694 -0.2633415 -0.12529191
0.5344788 -0.3487357 0.55240285 0.2350709 -0.07384581 0.24317564 0.39278704 0.2748011
-0.4130989 0.073693596 0.13877685 0.13452648 0.34238398 0.0007177752 0.4540214 0.31594357
0.3219631 -0.040538855 0.04123022 0.21741986 0.46084964 -0.022006147 -0.37443393 -0.16509023
0.63695765 0.056338325 0.54968506 -0.0028939352 0.18222994 -1.5147201 -0.09373329 0.26833162
0.35278106 0.13368578 0.17862643 0.020920862 -0.0647706 -1.1138943 0.020947525 0.26287225
-0.4187283 0.49854648 -0.48633963 0.2101733 0.2520542 -0.09384701 -0.40695354 0.1669041
-0.77664876 -0.006603894 0.26051173 0.26090488 0.30104765 0.3824519 0.16675048 0.18209104
-0.2290674 0.12624952 -0.020997027 0.28844887 0.30841842 0.054385677 0.24656372 0.022102112
0.12656197 -0.30402645 -0.27724397 -0.4657525 0.4293763 -0.10744797 -0.24728635 0.04249265
0.47782272 0.18953373 0.028705945 0.07822133 -0.6343155 -0.2619513 0.27975595 -0.23109633
0.19268042 0.07962379 -0.014688919 0.48698235 0.5674564 -0.031421587 0.50663656 -0.017601501
-0.029633546 -0.09068472 0.0010947062 -0.1850783 -0.7215539 0.18937325 0.18900964 0.033220164
0.42339933 0.15106046 -0.37796095 -0.01597992 0.1517668 -0.2092678 -0.053172357 -0.24508484
0.064224936 -0.30884162 0.46605393 0.11728537 -0.35685465 0.11714303 -0.15486635 -0.07616472
-1.8812058 -0.21775113 0.12105585 -0.5678091 -0.041431386 -0.36836678 -0.16193177 -0.377902
-0.39727753 0.47908804 0.040027928 -0.15317202 0.13349287 0.09205496 -0.23405568 0.11138695
0.14377443 -0.10370795 0.540069 -0.064870976 0.29039043 0.28792715 0.49245006 0.35454932
-0.34445107 0.23844096 0.112712875 0.25187495 0.74099964 0.20714794 0.4744558 0.16840057
0.34869704 -0.24201517 -0.17673129 0.44043294 0.22401519 -0.09919218 -0.5252902 -0.28074723
0.6172586 0.4420569 0.76960206 0.13897671 0.47554186 -1.6385391 -0.03376338 -0.107517004
0.31795827 -0.0013958345 0.14354633 -0.0038296704 0.08649014 -0.6415289 0.31729642 0.43756035
-0.33257097 0.19780134 -0.7093845 0.25992292 0.3009596 0.16214678 -0.41094086 0.62298775
-1.3005586 0.08568981 0.44996524 0.29927838 0.23616306 0.34678048 0.19604376 0.19011818
-0.059414 -0.021661311 -0.006454125 0.08278668 -0.08520047 0.025309011 0.1012536 0.12269296
-0.11014947 -0.10962249 0.032155007 -0.0017898977 -0.008764967 -0.027277127 -0.032959446 -0.060866162
-0.092279345 -0.03116493 -0.12149477 0.090595216 -0.08072452 -0.09539308 0.032226488 -0.078743786
-0.10918531 -0.08466858 -0.033301055 -0.054705814 -0.101040065 -0.07929486 -0.047630116 0.11421995
-0.02964136 0.06867555 0.09999314 -0.10133824 -0.031242207 0.031902254 -0.10669106 0.0285393
0.07536547 -0.05694671 -0.094771 -0.046196416 -0.05709076 0.09831859 -0.118608266 -0.048387975
-0.013795972 -0.10322243 -0.027534336 0.099430025 -0.121896386 -0.10607952 -0.0063181818 -0.07662502
-0.012414351 -0.09973441 -0.021275818 -0.04902886 -0.07370074 0.017038092 -0.07571632 0.053018138
00000000: cccc b2be 3118 133f 406c 173e 07ab 9fbd
00000010: 16a6 08be 1a72 483d b2d4 86be 864c 00be
00000020: 9ad3 083f 7c8d b2be 466a 0d3f 6db6 703e
00000030: 793c 97bd 0903 793e 621b c93e bbb2 8c3e
00000040: b381 d3be abec 963d 851b 0e3e 4fc1 093e
00000050: f44c af3e 1429 3c3a 7e75 e83e 5bc3 a13e
00000060: 59d8 a43e 120c 26bd 05e1 283d 50a3 5e3e
00000070: 7cf4 eb3e 3c46 b4bc ceb5 bfbe 6a0d 29be
00000080: a80f 233f 04c3 663d 29b8 0c3f 2da8 3dbb
00000090: 7c9a 3a3e 59e2 c1bf 3df7 bfbd c362 893e
000000a0: b89f b43e ede4 083e d9e9 363e 3a62 ab3c
000000b0: 73a6 84bd 1794 8ebf 259a ab3c 3197 863e
000000c0: 8e63 d6be 7c41 ff3e 8201 f9be ab37 573e
000000d0: 400d 813e dc32 c0bd 375c d0be e9e8 2a3e
000000e0: 74d2 46bf 7a65 d8bb cb61 853e 5395 853e
000000f0: eb22 9a3e bcd0 c33e a3c0 2a3e 1376 3a3e
00000100: a590 6abe 8e47 013e f501 acbc 92af 933e
00000110: 05e9 9d3e 84c3 5e3d 337b 7c3e 7d0f b53c
00000120: 7699 013e 5ba9 9bbe ecf2 8dbe 1d77 eebe
00000130: 36d7 db3e ae0d dcbd a238 7dbe c60c 2e3d
00000140: 2ea5 f43e 2115 423e bb28 eb3c 8132 a03d
00000150: 8062 22bf 7b1e 86be 2c3c 8f3e 84a4 6cbe
00000160: 044e 453e cc11 a33d cba9 70bc c055 f93e
00000170: d344 113f ecb3 00bd efb2 013f 0631 90bc
00000180: 0dc2 f2bc e9b8 b9bd 3f7c 8f3a 2a85 3dbe
00000190: c2b7 38bf 10eb 413e be8b 413e de11 083d
000001a0: ccc7 d83e 98af 1a3e 1984 c1be 52e8 82bc
000001b0: c268 1b3e 4c4a 56be 42cb 59bd 85f7 7abe
000001c0: 5d88 833d 7d20 9ebe 9f9e ee3e 5033 f03d
000001d0: a7b5 b6be afe8 ef3d 4995 1ebe 40fc 9bbd
000001e0: 5acb f0bf 27fa 5ebe 21ec f73d f05b 11bf
000001f0: f5b3 29bd 929a bcbe 71d1 25be 5f7c c1be
00000200: f667 cbbe 074b f53e 53f4 233d 20d9 1cbe
00000210: 5bb2 083e 5087 bc3d 4bac 6fbe d71e e43d
00000220: 9b39 133e d564 d4bd f641 0a3f 13db 84bd
00000230: 0eae 943e 306b 933e 6a22 fc3e 7d87 b53e
00000240: e45b b0be de29 743e 02d6 e63d c1f5 803e
00000250: 27b2 3d3f 971e 543e dfeb f23e 3371 2c3e
00000260: 6b88 b23e d3d2 77be 0cf9 34be 6d80 e13e
00000270: 3d64 653e 4525 cbbd 6b79 06bf 1abe 8fbe
00000280: a904 1e3f 4855 e23e a404 453f e94f 0e3e
00000290: 397a f33e a6bb d1bf 784b 0abd e031 dcbd
000002a0: 6dcb a23e 6ff4 b6ba cffd 123e 35fb 7abb
000002b0: be21 b13d 3d3b 24bf ad74 a23e e907 e03e
000002c0: be46 aabe 6f8c 4a3e 399a 35bf 9e14 853e
000002d0: 6017 9a3e ce09 263e d766 d2be 207c 1f3f
000002e0: b478 a6bf 247e af3d d861 e63e 043b 993e
000002f0: bbd4 713e 368d b13e b2bf 483e 57ae 423e
00000300: 185c 73bd 1073 b1bc 207d d3bb 108c a93d
00000310: 967d aebd d854 cf3c 0c5e cf3d 7246 fb3d
00000320: 0c96 e1bd c281 e0bd f8b4 033d 009b eaba
00000330: f09a 0fbc 4874 dfbc 7c00 07bd cc4e 79bd
00000340: f4fc bcbd 984d ffbc 40d2 f8bd fc89 b93d
00000350: e652 a5bd 725d c3bd ecff 033d 6c44 a1bd
00000360: 8c9c dfbd b866 adbd b066 08bd 3413 60bd
00000370: 18ee cebd 5865 a2bd cc17 43bd 26ec e93d
00000380: 70d2 f2bc c4a5 8c3d 34c9 cc3d 6c8a cfbd
00000390: a8ef ffbc f0ab 023d d880 dabd 40cb e93c
000003a0: 3659 9a3d f440 69bd 4c17 c2bd 7438 3dbd
000003b0: 00d8 69bd 425b c93d e4e8 f2bd 7832 46bd
000003c0: 8008 62bc 4866 d3bd b08f e1bc f8a1 cb3d
000003d0: d0a4 f9bd 3840 d9bd c008 cfbb 94ed 9cbd
000003e0: 9065 4bbc 8e41 ccbd a04a aebc 7cd2 48bd
000003f0: 6af0 96bd 7893 8b3c 2811 9bbd 8c29 593d

bias f4 [64]
-0.123030305 0.2615088 -0.101244986 0.08789778 -0.054950513 0.13575703 0.45498815 -0.09678018
-0.03416155 0.4081611 0.018002683 -0.2084784 0.5797153 0.1958644 0.031347085 0.114895806
0.1457944 -0.09756 -0.08822243 -0.24807155 0.16280544 0.025874771 0.056431606 -0.0592547
0.10292915 -0.16291444 0.029020278 0.5138061 0.48251203 0.094421275 -0.29611734 0.5733035
-0.04901151 -0.3162457 0.038866762 -0.11359143 0.4095729 -0.17905657 0.38095367 -0.15511332
-0.110324785 -0.1820883 -0.071399674 0.16758645 -0.054764878 -0.031445663 0.44351402 0.21148838
-0.05133774 -0.15131022 0.0051048896 -0.051435094 0.19799376 0.32261023 0.3258251 -0.1330481
0.54812473 0.20777588 -0.064036176 -0.07472873 -0.027525393 4.8274615e-05 -0.0732092 -0.15175596
00000000: 50f7 fbbd 7be4 853e 8859 cfbd c003 b43d
00000010: ca13 61bd e403 0b3e 35f4 e83e b034 c6bd
00000020: fbec 0bbd 7efa d03e 5d7a 933c 5d7b 55be
00000030: 3968 143f ad90 483e cd65 003d 7e4e eb3d
00000040: 214b 153e 8acd c7bd f6ad b4bd 7806 7ebe
00000050: 78b6 263e 54f7 d33c d424 673d 0eb5 72bd
00000060: 85cc d23d 0bd3 26be efbb ed3c cc88 033f
00000070: d10b f73e f15f c13d b19c 97be 05c4 123f
00000080: 4bc0 48bd f5ea a1be c132 1f3d a0a2 e8bd
00000090: 8ab3 d13e 9b5a 37be 5c0c c33e 07d6 1ebe
000000a0: f6f1 e1bd 5b75 3abe fe39 92bd c89b 2b3e
000000b0: 2351 60bd 2bcd 00bd 4514 e33e 6990 583e
000000c0: 8647 52bd 11f1 1abe eb46 a73b 9bad 52bd
000000d0: e0be 4a3e 2b2d a53e 8cd2 a63e c33d 08be
000000e0: e751 0c3f 33c3 543e 6625 83bd 600b 99bd
000000f0: ef7c e1bc 797a 4a38 b4ee 95bd ea65 1bbe

weight f4 [4, 64]
-0.5578572 0.47745103 -0.31282273 -0.06042479 -0.4089224 -0.2726645 0.6182303 -0.703958
-0.18993464 0.63544565 1.6061225 -0.6959268 0.5916407 1.0899796 -0.34926906 -0.39724484
-0.33519566 -0.0015470982 -0.49682745 -0.816128 -0.45206115 0.057316184 -0.6632033 -0.5098806
-0.5314684 -0.6858311 -0.56666696 0.7277802 0.6213693 -0.37530148 -0.48624796 0.64556694
-0.29757404 -0.3237989 -0.472391 -0.6160949 0.68290794 -0.50038916 0.6664965 -0.69236916
0.05683531 -0.55245835 -0.7020185 -0.79588175 -0.40305033 -0.24779604 0.57865584 1.0016651
-0.3534412 -0.53316027 0.49036926 -0.6247443 -0.35692522 0.52520674 0.39524376 -0.56391174
0.49186006 -0.5380657 -0.59461313 -0.7720073 0.020078136 -0.4309712 -0.50639296 -0.7865033
-0.57601297 1.2477376 -0.46708968 0.055187926 -0.68144226 -0.26628658 0.40224975 -0.44776586
-0.08179032 0.4506369 1.762535 -0.57924646 0.6513592 1.2219086 -0.3070589 -0.40074077
-0.44793153 -0.010518268 -0.61722064 -0.52612245 -0.20722046 -0.09878132 -0.49387446 -0.6339288
-0.56694746 -0.69289905 -0.732856 0.7634413 0.56647146 -0.83474624 -0.6849075 0.4786425
-0.46208614 -0.751173 -0.5920971 -0.59162956 0.6933172 -0.7233325 0.74537647 -0.64414465
-0.050560057 -0.7095107 -0.45312 -0.43122667 -0.42872208 -0.46306172 0.46094966 1.3258735
-0.19653448 -0.7141424 0.5705555 -0.5960865 -0.12811212 0.58184767 0.6260485 -0.4343604
0.58130354 -0.4136369 -0.52512294 -0.54227555 0.042507295 -0.5781499 -0.74066925 -0.76634747
-0.82376367 0.08007352 -0.52355105 0.043996125 -0.58996713 -0.81805485 0.7117293 -0.50344276
-0.7734303 0.67190284 1.2025156 -0.62393636 0.70108324 -0.48460907 -0.9854603 -0.3115035
-0.6930573 -0.073551655 -0.47729483 -0.50467944 -0.77025276 -0.111550435 -0.30063906 -0.4175358
-0.2193891 -0.3290587 -0.36309442 0.68430734 0.60908693 -0.32234102 -0.72997296 0.5839607
0.94892865 -0.6498094 -0.99557686 -0.56934273 0.56806254 -0.6785269 0.5372857 -0.6848477
-0.025202706 -0.597018 -0.44490167 -0.85669947 -0.35205448 -0.4527055 0.62030405 0.375659
-0.57392 -0.49665004 -0.6798849 -0.4861929 -0.7278159 0.7366852 0.7563898 -0.54879826
0.68744326 -0.40909204 -0.45663851 -0.5363984 0.011123137 -0.39768684 -0.53943944 -0.15685482
-0.33023238 -0.16099486 -0.35316375 -0.041385174 -0.52975637 -0.4220046 0.6931268 -0.7008227
-0.38589552 0.70989835 1.4464484 -0.7601606 0.54427415 1.6942276 -0.33961606 -0.620206
-0.43770435 -0.008655086 -0.47060007 -0.70700383 -0.60743386 -0.06018425 -0.6943825 -0.3165994
-0.23072007 -0.94482243 -0.5394239 0.73200333 0.5482476 0.46797064 -0.52757025 0.5367003
-0.5554789 0.022390243 -0.44331482 -0.5483379 0.66244483 -0.579561 0.6538726 -0.48642728
0.057185635 -0.6302997 -0.6437184 -0.83244145 -0.38687357 -0.25659913 0.55596316 0.9751715
-0.30758947 -0.5202385 0.62117434 -0.5469964 -0.50136614 0.38111162 0.6025573 -0.86773837
0.66021234 -0.6176503 -0.56277823 -0.6492465 -0.082014136 -0.31307653 -0.718907 -0.82049257
00000000: bbcf 0ebf 7674 f43e 4d2a a0be fc7f 77bd
00000010: 475e d1be ae9a 8bbe 5744 1e3f 9736 34bf
00000020: 3a7e 42be 91ac 223f 6c95 cd3f 4228 32bf
00000030: c475 173f 7484 8b3f 65d3 b2be ad63 cbbe
00000040: c49e abbe 00c8 caba 2b60 febe c4ed 50bf
00000050: 8f74 e7be 60c4 6a3d b1c7 29bf 8987 02bf
00000060: 500e 08bf a192 2fbf 1611 11bf ce4f 3a3f
00000070: 0f12 1f3f 8427 c0be 7ef5 f8be e043 253f
00000080: a05b 98be f8c8 a5be 3cdd f1be 65b8 1dbf
00000090: 0ed3 2e3f 8119 00bf 849f 2a3f 1b3f 31bf
000000a0: 24cc 683d e96d 0dbf 7cb7 33bf e8be 4bbf
000000b0: 9d5c cebe 3fbe 7dbe ca22 143f 9036 803f
000000c0: 3ff6 b4be 317d 08bf ae11 fb3e 3eef 1fbf
000000d0: e7be b6be f373 063f 645d ca3e 855c 10bf
000000e0: 15d5 fb3e acbe 09bf 9138 18bf 45a2 45bf
000000f0: e77a a43c 42a8 dcbe f8a2 01bf 4858 49bf
00000100: 9675 13bf deb5 9f3f 6126 efbe bc0c 623d
00000110: 0073 2ebf b756 88be aef3 cd3e 9141 e5be
00000120: af81 a7bd e1b9 e63e bf9a e13f 7f49 14bf
00000130: 7abf 263f 8067 9c3f d336 9dbe e52d cdbe
00000140: 4857 e5be d054 2cbc 2c02 1ebf f6af 06bf
00000150: 9a31 54be dc4d cabd 1ddd fcbe 2849 22bf
00000160: 7823 11bf d561 31bf 739c 3bbf e470 433f
00000170: 4604 113f eeb1 55bf 1956 2fbf a110 f53e
00000180: 8e96 ecbe e04c 40bf ad93 17bf 0975 17bf
00000190: 3c7d 313f 522c 39bf fed0 3e3f aae6 24bf
000001a0: 1018 4fbd 7ea2 35bf 58ff e7be bec9 dcbe
000001b0: 7681 dbbe 6d16 edbe 9801 ec3e 39b6 a93f
000001c0: 5640 49be 09d2 36bf ed0f 123f 2099 18bf
000001d0: d32f 03be f8f3 143f b744 203f 7d64 debe
000001e0: 4fd0 143f 37c8 d3be 756e 06bf 92d2 0abf
000001f0: 211c 2e3d a201 14bf 809c 3dbf 592f 44bf
00000200: 2de2 52bf 96fd a33d 7107 06bf 4835 343d
00000210: 1608 17bf 0b6c 51bf e433 363f a0e1 00bf
00000220: 87ff 45bf d301 2c3f 08ec 993f 4bba 1fbf
00000230: 317a 333f ae1e f8be 2047 7cbf 637d 9fbe
00000240: 346c 31bf 40a2 96bd fd5f f4be ac32 01bf
00000250: 492f 45bf 8e74 e4bd 5ded 99be 41c7 d5be
00000260: 89a7 60be 627a a8be 83e7 b9be c42e 2f3f
00000270: 1fed 1b3f e209 a5be 82df 3abf 737e 153f
00000280: fdec 723f e959 26bf 20de 7ebf 72c0 11bf
00000290: 8c6c 113f f0b3 2dbf 8e8b 093f 2e52 2fbf
000002a0: e875 cebc 2cd6 18bf 27ca e3be a850 5bbf
000002b0: 7c40 b4be 04c9 e7be 3fcc 1e3f 6056 c03e
000002c0: 6cec 12bf ea48 febe f00c 2ebf 47ee f8be
000002d0: 2552 3abf 6797 3c3f c3a2 413f 0b7e 0cbf
000002e0: 48fc 2f3f 8374 d1be 86cc e9be 6851 09bf
000002f0: d13d 363c 9c9d cbbe b418 0abf 8d9e 20be
00000300: 3814 a9be d6db 24be e1d1 b4be 8083 29bd
00000310: 1d9e 07bf fd10 d8be c270 313f 1e69 33bf
00000320: 1994 c5be e6bb 353f 3925 b93f e399 42bf
00000330: 8d55 0b3f 73dc d83f 28e2 adbe d2c5 1ebf
00000340: c91a e0be 10ce 0dbc 7ef2 f0be 34fe 34bf
00000350: c980 1bbf c383 76bd 0dc3 31bf 5119 a2be
00000360: e241 6cbe e2df 71bf af17 0abf 9264 3b3f
00000370: f459 0c3f d999 ef3e d80e 07bf 3165 093f
00000380: dd33 0ebf be6b b73c 29fa e2be df5f 0cbf
00000390: fc95 293f 1c5e 14bf 3264 273f ff0c f9be
000003a0: 7c3b 6a3d 525b 21bf bbca 24bf e21a 55bf
000003b0: 4b14 c6be f660 83be 9a53 0e3f d7a4 793f
000003c0: 5e7c 9dbe 5a2e 05bf 4805 1f3f f507 0cbf
000003d0: 8859 00bf 1021 c33e 3241 1a3f 1a24 5ebf
000003e0: ad03 293f 541e 1ebf 3c12 10bf 0535 26bf
000003f0: 07f7 a7bd 914b a0be 4a0a 38bf cd0b 52bf

bias f4 [4]
0.06334217 0.089546055 0.34780356 0.10371971
00000000: 8ab9 813d ec63 b73d 4f13 b23e 006b d43d
