lab2/problem1/neural-network-1-gamma-0_01.pt (torch_old, 26825 bytes, 6 tensors)

weight f4 [64, 8]
00000000: b2f5 b3bc 79f6 c1bd 1a90 153f 9f4f 023f
00000010: b1fe c0be d26f 0cbc fc91 9f3d 054a 82be
00000020: f603 52be 6871 233f 2f5d 33be dea1 f8be
00000030: 2799 4abe e2b1 943d 1ad3 e1be a01f eabe
00000040: ebaf cebc 1c26 26c0 e27f eb3d d394 88be
00000050: f12d a43d a1fb 3cbd fd86 793d be46 663e
00000060: 8bc2 0e3d 0528 023e c823 06be 821d 5dbd
00000070: 12d5 413f f762 d33e 09ad 79bc bc64 ca3e
00000080: 8100 51bd c6a7 9d3e 8fd3 be3e 9de3 163f
00000090: 2dc0 11bf f3e0 02be 71ac 7cbe 8f97 453e
000000a0: 5203 943e fa02 5abf 5c78 813e 6ae1 803d
000000b0: d231 73be 7e17 5ebe cc33 bc3e 035c 183e
000000c0: 08eb 86be 99b1 5dbd a781 42bf c6dd e23e
000000d0: f525 2dbe 931a acbc d751 f9be 1b34 41be
000000e0: cb89 2fbe 1c51 f43d 754e 0abf 6c27 22be
000000f0: 60f8 113f 6b0b 973e 2242 9ebe b497 cbbe
00000100: 049a 08bd 9701 883c 8425 83be 7f30 8cbe
00000110: 19ff 013f fb60 72be 944d 82bf d14b 18be
00000120: e0fa 7cbd 1970 403e e0b8 2e3f 1e58 cabe
00000130: d781 3abe de38 d53e 51c1 ce3e c086 223f
00000140: 7ebf 67be c806 8abe 2475 41bf dd0e 5bbb
00000150: 7d51 0cbe 67ac 63be c023 9c3e 4357 1a3d
00000160: aeab 1bbf 1c27 64bf ef9b 773e be75 253f
00000170: f152 123d 3888 ffbc a59c b13e a33e 0c3f
00000180: f14f 223f 01d5 c0be aec6 2c3f d2b3 823d
00000190: f090 953d 0331 3fbe f213 313e fa38 9dbd
000001a0: 5115 753a 78e0 033c 804c 18be f322 fabe
000001b0: a11d e7bd d806 7abd 0f5a 013e 6e48 39bd
000001c0: 2332 4d3d 572d 143c 93f4 31bf 4039 bf39
000001d0: 7413 f53e 9b58 623e 3d4c fa3e 5e0e 4ebe
000001e0: 8e00 9dbe 133d 013f 2b63 6ebe 176a 1e3d
000001f0: 294d c23e e8a9 6d3e c63d df3e f3e9 3a3e
00000200: 05e6 00be 81fd 9c3c 2528 84bf fe05 50be
00000210: 201b 21bf df0d e9bd 41ba 013e b333 d4be
00000220: 72f3 d4bd 731e f0bc 980a 86bf 9629 a43e
00000230: a729 443e e09a a8bc 5c33 03be d42e 043e
00000240: 0e5b a73d 610f 05bd 1c7d a43e 17f9 4f40
00000250: c8f7 eebd 0368 1c3e 5126 cb3e 2498 9fbe
00000260: 76ff 12be 4ee0 863d 55e4 77bf 88a4 993d
00000270: 7051 f53e afb3 8ebe 9e1c 3abd 291a 483e
00000280: 51dd 75be f03a d63e cc74 9fbe 934f e4be
00000290: 0307 0bbe 9cec 47bc fcb8 8dbe a316 b7bd
000002a0: 21e6 0bbd 09b5 eabe ae57 9f3e 2c1d 123f
000002b0: a0ff 0dbc 6be8 103f 05bd a53e e6f8 a63e
000002c0: 8cda 023f 0c69 1bbf b3c9 3f3f 7185 0b3f
000002d0: af3c 8cbd 4567 993c 97f4 533e 31e8 d33c
000002e0: 78cc 953e beae 123e 9640 963e 07e4 10be
000002f0: 14f8 0e3f 3e6e ebbe 6ff9 17be b4f6 103f
00000300: 5a9d 843e 5245 d4bf 2617 56bd 4e2b c1be
00000310: 184c 32be 04a2 aebe c49f 073d e898 d13e
00000320: 643f a93b 94f6 3d3e 59e2 a73e b49e 20bf
00000330: 4dd3 a9bd ec95 403e d1ee 0a3e 596c 213f
00000340: 6cbd 833d 542d 3ebd 871c 10bf 8e62 fbbe
00000350: 117c 0dbf 66b6 c23c 55a6 ee3e 10ea 0f3f
00000360: 4012 9cbe 914a 3dbd 35d7 283f e286 1fbe
00000370: 0697 023f c7f2 6f3d bc5b 10bc 8989 7639
00000380: 762d 9b3d f6ea 8b3d 06c0 1e3f 4fb8 babe
00000390: b0bb 55bf aaa7 3d3d 437a 223e 9d87 983e
000003a0: 6dcf 7cbc 9088 b5be a2e4 003f dfde d0be
000003b0: eca0 35bf 97e9 043f 7634 963d 0f4b 943e
000003c0: 526e 1dbe 3e9f 54be d275 10be 28de 3ebf
000003d0: dbab 963e 495b f2bd f7fa d53e e838 ef3c
000003e0: 3672 0cbf a099 1ebf c5e4 03bf 7c7c 5bbe
000003f0: d381 efbd 97c2 9fbe b11e 363e 4de8 43bd
-0.021967743 -0.09470839 0.58423007 0.5090274 -0.37694314 -0.008571582 0.07791516 -0.25447097
-0.20509323 0.6384492 -0.17516015 -0.48560995 -0.19784985 0.07260491 -0.4410637 -0.45727253
-0.025230369 -2.596076 0.11499001 -0.26676044 0.08016575 -0.04613841 0.06091975 0.22487924
0.0348535 0.12710579 -0.13099587 -0.05398322 0.75715744 0.41286442 -0.015239009 0.3952998
-0.05102587 0.30792063 0.3727078 0.5894106 -0.5693386 -0.12781124 -0.24675156 0.19296096
0.28908783 -0.8516079 0.2528714 0.06292994 -0.23749474 -0.21688649 0.36758268 0.1487885
-0.2635119 -0.05412445 -0.75979084 0.44309825 -0.1690901 -0.021008765 -0.4869525 -0.18867533
-0.17142408 0.11929533 -0.54025966 -0.15835351 0.57019615 0.295009 -0.3090983 -0.39764178
-0.033350006 0.01660232 -0.2561456 -0.2738075 0.50779873 -0.23669808 -1.0179925 -0.14872672
-0.06176269 0.18792762 0.68250847 -0.39520353 -0.18213592 0.4164495 0.40381864 0.6348686
-0.22631642 -0.269583 -0.7556937 -0.0033425607 -0.1370296 -0.22233735 0.30496025 0.037680876
-0.6080884 -0.89122176 0.24180578 0.64632785 0.03572363 -0.031192884 0.34689823 0.54783076
0.6340323 -0.3766251 0.6749066 0.06381954 0.07303035 -0.1867104 0.17292765 -0.07676883
0.00093491847 0.008049123 -0.14872932 -0.4885479 -0.11284948 -0.061041683 0.12632011 -0.04523509
0.050096642 0.009044013 -0.69513816 0.00036473013 0.47866404 0.22104113 0.4888629 -0.20122668
-0.30664486 0.50483817 -0.23280017 0.038675394 0.37949494 0.23209345 0.43601817 0.18253307
-0.12587745 0.019163849 -1.0324751 -0.20314786 -0.62932014 -0.11379599 0.12668706 -0.41445693
-0.10397996 -0.029311394 -1.0471983 0.32062978 0.19156514 -0.020581663 -0.12812561 0.12908489
0.08171664 -0.03248537 0.321267 3.2495782 -0.11668354 0.15274052 0.3967767 -0.31170762
-0.14355263 0.065857515 -0.9683278 0.07502085 0.47913694 -0.27871463 -0.045437448 0.1954123
-0.24010207 0.4184184 -0.31143796 -0.4459196 -0.13576894 -0.012202408 -0.27680194 -0.089398645
-0.034155015 -0.45841244 0.31121582 0.5707576 -0.008666903 0.5660464 0.32370773 0.3261177
0.51114726 -0.60707164 0.74917144 0.5450049 -0.06847512 0.018726 0.20698772 0.025867553
0.2925756 0.14324471 0.2934615 -0.14149486 0.5584729 -0.45982546 -0.14841245 0.5662644
0.259013 -1.6583655 -0.05226817 -0.3772835 -0.1741184 -0.34107983 0.03311135 0.4093697
0.0051650275 0.18551093 0.32789877 -0.6274216 -0.082922556 0.1880719 0.13567664 0.6305595
0.06432614 -0.046429947 -0.5629353 -0.4909863 -0.55267435 0.023768615 0.46611276 0.56216526
-0.30482674 -0.04621369 0.6595338 -0.15578797 0.51011693 0.05858114 -0.008810934 0.00023511624
0.0757703 0.068319246 0.62011755 -0.3646874 -0.83489513 0.046302475 0.15866952 0.29790965
-0.015430314 -0.3545575 0.50348866 -0.40795037 -0.7094867 0.5191893 0.07334225 0.28963515
-0.15374115 -0.20763871 -0.14107445 -0.74557734 0.2942799 -0.118338175 0.41793033 0.02920194
-0.5486177 -0.61953163 -0.5152095 -0.21434206 -0.11694684 -0.31203148 0.17785145 -0.04782896

bias f4 [64]
00000000: 17d3 0ebe 0c0b 2a3f a521 873e d740 25be
00000010: a410 823e f8b4 d1be 0c82 593d ca1f 9cbe
00000020: 2832 103e 2f00 5b3e a61f 80be 85cc 143e
00000030: 0acf 773d 81af cc3e 9e84 bebe dc6b 613e
00000040: 36f8 413d aaee 223d a627 263e e42c 42bd
00000050: 88d1 583e 6f66 88be 2038 bebb 4583 01be
00000060: b1e1 f23d ef9d 86be 3696 673e 4a9d ba3d
00000070: ec98 bd3e f07a cd3e 68d2 79be 95cf a5be
00000080: 0a23 9839 1911 8a3e 9485 253e 4f8a 1e3d
00000090: 9321 083d a5a8 183e 2188 f8be c09e 48be
000000a0: d92f 03bc 769c 14be 995d a93e d8a4 73be
000000b0: f3da 533d 8c93 533e e94e 79be 6698 08bf
000000c0: 0d00 d8bd d03c e63c b07f 1fbe 63c9 d3be
000000d0: 63fc 223f 943b bd3e a44b 043f 65de e8bd
000000e0: ca34 b53e 1329 12bf 9701 1a3d deeb 163e
000000f0: f572 953d dda7 2f3d b264 4abe fb9c d13e
-0.13947712 0.66423106 0.26392856 -0.16138016 0.2540332 -0.4095838 0.053102538 -0.30493003
0.14081633 0.21386789 -0.25024146 0.14531143 0.060500182 0.3997765 -0.37210554 0.22013801
0.047355853 0.03977839 0.16226062 -0.047406092 0.2117368 -0.2664065 -0.0058050305 -0.12647732
0.118594535 -0.2629237 0.22615895 0.09112032 0.37030733 0.40132856 -0.2439667 -0.32384935
0.00029017805 0.2696617 0.16164237 0.03870612 0.033235144 0.14908083 -0.48541358 -0.19591808
-0.008007013 -0.1451281 0.33079222 -0.23793352 0.051722478 0.20661753 -0.24346508 -0.5335754
-0.10546885 0.02810517 -0.15576053 -0.41364583 0.6366636 0.36959517 0.5167792 -0.113705434
0.35391837 -0.57093924 0.037599172 0.14738414 0.07297317 0.042884696 -0.19764975 0.4094008

weight f4 [64, 64]
00000000: f8e8 053e c52b 47bf 6d0f b43d 9849 733e
00000010: 6e57 513e 4c0a de3e 5b28 a0bd 371a 923e
00000020: ef65 48be 296c 6f3d dcb7 113f 4b85 953e
00000030: c724 c73d aceb 11be 7e5c 9a3e 2c6a 263d
00000040: bfbc 893e 939d 4a3e 1af0 4e3f b29f 783e
00000050: d118 5dbe dce2 113f f180 723e 58e3 ad3e
00000060: cf94 643d c6cd 563e 3aec a23d 343d 25be
00000070: a751 173d 7b2b 5abd aa21 873e 8c01 f63e
00000080: 882c 5dbe 33a3 50be 32d8 ba3d 0c48 863e
00000090: 0990 903e cd3c 6ebe 71df e53e e92d f4bc
000000a0: d9ac 363d 4a67 f43d c5db bdbe 4da4 74bd
000000b0: e160 08be ce0b 073e 43c6 913b a27c 2d3f
000000c0: ac85 383e b17b 80bd aa31 623e fede 273f
000000d0: 7f9b 81bd 0065 183e 774b cbbd ec45 5fbe
000000e0: b881 bd3d 0496 0e3f c946 53be adad b4bd
000000f0: d8bc a63e 49ce 29be 3944 8c3e 28a8 3eba
00000100: a3c7 31bf b439 90bd 43b5 083f b33b 943d
00000110: 0fc0 48bd 5829 f1bd 7bd5 ae3e 83af 17bf
00000120: 1a8e b03c 241c 6a3e 0f79 33bd 567e 6dbe
00000130: 5915 20be 7c73 0f3e 84c4 85bf 66aa d5bd
00000140: 0bb8 193e dac4 6dbf 391d 94be 628e 75bf
00000150: 5f93 edbd e694 c1ba 9559 6abe 9170 1e3e
00000160: cfe5 e33e 4f08 243e dbfa bd3d e07a 143f
00000170: 1947 fd3c a221 5fbe 44c5 d33e 4a68 6bbe
00000180: 01bb 963c fbe5 ef3d 728a 53bf 9ae7 be3e
00000190: 8966 81bd 2c85 98bd 47c3 673e be19 acbe
000001a0: c0e2 e2bc d92b 92be 8860 783d 49df 2bbf
000001b0: f324 523e db78 4a3e 2dd1 50be 9d61 6ebe
000001c0: a4f6 1e3e 54f4 4ebd 7975 e8be 3a51 573e
000001d0: 6e17 ed3d 840a 133e 6526 af3d 28cf 8a3e
000001e0: c1c1 8c3b 485f 5bbe 28b9 8c3e 342a 793d
000001f0: 7e31 fc3e 89cd aabe 7fed 2e3e c852 753e
00000200: 4dfc 9fbe 91db 353e 609a 72bd 6cea 383e
00000210: 39f1 1bbe bcd0 d13c 606d 5cbe 7cb3 a83d
00000220: 05b5 8f3d 4925 99bd e77d 773b fd28 e43d
00000230: dbf2 343e 8b69 aa3d bfb7 b23e a985 b33e
00000240: f0f0 47be 3fc7 d13e 7e79 8abe d619 663d
00000250: 07d2 2d3e 0f50 263e 2f47 0dbb 505d cbbe
00000260: 1d66 8bbe ff73 87bc 68e5 9e3d 10dc 4dbe
00000270: 2b33 95bc b507 17be 968a 5b3e 2703 e83d
00000280: 0548 3dbd 78eb f23d ec82 db3e 41e2 253d
00000290: 17e8 813e e560 7b3e 3c04 15bf df2a f03e
000002a0: 47db bd3e 6947 123e e698 a63d 39f8 82be
000002b0: c979 07bf a059 f3be 648b 0b3d f034 113f
000002c0: b146 cd3e b3cd c6be 1c38 8dbe d323 a63e
000002d0: 6784 083d e750 87bd 3352 ae3e 5d5a d8bf
000002e0: caab 2b3e b757 e2bc 721e 433e d69d 883e
000002f0: 9bf9 25bf 9ceb 323e 7c4b 233e 24e7 853c
00000300: f59d 693e 0c2f d03c f5d5 5cbe 7513 b33e
00000310: 4de8 b93e 0f7a abbe 4ae1 bf3e 57d1 503e
00000320: 58d6 973d 7cd4 4c3d e87c 893c 7730 dbbe
00000330: 8c39 ab3b c423 95be e8ad 4d3c 1d98 dd3d
00000340: 13e2 013f 9d67 e33c caad 973f 712c b33a
00000350: f123 613d b383 9f3e 6948 d13d da9b a83e
00000360: 0b85 38be 4c6e b93e 7166 21be 1c59 083e
00000370: 9bac 483d e534 3ebe 08ce 373e 4bab 683d
00000380: 03fc e63e a380 84be 78fd f63d 2b5a ce3e
00000390: 43a5 a63d 24a1 943e beb9 053e 5c2e 423e
000003a0: 0d64 a43a 705c a13c d3bd fe3d 2b68 983e
000003b0: e0f0 48be 8e5b b93e 23c2 4e3e 39a4 30be
000003c0: 48ea ee3c 9366 803e 9027 f83d b1d7 1abe
000003d0: eaef 38be e4bc 5fbe a70b 313d 52aa 1b3f
000003e0: 4aef ddbe c76c 4abe f969 ad3e 263c 92bd
000003f0: 38a1 f53c fe2e bd3d 4215 e03e 5a0b a23d
0.13077152 -0.7780116 0.08792005 0.23758543 0.20443508 0.4336723 -0.07820197 0.28535625
-0.19570135 0.05845276 0.5692117 0.29203257 0.097238116 -0.14250058 0.3014869 0.040628597
0.26901814 0.19786672 0.80835116 0.24279669 -0.21591498 0.56986785 0.23682 0.33962512
0.055805977 0.20976934 0.07955213 -0.16136628 0.036943104 -0.053264122 0.2639287 0.48048055
-0.21599019 -0.20374756 0.09123267 0.26226842 0.2823489 -0.23265381 0.44897035 -0.029807048
0.044598434 0.11933763 -0.37081733 -0.059727002 -0.13318206 0.13188097 0.0044486835 0.677683
0.18019742 -0.06273592 0.22089258 0.65574634 -0.06328487 0.14882278 -0.09926503 -0.21804017
0.092532575 0.55697656 -0.20632471 -0.088221885 0.3256595 -0.16582598 0.273958 -0.0007272982
-0.69445246 -0.07042256 0.53401583 0.07237949 -0.049011286 -0.11775464 0.34147248 -0.59252185
0.021552134 0.22862297 -0.043816622 -0.23192725 -0.15633143 0.14008898 -1.0450597 -0.104328915
0.15011613 -0.92878497 -0.28928545 -0.95920384 -0.116003744 -0.0014769107 -0.22885735 0.15472628
0.44511268 0.16018794 0.092763625 0.5799999 0.030917691 -0.21790174 0.4136144 -0.22989002
0.018399717 0.11713787 -0.82633126 0.37286073 -0.06318385 -0.074472755 0.22633086 -0.3361339
-0.027696013 -0.28549078 0.060638934 -0.6713758 0.20521908 0.19772665 -0.20392294 -0.23279424
0.15523773 -0.05052598 -0.45402125 0.21027079 0.115767345 0.1435948 0.08552245 0.27111173
0.004295558 -0.21423066 0.27485013 0.060831264 0.4925651 -0.33359936 0.17082785 0.2395736
-0.31247178 0.17759539 -0.059229255 0.18058175 -0.15228738 0.025612228 -0.21526098 0.08237359
0.070169486 -0.07477815 0.0037764253 0.111406304 0.17670767 0.08320912 0.34905812 0.35062912
-0.19525504 0.40972325 -0.27045816 0.056176983 0.1697465 0.16241477 -0.0021557321 -0.3971963
-0.27226344 -0.016534803 0.077585995 -0.20103478 -0.018212875 -0.14749034 0.21439585 0.11328726
-0.04621126 0.11861318 0.42873323 0.040498976 0.25372383 0.24548681 -0.58209586 0.46907708
0.37081358 0.14285053 0.08134632 -0.25580004 -0.52920204 -0.47529316 0.03406848 0.567214
0.40092996 -0.3882881 -0.2758187 0.32449207 0.033329394 -0.06607228 0.34047088 -1.6902577
0.16764751 -0.027629716 0.19054583 0.2668292 -0.6483399 0.1747269 0.15946764 0.016345568
0.22814162 0.025413059 -0.21565993 0.34975782 0.36310044 -0.3349156 0.3747657 0.20392357
0.0741393 0.05000733 0.016783193 -0.42810413 0.005225366 -0.2912885 0.0125536695 0.10820029
0.50735587 0.027759368 1.1849911 0.0013669861 0.054965917 0.31155166 0.10218889 0.32931405
-0.18019502 0.36216962 -0.15761735 0.13315243 0.048992734 -0.18574865 0.17949688 0.056803983
0.45114145 -0.25879392 0.12060064 0.40303168 0.0813699 0.2902919 0.13059136 0.18962997
0.0012542024 0.019697398 0.1243855 0.29766974 -0.19623137 0.36202663 0.20191245 -0.17250146
0.029164448 0.25078258 0.12116921 -0.15121342 -0.1806027 -0.218494 0.043224003 0.60806763
-0.43346626 -0.19768058 0.33869913 -0.07140379 0.029984102 0.09237479 0.43766218 0.079123214

bias f4 [64]
00000000: da63 73be 5c7b 173e f538 a13d 0f47 67be
00000010: 45d6 f1bd ae1e be3e c480 cabd 03a5 153d
00000020: 04e0 523e 14ec fdbc 3666 453e b83e a0bd
00000030: a606 da3d 5e34 063d 35d9 30bd 638b 7abd
00000040: 47ec 153d 755f 803d e0b6 dcbd 8d33 85be
00000050: e04e 88bd 3a29 d5bc 556b 9a3e a0a1 b5bd
00000060: b5a5 9cbc 089e a33b b92e 53bc d3e6 01be
00000070: 78ef f7bd dd79 973d 096c 4cbc ea55 c7bd
00000080: f5ef 9d3d 8c41 16be 8c8b ecbd e1ea cdbd
00000090: 9a25 05bd 97ec a53d 247b a8bc 8fd1 0abe
000000a0: cd73 c13d d248 8e3e 75c7 a53d 39a0 cdbc
000000b0: 2d6d 673e a180 423e b8b7 483d bad4 f23d
000000c0: 8ede 2fbe c386 aa3d 74f2 a93c a235 9f3d
000000d0: 49f9 603d bb09 5dbe a0c0 5fbd 97c0 6e3e
000000e0: d3e4 a23e a9e5 2c3e 6bd8 823c d01d f13d
000000f0: df75 dabd ffa5 223e b7fd 88bd d2b4 353e
-0.23768559 0.14793152 0.07872192 -0.225857 -0.11808447 0.37132782 -0.09887841 0.03653432
0.20593268 -0.03099636 0.19277272 -0.07824463 0.10645799 0.032764785 -0.043175895 -0.061168086
0.036602285 0.06268207 -0.10777068 -0.26015893 -0.06655669 -0.026020635 0.30160013 -0.08868718
-0.019121984 0.004993204 -0.0128895575 -0.12685709 -0.12106222 0.073962905 -0.012476929 -0.09733184
0.07711784 -0.14673442 -0.11550054 -0.10054565 -0.032506563 0.081017666 -0.02056653 -0.13556503
0.09445915 0.27789932 0.08094684 -0.025100814 0.22600241 0.1899438 0.049003333 0.118569806
-0.17174742 0.08326485 0.020745493 0.077739015 0.054925237 -0.21585743 -0.05462706 0.23315655
0.31815204 0.16884483 0.015972337 0.117732644 -0.106670134 0.15883635 -0.06689017 0.17744759

weight f4 [4, 64]
00000000: c65a b0be 7ac1 5d3e 472d dabe 2b82 7c3f
00000010: 152d 02bf a225 a33e 333e 7fbe 4f35 a7be
00000020: 7aeb 9bbf 3ecb 49be 04df 203f e152 55be
00000030: 51b9 e7be 43d1 f5be b91d 1ebe a30b 54bc
00000040: fe17 67be 7663 eebd d0cf d6be d088 aabe
00000050: f509 d1be 82c8 dfbd d9d7 563e 65fa 343e
00000060: 80d8 debe f40b 1f3f 8ab4 e6be 44e6 cfbd
00000070: 51c2 a63d fa0c 14bf 98fb dbbe 80cc dd3c
00000080: db24 e5be 78e6 97be d0b1 d8bd 3093 b4be
00000090: 8056 febe e657 e4be 0ed3 b8be a588 a1be
000000a0: 26b6 3f3e b302 233f 6541 1c3f 4776 d1be
000000b0: 1e55 913d bd64 bcbe cd35 98be 4ddb f33c
000000c0: 6f0c edbe 99cd b3be e0b9 073e dbe3 14be
000000d0: 2684 bfbd 383f eabe 5b9d a9be a853 6bbd
000000e0: c602 d53e 879f fdbe 74e9 f83d fd9e 66bd
000000f0: ef60 52be 4293 3e3e 5d38 f8be a7f9 7abd
00000100: 70e9 fabe ba98 773e 3ac5 fbbe 7fb3 ff3e
00000110: 7a1a aabe f617 6c3e 61d7 2fbe f665 ccbe
00000120: 90ec 56bf da64 3dbf 61e6 f23e 49ac 89bd
00000130: 39fb f0be 3606 8fbe 644b 25be 1ce9 27bd
00000140: 4d19 31bd 3498 bf3d a56c 46be 2bc4 f5be
00000150: dbfd 66bd bccc ed3d 577c a93d 00fa ed3e
00000160: 5f5e febe c2e1 973e 537b 10bf d460 38be
00000170: e609 d1bc 7c5b 96be 293e ffbe 3f94 b4bd
00000180: 5b5a 88be fa49 ffbe 8f72 363c 1927 683e
00000190: d4b1 01bf 0c61 d3be c093 c3be b918 86be
000001a0: 0d84 f93d 84b9 2c3f 8b39 1d3f 7220 583d
000001b0: 03a4 a6bd f6ab 83be 8fd9 8cbe 26d5 a6be
000001c0: 7ef8 f3be 2ba1 7bbd ceef b6bd eda0 84bf
000001d0: 007c 3bbd 7b31 95be ef81 debe 24cf 2d3d
000001e0: 9e54 483f 7e63 46bf d948 233e 8419 013e
000001f0: 4d6a 10be 10b2 953e 22b2 83be e14f a0be
00000200: 5148 2abf 86b7 4e3f d3b6 35bf c46a 353f
00000210: 9a34 18bf 3104 073f a093 dabe 589e dabe
00000220: 9d4d b9be fdad 84be eaee c83d 639d efbe
00000230: 5661 4bbf d119 d0be ffca 25bf 4ead 3ebf
00000240: 4ee0 29bf b48b ce3d 5c02 02bf fb64 39bf
00000250: 884e 1ebf 7dd0 d1bb afe9 f23e 3de3 f2be
00000260: da85 d7be e6e3 043f 613c 47be fa74 0a3f
00000270: 03fd 043d 1793 2b3f 7523 3cbf 3056 ed3c
00000280: d882 20bf 6c37 69bf cc05 12bf e550 63bf
00000290: d007 dfbe e773 edbe 2804 bebe 379c 5fbf
000002a0: de81 753f 2ec9 3e3f b987 a0bd a9c7 02be
000002b0: e08b 073f 2dcd 76bf 114c d0be dfd2 273f
000002c0: 22c5 46bf 4a52 603e 3fb3 283f 1e7d b23e
000002d0: b792 5c3f 7174 33bf 1638 36bf 7ef1 4dbf
000002e0: b559 1dbe 462f ab3e 4101 743f 9831 253f
000002f0: 80bf 1dbf 81c9 1b3f 0032 93be 61a3 8f3e
00000300: d945 dabe f635 75be 173b 4f3e 8597 203e
00000310: 1619 b3be 725e b33e 925f debe fa4a dbbe
00000320: 1604 c0bf 1268 17bf 08be 2f3f 891d cbbe
00000330: ab74 00bc cbaf 19be 4a23 56be a4c6 58be
00000340: 7d06 1abe 1639 fdb9 f146 8cbe cb03 0abf
00000350: e3d5 9bbc 8406 a33d abc5 ac3e 5a32 283c
00000360: c7cb babe aca7 183f 8572 cbbe b27f abbe
00000370: a25d b83d c63f 12bd 1e85 d9be f075 fdbc
00000380: c7ff 4ebd 25bb 63be 6191 cabe b899 c1be
00000390: 72d6 eebe 66c4 0abe 8e33 13bf be05 dfbe
000003a0: 6b91 3bbe 5462 183f f768 0b3f 0591 09bf
000003b0: 70b9 0e3e f8e8 ec3c d64d 25be 94ae 8fbe
000003c0: 7121 c3be e22b 21bf bed0 b23d cd19 16bf
000003d0: 89d4 8cbe 63a5 dcbe 9b6b 39be 1e76 7a3e
000003e0: 6baf a33e c09f 37bf 6215 2d3e 13dc 0cbe
000003f0: 4827 a7be d2e3 a23e 75be 9ebe 3c27 1dbf
-0.34444255 0.21655837 -0.4261267 0.9863612 -0.5085004 0.3186465 -0.24926071 -0.3265786
-1.2181237 -0.19706437 0.62840295 -0.20832397 -0.45258573 -0.48011217 -0.15441026 -0.012942228
-0.22567746 -0.116400644 -0.41955423 -0.33307505 -0.4082791 -0.10926916 0.20980777 0.17673643
-0.4352455 0.62127614 -0.45059615 -0.101513416 0.08142532 -0.578323 -0.42965388 0.027075052
-0.4475468 -0.2966802 -0.1058079 -0.35268545 -0.4967537 -0.4459831 -0.36098522 -0.31549564
0.18721828 0.63675994 0.61037284 -0.4091055 0.07096313 -0.36795607 -0.29728547 0.029767657
-0.4629855 -0.35117796 0.132545 -0.14540045 -0.09351377 -0.45751357 -0.33127865 -0.057452828
0.41603678 -0.49535772 0.12153903 -0.056303967 -0.2054479 0.18610862 -0.48480502 -0.061273243
-0.49006224 0.24179354 -0.4917391 0.49941632 -0.33223325 0.23056015 -0.17172004 -0.3992154
-0.83954716 -0.7398201 0.4744139 -0.06722314 -0.47066668 -0.27934426 -0.1614204 -0.040993795
-0.04323702 0.09355202 -0.19377382 -0.48001227 -0.05639444 0.116113156 0.08275669 0.46479797
-0.49681374 0.29664427 -0.5643818 -0.18005687 -0.025517415 -0.29366672 -0.49852112 -0.08817338
-0.26631436 -0.49861127 0.011135711 0.22671165 -0.5066197 -0.41284978 -0.38198662 -0.26190737
0.1218339 0.67470574 0.6141593 0.052765317 -0.081367515 -0.25717133 -0.27509734 -0.32584494
-0.47650522 -0.061433 -0.08932458 -1.0361611 -0.045772552 -0.29139313 -0.43458506 0.042433873
0.78254116 -0.77495563 0.15945758 0.1260739 -0.1410305 0.29237413 -0.25721842 -0.31310943
-0.66516596 0.80748785 -0.7098209 0.70866036 -0.59455264 0.5274077 -0.42690754 -0.42698932
-0.36192027 -0.25913993 0.09811194 -0.46799764 -0.794454 -0.40644696 -0.6476287 -0.7448319
-0.66357887 0.1008524 -0.5078485 -0.7241971 -0.6183858 -0.0064030276 0.4744391 -0.47438994
-0.42094308 0.51910245 -0.19456626 0.5408474 0.032467853 0.67021316 -0.73491603 0.028971761
-0.6269965 -0.9110019 -0.57040095 -0.8879531 -0.43560648 -0.4637749 -0.37112546 -0.8734774
0.95901287 0.74525726 -0.07838387 -0.12771477 0.5294781 -0.96406823 -0.40683034 0.6555614
-0.7764455 0.21906391 0.6589851 0.34861082 0.8616137 -0.7009955 -0.7117933 -0.8044661
-0.15366252 0.33434504 0.95314413 0.645288 -0.6162033 0.60854346 -0.28749084 0.28054336
-0.42631415 -0.23946366 0.20237385 0.156828 -0.34980077 0.35032994 -0.4343229 -0.4283064
-1.5001247 -0.59143174 0.6864934 -0.3967097 -0.007840316 -0.15008466 -0.20911899 -0.21169525
-0.15041538 -0.00048298453 -0.27397874 -0.5391204 -0.019022888 0.07960227 0.3374456 0.010265911
-0.36483595 0.59630847 -0.3973581 -0.3349586 0.09002234 -0.03570535 -0.42484373 -0.030940026
-0.050536897 -0.22239359 -0.3956404 -0.3781259 -0.46647984 -0.13551483 -0.5750054 -0.43559068
-0.18317191 0.59525037 0.5445704 -0.5373691 0.13937926 0.028919682 -0.16142973 -0.2806288
-0.3811145 -0.62957585 0.08731221 -0.5863312 -0.275059 -0.4309493 -0.18107454 0.2445912
0.3196977 -0.71728134 0.16902688 -0.13755827 -0.32647157 0.31814438 -0.31004682 -0.6138799

bias f4 [4]
00000000: e0d7 1a3e e4b8 b53d faa8 c93c acb9 483e
0.15121412 0.08873156 0.024616707 0.19602078
